<?xml version="1.0" ?>
<net name="torch-jit-export" version="11">
	<layers>
		<layer id="9" name="input" type="Parameter" version="opset1">
			<data shape="1,3,224,224" element_type="f32"/>
			<rt_info>
				<attribute name="fused_names" version="0" value="input"/>
			</rt_info>
			<output>
				<port id="0" precision="FP32" names="input">
					<dim>1</dim>
					<dim>3</dim>
					<dim>224</dim>
					<dim>224</dim>
					<rt_info/>
				</port>
			</output>
		</layer>
		<layer id="0" name="7677768130165" type="Const" version="opset1">
			<data offset="0" size="4" shape="" element_type="f32"/>
			<output>
				<port id="0" precision="FP32"/>
			</output>
		</layer>
		<layer id="1" name="7678768228314" type="Const" version="opset1">
			<data offset="0" size="4" shape="" element_type="f32"/>
			<output>
				<port id="0" precision="FP32"/>
			</output>
		</layer>
		<layer id="2" name="7679768328074" type="Const" version="opset1">
			<data offset="0" size="4" shape="" element_type="f32"/>
			<output>
				<port id="0" precision="FP32"/>
			</output>
		</layer>
		<layer id="3" name="7680768429394" type="Const" version="opset1">
			<data offset="0" size="4" shape="" element_type="f32"/>
			<output>
				<port id="0" precision="FP32"/>
			</output>
		</layer>
		<layer id="4" name="1834183627381" type="Const" version="opset1">
			<data offset="4" size="256" shape="1,64,1,1" element_type="f32"/>
			<output>
				<port id="0" precision="FP32">
					<dim>1</dim>
					<dim>64</dim>
					<dim>1</dim>
					<dim>1</dim>
				</port>
			</output>
		</layer>
		<layer id="5" name="4943494730063" type="Const" version="opset1">
			<data offset="0" size="4" shape="" element_type="f32"/>
			<output>
				<port id="0" precision="FP32"/>
			</output>
		</layer>
		<layer id="6" name="4944494829127" type="Const" version="opset1">
			<data offset="0" size="4" shape="" element_type="f32"/>
			<output>
				<port id="0" precision="FP32"/>
			</output>
		</layer>
		<layer id="7" name="4945494928212" type="Const" version="opset1">
			<data offset="0" size="4" shape="" element_type="f32"/>
			<output>
				<port id="0" precision="FP32"/>
			</output>
		</layer>
		<layer id="8" name="4946495027198" type="Const" version="opset1">
			<data offset="0" size="4" shape="" element_type="f32"/>
			<output>
				<port id="0" precision="FP32"/>
			</output>
		</layer>
		<layer id="10" name="Conv_0/WithoutBiases/fq_input_0" type="FakeQuantize" version="opset1">
			<data levels="0" auto_broadcast="numpy"/>
			<input>
				<port id="0">
					<dim>1</dim>
					<dim>3</dim>
					<dim>224</dim>
					<dim>224</dim>
				</port>
				<port id="1"/>
				<port id="2"/>
				<port id="3"/>
				<port id="4"/>
			</input>
			<output>
				<port id="5" precision="FP32">
					<dim>1</dim>
					<dim>3</dim>
					<dim>224</dim>
					<dim>224</dim>
				</port>
			</output>
		</layer>
		<layer id="11" name="4953495730243" type="Const" version="opset1">
			<data offset="0" size="4" shape="" element_type="f32"/>
			<output>
				<port id="0" precision="FP32"/>
			</output>
		</layer>
		<layer id="12" name="4954495827486" type="Const" version="opset1">
			<data offset="0" size="4" shape="" element_type="f32"/>
			<output>
				<port id="0" precision="FP32"/>
			</output>
		</layer>
		<layer id="13" name="4955495928305" type="Const" version="opset1">
			<data offset="0" size="4" shape="" element_type="f32"/>
			<output>
				<port id="0" precision="FP32"/>
			</output>
		</layer>
		<layer id="14" name="4956496028830" type="Const" version="opset1">
			<data offset="0" size="4" shape="" element_type="f32"/>
			<output>
				<port id="0" precision="FP32"/>
			</output>
		</layer>
		<layer id="15" name="115767427030" type="Const" version="opset1">
			<data offset="260" size="37632" shape="64,3,7,7" element_type="f32"/>
			<rt_info>
				<attribute name="fused_names" version="0" value="1157"/>
			</rt_info>
			<output>
				<port id="0" precision="FP32" names="1157">
					<dim>64</dim>
					<dim>3</dim>
					<dim>7</dim>
					<dim>7</dim>
				</port>
			</output>
		</layer>
		<layer id="16" name="Conv_0/WithoutBiases/fq_weights_1" type="FakeQuantize" version="opset1">
			<data levels="0" auto_broadcast="numpy"/>
			<input>
				<port id="0">
					<dim>64</dim>
					<dim>3</dim>
					<dim>7</dim>
					<dim>7</dim>
				</port>
				<port id="1"/>
				<port id="2"/>
				<port id="3"/>
				<port id="4"/>
			</input>
			<output>
				<port id="5" precision="FP32">
					<dim>64</dim>
					<dim>3</dim>
					<dim>7</dim>
					<dim>7</dim>
				</port>
			</output>
		</layer>
		<layer id="17" name="Conv_0/WithoutBiases" type="Convolution" version="opset1">
			<data auto_pad="explicit" strides="2,2" dilations="1,1" pads_begin="3,3" pads_end="3,3"/>
			<rt_info>
				<attribute name="fused_names" version="0" value="Concat_447, Conv_0, Conv_0/WithoutBiases, Reshape_448"/>
			</rt_info>
			<input>
				<port id="0">
					<dim>1</dim>
					<dim>3</dim>
					<dim>224</dim>
					<dim>224</dim>
				</port>
				<port id="1">
					<dim>64</dim>
					<dim>3</dim>
					<dim>7</dim>
					<dim>7</dim>
				</port>
			</input>
			<output>
				<port id="2" precision="FP32" names="1156">
					<dim>1</dim>
					<dim>64</dim>
					<dim>112</dim>
					<dim>112</dim>
				</port>
			</output>
		</layer>
		<layer id="18" name="Conv_0/WithoutBiases/add_" type="Add" version="opset1">
			<data auto_broadcast="numpy"/>
			<input>
				<port id="0">
					<dim>1</dim>
					<dim>64</dim>
					<dim>112</dim>
					<dim>112</dim>
				</port>
				<port id="1">
					<dim>1</dim>
					<dim>64</dim>
					<dim>1</dim>
					<dim>1</dim>
				</port>
			</input>
			<output>
				<port id="2" precision="FP32">
					<dim>1</dim>
					<dim>64</dim>
					<dim>112</dim>
					<dim>112</dim>
				</port>
			</output>
		</layer>
		<layer id="19" name="Relu_1" type="ReLU" version="opset1">
			<rt_info>
				<attribute name="fused_names" version="0" value="Relu_1"/>
			</rt_info>
			<input>
				<port id="0">
					<dim>1</dim>
					<dim>64</dim>
					<dim>112</dim>
					<dim>112</dim>
				</port>
			</input>
			<output>
				<port id="1" precision="FP32" names="728">
					<dim>1</dim>
					<dim>64</dim>
					<dim>112</dim>
					<dim>112</dim>
				</port>
			</output>
		</layer>
		<layer id="20" name="MaxPool_2/fq_input_0" type="FakeQuantize" version="opset1">
			<data levels="0" auto_broadcast="numpy"/>
			<input>
				<port id="0">
					<dim>1</dim>
					<dim>64</dim>
					<dim>112</dim>
					<dim>112</dim>
				</port>
				<port id="1"/>
				<port id="2"/>
				<port id="3"/>
				<port id="4"/>
			</input>
			<output>
				<port id="5" precision="FP32">
					<dim>1</dim>
					<dim>64</dim>
					<dim>112</dim>
					<dim>112</dim>
				</port>
			</output>
		</layer>
		<layer id="21" name="MaxPool_2" type="MaxPool" version="opset8">
			<data strides="2,2" kernel="3,3" pads_begin="1,1" pads_end="1,1" rounding_type="floor" auto_pad="explicit" dilations="1,1" axis="0" index_element_type="i64"/>
			<rt_info>
				<attribute name="fused_names" version="0" value="Concat_3, MaxPool_2"/>
			</rt_info>
			<input>
				<port id="0">
					<dim>1</dim>
					<dim>64</dim>
					<dim>112</dim>
					<dim>112</dim>
				</port>
			</input>
			<output>
				<port id="1" precision="FP32" names="729,730">
					<dim>1</dim>
					<dim>64</dim>
					<dim>56</dim>
					<dim>56</dim>
				</port>
				<port id="2" precision="FP32">
					<dim>1</dim>
					<dim>64</dim>
					<dim>56</dim>
					<dim>56</dim>
					<rt_info/>
				</port>
			</output>
		</layer>
		<layer id="23" name="Constant_14846134031491" type="Const" version="opset1">
			<data offset="37892" size="4096" shape="1,1024,1,1" element_type="f32"/>
			<rt_info>
				<attribute name="fused_names" version="0" value="11.bias, 11.running_mean, 11.running_var, 11.weight, BatchNormalization_370"/>
			</rt_info>
			<output>
				<port id="0" precision="FP32">
					<dim>1</dim>
					<dim>1024</dim>
					<dim>1</dim>
					<dim>1</dim>
				</port>
			</output>
		</layer>
		<layer id="24" name="136671367128467" type="Const" version="opset1">
			<data offset="0" size="4" shape="" element_type="f32"/>
			<output>
				<port id="0" precision="FP32"/>
			</output>
		</layer>
		<layer id="25" name="136681367229649" type="Const" version="opset1">
			<data offset="0" size="4" shape="" element_type="f32"/>
			<output>
				<port id="0" precision="FP32"/>
			</output>
		</layer>
		<layer id="26" name="136691367328737" type="Const" version="opset1">
			<data offset="0" size="4" shape="" element_type="f32"/>
			<output>
				<port id="0" precision="FP32"/>
			</output>
		</layer>
		<layer id="27" name="136701367429319" type="Const" version="opset1">
			<data offset="0" size="4" shape="" element_type="f32"/>
			<output>
				<port id="0" precision="FP32"/>
			</output>
		</layer>
		<layer id="28" name="2310231228353" type="Const" version="opset1">
			<data offset="41988" size="128" shape="1,32,1,1" element_type="f32"/>
			<output>
				<port id="0" precision="FP32">
					<dim>1</dim>
					<dim>32</dim>
					<dim>1</dim>
					<dim>1</dim>
				</port>
			</output>
		</layer>
		<layer id="29" name="5373537730507" type="Const" version="opset1">
			<data offset="0" size="4" shape="" element_type="f32"/>
			<output>
				<port id="0" precision="FP32"/>
			</output>
		</layer>
		<layer id="30" name="5374537829883" type="Const" version="opset1">
			<data offset="0" size="4" shape="" element_type="f32"/>
			<output>
				<port id="0" precision="FP32"/>
			</output>
		</layer>
		<layer id="31" name="5375537928029" type="Const" version="opset1">
			<data offset="0" size="4" shape="" element_type="f32"/>
			<output>
				<port id="0" precision="FP32"/>
			</output>
		</layer>
		<layer id="32" name="5376538027891" type="Const" version="opset1">
			<data offset="0" size="4" shape="" element_type="f32"/>
			<output>
				<port id="0" precision="FP32"/>
			</output>
		</layer>
		<layer id="33" name="2306230829976" type="Const" version="opset1">
			<data offset="42116" size="512" shape="1,128,1,1" element_type="f32"/>
			<output>
				<port id="0" precision="FP32">
					<dim>1</dim>
					<dim>128</dim>
					<dim>1</dim>
					<dim>1</dim>
				</port>
			</output>
		</layer>
		<layer id="34" name="5143514729439" type="Const" version="opset1">
			<data offset="0" size="4" shape="" element_type="f32"/>
			<output>
				<port id="0" precision="FP32"/>
			</output>
		</layer>
		<layer id="35" name="5144514827540" type="Const" version="opset1">
			<data offset="0" size="4" shape="" element_type="f32"/>
			<output>
				<port id="0" precision="FP32"/>
			</output>
		</layer>
		<layer id="36" name="5145514928086" type="Const" version="opset1">
			<data offset="0" size="4" shape="" element_type="f32"/>
			<output>
				<port id="0" precision="FP32"/>
			</output>
		</layer>
		<layer id="37" name="5146515027063" type="Const" version="opset1">
			<data offset="0" size="4" shape="" element_type="f32"/>
			<output>
				<port id="0" precision="FP32"/>
			</output>
		</layer>
		<layer id="38" name="Constant_14720132931581" type="Const" version="opset1">
			<data offset="42628" size="3968" shape="1,992,1,1" element_type="f32"/>
			<rt_info>
				<attribute name="fused_names" version="0" value="10.denselayer16.norm1.bias, 10.denselayer16.norm1.running_mean, 10.denselayer16.norm1.running_var, 10.denselayer16.norm1.weight, BatchNormalization_364"/>
			</rt_info>
			<output>
				<port id="0" precision="FP32">
					<dim>1</dim>
					<dim>992</dim>
					<dim>1</dim>
					<dim>1</dim>
				</port>
			</output>
		</layer>
		<layer id="39" name="134971350128485" type="Const" version="opset1">
			<data offset="0" size="4" shape="" element_type="f32"/>
			<output>
				<port id="0" precision="FP32"/>
			</output>
		</layer>
		<layer id="40" name="134981350230975" type="Const" version="opset1">
			<data offset="0" size="4" shape="" element_type="f32"/>
			<output>
				<port id="0" precision="FP32"/>
			</output>
		</layer>
		<layer id="41" name="134991350330162" type="Const" version="opset1">
			<data offset="0" size="4" shape="" element_type="f32"/>
			<output>
				<port id="0" precision="FP32"/>
			</output>
		</layer>
		<layer id="42" name="135001350431071" type="Const" version="opset1">
			<data offset="0" size="4" shape="" element_type="f32"/>
			<output>
				<port id="0" precision="FP32"/>
			</output>
		</layer>
		<layer id="43" name="2302230428299" type="Const" version="opset1">
			<data offset="41988" size="128" shape="1,32,1,1" element_type="f32"/>
			<output>
				<port id="0" precision="FP32">
					<dim>1</dim>
					<dim>32</dim>
					<dim>1</dim>
					<dim>1</dim>
				</port>
			</output>
		</layer>
		<layer id="44" name="4373437731479" type="Const" version="opset1">
			<data offset="0" size="4" shape="" element_type="f32"/>
			<output>
				<port id="0" precision="FP32"/>
			</output>
		</layer>
		<layer id="45" name="4374437831602" type="Const" version="opset1">
			<data offset="0" size="4" shape="" element_type="f32"/>
			<output>
				<port id="0" precision="FP32"/>
			</output>
		</layer>
		<layer id="46" name="4375437927837" type="Const" version="opset1">
			<data offset="0" size="4" shape="" element_type="f32"/>
			<output>
				<port id="0" precision="FP32"/>
			</output>
		</layer>
		<layer id="47" name="4376438028248" type="Const" version="opset1">
			<data offset="0" size="4" shape="" element_type="f32"/>
			<output>
				<port id="0" precision="FP32"/>
			</output>
		</layer>
		<layer id="48" name="2298230030351" type="Const" version="opset1">
			<data offset="42116" size="512" shape="1,128,1,1" element_type="f32"/>
			<output>
				<port id="0" precision="FP32">
					<dim>1</dim>
					<dim>128</dim>
					<dim>1</dim>
					<dim>1</dim>
				</port>
			</output>
		</layer>
		<layer id="49" name="4263426731533" type="Const" version="opset1">
			<data offset="0" size="4" shape="" element_type="f32"/>
			<output>
				<port id="0" precision="FP32"/>
			</output>
		</layer>
		<layer id="50" name="4264426828914" type="Const" version="opset1">
			<data offset="0" size="4" shape="" element_type="f32"/>
			<output>
				<port id="0" precision="FP32"/>
			</output>
		</layer>
		<layer id="51" name="4265426931314" type="Const" version="opset1">
			<data offset="0" size="4" shape="" element_type="f32"/>
			<output>
				<port id="0" precision="FP32"/>
			</output>
		</layer>
		<layer id="52" name="4266427028230" type="Const" version="opset1">
			<data offset="0" size="4" shape="" element_type="f32"/>
			<output>
				<port id="0" precision="FP32"/>
			</output>
		</layer>
		<layer id="53" name="Constant_14594131831620" type="Const" version="opset1">
			<data offset="46596" size="3840" shape="1,960,1,1" element_type="f32"/>
			<rt_info>
				<attribute name="fused_names" version="0" value="10.denselayer15.norm1.bias, 10.denselayer15.norm1.running_mean, 10.denselayer15.norm1.running_var, 10.denselayer15.norm1.weight, BatchNormalization_358"/>
			</rt_info>
			<output>
				<port id="0" precision="FP32">
					<dim>1</dim>
					<dim>960</dim>
					<dim>1</dim>
					<dim>1</dim>
				</port>
			</output>
		</layer>
		<layer id="54" name="133371334129616" type="Const" version="opset1">
			<data offset="0" size="4" shape="" element_type="f32"/>
			<output>
				<port id="0" precision="FP32"/>
			</output>
		</layer>
		<layer id="55" name="133381334228719" type="Const" version="opset1">
			<data offset="0" size="4" shape="" element_type="f32"/>
			<output>
				<port id="0" precision="FP32"/>
			</output>
		</layer>
		<layer id="56" name="133391334331500" type="Const" version="opset1">
			<data offset="0" size="4" shape="" element_type="f32"/>
			<output>
				<port id="0" precision="FP32"/>
			</output>
		</layer>
		<layer id="57" name="133401334430735" type="Const" version="opset1">
			<data offset="0" size="4" shape="" element_type="f32"/>
			<output>
				<port id="0" precision="FP32"/>
			</output>
		</layer>
		<layer id="58" name="2294229630660" type="Const" version="opset1">
			<data offset="41988" size="128" shape="1,32,1,1" element_type="f32"/>
			<output>
				<port id="0" precision="FP32">
					<dim>1</dim>
					<dim>32</dim>
					<dim>1</dim>
					<dim>1</dim>
				</port>
			</output>
		</layer>
		<layer id="59" name="4343434728815" type="Const" version="opset1">
			<data offset="0" size="4" shape="" element_type="f32"/>
			<output>
				<port id="0" precision="FP32"/>
			</output>
		</layer>
		<layer id="60" name="4344434828578" type="Const" version="opset1">
			<data offset="0" size="4" shape="" element_type="f32"/>
			<output>
				<port id="0" precision="FP32"/>
			</output>
		</layer>
		<layer id="61" name="4345434931338" type="Const" version="opset1">
			<data offset="0" size="4" shape="" element_type="f32"/>
			<output>
				<port id="0" precision="FP32"/>
			</output>
		</layer>
		<layer id="62" name="4346435029214" type="Const" version="opset1">
			<data offset="0" size="4" shape="" element_type="f32"/>
			<output>
				<port id="0" precision="FP32"/>
			</output>
		</layer>
		<layer id="63" name="2290229228560" type="Const" version="opset1">
			<data offset="42116" size="512" shape="1,128,1,1" element_type="f32"/>
			<output>
				<port id="0" precision="FP32">
					<dim>1</dim>
					<dim>128</dim>
					<dim>1</dim>
					<dim>1</dim>
				</port>
			</output>
		</layer>
		<layer id="64" name="4053405731188" type="Const" version="opset1">
			<data offset="0" size="4" shape="" element_type="f32"/>
			<output>
				<port id="0" precision="FP32"/>
			</output>
		</layer>
		<layer id="65" name="4054405831272" type="Const" version="opset1">
			<data offset="0" size="4" shape="" element_type="f32"/>
			<output>
				<port id="0" precision="FP32"/>
			</output>
		</layer>
		<layer id="66" name="4055405928557" type="Const" version="opset1">
			<data offset="0" size="4" shape="" element_type="f32"/>
			<output>
				<port id="0" precision="FP32"/>
			</output>
		</layer>
		<layer id="67" name="4056406030489" type="Const" version="opset1">
			<data offset="0" size="4" shape="" element_type="f32"/>
			<output>
				<port id="0" precision="FP32"/>
			</output>
		</layer>
		<layer id="68" name="Constant_14468130728140" type="Const" version="opset1">
			<data offset="50436" size="3712" shape="1,928,1,1" element_type="f32"/>
			<rt_info>
				<attribute name="fused_names" version="0" value="10.denselayer14.norm1.bias, 10.denselayer14.norm1.running_mean, 10.denselayer14.norm1.running_var, 10.denselayer14.norm1.weight, BatchNormalization_352"/>
			</rt_info>
			<output>
				<port id="0" precision="FP32">
					<dim>1</dim>
					<dim>928</dim>
					<dim>1</dim>
					<dim>1</dim>
				</port>
			</output>
		</layer>
		<layer id="69" name="131871319127885" type="Const" version="opset1">
			<data offset="0" size="4" shape="" element_type="f32"/>
			<output>
				<port id="0" precision="FP32"/>
			</output>
		</layer>
		<layer id="70" name="131881319231044" type="Const" version="opset1">
			<data offset="0" size="4" shape="" element_type="f32"/>
			<output>
				<port id="0" precision="FP32"/>
			</output>
		</layer>
		<layer id="71" name="131891319328446" type="Const" version="opset1">
			<data offset="0" size="4" shape="" element_type="f32"/>
			<output>
				<port id="0" precision="FP32"/>
			</output>
		</layer>
		<layer id="72" name="131901319429418" type="Const" version="opset1">
			<data offset="0" size="4" shape="" element_type="f32"/>
			<output>
				<port id="0" precision="FP32"/>
			</output>
		</layer>
		<layer id="73" name="2286228829940" type="Const" version="opset1">
			<data offset="41988" size="128" shape="1,32,1,1" element_type="f32"/>
			<output>
				<port id="0" precision="FP32">
					<dim>1</dim>
					<dim>32</dim>
					<dim>1</dim>
					<dim>1</dim>
				</port>
			</output>
		</layer>
		<layer id="74" name="5923592730108" type="Const" version="opset1">
			<data offset="0" size="4" shape="" element_type="f32"/>
			<output>
				<port id="0" precision="FP32"/>
			</output>
		</layer>
		<layer id="75" name="5924592829928" type="Const" version="opset1">
			<data offset="0" size="4" shape="" element_type="f32"/>
			<output>
				<port id="0" precision="FP32"/>
			</output>
		</layer>
		<layer id="76" name="5925592930285" type="Const" version="opset1">
			<data offset="0" size="4" shape="" element_type="f32"/>
			<output>
				<port id="0" precision="FP32"/>
			</output>
		</layer>
		<layer id="77" name="5926593029589" type="Const" version="opset1">
			<data offset="0" size="4" shape="" element_type="f32"/>
			<output>
				<port id="0" precision="FP32"/>
			</output>
		</layer>
		<layer id="78" name="2282228431137" type="Const" version="opset1">
			<data offset="42116" size="512" shape="1,128,1,1" element_type="f32"/>
			<output>
				<port id="0" precision="FP32">
					<dim>1</dim>
					<dim>128</dim>
					<dim>1</dim>
					<dim>1</dim>
				</port>
			</output>
		</layer>
		<layer id="79" name="3453345728050" type="Const" version="opset1">
			<data offset="0" size="4" shape="" element_type="f32"/>
			<output>
				<port id="0" precision="FP32"/>
			</output>
		</layer>
		<layer id="80" name="3454345829949" type="Const" version="opset1">
			<data offset="0" size="4" shape="" element_type="f32"/>
			<output>
				<port id="0" precision="FP32"/>
			</output>
		</layer>
		<layer id="81" name="3455345930534" type="Const" version="opset1">
			<data offset="0" size="4" shape="" element_type="f32"/>
			<output>
				<port id="0" precision="FP32"/>
			</output>
		</layer>
		<layer id="82" name="3456346029835" type="Const" version="opset1">
			<data offset="0" size="4" shape="" element_type="f32"/>
			<output>
				<port id="0" precision="FP32"/>
			</output>
		</layer>
		<layer id="83" name="Constant_14342129629691" type="Const" version="opset1">
			<data offset="54148" size="3584" shape="1,896,1,1" element_type="f32"/>
			<rt_info>
				<attribute name="fused_names" version="0" value="10.denselayer13.norm1.bias, 10.denselayer13.norm1.running_mean, 10.denselayer13.norm1.running_var, 10.denselayer13.norm1.weight, BatchNormalization_346"/>
			</rt_info>
			<output>
				<port id="0" precision="FP32">
					<dim>1</dim>
					<dim>896</dim>
					<dim>1</dim>
					<dim>1</dim>
				</port>
			</output>
		</layer>
		<layer id="84" name="130471305128929" type="Const" version="opset1">
			<data offset="0" size="4" shape="" element_type="f32"/>
			<output>
				<port id="0" precision="FP32"/>
			</output>
		</layer>
		<layer id="85" name="130481305227474" type="Const" version="opset1">
			<data offset="0" size="4" shape="" element_type="f32"/>
			<output>
				<port id="0" precision="FP32"/>
			</output>
		</layer>
		<layer id="86" name="130491305331104" type="Const" version="opset1">
			<data offset="0" size="4" shape="" element_type="f32"/>
			<output>
				<port id="0" precision="FP32"/>
			</output>
		</layer>
		<layer id="87" name="130501305430405" type="Const" version="opset1">
			<data offset="0" size="4" shape="" element_type="f32"/>
			<output>
				<port id="0" precision="FP32"/>
			</output>
		</layer>
		<layer id="88" name="2278228027117" type="Const" version="opset1">
			<data offset="41988" size="128" shape="1,32,1,1" element_type="f32"/>
			<output>
				<port id="0" precision="FP32">
					<dim>1</dim>
					<dim>32</dim>
					<dim>1</dim>
					<dim>1</dim>
				</port>
			</output>
		</layer>
		<layer id="89" name="3983398729523" type="Const" version="opset1">
			<data offset="0" size="4" shape="" element_type="f32"/>
			<output>
				<port id="0" precision="FP32"/>
			</output>
		</layer>
		<layer id="90" name="3984398826961" type="Const" version="opset1">
			<data offset="0" size="4" shape="" element_type="f32"/>
			<output>
				<port id="0" precision="FP32"/>
			</output>
		</layer>
		<layer id="91" name="3985398927318" type="Const" version="opset1">
			<data offset="0" size="4" shape="" element_type="f32"/>
			<output>
				<port id="0" precision="FP32"/>
			</output>
		</layer>
		<layer id="92" name="3986399030756" type="Const" version="opset1">
			<data offset="0" size="4" shape="" element_type="f32"/>
			<output>
				<port id="0" precision="FP32"/>
			</output>
		</layer>
		<layer id="93" name="2274227630111" type="Const" version="opset1">
			<data offset="42116" size="512" shape="1,128,1,1" element_type="f32"/>
			<output>
				<port id="0" precision="FP32">
					<dim>1</dim>
					<dim>128</dim>
					<dim>1</dim>
					<dim>1</dim>
				</port>
			</output>
		</layer>
		<layer id="94" name="5603560728242" type="Const" version="opset1">
			<data offset="0" size="4" shape="" element_type="f32"/>
			<output>
				<port id="0" precision="FP32"/>
			</output>
		</layer>
		<layer id="95" name="5604560828935" type="Const" version="opset1">
			<data offset="0" size="4" shape="" element_type="f32"/>
			<output>
				<port id="0" precision="FP32"/>
			</output>
		</layer>
		<layer id="96" name="5605560927729" type="Const" version="opset1">
			<data offset="0" size="4" shape="" element_type="f32"/>
			<output>
				<port id="0" precision="FP32"/>
			</output>
		</layer>
		<layer id="97" name="5606561027348" type="Const" version="opset1">
			<data offset="0" size="4" shape="" element_type="f32"/>
			<output>
				<port id="0" precision="FP32"/>
			</output>
		</layer>
		<layer id="98" name="Constant_14216128528461" type="Const" version="opset1">
			<data offset="57732" size="3456" shape="1,864,1,1" element_type="f32"/>
			<rt_info>
				<attribute name="fused_names" version="0" value="10.denselayer12.norm1.bias, 10.denselayer12.norm1.running_mean, 10.denselayer12.norm1.running_var, 10.denselayer12.norm1.weight, BatchNormalization_340"/>
			</rt_info>
			<output>
				<port id="0" precision="FP32">
					<dim>1</dim>
					<dim>864</dim>
					<dim>1</dim>
					<dim>1</dim>
				</port>
			</output>
		</layer>
		<layer id="99" name="129171292129511" type="Const" version="opset1">
			<data offset="0" size="4" shape="" element_type="f32"/>
			<output>
				<port id="0" precision="FP32"/>
			</output>
		</layer>
		<layer id="100" name="129181292228848" type="Const" version="opset1">
			<data offset="0" size="4" shape="" element_type="f32"/>
			<output>
				<port id="0" precision="FP32"/>
			</output>
		</layer>
		<layer id="101" name="129191292331371" type="Const" version="opset1">
			<data offset="0" size="4" shape="" element_type="f32"/>
			<output>
				<port id="0" precision="FP32"/>
			</output>
		</layer>
		<layer id="102" name="129201292429487" type="Const" version="opset1">
			<data offset="0" size="4" shape="" element_type="f32"/>
			<output>
				<port id="0" precision="FP32"/>
			</output>
		</layer>
		<layer id="103" name="2270227228287" type="Const" version="opset1">
			<data offset="41988" size="128" shape="1,32,1,1" element_type="f32"/>
			<output>
				<port id="0" precision="FP32">
					<dim>1</dim>
					<dim>32</dim>
					<dim>1</dim>
					<dim>1</dim>
				</port>
			</output>
		</layer>
		<layer id="104" name="3043304729745" type="Const" version="opset1">
			<data offset="0" size="4" shape="" element_type="f32"/>
			<output>
				<port id="0" precision="FP32"/>
			</output>
		</layer>
		<layer id="105" name="3044304828866" type="Const" version="opset1">
			<data offset="0" size="4" shape="" element_type="f32"/>
			<output>
				<port id="0" precision="FP32"/>
			</output>
		</layer>
		<layer id="106" name="3045304930438" type="Const" version="opset1">
			<data offset="0" size="4" shape="" element_type="f32"/>
			<output>
				<port id="0" precision="FP32"/>
			</output>
		</layer>
		<layer id="107" name="3046305029874" type="Const" version="opset1">
			<data offset="0" size="4" shape="" element_type="f32"/>
			<output>
				<port id="0" precision="FP32"/>
			</output>
		</layer>
		<layer id="108" name="2266226829199" type="Const" version="opset1">
			<data offset="42116" size="512" shape="1,128,1,1" element_type="f32"/>
			<output>
				<port id="0" precision="FP32">
					<dim>1</dim>
					<dim>128</dim>
					<dim>1</dim>
					<dim>1</dim>
				</port>
			</output>
		</layer>
		<layer id="109" name="5473547727480" type="Const" version="opset1">
			<data offset="0" size="4" shape="" element_type="f32"/>
			<output>
				<port id="0" precision="FP32"/>
			</output>
		</layer>
		<layer id="110" name="5474547830672" type="Const" version="opset1">
			<data offset="0" size="4" shape="" element_type="f32"/>
			<output>
				<port id="0" precision="FP32"/>
			</output>
		</layer>
		<layer id="111" name="5475547928944" type="Const" version="opset1">
			<data offset="0" size="4" shape="" element_type="f32"/>
			<output>
				<port id="0" precision="FP32"/>
			</output>
		</layer>
		<layer id="112" name="5476548027720" type="Const" version="opset1">
			<data offset="0" size="4" shape="" element_type="f32"/>
			<output>
				<port id="0" precision="FP32"/>
			</output>
		</layer>
		<layer id="113" name="Constant_14090127431425" type="Const" version="opset1">
			<data offset="61188" size="3328" shape="1,832,1,1" element_type="f32"/>
			<rt_info>
				<attribute name="fused_names" version="0" value="10.denselayer11.norm1.bias, 10.denselayer11.norm1.running_mean, 10.denselayer11.norm1.running_var, 10.denselayer11.norm1.weight, BatchNormalization_334"/>
			</rt_info>
			<output>
				<port id="0" precision="FP32">
					<dim>1</dim>
					<dim>832</dim>
					<dim>1</dim>
					<dim>1</dim>
				</port>
			</output>
		</layer>
		<layer id="114" name="127971280126898" type="Const" version="opset1">
			<data offset="0" size="4" shape="" element_type="f32"/>
			<output>
				<port id="0" precision="FP32"/>
			</output>
		</layer>
		<layer id="115" name="127981280228833" type="Const" version="opset1">
			<data offset="0" size="4" shape="" element_type="f32"/>
			<output>
				<port id="0" precision="FP32"/>
			</output>
		</layer>
		<layer id="116" name="127991280330276" type="Const" version="opset1">
			<data offset="0" size="4" shape="" element_type="f32"/>
			<output>
				<port id="0" precision="FP32"/>
			</output>
		</layer>
		<layer id="117" name="128001280430018" type="Const" version="opset1">
			<data offset="0" size="4" shape="" element_type="f32"/>
			<output>
				<port id="0" precision="FP32"/>
			</output>
		</layer>
		<layer id="118" name="2262226431437" type="Const" version="opset1">
			<data offset="41988" size="128" shape="1,32,1,1" element_type="f32"/>
			<output>
				<port id="0" precision="FP32">
					<dim>1</dim>
					<dim>32</dim>
					<dim>1</dim>
					<dim>1</dim>
				</port>
			</output>
		</layer>
		<layer id="119" name="4463446729091" type="Const" version="opset1">
			<data offset="0" size="4" shape="" element_type="f32"/>
			<output>
				<port id="0" precision="FP32"/>
			</output>
		</layer>
		<layer id="120" name="4464446830357" type="Const" version="opset1">
			<data offset="0" size="4" shape="" element_type="f32"/>
			<output>
				<port id="0" precision="FP32"/>
			</output>
		</layer>
		<layer id="121" name="4465446930816" type="Const" version="opset1">
			<data offset="0" size="4" shape="" element_type="f32"/>
			<output>
				<port id="0" precision="FP32"/>
			</output>
		</layer>
		<layer id="122" name="4466447029979" type="Const" version="opset1">
			<data offset="0" size="4" shape="" element_type="f32"/>
			<output>
				<port id="0" precision="FP32"/>
			</output>
		</layer>
		<layer id="123" name="2258226027810" type="Const" version="opset1">
			<data offset="42116" size="512" shape="1,128,1,1" element_type="f32"/>
			<output>
				<port id="0" precision="FP32">
					<dim>1</dim>
					<dim>128</dim>
					<dim>1</dim>
					<dim>1</dim>
				</port>
			</output>
		</layer>
		<layer id="124" name="3603360730048" type="Const" version="opset1">
			<data offset="0" size="4" shape="" element_type="f32"/>
			<output>
				<port id="0" precision="FP32"/>
			</output>
		</layer>
		<layer id="125" name="3604360828206" type="Const" version="opset1">
			<data offset="0" size="4" shape="" element_type="f32"/>
			<output>
				<port id="0" precision="FP32"/>
			</output>
		</layer>
		<layer id="126" name="3605360927210" type="Const" version="opset1">
			<data offset="0" size="4" shape="" element_type="f32"/>
			<output>
				<port id="0" precision="FP32"/>
			</output>
		</layer>
		<layer id="127" name="3606361027582" type="Const" version="opset1">
			<data offset="0" size="4" shape="" element_type="f32"/>
			<output>
				<port id="0" precision="FP32"/>
			</output>
		</layer>
		<layer id="128" name="Constant_13964126327291" type="Const" version="opset1">
			<data offset="64516" size="3200" shape="1,800,1,1" element_type="f32"/>
			<rt_info>
				<attribute name="fused_names" version="0" value="10.denselayer10.norm1.bias, 10.denselayer10.norm1.running_mean, 10.denselayer10.norm1.running_var, 10.denselayer10.norm1.weight, BatchNormalization_328"/>
			</rt_info>
			<output>
				<port id="0" precision="FP32">
					<dim>1</dim>
					<dim>800</dim>
					<dim>1</dim>
					<dim>1</dim>
				</port>
			</output>
		</layer>
		<layer id="129" name="126871269129424" type="Const" version="opset1">
			<data offset="0" size="4" shape="" element_type="f32"/>
			<output>
				<port id="0" precision="FP32"/>
			</output>
		</layer>
		<layer id="130" name="126881269229313" type="Const" version="opset1">
			<data offset="0" size="4" shape="" element_type="f32"/>
			<output>
				<port id="0" precision="FP32"/>
			</output>
		</layer>
		<layer id="131" name="126891269328617" type="Const" version="opset1">
			<data offset="0" size="4" shape="" element_type="f32"/>
			<output>
				<port id="0" precision="FP32"/>
			</output>
		</layer>
		<layer id="132" name="126901269430792" type="Const" version="opset1">
			<data offset="0" size="4" shape="" element_type="f32"/>
			<output>
				<port id="0" precision="FP32"/>
			</output>
		</layer>
		<layer id="133" name="2254225627873" type="Const" version="opset1">
			<data offset="41988" size="128" shape="1,32,1,1" element_type="f32"/>
			<output>
				<port id="0" precision="FP32">
					<dim>1</dim>
					<dim>32</dim>
					<dim>1</dim>
					<dim>1</dim>
				</port>
			</output>
		</layer>
		<layer id="134" name="4003400726952" type="Const" version="opset1">
			<data offset="0" size="4" shape="" element_type="f32"/>
			<output>
				<port id="0" precision="FP32"/>
			</output>
		</layer>
		<layer id="135" name="4004400827258" type="Const" version="opset1">
			<data offset="0" size="4" shape="" element_type="f32"/>
			<output>
				<port id="0" precision="FP32"/>
			</output>
		</layer>
		<layer id="136" name="4005400929352" type="Const" version="opset1">
			<data offset="0" size="4" shape="" element_type="f32"/>
			<output>
				<port id="0" precision="FP32"/>
			</output>
		</layer>
		<layer id="137" name="4006401031626" type="Const" version="opset1">
			<data offset="0" size="4" shape="" element_type="f32"/>
			<output>
				<port id="0" precision="FP32"/>
			</output>
		</layer>
		<layer id="138" name="2250225231083" type="Const" version="opset1">
			<data offset="42116" size="512" shape="1,128,1,1" element_type="f32"/>
			<output>
				<port id="0" precision="FP32">
					<dim>1</dim>
					<dim>128</dim>
					<dim>1</dim>
					<dim>1</dim>
				</port>
			</output>
		</layer>
		<layer id="139" name="6023602730051" type="Const" version="opset1">
			<data offset="0" size="4" shape="" element_type="f32"/>
			<output>
				<port id="0" precision="FP32"/>
			</output>
		</layer>
		<layer id="140" name="6024602830396" type="Const" version="opset1">
			<data offset="0" size="4" shape="" element_type="f32"/>
			<output>
				<port id="0" precision="FP32"/>
			</output>
		</layer>
		<layer id="141" name="6025602931215" type="Const" version="opset1">
			<data offset="0" size="4" shape="" element_type="f32"/>
			<output>
				<port id="0" precision="FP32"/>
			</output>
		</layer>
		<layer id="142" name="6026603028494" type="Const" version="opset1">
			<data offset="0" size="4" shape="" element_type="f32"/>
			<output>
				<port id="0" precision="FP32"/>
			</output>
		</layer>
		<layer id="143" name="Constant_13838125227306" type="Const" version="opset1">
			<data offset="67716" size="3072" shape="1,768,1,1" element_type="f32"/>
			<rt_info>
				<attribute name="fused_names" version="0" value="10.denselayer9.norm1.bias, 10.denselayer9.norm1.running_mean, 10.denselayer9.norm1.running_var, 10.denselayer9.norm1.weight, BatchNormalization_322"/>
			</rt_info>
			<output>
				<port id="0" precision="FP32">
					<dim>1</dim>
					<dim>768</dim>
					<dim>1</dim>
					<dim>1</dim>
				</port>
			</output>
		</layer>
		<layer id="144" name="125871259128794" type="Const" version="opset1">
			<data offset="0" size="4" shape="" element_type="f32"/>
			<output>
				<port id="0" precision="FP32"/>
			</output>
		</layer>
		<layer id="145" name="125881259229361" type="Const" version="opset1">
			<data offset="0" size="4" shape="" element_type="f32"/>
			<output>
				<port id="0" precision="FP32"/>
			</output>
		</layer>
		<layer id="146" name="125891259327972" type="Const" version="opset1">
			<data offset="0" size="4" shape="" element_type="f32"/>
			<output>
				<port id="0" precision="FP32"/>
			</output>
		</layer>
		<layer id="147" name="125901259428512" type="Const" version="opset1">
			<data offset="0" size="4" shape="" element_type="f32"/>
			<output>
				<port id="0" precision="FP32"/>
			</output>
		</layer>
		<layer id="148" name="2246224829286" type="Const" version="opset1">
			<data offset="41988" size="128" shape="1,32,1,1" element_type="f32"/>
			<output>
				<port id="0" precision="FP32">
					<dim>1</dim>
					<dim>32</dim>
					<dim>1</dim>
					<dim>1</dim>
				</port>
			</output>
		</layer>
		<layer id="149" name="3393339728122" type="Const" version="opset1">
			<data offset="0" size="4" shape="" element_type="f32"/>
			<output>
				<port id="0" precision="FP32"/>
			</output>
		</layer>
		<layer id="150" name="3394339830801" type="Const" version="opset1">
			<data offset="0" size="4" shape="" element_type="f32"/>
			<output>
				<port id="0" precision="FP32"/>
			</output>
		</layer>
		<layer id="151" name="3395339929709" type="Const" version="opset1">
			<data offset="0" size="4" shape="" element_type="f32"/>
			<output>
				<port id="0" precision="FP32"/>
			</output>
		</layer>
		<layer id="152" name="3396340027090" type="Const" version="opset1">
			<data offset="0" size="4" shape="" element_type="f32"/>
			<output>
				<port id="0" precision="FP32"/>
			</output>
		</layer>
		<layer id="153" name="2242224429007" type="Const" version="opset1">
			<data offset="42116" size="512" shape="1,128,1,1" element_type="f32"/>
			<output>
				<port id="0" precision="FP32">
					<dim>1</dim>
					<dim>128</dim>
					<dim>1</dim>
					<dim>1</dim>
				</port>
			</output>
		</layer>
		<layer id="154" name="3893389729679" type="Const" version="opset1">
			<data offset="0" size="4" shape="" element_type="f32"/>
			<output>
				<port id="0" precision="FP32"/>
			</output>
		</layer>
		<layer id="155" name="3894389830477" type="Const" version="opset1">
			<data offset="0" size="4" shape="" element_type="f32"/>
			<output>
				<port id="0" precision="FP32"/>
			</output>
		</layer>
		<layer id="156" name="3895389929259" type="Const" version="opset1">
			<data offset="0" size="4" shape="" element_type="f32"/>
			<output>
				<port id="0" precision="FP32"/>
			</output>
		</layer>
		<layer id="157" name="3896390029763" type="Const" version="opset1">
			<data offset="0" size="4" shape="" element_type="f32"/>
			<output>
				<port id="0" precision="FP32"/>
			</output>
		</layer>
		<layer id="158" name="Constant_13712124127066" type="Const" version="opset1">
			<data offset="70788" size="2944" shape="1,736,1,1" element_type="f32"/>
			<rt_info>
				<attribute name="fused_names" version="0" value="10.denselayer8.norm1.bias, 10.denselayer8.norm1.running_mean, 10.denselayer8.norm1.running_var, 10.denselayer8.norm1.weight, BatchNormalization_316"/>
			</rt_info>
			<output>
				<port id="0" precision="FP32">
					<dim>1</dim>
					<dim>736</dim>
					<dim>1</dim>
					<dim>1</dim>
				</port>
			</output>
		</layer>
		<layer id="159" name="124971250130594" type="Const" version="opset1">
			<data offset="0" size="4" shape="" element_type="f32"/>
			<output>
				<port id="0" precision="FP32"/>
			</output>
		</layer>
		<layer id="160" name="124981250229454" type="Const" version="opset1">
			<data offset="0" size="4" shape="" element_type="f32"/>
			<output>
				<port id="0" precision="FP32"/>
			</output>
		</layer>
		<layer id="161" name="124991250327438" type="Const" version="opset1">
			<data offset="0" size="4" shape="" element_type="f32"/>
			<output>
				<port id="0" precision="FP32"/>
			</output>
		</layer>
		<layer id="162" name="125001250429844" type="Const" version="opset1">
			<data offset="0" size="4" shape="" element_type="f32"/>
			<output>
				<port id="0" precision="FP32"/>
			</output>
		</layer>
		<layer id="163" name="2238224028620" type="Const" version="opset1">
			<data offset="41988" size="128" shape="1,32,1,1" element_type="f32"/>
			<output>
				<port id="0" precision="FP32">
					<dim>1</dim>
					<dim>32</dim>
					<dim>1</dim>
					<dim>1</dim>
				</port>
			</output>
		</layer>
		<layer id="164" name="6073607728146" type="Const" version="opset1">
			<data offset="0" size="4" shape="" element_type="f32"/>
			<output>
				<port id="0" precision="FP32"/>
			</output>
		</layer>
		<layer id="165" name="6074607830687" type="Const" version="opset1">
			<data offset="0" size="4" shape="" element_type="f32"/>
			<output>
				<port id="0" precision="FP32"/>
			</output>
		</layer>
		<layer id="166" name="6075607927858" type="Const" version="opset1">
			<data offset="0" size="4" shape="" element_type="f32"/>
			<output>
				<port id="0" precision="FP32"/>
			</output>
		</layer>
		<layer id="167" name="6076608029349" type="Const" version="opset1">
			<data offset="0" size="4" shape="" element_type="f32"/>
			<output>
				<port id="0" precision="FP32"/>
			</output>
		</layer>
		<layer id="168" name="2234223630696" type="Const" version="opset1">
			<data offset="42116" size="512" shape="1,128,1,1" element_type="f32"/>
			<output>
				<port id="0" precision="FP32">
					<dim>1</dim>
					<dim>128</dim>
					<dim>1</dim>
					<dim>1</dim>
				</port>
			</output>
		</layer>
		<layer id="169" name="4713471730393" type="Const" version="opset1">
			<data offset="0" size="4" shape="" element_type="f32"/>
			<output>
				<port id="0" precision="FP32"/>
			</output>
		</layer>
		<layer id="170" name="4714471827600" type="Const" version="opset1">
			<data offset="0" size="4" shape="" element_type="f32"/>
			<output>
				<port id="0" precision="FP32"/>
			</output>
		</layer>
		<layer id="171" name="4715471927579" type="Const" version="opset1">
			<data offset="0" size="4" shape="" element_type="f32"/>
			<output>
				<port id="0" precision="FP32"/>
			</output>
		</layer>
		<layer id="172" name="4716472030225" type="Const" version="opset1">
			<data offset="0" size="4" shape="" element_type="f32"/>
			<output>
				<port id="0" precision="FP32"/>
			</output>
		</layer>
		<layer id="173" name="Constant_13586123030744" type="Const" version="opset1">
			<data offset="73732" size="2816" shape="1,704,1,1" element_type="f32"/>
			<rt_info>
				<attribute name="fused_names" version="0" value="10.denselayer7.norm1.bias, 10.denselayer7.norm1.running_mean, 10.denselayer7.norm1.running_var, 10.denselayer7.norm1.weight, BatchNormalization_310"/>
			</rt_info>
			<output>
				<port id="0" precision="FP32">
					<dim>1</dim>
					<dim>704</dim>
					<dim>1</dim>
					<dim>1</dim>
				</port>
			</output>
		</layer>
		<layer id="174" name="124171242128734" type="Const" version="opset1">
			<data offset="0" size="4" shape="" element_type="f32"/>
			<output>
				<port id="0" precision="FP32"/>
			</output>
		</layer>
		<layer id="175" name="124181242228776" type="Const" version="opset1">
			<data offset="0" size="4" shape="" element_type="f32"/>
			<output>
				<port id="0" precision="FP32"/>
			</output>
		</layer>
		<layer id="176" name="124191242328503" type="Const" version="opset1">
			<data offset="0" size="4" shape="" element_type="f32"/>
			<output>
				<port id="0" precision="FP32"/>
			</output>
		</layer>
		<layer id="177" name="124201242428773" type="Const" version="opset1">
			<data offset="0" size="4" shape="" element_type="f32"/>
			<output>
				<port id="0" precision="FP32"/>
			</output>
		</layer>
		<layer id="178" name="2230223230789" type="Const" version="opset1">
			<data offset="41988" size="128" shape="1,32,1,1" element_type="f32"/>
			<output>
				<port id="0" precision="FP32">
					<dim>1</dim>
					<dim>32</dim>
					<dim>1</dim>
					<dim>1</dim>
				</port>
			</output>
		</layer>
		<layer id="179" name="5013501730867" type="Const" version="opset1">
			<data offset="0" size="4" shape="" element_type="f32"/>
			<output>
				<port id="0" precision="FP32"/>
			</output>
		</layer>
		<layer id="180" name="5014501828602" type="Const" version="opset1">
			<data offset="0" size="4" shape="" element_type="f32"/>
			<output>
				<port id="0" precision="FP32"/>
			</output>
		</layer>
		<layer id="181" name="5015501927945" type="Const" version="opset1">
			<data offset="0" size="4" shape="" element_type="f32"/>
			<output>
				<port id="0" precision="FP32"/>
			</output>
		</layer>
		<layer id="182" name="5016502030738" type="Const" version="opset1">
			<data offset="0" size="4" shape="" element_type="f32"/>
			<output>
				<port id="0" precision="FP32"/>
			</output>
		</layer>
		<layer id="183" name="2226222831368" type="Const" version="opset1">
			<data offset="42116" size="512" shape="1,128,1,1" element_type="f32"/>
			<output>
				<port id="0" precision="FP32">
					<dim>1</dim>
					<dim>128</dim>
					<dim>1</dim>
					<dim>1</dim>
				</port>
			</output>
		</layer>
		<layer id="184" name="3543354729163" type="Const" version="opset1">
			<data offset="0" size="4" shape="" element_type="f32"/>
			<output>
				<port id="0" precision="FP32"/>
			</output>
		</layer>
		<layer id="185" name="3544354827372" type="Const" version="opset1">
			<data offset="0" size="4" shape="" element_type="f32"/>
			<output>
				<port id="0" precision="FP32"/>
			</output>
		</layer>
		<layer id="186" name="3545354927786" type="Const" version="opset1">
			<data offset="0" size="4" shape="" element_type="f32"/>
			<output>
				<port id="0" precision="FP32"/>
			</output>
		</layer>
		<layer id="187" name="3546355027366" type="Const" version="opset1">
			<data offset="0" size="4" shape="" element_type="f32"/>
			<output>
				<port id="0" precision="FP32"/>
			</output>
		</layer>
		<layer id="188" name="Constant_13460121929676" type="Const" version="opset1">
			<data offset="76548" size="2688" shape="1,672,1,1" element_type="f32"/>
			<rt_info>
				<attribute name="fused_names" version="0" value="10.denselayer6.norm1.bias, 10.denselayer6.norm1.running_mean, 10.denselayer6.norm1.running_var, 10.denselayer6.norm1.weight, BatchNormalization_304"/>
			</rt_info>
			<output>
				<port id="0" precision="FP32">
					<dim>1</dim>
					<dim>672</dim>
					<dim>1</dim>
					<dim>1</dim>
				</port>
			</output>
		</layer>
		<layer id="189" name="123471235129868" type="Const" version="opset1">
			<data offset="0" size="4" shape="" element_type="f32"/>
			<output>
				<port id="0" precision="FP32"/>
			</output>
		</layer>
		<layer id="190" name="123481235227000" type="Const" version="opset1">
			<data offset="0" size="4" shape="" element_type="f32"/>
			<output>
				<port id="0" precision="FP32"/>
			</output>
		</layer>
		<layer id="191" name="123491235327639" type="Const" version="opset1">
			<data offset="0" size="4" shape="" element_type="f32"/>
			<output>
				<port id="0" precision="FP32"/>
			</output>
		</layer>
		<layer id="192" name="123501235430138" type="Const" version="opset1">
			<data offset="0" size="4" shape="" element_type="f32"/>
			<output>
				<port id="0" precision="FP32"/>
			</output>
		</layer>
		<layer id="193" name="2222222429004" type="Const" version="opset1">
			<data offset="41988" size="128" shape="1,32,1,1" element_type="f32"/>
			<output>
				<port id="0" precision="FP32">
					<dim>1</dim>
					<dim>32</dim>
					<dim>1</dim>
					<dim>1</dim>
				</port>
			</output>
		</layer>
		<layer id="194" name="3843384730690" type="Const" version="opset1">
			<data offset="0" size="4" shape="" element_type="f32"/>
			<output>
				<port id="0" precision="FP32"/>
			</output>
		</layer>
		<layer id="195" name="3844384829526" type="Const" version="opset1">
			<data offset="0" size="4" shape="" element_type="f32"/>
			<output>
				<port id="0" precision="FP32"/>
			</output>
		</layer>
		<layer id="196" name="3845384930102" type="Const" version="opset1">
			<data offset="0" size="4" shape="" element_type="f32"/>
			<output>
				<port id="0" precision="FP32"/>
			</output>
		</layer>
		<layer id="197" name="3846385029322" type="Const" version="opset1">
			<data offset="0" size="4" shape="" element_type="f32"/>
			<output>
				<port id="0" precision="FP32"/>
			</output>
		</layer>
		<layer id="198" name="2218222027723" type="Const" version="opset1">
			<data offset="42116" size="512" shape="1,128,1,1" element_type="f32"/>
			<output>
				<port id="0" precision="FP32">
					<dim>1</dim>
					<dim>128</dim>
					<dim>1</dim>
					<dim>1</dim>
				</port>
			</output>
		</layer>
		<layer id="199" name="3253325727585" type="Const" version="opset1">
			<data offset="0" size="4" shape="" element_type="f32"/>
			<output>
				<port id="0" precision="FP32"/>
			</output>
		</layer>
		<layer id="200" name="3254325830207" type="Const" version="opset1">
			<data offset="0" size="4" shape="" element_type="f32"/>
			<output>
				<port id="0" precision="FP32"/>
			</output>
		</layer>
		<layer id="201" name="3255325931269" type="Const" version="opset1">
			<data offset="0" size="4" shape="" element_type="f32"/>
			<output>
				<port id="0" precision="FP32"/>
			</output>
		</layer>
		<layer id="202" name="3256326029382" type="Const" version="opset1">
			<data offset="0" size="4" shape="" element_type="f32"/>
			<output>
				<port id="0" precision="FP32"/>
			</output>
		</layer>
		<layer id="203" name="Constant_13334120828800" type="Const" version="opset1">
			<data offset="79236" size="2560" shape="1,640,1,1" element_type="f32"/>
			<rt_info>
				<attribute name="fused_names" version="0" value="10.denselayer5.norm1.bias, 10.denselayer5.norm1.running_mean, 10.denselayer5.norm1.running_var, 10.denselayer5.norm1.weight, BatchNormalization_298"/>
			</rt_info>
			<output>
				<port id="0" precision="FP32">
					<dim>1</dim>
					<dim>640</dim>
					<dim>1</dim>
					<dim>1</dim>
				</port>
			</output>
		</layer>
		<layer id="204" name="122871229130837" type="Const" version="opset1">
			<data offset="0" size="4" shape="" element_type="f32"/>
			<output>
				<port id="0" precision="FP32"/>
			</output>
		</layer>
		<layer id="205" name="122881229226928" type="Const" version="opset1">
			<data offset="0" size="4" shape="" element_type="f32"/>
			<output>
				<port id="0" precision="FP32"/>
			</output>
		</layer>
		<layer id="206" name="122891229327870" type="Const" version="opset1">
			<data offset="0" size="4" shape="" element_type="f32"/>
			<output>
				<port id="0" precision="FP32"/>
			</output>
		</layer>
		<layer id="207" name="122901229429331" type="Const" version="opset1">
			<data offset="0" size="4" shape="" element_type="f32"/>
			<output>
				<port id="0" precision="FP32"/>
			</output>
		</layer>
		<layer id="208" name="2214221629757" type="Const" version="opset1">
			<data offset="41988" size="128" shape="1,32,1,1" element_type="f32"/>
			<output>
				<port id="0" precision="FP32">
					<dim>1</dim>
					<dim>32</dim>
					<dim>1</dim>
					<dim>1</dim>
				</port>
			</output>
		</layer>
		<layer id="209" name="4633463731170" type="Const" version="opset1">
			<data offset="0" size="4" shape="" element_type="f32"/>
			<output>
				<port id="0" precision="FP32"/>
			</output>
		</layer>
		<layer id="210" name="4634463831206" type="Const" version="opset1">
			<data offset="0" size="4" shape="" element_type="f32"/>
			<output>
				<port id="0" precision="FP32"/>
			</output>
		</layer>
		<layer id="211" name="4635463930717" type="Const" version="opset1">
			<data offset="0" size="4" shape="" element_type="f32"/>
			<output>
				<port id="0" precision="FP32"/>
			</output>
		</layer>
		<layer id="212" name="4636464030132" type="Const" version="opset1">
			<data offset="0" size="4" shape="" element_type="f32"/>
			<output>
				<port id="0" precision="FP32"/>
			</output>
		</layer>
		<layer id="213" name="2210221231128" type="Const" version="opset1">
			<data offset="42116" size="512" shape="1,128,1,1" element_type="f32"/>
			<output>
				<port id="0" precision="FP32">
					<dim>1</dim>
					<dim>128</dim>
					<dim>1</dim>
					<dim>1</dim>
				</port>
			</output>
		</layer>
		<layer id="214" name="4023402730627" type="Const" version="opset1">
			<data offset="0" size="4" shape="" element_type="f32"/>
			<output>
				<port id="0" precision="FP32"/>
			</output>
		</layer>
		<layer id="215" name="4024402828272" type="Const" version="opset1">
			<data offset="0" size="4" shape="" element_type="f32"/>
			<output>
				<port id="0" precision="FP32"/>
			</output>
		</layer>
		<layer id="216" name="4025402931350" type="Const" version="opset1">
			<data offset="0" size="4" shape="" element_type="f32"/>
			<output>
				<port id="0" precision="FP32"/>
			</output>
		</layer>
		<layer id="217" name="4026403027435" type="Const" version="opset1">
			<data offset="0" size="4" shape="" element_type="f32"/>
			<output>
				<port id="0" precision="FP32"/>
			</output>
		</layer>
		<layer id="218" name="Constant_13208119729775" type="Const" version="opset1">
			<data offset="81796" size="2432" shape="1,608,1,1" element_type="f32"/>
			<rt_info>
				<attribute name="fused_names" version="0" value="10.denselayer4.norm1.bias, 10.denselayer4.norm1.running_mean, 10.denselayer4.norm1.running_var, 10.denselayer4.norm1.weight, BatchNormalization_292"/>
			</rt_info>
			<output>
				<port id="0" precision="FP32">
					<dim>1</dim>
					<dim>608</dim>
					<dim>1</dim>
					<dim>1</dim>
				</port>
			</output>
		</layer>
		<layer id="219" name="122371224131290" type="Const" version="opset1">
			<data offset="0" size="4" shape="" element_type="f32"/>
			<output>
				<port id="0" precision="FP32"/>
			</output>
		</layer>
		<layer id="220" name="122381224229610" type="Const" version="opset1">
			<data offset="0" size="4" shape="" element_type="f32"/>
			<output>
				<port id="0" precision="FP32"/>
			</output>
		</layer>
		<layer id="221" name="122391224327504" type="Const" version="opset1">
			<data offset="0" size="4" shape="" element_type="f32"/>
			<output>
				<port id="0" precision="FP32"/>
			</output>
		</layer>
		<layer id="222" name="122401224428191" type="Const" version="opset1">
			<data offset="0" size="4" shape="" element_type="f32"/>
			<output>
				<port id="0" precision="FP32"/>
			</output>
		</layer>
		<layer id="223" name="2206220831365" type="Const" version="opset1">
			<data offset="41988" size="128" shape="1,32,1,1" element_type="f32"/>
			<output>
				<port id="0" precision="FP32">
					<dim>1</dim>
					<dim>32</dim>
					<dim>1</dim>
					<dim>1</dim>
				</port>
			</output>
		</layer>
		<layer id="224" name="5753575728431" type="Const" version="opset1">
			<data offset="0" size="4" shape="" element_type="f32"/>
			<output>
				<port id="0" precision="FP32"/>
			</output>
		</layer>
		<layer id="225" name="5754575828404" type="Const" version="opset1">
			<data offset="0" size="4" shape="" element_type="f32"/>
			<output>
				<port id="0" precision="FP32"/>
			</output>
		</layer>
		<layer id="226" name="5755575931098" type="Const" version="opset1">
			<data offset="0" size="4" shape="" element_type="f32"/>
			<output>
				<port id="0" precision="FP32"/>
			</output>
		</layer>
		<layer id="227" name="5756576027126" type="Const" version="opset1">
			<data offset="0" size="4" shape="" element_type="f32"/>
			<output>
				<port id="0" precision="FP32"/>
			</output>
		</layer>
		<layer id="228" name="2202220427309" type="Const" version="opset1">
			<data offset="42116" size="512" shape="1,128,1,1" element_type="f32"/>
			<output>
				<port id="0" precision="FP32">
					<dim>1</dim>
					<dim>128</dim>
					<dim>1</dim>
					<dim>1</dim>
				</port>
			</output>
		</layer>
		<layer id="229" name="3943394728326" type="Const" version="opset1">
			<data offset="0" size="4" shape="" element_type="f32"/>
			<output>
				<port id="0" precision="FP32"/>
			</output>
		</layer>
		<layer id="230" name="3944394828365" type="Const" version="opset1">
			<data offset="0" size="4" shape="" element_type="f32"/>
			<output>
				<port id="0" precision="FP32"/>
			</output>
		</layer>
		<layer id="231" name="3945394926922" type="Const" version="opset1">
			<data offset="0" size="4" shape="" element_type="f32"/>
			<output>
				<port id="0" precision="FP32"/>
			</output>
		</layer>
		<layer id="232" name="3946395027312" type="Const" version="opset1">
			<data offset="0" size="4" shape="" element_type="f32"/>
			<output>
				<port id="0" precision="FP32"/>
			</output>
		</layer>
		<layer id="233" name="Constant_13082118627711" type="Const" version="opset1">
			<data offset="84228" size="2304" shape="1,576,1,1" element_type="f32"/>
			<rt_info>
				<attribute name="fused_names" version="0" value="10.denselayer3.norm1.bias, 10.denselayer3.norm1.running_mean, 10.denselayer3.norm1.running_var, 10.denselayer3.norm1.weight, BatchNormalization_286"/>
			</rt_info>
			<output>
				<port id="0" precision="FP32">
					<dim>1</dim>
					<dim>576</dim>
					<dim>1</dim>
					<dim>1</dim>
				</port>
			</output>
		</layer>
		<layer id="234" name="121971220131605" type="Const" version="opset1">
			<data offset="0" size="4" shape="" element_type="f32"/>
			<output>
				<port id="0" precision="FP32"/>
			</output>
		</layer>
		<layer id="235" name="121981220230846" type="Const" version="opset1">
			<data offset="0" size="4" shape="" element_type="f32"/>
			<output>
				<port id="0" precision="FP32"/>
			</output>
		</layer>
		<layer id="236" name="121991220328107" type="Const" version="opset1">
			<data offset="0" size="4" shape="" element_type="f32"/>
			<output>
				<port id="0" precision="FP32"/>
			</output>
		</layer>
		<layer id="237" name="122001220430156" type="Const" version="opset1">
			<data offset="0" size="4" shape="" element_type="f32"/>
			<output>
				<port id="0" precision="FP32"/>
			</output>
		</layer>
		<layer id="238" name="2198220027015" type="Const" version="opset1">
			<data offset="41988" size="128" shape="1,32,1,1" element_type="f32"/>
			<output>
				<port id="0" precision="FP32">
					<dim>1</dim>
					<dim>32</dim>
					<dim>1</dim>
					<dim>1</dim>
				</port>
			</output>
		</layer>
		<layer id="239" name="4393439728182" type="Const" version="opset1">
			<data offset="0" size="4" shape="" element_type="f32"/>
			<output>
				<port id="0" precision="FP32"/>
			</output>
		</layer>
		<layer id="240" name="4394439829865" type="Const" version="opset1">
			<data offset="0" size="4" shape="" element_type="f32"/>
			<output>
				<port id="0" precision="FP32"/>
			</output>
		</layer>
		<layer id="241" name="4395439930669" type="Const" version="opset1">
			<data offset="0" size="4" shape="" element_type="f32"/>
			<output>
				<port id="0" precision="FP32"/>
			</output>
		</layer>
		<layer id="242" name="4396440030246" type="Const" version="opset1">
			<data offset="0" size="4" shape="" element_type="f32"/>
			<output>
				<port id="0" precision="FP32"/>
			</output>
		</layer>
		<layer id="243" name="2194219631320" type="Const" version="opset1">
			<data offset="42116" size="512" shape="1,128,1,1" element_type="f32"/>
			<output>
				<port id="0" precision="FP32">
					<dim>1</dim>
					<dim>128</dim>
					<dim>1</dim>
					<dim>1</dim>
				</port>
			</output>
		</layer>
		<layer id="244" name="5673567730678" type="Const" version="opset1">
			<data offset="0" size="4" shape="" element_type="f32"/>
			<output>
				<port id="0" precision="FP32"/>
			</output>
		</layer>
		<layer id="245" name="5674567830414" type="Const" version="opset1">
			<data offset="0" size="4" shape="" element_type="f32"/>
			<output>
				<port id="0" precision="FP32"/>
			</output>
		</layer>
		<layer id="246" name="5675567928116" type="Const" version="opset1">
			<data offset="0" size="4" shape="" element_type="f32"/>
			<output>
				<port id="0" precision="FP32"/>
			</output>
		</layer>
		<layer id="247" name="5676568028500" type="Const" version="opset1">
			<data offset="0" size="4" shape="" element_type="f32"/>
			<output>
				<port id="0" precision="FP32"/>
			</output>
		</layer>
		<layer id="248" name="Constant_12956117530258" type="Const" version="opset1">
			<data offset="86532" size="2176" shape="1,544,1,1" element_type="f32"/>
			<rt_info>
				<attribute name="fused_names" version="0" value="10.denselayer2.norm1.bias, 10.denselayer2.norm1.running_mean, 10.denselayer2.norm1.running_var, 10.denselayer2.norm1.weight, BatchNormalization_280"/>
			</rt_info>
			<output>
				<port id="0" precision="FP32">
					<dim>1</dim>
					<dim>544</dim>
					<dim>1</dim>
					<dim>1</dim>
				</port>
			</output>
		</layer>
		<layer id="249" name="121571216131554" type="Const" version="opset1">
			<data offset="0" size="4" shape="" element_type="f32"/>
			<output>
				<port id="0" precision="FP32"/>
			</output>
		</layer>
		<layer id="250" name="121581216229988" type="Const" version="opset1">
			<data offset="0" size="4" shape="" element_type="f32"/>
			<output>
				<port id="0" precision="FP32"/>
			</output>
		</layer>
		<layer id="251" name="121591216327855" type="Const" version="opset1">
			<data offset="0" size="4" shape="" element_type="f32"/>
			<output>
				<port id="0" precision="FP32"/>
			</output>
		</layer>
		<layer id="252" name="121601216428584" type="Const" version="opset1">
			<data offset="0" size="4" shape="" element_type="f32"/>
			<output>
				<port id="0" precision="FP32"/>
			</output>
		</layer>
		<layer id="253" name="5643564727681" type="Const" version="opset1">
			<data offset="0" size="4" shape="" element_type="f32"/>
			<output>
				<port id="0" precision="FP32"/>
			</output>
		</layer>
		<layer id="254" name="5644564827990" type="Const" version="opset1">
			<data offset="0" size="4" shape="" element_type="f32"/>
			<output>
				<port id="0" precision="FP32"/>
			</output>
		</layer>
		<layer id="255" name="5645564929799" type="Const" version="opset1">
			<data offset="0" size="4" shape="" element_type="f32"/>
			<output>
				<port id="0" precision="FP32"/>
			</output>
		</layer>
		<layer id="256" name="5646565031122" type="Const" version="opset1">
			<data offset="0" size="4" shape="" element_type="f32"/>
			<output>
				<port id="0" precision="FP32"/>
			</output>
		</layer>
		<layer id="257" name="2182218431194" type="Const" version="opset1">
			<data offset="88708" size="2048" shape="1,512,1,1" element_type="f32"/>
			<output>
				<port id="0" precision="FP32">
					<dim>1</dim>
					<dim>512</dim>
					<dim>1</dim>
					<dim>1</dim>
				</port>
			</output>
		</layer>
		<layer id="258" name="4973497729079" type="Const" version="opset1">
			<data offset="0" size="4" shape="" element_type="f32"/>
			<output>
				<port id="0" precision="FP32"/>
			</output>
		</layer>
		<layer id="259" name="4974497828038" type="Const" version="opset1">
			<data offset="0" size="4" shape="" element_type="f32"/>
			<output>
				<port id="0" precision="FP32"/>
			</output>
		</layer>
		<layer id="260" name="4975497928668" type="Const" version="opset1">
			<data offset="0" size="4" shape="" element_type="f32"/>
			<output>
				<port id="0" precision="FP32"/>
			</output>
		</layer>
		<layer id="261" name="4976498029739" type="Const" version="opset1">
			<data offset="0" size="4" shape="" element_type="f32"/>
			<output>
				<port id="0" precision="FP32"/>
			</output>
		</layer>
		<layer id="262" name="Constant_12704115628968" type="Const" version="opset1">
			<data offset="37892" size="4096" shape="1,1024,1,1" element_type="f32"/>
			<rt_info>
				<attribute name="fused_names" version="0" value="9.norm.bias, 9.norm.running_mean, 9.norm.running_var, 9.norm.weight, BatchNormalization_268"/>
			</rt_info>
			<output>
				<port id="0" precision="FP32">
					<dim>1</dim>
					<dim>1024</dim>
					<dim>1</dim>
					<dim>1</dim>
				</port>
			</output>
		</layer>
		<layer id="263" name="121471215129040" type="Const" version="opset1">
			<data offset="0" size="4" shape="" element_type="f32"/>
			<output>
				<port id="0" precision="FP32"/>
			</output>
		</layer>
		<layer id="264" name="121481215230783" type="Const" version="opset1">
			<data offset="0" size="4" shape="" element_type="f32"/>
			<output>
				<port id="0" precision="FP32"/>
			</output>
		</layer>
		<layer id="265" name="121491215330900" type="Const" version="opset1">
			<data offset="0" size="4" shape="" element_type="f32"/>
			<output>
				<port id="0" precision="FP32"/>
			</output>
		</layer>
		<layer id="266" name="121501215428857" type="Const" version="opset1">
			<data offset="0" size="4" shape="" element_type="f32"/>
			<output>
				<port id="0" precision="FP32"/>
			</output>
		</layer>
		<layer id="267" name="2178218030552" type="Const" version="opset1">
			<data offset="41988" size="128" shape="1,32,1,1" element_type="f32"/>
			<output>
				<port id="0" precision="FP32">
					<dim>1</dim>
					<dim>32</dim>
					<dim>1</dim>
					<dim>1</dim>
				</port>
			</output>
		</layer>
		<layer id="268" name="4213421727237" type="Const" version="opset1">
			<data offset="0" size="4" shape="" element_type="f32"/>
			<output>
				<port id="0" precision="FP32"/>
			</output>
		</layer>
		<layer id="269" name="4214421826910" type="Const" version="opset1">
			<data offset="0" size="4" shape="" element_type="f32"/>
			<output>
				<port id="0" precision="FP32"/>
			</output>
		</layer>
		<layer id="270" name="4215421927294" type="Const" version="opset1">
			<data offset="0" size="4" shape="" element_type="f32"/>
			<output>
				<port id="0" precision="FP32"/>
			</output>
		</layer>
		<layer id="271" name="4216422027618" type="Const" version="opset1">
			<data offset="0" size="4" shape="" element_type="f32"/>
			<output>
				<port id="0" precision="FP32"/>
			</output>
		</layer>
		<layer id="272" name="2174217629202" type="Const" version="opset1">
			<data offset="42116" size="512" shape="1,128,1,1" element_type="f32"/>
			<output>
				<port id="0" precision="FP32">
					<dim>1</dim>
					<dim>128</dim>
					<dim>1</dim>
					<dim>1</dim>
				</port>
			</output>
		</layer>
		<layer id="273" name="3803380731323" type="Const" version="opset1">
			<data offset="0" size="4" shape="" element_type="f32"/>
			<output>
				<port id="0" precision="FP32"/>
			</output>
		</layer>
		<layer id="274" name="3804380830939" type="Const" version="opset1">
			<data offset="0" size="4" shape="" element_type="f32"/>
			<output>
				<port id="0" precision="FP32"/>
			</output>
		</layer>
		<layer id="275" name="3805380928023" type="Const" version="opset1">
			<data offset="0" size="4" shape="" element_type="f32"/>
			<output>
				<port id="0" precision="FP32"/>
			</output>
		</layer>
		<layer id="276" name="3806381031575" type="Const" version="opset1">
			<data offset="0" size="4" shape="" element_type="f32"/>
			<output>
				<port id="0" precision="FP32"/>
			</output>
		</layer>
		<layer id="277" name="Constant_12578114529658" type="Const" version="opset1">
			<data offset="42628" size="3968" shape="1,992,1,1" element_type="f32"/>
			<rt_info>
				<attribute name="fused_names" version="0" value="8.denselayer24.norm1.bias, 8.denselayer24.norm1.running_mean, 8.denselayer24.norm1.running_var, 8.denselayer24.norm1.weight, BatchNormalization_262"/>
			</rt_info>
			<output>
				<port id="0" precision="FP32">
					<dim>1</dim>
					<dim>992</dim>
					<dim>1</dim>
					<dim>1</dim>
				</port>
			</output>
		</layer>
		<layer id="278" name="118971190131545" type="Const" version="opset1">
			<data offset="0" size="4" shape="" element_type="f32"/>
			<output>
				<port id="0" precision="FP32"/>
			</output>
		</layer>
		<layer id="279" name="118981190229277" type="Const" version="opset1">
			<data offset="0" size="4" shape="" element_type="f32"/>
			<output>
				<port id="0" precision="FP32"/>
			</output>
		</layer>
		<layer id="280" name="118991190331029" type="Const" version="opset1">
			<data offset="0" size="4" shape="" element_type="f32"/>
			<output>
				<port id="0" precision="FP32"/>
			</output>
		</layer>
		<layer id="281" name="119001190431275" type="Const" version="opset1">
			<data offset="0" size="4" shape="" element_type="f32"/>
			<output>
				<port id="0" precision="FP32"/>
			</output>
		</layer>
		<layer id="282" name="2170217230618" type="Const" version="opset1">
			<data offset="41988" size="128" shape="1,32,1,1" element_type="f32"/>
			<output>
				<port id="0" precision="FP32">
					<dim>1</dim>
					<dim>32</dim>
					<dim>1</dim>
					<dim>1</dim>
				</port>
			</output>
		</layer>
		<layer id="283" name="5903590727846" type="Const" version="opset1">
			<data offset="0" size="4" shape="" element_type="f32"/>
			<output>
				<port id="0" precision="FP32"/>
			</output>
		</layer>
		<layer id="284" name="5904590830603" type="Const" version="opset1">
			<data offset="0" size="4" shape="" element_type="f32"/>
			<output>
				<port id="0" precision="FP32"/>
			</output>
		</layer>
		<layer id="285" name="5905590928356" type="Const" version="opset1">
			<data offset="0" size="4" shape="" element_type="f32"/>
			<output>
				<port id="0" precision="FP32"/>
			</output>
		</layer>
		<layer id="286" name="5906591031578" type="Const" version="opset1">
			<data offset="0" size="4" shape="" element_type="f32"/>
			<output>
				<port id="0" precision="FP32"/>
			</output>
		</layer>
		<layer id="287" name="2166216829925" type="Const" version="opset1">
			<data offset="42116" size="512" shape="1,128,1,1" element_type="f32"/>
			<output>
				<port id="0" precision="FP32">
					<dim>1</dim>
					<dim>128</dim>
					<dim>1</dim>
					<dim>1</dim>
				</port>
			</output>
		</layer>
		<layer id="288" name="5323532730174" type="Const" version="opset1">
			<data offset="0" size="4" shape="" element_type="f32"/>
			<output>
				<port id="0" precision="FP32"/>
			</output>
		</layer>
		<layer id="289" name="5324532829808" type="Const" version="opset1">
			<data offset="0" size="4" shape="" element_type="f32"/>
			<output>
				<port id="0" precision="FP32"/>
			</output>
		</layer>
		<layer id="290" name="5325532929190" type="Const" version="opset1">
			<data offset="0" size="4" shape="" element_type="f32"/>
			<output>
				<port id="0" precision="FP32"/>
			</output>
		</layer>
		<layer id="291" name="5326533030027" type="Const" version="opset1">
			<data offset="0" size="4" shape="" element_type="f32"/>
			<output>
				<port id="0" precision="FP32"/>
			</output>
		</layer>
		<layer id="292" name="Constant_12452113430741" type="Const" version="opset1">
			<data offset="46596" size="3840" shape="1,960,1,1" element_type="f32"/>
			<rt_info>
				<attribute name="fused_names" version="0" value="8.denselayer23.norm1.bias, 8.denselayer23.norm1.running_mean, 8.denselayer23.norm1.running_var, 8.denselayer23.norm1.weight, BatchNormalization_256"/>
			</rt_info>
			<output>
				<port id="0" precision="FP32">
					<dim>1</dim>
					<dim>960</dim>
					<dim>1</dim>
					<dim>1</dim>
				</port>
			</output>
		</layer>
		<layer id="293" name="116571166127699" type="Const" version="opset1">
			<data offset="0" size="4" shape="" element_type="f32"/>
			<output>
				<port id="0" precision="FP32"/>
			</output>
		</layer>
		<layer id="294" name="116581166227144" type="Const" version="opset1">
			<data offset="0" size="4" shape="" element_type="f32"/>
			<output>
				<port id="0" precision="FP32"/>
			</output>
		</layer>
		<layer id="295" name="116591166329553" type="Const" version="opset1">
			<data offset="0" size="4" shape="" element_type="f32"/>
			<output>
				<port id="0" precision="FP32"/>
			</output>
		</layer>
		<layer id="296" name="116601166428812" type="Const" version="opset1">
			<data offset="0" size="4" shape="" element_type="f32"/>
			<output>
				<port id="0" precision="FP32"/>
			</output>
		</layer>
		<layer id="297" name="2162216427168" type="Const" version="opset1">
			<data offset="41988" size="128" shape="1,32,1,1" element_type="f32"/>
			<output>
				<port id="0" precision="FP32">
					<dim>1</dim>
					<dim>32</dim>
					<dim>1</dim>
					<dim>1</dim>
				</port>
			</output>
		</layer>
		<layer id="298" name="5103510727753" type="Const" version="opset1">
			<data offset="0" size="4" shape="" element_type="f32"/>
			<output>
				<port id="0" precision="FP32"/>
			</output>
		</layer>
		<layer id="299" name="5104510829463" type="Const" version="opset1">
			<data offset="0" size="4" shape="" element_type="f32"/>
			<output>
				<port id="0" precision="FP32"/>
			</output>
		</layer>
		<layer id="300" name="5105510927519" type="Const" version="opset1">
			<data offset="0" size="4" shape="" element_type="f32"/>
			<output>
				<port id="0" precision="FP32"/>
			</output>
		</layer>
		<layer id="301" name="5106511028440" type="Const" version="opset1">
			<data offset="0" size="4" shape="" element_type="f32"/>
			<output>
				<port id="0" precision="FP32"/>
			</output>
		</layer>
		<layer id="302" name="2158216029517" type="Const" version="opset1">
			<data offset="42116" size="512" shape="1,128,1,1" element_type="f32"/>
			<output>
				<port id="0" precision="FP32">
					<dim>1</dim>
					<dim>128</dim>
					<dim>1</dim>
					<dim>1</dim>
				</port>
			</output>
		</layer>
		<layer id="303" name="3233323726994" type="Const" version="opset1">
			<data offset="0" size="4" shape="" element_type="f32"/>
			<output>
				<port id="0" precision="FP32"/>
			</output>
		</layer>
		<layer id="304" name="3234323829280" type="Const" version="opset1">
			<data offset="0" size="4" shape="" element_type="f32"/>
			<output>
				<port id="0" precision="FP32"/>
			</output>
		</layer>
		<layer id="305" name="3235323929301" type="Const" version="opset1">
			<data offset="0" size="4" shape="" element_type="f32"/>
			<output>
				<port id="0" precision="FP32"/>
			</output>
		</layer>
		<layer id="306" name="3236324030762" type="Const" version="opset1">
			<data offset="0" size="4" shape="" element_type="f32"/>
			<output>
				<port id="0" precision="FP32"/>
			</output>
		</layer>
		<layer id="307" name="Constant_12326112331110" type="Const" version="opset1">
			<data offset="50436" size="3712" shape="1,928,1,1" element_type="f32"/>
			<rt_info>
				<attribute name="fused_names" version="0" value="8.denselayer22.norm1.bias, 8.denselayer22.norm1.running_mean, 8.denselayer22.norm1.running_var, 8.denselayer22.norm1.weight, BatchNormalization_250"/>
			</rt_info>
			<output>
				<port id="0" precision="FP32">
					<dim>1</dim>
					<dim>928</dim>
					<dim>1</dim>
					<dim>1</dim>
				</port>
			</output>
		</layer>
		<layer id="308" name="114271143129541" type="Const" version="opset1">
			<data offset="0" size="4" shape="" element_type="f32"/>
			<output>
				<port id="0" precision="FP32"/>
			</output>
		</layer>
		<layer id="309" name="114281143231572" type="Const" version="opset1">
			<data offset="0" size="4" shape="" element_type="f32"/>
			<output>
				<port id="0" precision="FP32"/>
			</output>
		</layer>
		<layer id="310" name="114291143327057" type="Const" version="opset1">
			<data offset="0" size="4" shape="" element_type="f32"/>
			<output>
				<port id="0" precision="FP32"/>
			</output>
		</layer>
		<layer id="311" name="114301143427537" type="Const" version="opset1">
			<data offset="0" size="4" shape="" element_type="f32"/>
			<output>
				<port id="0" precision="FP32"/>
			</output>
		</layer>
		<layer id="312" name="2154215631431" type="Const" version="opset1">
			<data offset="41988" size="128" shape="1,32,1,1" element_type="f32"/>
			<output>
				<port id="0" precision="FP32">
					<dim>1</dim>
					<dim>32</dim>
					<dim>1</dim>
					<dim>1</dim>
				</port>
			</output>
		</layer>
		<layer id="313" name="4873487729871" type="Const" version="opset1">
			<data offset="0" size="4" shape="" element_type="f32"/>
			<output>
				<port id="0" precision="FP32"/>
			</output>
		</layer>
		<layer id="314" name="4874487828077" type="Const" version="opset1">
			<data offset="0" size="4" shape="" element_type="f32"/>
			<output>
				<port id="0" precision="FP32"/>
			</output>
		</layer>
		<layer id="315" name="4875487927174" type="Const" version="opset1">
			<data offset="0" size="4" shape="" element_type="f32"/>
			<output>
				<port id="0" precision="FP32"/>
			</output>
		</layer>
		<layer id="316" name="4876488028869" type="Const" version="opset1">
			<data offset="0" size="4" shape="" element_type="f32"/>
			<output>
				<port id="0" precision="FP32"/>
			</output>
		</layer>
		<layer id="317" name="2150215228605" type="Const" version="opset1">
			<data offset="42116" size="512" shape="1,128,1,1" element_type="f32"/>
			<output>
				<port id="0" precision="FP32">
					<dim>1</dim>
					<dim>128</dim>
					<dim>1</dim>
					<dim>1</dim>
				</port>
			</output>
		</layer>
		<layer id="318" name="4683468728224" type="Const" version="opset1">
			<data offset="0" size="4" shape="" element_type="f32"/>
			<output>
				<port id="0" precision="FP32"/>
			</output>
		</layer>
		<layer id="319" name="4684468827021" type="Const" version="opset1">
			<data offset="0" size="4" shape="" element_type="f32"/>
			<output>
				<port id="0" precision="FP32"/>
			</output>
		</layer>
		<layer id="320" name="4685468931503" type="Const" version="opset1">
			<data offset="0" size="4" shape="" element_type="f32"/>
			<output>
				<port id="0" precision="FP32"/>
			</output>
		</layer>
		<layer id="321" name="4686469029586" type="Const" version="opset1">
			<data offset="0" size="4" shape="" element_type="f32"/>
			<output>
				<port id="0" precision="FP32"/>
			</output>
		</layer>
		<layer id="322" name="Constant_12200111229481" type="Const" version="opset1">
			<data offset="54148" size="3584" shape="1,896,1,1" element_type="f32"/>
			<rt_info>
				<attribute name="fused_names" version="0" value="8.denselayer21.norm1.bias, 8.denselayer21.norm1.running_mean, 8.denselayer21.norm1.running_var, 8.denselayer21.norm1.weight, BatchNormalization_244"/>
			</rt_info>
			<output>
				<port id="0" precision="FP32">
					<dim>1</dim>
					<dim>896</dim>
					<dim>1</dim>
					<dim>1</dim>
				</port>
			</output>
		</layer>
		<layer id="323" name="112071121128530" type="Const" version="opset1">
			<data offset="0" size="4" shape="" element_type="f32"/>
			<output>
				<port id="0" precision="FP32"/>
			</output>
		</layer>
		<layer id="324" name="112081121226886" type="Const" version="opset1">
			<data offset="0" size="4" shape="" element_type="f32"/>
			<output>
				<port id="0" precision="FP32"/>
			</output>
		</layer>
		<layer id="325" name="112091121330432" type="Const" version="opset1">
			<data offset="0" size="4" shape="" element_type="f32"/>
			<output>
				<port id="0" precision="FP32"/>
			</output>
		</layer>
		<layer id="326" name="112101121431563" type="Const" version="opset1">
			<data offset="0" size="4" shape="" element_type="f32"/>
			<output>
				<port id="0" precision="FP32"/>
			</output>
		</layer>
		<layer id="327" name="2146214831074" type="Const" version="opset1">
			<data offset="41988" size="128" shape="1,32,1,1" element_type="f32"/>
			<output>
				<port id="0" precision="FP32">
					<dim>1</dim>
					<dim>32</dim>
					<dim>1</dim>
					<dim>1</dim>
				</port>
			</output>
		</layer>
		<layer id="328" name="3203320729208" type="Const" version="opset1">
			<data offset="0" size="4" shape="" element_type="f32"/>
			<output>
				<port id="0" precision="FP32"/>
			</output>
		</layer>
		<layer id="329" name="3204320830483" type="Const" version="opset1">
			<data offset="0" size="4" shape="" element_type="f32"/>
			<output>
				<port id="0" precision="FP32"/>
			</output>
		</layer>
		<layer id="330" name="3205320930633" type="Const" version="opset1">
			<data offset="0" size="4" shape="" element_type="f32"/>
			<output>
				<port id="0" precision="FP32"/>
			</output>
		</layer>
		<layer id="331" name="3206321029175" type="Const" version="opset1">
			<data offset="0" size="4" shape="" element_type="f32"/>
			<output>
				<port id="0" precision="FP32"/>
			</output>
		</layer>
		<layer id="332" name="2142214426931" type="Const" version="opset1">
			<data offset="42116" size="512" shape="1,128,1,1" element_type="f32"/>
			<output>
				<port id="0" precision="FP32">
					<dim>1</dim>
					<dim>128</dim>
					<dim>1</dim>
					<dim>1</dim>
				</port>
			</output>
		</layer>
		<layer id="333" name="3093309727561" type="Const" version="opset1">
			<data offset="0" size="4" shape="" element_type="f32"/>
			<output>
				<port id="0" precision="FP32"/>
			</output>
		</layer>
		<layer id="334" name="3094309831464" type="Const" version="opset1">
			<data offset="0" size="4" shape="" element_type="f32"/>
			<output>
				<port id="0" precision="FP32"/>
			</output>
		</layer>
		<layer id="335" name="3095309928596" type="Const" version="opset1">
			<data offset="0" size="4" shape="" element_type="f32"/>
			<output>
				<port id="0" precision="FP32"/>
			</output>
		</layer>
		<layer id="336" name="3096310029784" type="Const" version="opset1">
			<data offset="0" size="4" shape="" element_type="f32"/>
			<output>
				<port id="0" precision="FP32"/>
			</output>
		</layer>
		<layer id="337" name="Constant_12074110127354" type="Const" version="opset1">
			<data offset="57732" size="3456" shape="1,864,1,1" element_type="f32"/>
			<rt_info>
				<attribute name="fused_names" version="0" value="8.denselayer20.norm1.bias, 8.denselayer20.norm1.running_mean, 8.denselayer20.norm1.running_var, 8.denselayer20.norm1.weight, BatchNormalization_238"/>
			</rt_info>
			<output>
				<port id="0" precision="FP32">
					<dim>1</dim>
					<dim>864</dim>
					<dim>1</dim>
					<dim>1</dim>
				</port>
			</output>
		</layer>
		<layer id="338" name="109971100130780" type="Const" version="opset1">
			<data offset="0" size="4" shape="" element_type="f32"/>
			<output>
				<port id="0" precision="FP32"/>
			</output>
		</layer>
		<layer id="339" name="109981100230942" type="Const" version="opset1">
			<data offset="0" size="4" shape="" element_type="f32"/>
			<output>
				<port id="0" precision="FP32"/>
			</output>
		</layer>
		<layer id="340" name="109991100328296" type="Const" version="opset1">
			<data offset="0" size="4" shape="" element_type="f32"/>
			<output>
				<port id="0" precision="FP32"/>
			</output>
		</layer>
		<layer id="341" name="110001100430909" type="Const" version="opset1">
			<data offset="0" size="4" shape="" element_type="f32"/>
			<output>
				<port id="0" precision="FP32"/>
			</output>
		</layer>
		<layer id="342" name="2138214031179" type="Const" version="opset1">
			<data offset="41988" size="128" shape="1,32,1,1" element_type="f32"/>
			<output>
				<port id="0" precision="FP32">
					<dim>1</dim>
					<dim>32</dim>
					<dim>1</dim>
					<dim>1</dim>
				</port>
			</output>
		</layer>
		<layer id="343" name="5703570728692" type="Const" version="opset1">
			<data offset="0" size="4" shape="" element_type="f32"/>
			<output>
				<port id="0" precision="FP32"/>
			</output>
		</layer>
		<layer id="344" name="5704570827630" type="Const" version="opset1">
			<data offset="0" size="4" shape="" element_type="f32"/>
			<output>
				<port id="0" precision="FP32"/>
			</output>
		</layer>
		<layer id="345" name="5705570929052" type="Const" version="opset1">
			<data offset="0" size="4" shape="" element_type="f32"/>
			<output>
				<port id="0" precision="FP32"/>
			</output>
		</layer>
		<layer id="346" name="5706571027408" type="Const" version="opset1">
			<data offset="0" size="4" shape="" element_type="f32"/>
			<output>
				<port id="0" precision="FP32"/>
			</output>
		</layer>
		<layer id="347" name="2134213628017" type="Const" version="opset1">
			<data offset="42116" size="512" shape="1,128,1,1" element_type="f32"/>
			<output>
				<port id="0" precision="FP32">
					<dim>1</dim>
					<dim>128</dim>
					<dim>1</dim>
					<dim>1</dim>
				</port>
			</output>
		</layer>
		<layer id="348" name="3143314726991" type="Const" version="opset1">
			<data offset="0" size="4" shape="" element_type="f32"/>
			<output>
				<port id="0" precision="FP32"/>
			</output>
		</layer>
		<layer id="349" name="3144314830891" type="Const" version="opset1">
			<data offset="0" size="4" shape="" element_type="f32"/>
			<output>
				<port id="0" precision="FP32"/>
			</output>
		</layer>
		<layer id="350" name="3145314929295" type="Const" version="opset1">
			<data offset="0" size="4" shape="" element_type="f32"/>
			<output>
				<port id="0" precision="FP32"/>
			</output>
		</layer>
		<layer id="351" name="3146315030843" type="Const" version="opset1">
			<data offset="0" size="4" shape="" element_type="f32"/>
			<output>
				<port id="0" precision="FP32"/>
			</output>
		</layer>
		<layer id="352" name="Constant_11948109029343" type="Const" version="opset1">
			<data offset="61188" size="3328" shape="1,832,1,1" element_type="f32"/>
			<rt_info>
				<attribute name="fused_names" version="0" value="8.denselayer19.norm1.bias, 8.denselayer19.norm1.running_mean, 8.denselayer19.norm1.running_var, 8.denselayer19.norm1.weight, BatchNormalization_232"/>
			</rt_info>
			<output>
				<port id="0" precision="FP32">
					<dim>1</dim>
					<dim>832</dim>
					<dim>1</dim>
					<dim>1</dim>
				</port>
			</output>
		</layer>
		<layer id="353" name="107971080131308" type="Const" version="opset1">
			<data offset="0" size="4" shape="" element_type="f32"/>
			<output>
				<port id="0" precision="FP32"/>
			</output>
		</layer>
		<layer id="354" name="107981080228548" type="Const" version="opset1">
			<data offset="0" size="4" shape="" element_type="f32"/>
			<output>
				<port id="0" precision="FP32"/>
			</output>
		</layer>
		<layer id="355" name="107991080331266" type="Const" version="opset1">
			<data offset="0" size="4" shape="" element_type="f32"/>
			<output>
				<port id="0" precision="FP32"/>
			</output>
		</layer>
		<layer id="356" name="108001080431374" type="Const" version="opset1">
			<data offset="0" size="4" shape="" element_type="f32"/>
			<output>
				<port id="0" precision="FP32"/>
			</output>
		</layer>
		<layer id="357" name="2130213227921" type="Const" version="opset1">
			<data offset="41988" size="128" shape="1,32,1,1" element_type="f32"/>
			<output>
				<port id="0" precision="FP32">
					<dim>1</dim>
					<dim>32</dim>
					<dim>1</dim>
					<dim>1</dim>
				</port>
			</output>
		</layer>
		<layer id="358" name="6043604730894" type="Const" version="opset1">
			<data offset="0" size="4" shape="" element_type="f32"/>
			<output>
				<port id="0" precision="FP32"/>
			</output>
		</layer>
		<layer id="359" name="6044604826913" type="Const" version="opset1">
			<data offset="0" size="4" shape="" element_type="f32"/>
			<output>
				<port id="0" precision="FP32"/>
			</output>
		</layer>
		<layer id="360" name="6045604927165" type="Const" version="opset1">
			<data offset="0" size="4" shape="" element_type="f32"/>
			<output>
				<port id="0" precision="FP32"/>
			</output>
		</layer>
		<layer id="361" name="6046605028332" type="Const" version="opset1">
			<data offset="0" size="4" shape="" element_type="f32"/>
			<output>
				<port id="0" precision="FP32"/>
			</output>
		</layer>
		<layer id="362" name="2126212829532" type="Const" version="opset1">
			<data offset="42116" size="512" shape="1,128,1,1" element_type="f32"/>
			<output>
				<port id="0" precision="FP32">
					<dim>1</dim>
					<dim>128</dim>
					<dim>1</dim>
					<dim>1</dim>
				</port>
			</output>
		</layer>
		<layer id="363" name="4833483730297" type="Const" version="opset1">
			<data offset="0" size="4" shape="" element_type="f32"/>
			<output>
				<port id="0" precision="FP32"/>
			</output>
		</layer>
		<layer id="364" name="4834483829790" type="Const" version="opset1">
			<data offset="0" size="4" shape="" element_type="f32"/>
			<output>
				<port id="0" precision="FP32"/>
			</output>
		</layer>
		<layer id="365" name="4835483929769" type="Const" version="opset1">
			<data offset="0" size="4" shape="" element_type="f32"/>
			<output>
				<port id="0" precision="FP32"/>
			</output>
		</layer>
		<layer id="366" name="4836484030537" type="Const" version="opset1">
			<data offset="0" size="4" shape="" element_type="f32"/>
			<output>
				<port id="0" precision="FP32"/>
			</output>
		</layer>
		<layer id="367" name="Constant_11822107927387" type="Const" version="opset1">
			<data offset="64516" size="3200" shape="1,800,1,1" element_type="f32"/>
			<rt_info>
				<attribute name="fused_names" version="0" value="8.denselayer18.norm1.bias, 8.denselayer18.norm1.running_mean, 8.denselayer18.norm1.running_var, 8.denselayer18.norm1.weight, BatchNormalization_226"/>
			</rt_info>
			<output>
				<port id="0" precision="FP32">
					<dim>1</dim>
					<dim>800</dim>
					<dim>1</dim>
					<dim>1</dim>
				</port>
			</output>
		</layer>
		<layer id="368" name="106071061130060" type="Const" version="opset1">
			<data offset="0" size="4" shape="" element_type="f32"/>
			<output>
				<port id="0" precision="FP32"/>
			</output>
		</layer>
		<layer id="369" name="106081061228458" type="Const" version="opset1">
			<data offset="0" size="4" shape="" element_type="f32"/>
			<output>
				<port id="0" precision="FP32"/>
			</output>
		</layer>
		<layer id="370" name="106091061329499" type="Const" version="opset1">
			<data offset="0" size="4" shape="" element_type="f32"/>
			<output>
				<port id="0" precision="FP32"/>
			</output>
		</layer>
		<layer id="371" name="106101061429751" type="Const" version="opset1">
			<data offset="0" size="4" shape="" element_type="f32"/>
			<output>
				<port id="0" precision="FP32"/>
			</output>
		</layer>
		<layer id="372" name="2122212428080" type="Const" version="opset1">
			<data offset="41988" size="128" shape="1,32,1,1" element_type="f32"/>
			<output>
				<port id="0" precision="FP32">
					<dim>1</dim>
					<dim>32</dim>
					<dim>1</dim>
					<dim>1</dim>
				</port>
			</output>
		</layer>
		<layer id="373" name="5733573729184" type="Const" version="opset1">
			<data offset="0" size="4" shape="" element_type="f32"/>
			<output>
				<port id="0" precision="FP32"/>
			</output>
		</layer>
		<layer id="374" name="5734573828599" type="Const" version="opset1">
			<data offset="0" size="4" shape="" element_type="f32"/>
			<output>
				<port id="0" precision="FP32"/>
			</output>
		</layer>
		<layer id="375" name="5735573930750" type="Const" version="opset1">
			<data offset="0" size="4" shape="" element_type="f32"/>
			<output>
				<port id="0" precision="FP32"/>
			</output>
		</layer>
		<layer id="376" name="5736574028746" type="Const" version="opset1">
			<data offset="0" size="4" shape="" element_type="f32"/>
			<output>
				<port id="0" precision="FP32"/>
			</output>
		</layer>
		<layer id="377" name="2118212029388" type="Const" version="opset1">
			<data offset="42116" size="512" shape="1,128,1,1" element_type="f32"/>
			<output>
				<port id="0" precision="FP32">
					<dim>1</dim>
					<dim>128</dim>
					<dim>1</dim>
					<dim>1</dim>
				</port>
			</output>
		</layer>
		<layer id="378" name="3163316730747" type="Const" version="opset1">
			<data offset="0" size="4" shape="" element_type="f32"/>
			<output>
				<port id="0" precision="FP32"/>
			</output>
		</layer>
		<layer id="379" name="3164316831530" type="Const" version="opset1">
			<data offset="0" size="4" shape="" element_type="f32"/>
			<output>
				<port id="0" precision="FP32"/>
			</output>
		</layer>
		<layer id="380" name="3165316931086" type="Const" version="opset1">
			<data offset="0" size="4" shape="" element_type="f32"/>
			<output>
				<port id="0" precision="FP32"/>
			</output>
		</layer>
		<layer id="381" name="3166317030759" type="Const" version="opset1">
			<data offset="0" size="4" shape="" element_type="f32"/>
			<output>
				<port id="0" precision="FP32"/>
			</output>
		</layer>
		<layer id="382" name="Constant_11696106829703" type="Const" version="opset1">
			<data offset="67716" size="3072" shape="1,768,1,1" element_type="f32"/>
			<rt_info>
				<attribute name="fused_names" version="0" value="8.denselayer17.norm1.bias, 8.denselayer17.norm1.running_mean, 8.denselayer17.norm1.running_var, 8.denselayer17.norm1.weight, BatchNormalization_220"/>
			</rt_info>
			<output>
				<port id="0" precision="FP32">
					<dim>1</dim>
					<dim>768</dim>
					<dim>1</dim>
					<dim>1</dim>
				</port>
			</output>
		</layer>
		<layer id="383" name="104271043130219" type="Const" version="opset1">
			<data offset="0" size="4" shape="" element_type="f32"/>
			<output>
				<port id="0" precision="FP32"/>
			</output>
		</layer>
		<layer id="384" name="104281043228119" type="Const" version="opset1">
			<data offset="0" size="4" shape="" element_type="f32"/>
			<output>
				<port id="0" precision="FP32"/>
			</output>
		</layer>
		<layer id="385" name="104291043330954" type="Const" version="opset1">
			<data offset="0" size="4" shape="" element_type="f32"/>
			<output>
				<port id="0" precision="FP32"/>
			</output>
		</layer>
		<layer id="386" name="104301043427129" type="Const" version="opset1">
			<data offset="0" size="4" shape="" element_type="f32"/>
			<output>
				<port id="0" precision="FP32"/>
			</output>
		</layer>
		<layer id="387" name="2114211628092" type="Const" version="opset1">
			<data offset="41988" size="128" shape="1,32,1,1" element_type="f32"/>
			<output>
				<port id="0" precision="FP32">
					<dim>1</dim>
					<dim>32</dim>
					<dim>1</dim>
					<dim>1</dim>
				</port>
			</output>
		</layer>
		<layer id="388" name="3363336727735" type="Const" version="opset1">
			<data offset="0" size="4" shape="" element_type="f32"/>
			<output>
				<port id="0" precision="FP32"/>
			</output>
		</layer>
		<layer id="389" name="3364336828098" type="Const" version="opset1">
			<data offset="0" size="4" shape="" element_type="f32"/>
			<output>
				<port id="0" precision="FP32"/>
			</output>
		</layer>
		<layer id="390" name="3365336930897" type="Const" version="opset1">
			<data offset="0" size="4" shape="" element_type="f32"/>
			<output>
				<port id="0" precision="FP32"/>
			</output>
		</layer>
		<layer id="391" name="3366337030240" type="Const" version="opset1">
			<data offset="0" size="4" shape="" element_type="f32"/>
			<output>
				<port id="0" precision="FP32"/>
			</output>
		</layer>
		<layer id="392" name="2110211230390" type="Const" version="opset1">
			<data offset="42116" size="512" shape="1,128,1,1" element_type="f32"/>
			<output>
				<port id="0" precision="FP32">
					<dim>1</dim>
					<dim>128</dim>
					<dim>1</dim>
					<dim>1</dim>
				</port>
			</output>
		</layer>
		<layer id="393" name="5803580730498" type="Const" version="opset1">
			<data offset="0" size="4" shape="" element_type="f32"/>
			<output>
				<port id="0" precision="FP32"/>
			</output>
		</layer>
		<layer id="394" name="5804580828518" type="Const" version="opset1">
			<data offset="0" size="4" shape="" element_type="f32"/>
			<output>
				<port id="0" precision="FP32"/>
			</output>
		</layer>
		<layer id="395" name="5805580928152" type="Const" version="opset1">
			<data offset="0" size="4" shape="" element_type="f32"/>
			<output>
				<port id="0" precision="FP32"/>
			</output>
		</layer>
		<layer id="396" name="5806581026982" type="Const" version="opset1">
			<data offset="0" size="4" shape="" element_type="f32"/>
			<output>
				<port id="0" precision="FP32"/>
			</output>
		</layer>
		<layer id="397" name="Constant_11570105729469" type="Const" version="opset1">
			<data offset="70788" size="2944" shape="1,736,1,1" element_type="f32"/>
			<rt_info>
				<attribute name="fused_names" version="0" value="8.denselayer16.norm1.bias, 8.denselayer16.norm1.running_mean, 8.denselayer16.norm1.running_var, 8.denselayer16.norm1.weight, BatchNormalization_214"/>
			</rt_info>
			<output>
				<port id="0" precision="FP32">
					<dim>1</dim>
					<dim>736</dim>
					<dim>1</dim>
					<dim>1</dim>
				</port>
			</output>
		</layer>
		<layer id="398" name="102571026128551" type="Const" version="opset1">
			<data offset="0" size="4" shape="" element_type="f32"/>
			<output>
				<port id="0" precision="FP32"/>
			</output>
		</layer>
		<layer id="399" name="102581026228284" type="Const" version="opset1">
			<data offset="0" size="4" shape="" element_type="f32"/>
			<output>
				<port id="0" precision="FP32"/>
			</output>
		</layer>
		<layer id="400" name="102591026330270" type="Const" version="opset1">
			<data offset="0" size="4" shape="" element_type="f32"/>
			<output>
				<port id="0" precision="FP32"/>
			</output>
		</layer>
		<layer id="401" name="102601026429955" type="Const" version="opset1">
			<data offset="0" size="4" shape="" element_type="f32"/>
			<output>
				<port id="0" precision="FP32"/>
			</output>
		</layer>
		<layer id="402" name="2106210829193" type="Const" version="opset1">
			<data offset="41988" size="128" shape="1,32,1,1" element_type="f32"/>
			<output>
				<port id="0" precision="FP32">
					<dim>1</dim>
					<dim>32</dim>
					<dim>1</dim>
					<dim>1</dim>
				</port>
			</output>
		</layer>
		<layer id="403" name="5653565727633" type="Const" version="opset1">
			<data offset="0" size="4" shape="" element_type="f32"/>
			<output>
				<port id="0" precision="FP32"/>
			</output>
		</layer>
		<layer id="404" name="5654565830120" type="Const" version="opset1">
			<data offset="0" size="4" shape="" element_type="f32"/>
			<output>
				<port id="0" precision="FP32"/>
			</output>
		</layer>
		<layer id="405" name="5655565930234" type="Const" version="opset1">
			<data offset="0" size="4" shape="" element_type="f32"/>
			<output>
				<port id="0" precision="FP32"/>
			</output>
		</layer>
		<layer id="406" name="5656566030957" type="Const" version="opset1">
			<data offset="0" size="4" shape="" element_type="f32"/>
			<output>
				<port id="0" precision="FP32"/>
			</output>
		</layer>
		<layer id="407" name="2102210428926" type="Const" version="opset1">
			<data offset="42116" size="512" shape="1,128,1,1" element_type="f32"/>
			<output>
				<port id="0" precision="FP32">
					<dim>1</dim>
					<dim>128</dim>
					<dim>1</dim>
					<dim>1</dim>
				</port>
			</output>
		</layer>
		<layer id="408" name="5393539731146" type="Const" version="opset1">
			<data offset="0" size="4" shape="" element_type="f32"/>
			<output>
				<port id="0" precision="FP32"/>
			</output>
		</layer>
		<layer id="409" name="5394539831593" type="Const" version="opset1">
			<data offset="0" size="4" shape="" element_type="f32"/>
			<output>
				<port id="0" precision="FP32"/>
			</output>
		</layer>
		<layer id="410" name="5395539927864" type="Const" version="opset1">
			<data offset="0" size="4" shape="" element_type="f32"/>
			<output>
				<port id="0" precision="FP32"/>
			</output>
		</layer>
		<layer id="411" name="5396540028401" type="Const" version="opset1">
			<data offset="0" size="4" shape="" element_type="f32"/>
			<output>
				<port id="0" precision="FP32"/>
			</output>
		</layer>
		<layer id="412" name="Constant_11444104629055" type="Const" version="opset1">
			<data offset="73732" size="2816" shape="1,704,1,1" element_type="f32"/>
			<rt_info>
				<attribute name="fused_names" version="0" value="8.denselayer15.norm1.bias, 8.denselayer15.norm1.running_mean, 8.denselayer15.norm1.running_var, 8.denselayer15.norm1.weight, BatchNormalization_208"/>
			</rt_info>
			<output>
				<port id="0" precision="FP32">
					<dim>1</dim>
					<dim>704</dim>
					<dim>1</dim>
					<dim>1</dim>
				</port>
			</output>
		</layer>
		<layer id="413" name="100971010131200" type="Const" version="opset1">
			<data offset="0" size="4" shape="" element_type="f32"/>
			<output>
				<port id="0" precision="FP32"/>
			</output>
		</layer>
		<layer id="414" name="100981010227642" type="Const" version="opset1">
			<data offset="0" size="4" shape="" element_type="f32"/>
			<output>
				<port id="0" precision="FP32"/>
			</output>
		</layer>
		<layer id="415" name="100991010330972" type="Const" version="opset1">
			<data offset="0" size="4" shape="" element_type="f32"/>
			<output>
				<port id="0" precision="FP32"/>
			</output>
		</layer>
		<layer id="416" name="101001010428239" type="Const" version="opset1">
			<data offset="0" size="4" shape="" element_type="f32"/>
			<output>
				<port id="0" precision="FP32"/>
			</output>
		</layer>
		<layer id="417" name="2098210030510" type="Const" version="opset1">
			<data offset="41988" size="128" shape="1,32,1,1" element_type="f32"/>
			<output>
				<port id="0" precision="FP32">
					<dim>1</dim>
					<dim>32</dim>
					<dim>1</dim>
					<dim>1</dim>
				</port>
			</output>
		</layer>
		<layer id="418" name="5453545730252" type="Const" version="opset1">
			<data offset="0" size="4" shape="" element_type="f32"/>
			<output>
				<port id="0" precision="FP32"/>
			</output>
		</layer>
		<layer id="419" name="5454545830375" type="Const" version="opset1">
			<data offset="0" size="4" shape="" element_type="f32"/>
			<output>
				<port id="0" precision="FP32"/>
			</output>
		</layer>
		<layer id="420" name="5455545928113" type="Const" version="opset1">
			<data offset="0" size="4" shape="" element_type="f32"/>
			<output>
				<port id="0" precision="FP32"/>
			</output>
		</layer>
		<layer id="421" name="5456546029700" type="Const" version="opset1">
			<data offset="0" size="4" shape="" element_type="f32"/>
			<output>
				<port id="0" precision="FP32"/>
			</output>
		</layer>
		<layer id="422" name="2094209631356" type="Const" version="opset1">
			<data offset="42116" size="512" shape="1,128,1,1" element_type="f32"/>
			<output>
				<port id="0" precision="FP32">
					<dim>1</dim>
					<dim>128</dim>
					<dim>1</dim>
					<dim>1</dim>
				</port>
			</output>
		</layer>
		<layer id="423" name="4593459728659" type="Const" version="opset1">
			<data offset="0" size="4" shape="" element_type="f32"/>
			<output>
				<port id="0" precision="FP32"/>
			</output>
		</layer>
		<layer id="424" name="4594459829964" type="Const" version="opset1">
			<data offset="0" size="4" shape="" element_type="f32"/>
			<output>
				<port id="0" precision="FP32"/>
			</output>
		</layer>
		<layer id="425" name="4595459927288" type="Const" version="opset1">
			<data offset="0" size="4" shape="" element_type="f32"/>
			<output>
				<port id="0" precision="FP32"/>
			</output>
		</layer>
		<layer id="426" name="4596460027492" type="Const" version="opset1">
			<data offset="0" size="4" shape="" element_type="f32"/>
			<output>
				<port id="0" precision="FP32"/>
			</output>
		</layer>
		<layer id="427" name="Constant_11318103531248" type="Const" version="opset1">
			<data offset="76548" size="2688" shape="1,672,1,1" element_type="f32"/>
			<rt_info>
				<attribute name="fused_names" version="0" value="8.denselayer14.norm1.bias, 8.denselayer14.norm1.running_mean, 8.denselayer14.norm1.running_var, 8.denselayer14.norm1.weight, BatchNormalization_202"/>
			</rt_info>
			<output>
				<port id="0" precision="FP32">
					<dim>1</dim>
					<dim>672</dim>
					<dim>1</dim>
					<dim>1</dim>
				</port>
			</output>
		</layer>
		<layer id="428" name="9947995127369" type="Const" version="opset1">
			<data offset="0" size="4" shape="" element_type="f32"/>
			<output>
				<port id="0" precision="FP32"/>
			</output>
		</layer>
		<layer id="429" name="9948995231596" type="Const" version="opset1">
			<data offset="0" size="4" shape="" element_type="f32"/>
			<output>
				<port id="0" precision="FP32"/>
			</output>
		</layer>
		<layer id="430" name="9949995328047" type="Const" version="opset1">
			<data offset="0" size="4" shape="" element_type="f32"/>
			<output>
				<port id="0" precision="FP32"/>
			</output>
		</layer>
		<layer id="431" name="9950995427282" type="Const" version="opset1">
			<data offset="0" size="4" shape="" element_type="f32"/>
			<output>
				<port id="0" precision="FP32"/>
			</output>
		</layer>
		<layer id="432" name="2090209228611" type="Const" version="opset1">
			<data offset="41988" size="128" shape="1,32,1,1" element_type="f32"/>
			<output>
				<port id="0" precision="FP32">
					<dim>1</dim>
					<dim>32</dim>
					<dim>1</dim>
					<dim>1</dim>
				</port>
			</output>
		</layer>
		<layer id="433" name="3783378730882" type="Const" version="opset1">
			<data offset="0" size="4" shape="" element_type="f32"/>
			<output>
				<port id="0" precision="FP32"/>
			</output>
		</layer>
		<layer id="434" name="3784378828380" type="Const" version="opset1">
			<data offset="0" size="4" shape="" element_type="f32"/>
			<output>
				<port id="0" precision="FP32"/>
			</output>
		</layer>
		<layer id="435" name="3785378929859" type="Const" version="opset1">
			<data offset="0" size="4" shape="" element_type="f32"/>
			<output>
				<port id="0" precision="FP32"/>
			</output>
		</layer>
		<layer id="436" name="3786379030723" type="Const" version="opset1">
			<data offset="0" size="4" shape="" element_type="f32"/>
			<output>
				<port id="0" precision="FP32"/>
			</output>
		</layer>
		<layer id="437" name="2086208829145" type="Const" version="opset1">
			<data offset="42116" size="512" shape="1,128,1,1" element_type="f32"/>
			<output>
				<port id="0" precision="FP32">
					<dim>1</dim>
					<dim>128</dim>
					<dim>1</dim>
					<dim>1</dim>
				</port>
			</output>
		</layer>
		<layer id="438" name="5973597728506" type="Const" version="opset1">
			<data offset="0" size="4" shape="" element_type="f32"/>
			<output>
				<port id="0" precision="FP32"/>
			</output>
		</layer>
		<layer id="439" name="5974597827549" type="Const" version="opset1">
			<data offset="0" size="4" shape="" element_type="f32"/>
			<output>
				<port id="0" precision="FP32"/>
			</output>
		</layer>
		<layer id="440" name="5975597931017" type="Const" version="opset1">
			<data offset="0" size="4" shape="" element_type="f32"/>
			<output>
				<port id="0" precision="FP32"/>
			</output>
		</layer>
		<layer id="441" name="5976598028689" type="Const" version="opset1">
			<data offset="0" size="4" shape="" element_type="f32"/>
			<output>
				<port id="0" precision="FP32"/>
			</output>
		</layer>
		<layer id="442" name="Constant_11192102431458" type="Const" version="opset1">
			<data offset="79236" size="2560" shape="1,640,1,1" element_type="f32"/>
			<rt_info>
				<attribute name="fused_names" version="0" value="8.denselayer13.norm1.bias, 8.denselayer13.norm1.running_mean, 8.denselayer13.norm1.running_var, 8.denselayer13.norm1.weight, BatchNormalization_196"/>
			</rt_info>
			<output>
				<port id="0" precision="FP32">
					<dim>1</dim>
					<dim>640</dim>
					<dim>1</dim>
					<dim>1</dim>
				</port>
			</output>
		</layer>
		<layer id="443" name="9807981130381" type="Const" version="opset1">
			<data offset="0" size="4" shape="" element_type="f32"/>
			<output>
				<port id="0" precision="FP32"/>
			</output>
		</layer>
		<layer id="444" name="9808981229772" type="Const" version="opset1">
			<data offset="0" size="4" shape="" element_type="f32"/>
			<output>
				<port id="0" precision="FP32"/>
			</output>
		</layer>
		<layer id="445" name="9809981328449" type="Const" version="opset1">
			<data offset="0" size="4" shape="" element_type="f32"/>
			<output>
				<port id="0" precision="FP32"/>
			</output>
		</layer>
		<layer id="446" name="9810981428722" type="Const" version="opset1">
			<data offset="0" size="4" shape="" element_type="f32"/>
			<output>
				<port id="0" precision="FP32"/>
			</output>
		</layer>
		<layer id="447" name="2082208427321" type="Const" version="opset1">
			<data offset="41988" size="128" shape="1,32,1,1" element_type="f32"/>
			<output>
				<port id="0" precision="FP32">
					<dim>1</dim>
					<dim>32</dim>
					<dim>1</dim>
					<dim>1</dim>
				</port>
			</output>
		</layer>
		<layer id="448" name="4753475731035" type="Const" version="opset1">
			<data offset="0" size="4" shape="" element_type="f32"/>
			<output>
				<port id="0" precision="FP32"/>
			</output>
		</layer>
		<layer id="449" name="4754475827279" type="Const" version="opset1">
			<data offset="0" size="4" shape="" element_type="f32"/>
			<output>
				<port id="0" precision="FP32"/>
			</output>
		</layer>
		<layer id="450" name="4755475930597" type="Const" version="opset1">
			<data offset="0" size="4" shape="" element_type="f32"/>
			<output>
				<port id="0" precision="FP32"/>
			</output>
		</layer>
		<layer id="451" name="4756476027060" type="Const" version="opset1">
			<data offset="0" size="4" shape="" element_type="f32"/>
			<output>
				<port id="0" precision="FP32"/>
			</output>
		</layer>
		<layer id="452" name="2078208028410" type="Const" version="opset1">
			<data offset="42116" size="512" shape="1,128,1,1" element_type="f32"/>
			<output>
				<port id="0" precision="FP32">
					<dim>1</dim>
					<dim>128</dim>
					<dim>1</dim>
					<dim>1</dim>
				</port>
			</output>
		</layer>
		<layer id="453" name="5563556728779" type="Const" version="opset1">
			<data offset="0" size="4" shape="" element_type="f32"/>
			<output>
				<port id="0" precision="FP32"/>
			</output>
		</layer>
		<layer id="454" name="5564556830963" type="Const" version="opset1">
			<data offset="0" size="4" shape="" element_type="f32"/>
			<output>
				<port id="0" precision="FP32"/>
			</output>
		</layer>
		<layer id="455" name="5565556928701" type="Const" version="opset1">
			<data offset="0" size="4" shape="" element_type="f32"/>
			<output>
				<port id="0" precision="FP32"/>
			</output>
		</layer>
		<layer id="456" name="5566557027543" type="Const" version="opset1">
			<data offset="0" size="4" shape="" element_type="f32"/>
			<output>
				<port id="0" precision="FP32"/>
			</output>
		</layer>
		<layer id="457" name="Constant_11066101328881" type="Const" version="opset1">
			<data offset="81796" size="2432" shape="1,608,1,1" element_type="f32"/>
			<rt_info>
				<attribute name="fused_names" version="0" value="8.denselayer12.norm1.bias, 8.denselayer12.norm1.running_mean, 8.denselayer12.norm1.running_var, 8.denselayer12.norm1.weight, BatchNormalization_190"/>
			</rt_info>
			<output>
				<port id="0" precision="FP32">
					<dim>1</dim>
					<dim>608</dim>
					<dim>1</dim>
					<dim>1</dim>
				</port>
			</output>
		</layer>
		<layer id="458" name="9677968130600" type="Const" version="opset1">
			<data offset="0" size="4" shape="" element_type="f32"/>
			<output>
				<port id="0" precision="FP32"/>
			</output>
		</layer>
		<layer id="459" name="9678968230612" type="Const" version="opset1">
			<data offset="0" size="4" shape="" element_type="f32"/>
			<output>
				<port id="0" precision="FP32"/>
			</output>
		</layer>
		<layer id="460" name="9679968327951" type="Const" version="opset1">
			<data offset="0" size="4" shape="" element_type="f32"/>
			<output>
				<port id="0" precision="FP32"/>
			</output>
		</layer>
		<layer id="461" name="9680968427183" type="Const" version="opset1">
			<data offset="0" size="4" shape="" element_type="f32"/>
			<output>
				<port id="0" precision="FP32"/>
			</output>
		</layer>
		<layer id="462" name="2074207629727" type="Const" version="opset1">
			<data offset="41988" size="128" shape="1,32,1,1" element_type="f32"/>
			<output>
				<port id="0" precision="FP32">
					<dim>1</dim>
					<dim>32</dim>
					<dim>1</dim>
					<dim>1</dim>
				</port>
			</output>
		</layer>
		<layer id="463" name="5433543731485" type="Const" version="opset1">
			<data offset="0" size="4" shape="" element_type="f32"/>
			<output>
				<port id="0" precision="FP32"/>
			</output>
		</layer>
		<layer id="464" name="5434543827717" type="Const" version="opset1">
			<data offset="0" size="4" shape="" element_type="f32"/>
			<output>
				<port id="0" precision="FP32"/>
			</output>
		</layer>
		<layer id="465" name="5435543928818" type="Const" version="opset1">
			<data offset="0" size="4" shape="" element_type="f32"/>
			<output>
				<port id="0" precision="FP32"/>
			</output>
		</layer>
		<layer id="466" name="5436544028125" type="Const" version="opset1">
			<data offset="0" size="4" shape="" element_type="f32"/>
			<output>
				<port id="0" precision="FP32"/>
			</output>
		</layer>
		<layer id="467" name="2070207228437" type="Const" version="opset1">
			<data offset="42116" size="512" shape="1,128,1,1" element_type="f32"/>
			<output>
				<port id="0" precision="FP32">
					<dim>1</dim>
					<dim>128</dim>
					<dim>1</dim>
					<dim>1</dim>
				</port>
			</output>
		</layer>
		<layer id="468" name="4483448729583" type="Const" version="opset1">
			<data offset="0" size="4" shape="" element_type="f32"/>
			<output>
				<port id="0" precision="FP32"/>
			</output>
		</layer>
		<layer id="469" name="4484448828158" type="Const" version="opset1">
			<data offset="0" size="4" shape="" element_type="f32"/>
			<output>
				<port id="0" precision="FP32"/>
			</output>
		</layer>
		<layer id="470" name="4485448927531" type="Const" version="opset1">
			<data offset="0" size="4" shape="" element_type="f32"/>
			<output>
				<port id="0" precision="FP32"/>
			</output>
		</layer>
		<layer id="471" name="4486449031185" type="Const" version="opset1">
			<data offset="0" size="4" shape="" element_type="f32"/>
			<output>
				<port id="0" precision="FP32"/>
			</output>
		</layer>
		<layer id="472" name="Constant_10940100230078" type="Const" version="opset1">
			<data offset="84228" size="2304" shape="1,576,1,1" element_type="f32"/>
			<rt_info>
				<attribute name="fused_names" version="0" value="8.denselayer11.norm1.bias, 8.denselayer11.norm1.running_mean, 8.denselayer11.norm1.running_var, 8.denselayer11.norm1.weight, BatchNormalization_184"/>
			</rt_info>
			<output>
				<port id="0" precision="FP32">
					<dim>1</dim>
					<dim>576</dim>
					<dim>1</dim>
					<dim>1</dim>
				</port>
			</output>
		</layer>
		<layer id="473" name="9557956129250" type="Const" version="opset1">
			<data offset="0" size="4" shape="" element_type="f32"/>
			<output>
				<port id="0" precision="FP32"/>
			</output>
		</layer>
		<layer id="474" name="9558956228533" type="Const" version="opset1">
			<data offset="0" size="4" shape="" element_type="f32"/>
			<output>
				<port id="0" precision="FP32"/>
			</output>
		</layer>
		<layer id="475" name="9559956329103" type="Const" version="opset1">
			<data offset="0" size="4" shape="" element_type="f32"/>
			<output>
				<port id="0" precision="FP32"/>
			</output>
		</layer>
		<layer id="476" name="9560956430420" type="Const" version="opset1">
			<data offset="0" size="4" shape="" element_type="f32"/>
			<output>
				<port id="0" precision="FP32"/>
			</output>
		</layer>
		<layer id="477" name="2066206827672" type="Const" version="opset1">
			<data offset="41988" size="128" shape="1,32,1,1" element_type="f32"/>
			<output>
				<port id="0" precision="FP32">
					<dim>1</dim>
					<dim>32</dim>
					<dim>1</dim>
					<dim>1</dim>
				</port>
			</output>
		</layer>
		<layer id="478" name="4523452727363" type="Const" version="opset1">
			<data offset="0" size="4" shape="" element_type="f32"/>
			<output>
				<port id="0" precision="FP32"/>
			</output>
		</layer>
		<layer id="479" name="4524452829046" type="Const" version="opset1">
			<data offset="0" size="4" shape="" element_type="f32"/>
			<output>
				<port id="0" precision="FP32"/>
			</output>
		</layer>
		<layer id="480" name="4525452929010" type="Const" version="opset1">
			<data offset="0" size="4" shape="" element_type="f32"/>
			<output>
				<port id="0" precision="FP32"/>
			</output>
		</layer>
		<layer id="481" name="4526453028572" type="Const" version="opset1">
			<data offset="0" size="4" shape="" element_type="f32"/>
			<output>
				<port id="0" precision="FP32"/>
			</output>
		</layer>
		<layer id="482" name="2062206427909" type="Const" version="opset1">
			<data offset="42116" size="512" shape="1,128,1,1" element_type="f32"/>
			<output>
				<port id="0" precision="FP32">
					<dim>1</dim>
					<dim>128</dim>
					<dim>1</dim>
					<dim>1</dim>
				</port>
			</output>
		</layer>
		<layer id="483" name="4903490729154" type="Const" version="opset1">
			<data offset="0" size="4" shape="" element_type="f32"/>
			<output>
				<port id="0" precision="FP32"/>
			</output>
		</layer>
		<layer id="484" name="4904490831521" type="Const" version="opset1">
			<data offset="0" size="4" shape="" element_type="f32"/>
			<output>
				<port id="0" precision="FP32"/>
			</output>
		</layer>
		<layer id="485" name="4905490928845" type="Const" version="opset1">
			<data offset="0" size="4" shape="" element_type="f32"/>
			<output>
				<port id="0" precision="FP32"/>
			</output>
		</layer>
		<layer id="486" name="4906491030675" type="Const" version="opset1">
			<data offset="0" size="4" shape="" element_type="f32"/>
			<output>
				<port id="0" precision="FP32"/>
			</output>
		</layer>
		<layer id="487" name="Constant_1081499129460" type="Const" version="opset1">
			<data offset="86532" size="2176" shape="1,544,1,1" element_type="f32"/>
			<rt_info>
				<attribute name="fused_names" version="0" value="8.denselayer10.norm1.bias, 8.denselayer10.norm1.running_mean, 8.denselayer10.norm1.running_var, 8.denselayer10.norm1.weight, BatchNormalization_178"/>
			</rt_info>
			<output>
				<port id="0" precision="FP32">
					<dim>1</dim>
					<dim>544</dim>
					<dim>1</dim>
					<dim>1</dim>
				</port>
			</output>
		</layer>
		<layer id="488" name="9447945130315" type="Const" version="opset1">
			<data offset="0" size="4" shape="" element_type="f32"/>
			<output>
				<port id="0" precision="FP32"/>
			</output>
		</layer>
		<layer id="489" name="9448945227108" type="Const" version="opset1">
			<data offset="0" size="4" shape="" element_type="f32"/>
			<output>
				<port id="0" precision="FP32"/>
			</output>
		</layer>
		<layer id="490" name="9449945328161" type="Const" version="opset1">
			<data offset="0" size="4" shape="" element_type="f32"/>
			<output>
				<port id="0" precision="FP32"/>
			</output>
		</layer>
		<layer id="491" name="9450945429139" type="Const" version="opset1">
			<data offset="0" size="4" shape="" element_type="f32"/>
			<output>
				<port id="0" precision="FP32"/>
			</output>
		</layer>
		<layer id="492" name="2058206030459" type="Const" version="opset1">
			<data offset="41988" size="128" shape="1,32,1,1" element_type="f32"/>
			<output>
				<port id="0" precision="FP32">
					<dim>1</dim>
					<dim>32</dim>
					<dim>1</dim>
					<dim>1</dim>
				</port>
			</output>
		</layer>
		<layer id="493" name="5033503727936" type="Const" version="opset1">
			<data offset="0" size="4" shape="" element_type="f32"/>
			<output>
				<port id="0" precision="FP32"/>
			</output>
		</layer>
		<layer id="494" name="5034503830654" type="Const" version="opset1">
			<data offset="0" size="4" shape="" element_type="f32"/>
			<output>
				<port id="0" precision="FP32"/>
			</output>
		</layer>
		<layer id="495" name="5035503927651" type="Const" version="opset1">
			<data offset="0" size="4" shape="" element_type="f32"/>
			<output>
				<port id="0" precision="FP32"/>
			</output>
		</layer>
		<layer id="496" name="5036504030543" type="Const" version="opset1">
			<data offset="0" size="4" shape="" element_type="f32"/>
			<output>
				<port id="0" precision="FP32"/>
			</output>
		</layer>
		<layer id="497" name="2054205627147" type="Const" version="opset1">
			<data offset="42116" size="512" shape="1,128,1,1" element_type="f32"/>
			<output>
				<port id="0" precision="FP32">
					<dim>1</dim>
					<dim>128</dim>
					<dim>1</dim>
					<dim>1</dim>
				</port>
			</output>
		</layer>
		<layer id="498" name="5303530727861" type="Const" version="opset1">
			<data offset="0" size="4" shape="" element_type="f32"/>
			<output>
				<port id="0" precision="FP32"/>
			</output>
		</layer>
		<layer id="499" name="5304530831395" type="Const" version="opset1">
			<data offset="0" size="4" shape="" element_type="f32"/>
			<output>
				<port id="0" precision="FP32"/>
			</output>
		</layer>
		<layer id="500" name="5305530931587" type="Const" version="opset1">
			<data offset="0" size="4" shape="" element_type="f32"/>
			<output>
				<port id="0" precision="FP32"/>
			</output>
		</layer>
		<layer id="501" name="5306531027075" type="Const" version="opset1">
			<data offset="0" size="4" shape="" element_type="f32"/>
			<output>
				<port id="0" precision="FP32"/>
			</output>
		</layer>
		<layer id="502" name="Constant_1068898029187" type="Const" version="opset1">
			<data offset="90756" size="2048" shape="1,512,1,1" element_type="f32"/>
			<rt_info>
				<attribute name="fused_names" version="0" value="8.denselayer9.norm1.bias, 8.denselayer9.norm1.running_mean, 8.denselayer9.norm1.running_var, 8.denselayer9.norm1.weight, BatchNormalization_172"/>
			</rt_info>
			<output>
				<port id="0" precision="FP32">
					<dim>1</dim>
					<dim>512</dim>
					<dim>1</dim>
					<dim>1</dim>
				</port>
			</output>
		</layer>
		<layer id="503" name="9347935128200" type="Const" version="opset1">
			<data offset="0" size="4" shape="" element_type="f32"/>
			<output>
				<port id="0" precision="FP32"/>
			</output>
		</layer>
		<layer id="504" name="9348935230453" type="Const" version="opset1">
			<data offset="0" size="4" shape="" element_type="f32"/>
			<output>
				<port id="0" precision="FP32"/>
			</output>
		</layer>
		<layer id="505" name="9349935329427" type="Const" version="opset1">
			<data offset="0" size="4" shape="" element_type="f32"/>
			<output>
				<port id="0" precision="FP32"/>
			</output>
		</layer>
		<layer id="506" name="9350935429520" type="Const" version="opset1">
			<data offset="0" size="4" shape="" element_type="f32"/>
			<output>
				<port id="0" precision="FP32"/>
			</output>
		</layer>
		<layer id="507" name="2050205230249" type="Const" version="opset1">
			<data offset="41988" size="128" shape="1,32,1,1" element_type="f32"/>
			<output>
				<port id="0" precision="FP32">
					<dim>1</dim>
					<dim>32</dim>
					<dim>1</dim>
					<dim>1</dim>
				</port>
			</output>
		</layer>
		<layer id="508" name="3323332731305" type="Const" version="opset1">
			<data offset="0" size="4" shape="" element_type="f32"/>
			<output>
				<port id="0" precision="FP32"/>
			</output>
		</layer>
		<layer id="509" name="3324332829406" type="Const" version="opset1">
			<data offset="0" size="4" shape="" element_type="f32"/>
			<output>
				<port id="0" precision="FP32"/>
			</output>
		</layer>
		<layer id="510" name="3325332929205" type="Const" version="opset1">
			<data offset="0" size="4" shape="" element_type="f32"/>
			<output>
				<port id="0" precision="FP32"/>
			</output>
		</layer>
		<layer id="511" name="3326333029505" type="Const" version="opset1">
			<data offset="0" size="4" shape="" element_type="f32"/>
			<output>
				<port id="0" precision="FP32"/>
			</output>
		</layer>
		<layer id="512" name="2046204828860" type="Const" version="opset1">
			<data offset="42116" size="512" shape="1,128,1,1" element_type="f32"/>
			<output>
				<port id="0" precision="FP32">
					<dim>1</dim>
					<dim>128</dim>
					<dim>1</dim>
					<dim>1</dim>
				</port>
			</output>
		</layer>
		<layer id="513" name="3623362730222" type="Const" version="opset1">
			<data offset="0" size="4" shape="" element_type="f32"/>
			<output>
				<port id="0" precision="FP32"/>
			</output>
		</layer>
		<layer id="514" name="3624362830516" type="Const" version="opset1">
			<data offset="0" size="4" shape="" element_type="f32"/>
			<output>
				<port id="0" precision="FP32"/>
			</output>
		</layer>
		<layer id="515" name="3625362929910" type="Const" version="opset1">
			<data offset="0" size="4" shape="" element_type="f32"/>
			<output>
				<port id="0" precision="FP32"/>
			</output>
		</layer>
		<layer id="516" name="3626363027636" type="Const" version="opset1">
			<data offset="0" size="4" shape="" element_type="f32"/>
			<output>
				<port id="0" precision="FP32"/>
			</output>
		</layer>
		<layer id="517" name="Constant_1056296927690" type="Const" version="opset1">
			<data offset="92804" size="1920" shape="1,480,1,1" element_type="f32"/>
			<rt_info>
				<attribute name="fused_names" version="0" value="8.denselayer8.norm1.bias, 8.denselayer8.norm1.running_mean, 8.denselayer8.norm1.running_var, 8.denselayer8.norm1.weight, BatchNormalization_166"/>
			</rt_info>
			<output>
				<port id="0" precision="FP32">
					<dim>1</dim>
					<dim>480</dim>
					<dim>1</dim>
					<dim>1</dim>
				</port>
			</output>
		</layer>
		<layer id="518" name="9257926127903" type="Const" version="opset1">
			<data offset="0" size="4" shape="" element_type="f32"/>
			<output>
				<port id="0" precision="FP32"/>
			</output>
		</layer>
		<layer id="519" name="9258926229613" type="Const" version="opset1">
			<data offset="0" size="4" shape="" element_type="f32"/>
			<output>
				<port id="0" precision="FP32"/>
			</output>
		</layer>
		<layer id="520" name="9259926328434" type="Const" version="opset1">
			<data offset="0" size="4" shape="" element_type="f32"/>
			<output>
				<port id="0" precision="FP32"/>
			</output>
		</layer>
		<layer id="521" name="9260926428917" type="Const" version="opset1">
			<data offset="0" size="4" shape="" element_type="f32"/>
			<output>
				<port id="0" precision="FP32"/>
			</output>
		</layer>
		<layer id="522" name="2042204430036" type="Const" version="opset1">
			<data offset="41988" size="128" shape="1,32,1,1" element_type="f32"/>
			<output>
				<port id="0" precision="FP32">
					<dim>1</dim>
					<dim>32</dim>
					<dim>1</dim>
					<dim>1</dim>
				</port>
			</output>
		</layer>
		<layer id="523" name="5283528726904" type="Const" version="opset1">
			<data offset="0" size="4" shape="" element_type="f32"/>
			<output>
				<port id="0" precision="FP32"/>
			</output>
		</layer>
		<layer id="524" name="5284528829115" type="Const" version="opset1">
			<data offset="0" size="4" shape="" element_type="f32"/>
			<output>
				<port id="0" precision="FP32"/>
			</output>
		</layer>
		<layer id="525" name="5285528927228" type="Const" version="opset1">
			<data offset="0" size="4" shape="" element_type="f32"/>
			<output>
				<port id="0" precision="FP32"/>
			</output>
		</layer>
		<layer id="526" name="5286529027666" type="Const" version="opset1">
			<data offset="0" size="4" shape="" element_type="f32"/>
			<output>
				<port id="0" precision="FP32"/>
			</output>
		</layer>
		<layer id="527" name="2038204029379" type="Const" version="opset1">
			<data offset="42116" size="512" shape="1,128,1,1" element_type="f32"/>
			<output>
				<port id="0" precision="FP32">
					<dim>1</dim>
					<dim>128</dim>
					<dim>1</dim>
					<dim>1</dim>
				</port>
			</output>
		</layer>
		<layer id="528" name="3863386730360" type="Const" version="opset1">
			<data offset="0" size="4" shape="" element_type="f32"/>
			<output>
				<port id="0" precision="FP32"/>
			</output>
		</layer>
		<layer id="529" name="3864386826985" type="Const" version="opset1">
			<data offset="0" size="4" shape="" element_type="f32"/>
			<output>
				<port id="0" precision="FP32"/>
			</output>
		</layer>
		<layer id="530" name="3865386930216" type="Const" version="opset1">
			<data offset="0" size="4" shape="" element_type="f32"/>
			<output>
				<port id="0" precision="FP32"/>
			</output>
		</layer>
		<layer id="531" name="3866387029049" type="Const" version="opset1">
			<data offset="0" size="4" shape="" element_type="f32"/>
			<output>
				<port id="0" precision="FP32"/>
			</output>
		</layer>
		<layer id="532" name="Constant_1043695827684" type="Const" version="opset1">
			<data offset="94724" size="1792" shape="1,448,1,1" element_type="f32"/>
			<rt_info>
				<attribute name="fused_names" version="0" value="8.denselayer7.norm1.bias, 8.denselayer7.norm1.running_mean, 8.denselayer7.norm1.running_var, 8.denselayer7.norm1.weight, BatchNormalization_160"/>
			</rt_info>
			<output>
				<port id="0" precision="FP32">
					<dim>1</dim>
					<dim>448</dim>
					<dim>1</dim>
					<dim>1</dim>
				</port>
			</output>
		</layer>
		<layer id="533" name="9177918130996" type="Const" version="opset1">
			<data offset="0" size="4" shape="" element_type="f32"/>
			<output>
				<port id="0" precision="FP32"/>
			</output>
		</layer>
		<layer id="534" name="9178918228203" type="Const" version="opset1">
			<data offset="0" size="4" shape="" element_type="f32"/>
			<output>
				<port id="0" precision="FP32"/>
			</output>
		</layer>
		<layer id="535" name="9179918328005" type="Const" version="opset1">
			<data offset="0" size="4" shape="" element_type="f32"/>
			<output>
				<port id="0" precision="FP32"/>
			</output>
		</layer>
		<layer id="536" name="9180918429754" type="Const" version="opset1">
			<data offset="0" size="4" shape="" element_type="f32"/>
			<output>
				<port id="0" precision="FP32"/>
			</output>
		</layer>
		<layer id="537" name="2034203628293" type="Const" version="opset1">
			<data offset="41988" size="128" shape="1,32,1,1" element_type="f32"/>
			<output>
				<port id="0" precision="FP32">
					<dim>1</dim>
					<dim>32</dim>
					<dim>1</dim>
					<dim>1</dim>
				</port>
			</output>
		</layer>
		<layer id="538" name="5123512729220" type="Const" version="opset1">
			<data offset="0" size="4" shape="" element_type="f32"/>
			<output>
				<port id="0" precision="FP32"/>
			</output>
		</layer>
		<layer id="539" name="5124512829172" type="Const" version="opset1">
			<data offset="0" size="4" shape="" element_type="f32"/>
			<output>
				<port id="0" precision="FP32"/>
			</output>
		</layer>
		<layer id="540" name="5125512931224" type="Const" version="opset1">
			<data offset="0" size="4" shape="" element_type="f32"/>
			<output>
				<port id="0" precision="FP32"/>
			</output>
		</layer>
		<layer id="541" name="5126513029022" type="Const" version="opset1">
			<data offset="0" size="4" shape="" element_type="f32"/>
			<output>
				<port id="0" precision="FP32"/>
			</output>
		</layer>
		<layer id="542" name="2030203230168" type="Const" version="opset1">
			<data offset="42116" size="512" shape="1,128,1,1" element_type="f32"/>
			<output>
				<port id="0" precision="FP32">
					<dim>1</dim>
					<dim>128</dim>
					<dim>1</dim>
					<dim>1</dim>
				</port>
			</output>
		</layer>
		<layer id="543" name="4853485730324" type="Const" version="opset1">
			<data offset="0" size="4" shape="" element_type="f32"/>
			<output>
				<port id="0" precision="FP32"/>
			</output>
		</layer>
		<layer id="544" name="4854485830408" type="Const" version="opset1">
			<data offset="0" size="4" shape="" element_type="f32"/>
			<output>
				<port id="0" precision="FP32"/>
			</output>
		</layer>
		<layer id="545" name="4855485929931" type="Const" version="opset1">
			<data offset="0" size="4" shape="" element_type="f32"/>
			<output>
				<port id="0" precision="FP32"/>
			</output>
		</layer>
		<layer id="546" name="4856486030948" type="Const" version="opset1">
			<data offset="0" size="4" shape="" element_type="f32"/>
			<output>
				<port id="0" precision="FP32"/>
			</output>
		</layer>
		<layer id="547" name="Constant_1031094729664" type="Const" version="opset1">
			<data offset="96516" size="1664" shape="1,416,1,1" element_type="f32"/>
			<rt_info>
				<attribute name="fused_names" version="0" value="8.denselayer6.norm1.bias, 8.denselayer6.norm1.running_mean, 8.denselayer6.norm1.running_var, 8.denselayer6.norm1.weight, BatchNormalization_154"/>
			</rt_info>
			<output>
				<port id="0" precision="FP32">
					<dim>1</dim>
					<dim>416</dim>
					<dim>1</dim>
					<dim>1</dim>
				</port>
			</output>
		</layer>
		<layer id="548" name="9107911130369" type="Const" version="opset1">
			<data offset="0" size="4" shape="" element_type="f32"/>
			<output>
				<port id="0" precision="FP32"/>
			</output>
		</layer>
		<layer id="549" name="9108911227453" type="Const" version="opset1">
			<data offset="0" size="4" shape="" element_type="f32"/>
			<output>
				<port id="0" precision="FP32"/>
			</output>
		</layer>
		<layer id="550" name="9109911328806" type="Const" version="opset1">
			<data offset="0" size="4" shape="" element_type="f32"/>
			<output>
				<port id="0" precision="FP32"/>
			</output>
		</layer>
		<layer id="551" name="9110911427249" type="Const" version="opset1">
			<data offset="0" size="4" shape="" element_type="f32"/>
			<output>
				<port id="0" precision="FP32"/>
			</output>
		</layer>
		<layer id="552" name="2026202828443" type="Const" version="opset1">
			<data offset="41988" size="128" shape="1,32,1,1" element_type="f32"/>
			<output>
				<port id="0" precision="FP32">
					<dim>1</dim>
					<dim>32</dim>
					<dim>1</dim>
					<dim>1</dim>
				</port>
			</output>
		</layer>
		<layer id="553" name="5353535728221" type="Const" version="opset1">
			<data offset="0" size="4" shape="" element_type="f32"/>
			<output>
				<port id="0" precision="FP32"/>
			</output>
		</layer>
		<layer id="554" name="5354535829067" type="Const" version="opset1">
			<data offset="0" size="4" shape="" element_type="f32"/>
			<output>
				<port id="0" precision="FP32"/>
			</output>
		</layer>
		<layer id="555" name="5355535931299" type="Const" version="opset1">
			<data offset="0" size="4" shape="" element_type="f32"/>
			<output>
				<port id="0" precision="FP32"/>
			</output>
		</layer>
		<layer id="556" name="5356536029373" type="Const" version="opset1">
			<data offset="0" size="4" shape="" element_type="f32"/>
			<output>
				<port id="0" precision="FP32"/>
			</output>
		</layer>
		<layer id="557" name="2022202427423" type="Const" version="opset1">
			<data offset="42116" size="512" shape="1,128,1,1" element_type="f32"/>
			<output>
				<port id="0" precision="FP32">
					<dim>1</dim>
					<dim>128</dim>
					<dim>1</dim>
					<dim>1</dim>
				</port>
			</output>
		</layer>
		<layer id="558" name="4813481730081" type="Const" version="opset1">
			<data offset="0" size="4" shape="" element_type="f32"/>
			<output>
				<port id="0" precision="FP32"/>
			</output>
		</layer>
		<layer id="559" name="4814481830000" type="Const" version="opset1">
			<data offset="0" size="4" shape="" element_type="f32"/>
			<output>
				<port id="0" precision="FP32"/>
			</output>
		</layer>
		<layer id="560" name="4815481931239" type="Const" version="opset1">
			<data offset="0" size="4" shape="" element_type="f32"/>
			<output>
				<port id="0" precision="FP32"/>
			</output>
		</layer>
		<layer id="561" name="4816482027939" type="Const" version="opset1">
			<data offset="0" size="4" shape="" element_type="f32"/>
			<output>
				<port id="0" precision="FP32"/>
			</output>
		</layer>
		<layer id="562" name="Constant_1018493629058" type="Const" version="opset1">
			<data offset="98180" size="1536" shape="1,384,1,1" element_type="f32"/>
			<rt_info>
				<attribute name="fused_names" version="0" value="8.denselayer5.norm1.bias, 8.denselayer5.norm1.running_mean, 8.denselayer5.norm1.running_var, 8.denselayer5.norm1.weight, BatchNormalization_148"/>
			</rt_info>
			<output>
				<port id="0" precision="FP32">
					<dim>1</dim>
					<dim>384</dim>
					<dim>1</dim>
					<dim>1</dim>
				</port>
			</output>
		</layer>
		<layer id="563" name="9047905127096" type="Const" version="opset1">
			<data offset="0" size="4" shape="" element_type="f32"/>
			<output>
				<port id="0" precision="FP32"/>
			</output>
		</layer>
		<layer id="564" name="9048905229415" type="Const" version="opset1">
			<data offset="0" size="4" shape="" element_type="f32"/>
			<output>
				<port id="0" precision="FP32"/>
			</output>
		</layer>
		<layer id="565" name="9049905330666" type="Const" version="opset1">
			<data offset="0" size="4" shape="" element_type="f32"/>
			<output>
				<port id="0" precision="FP32"/>
			</output>
		</layer>
		<layer id="566" name="9050905428986" type="Const" version="opset1">
			<data offset="0" size="4" shape="" element_type="f32"/>
			<output>
				<port id="0" precision="FP32"/>
			</output>
		</layer>
		<layer id="567" name="2018202031455" type="Const" version="opset1">
			<data offset="41988" size="128" shape="1,32,1,1" element_type="f32"/>
			<output>
				<port id="0" precision="FP32">
					<dim>1</dim>
					<dim>32</dim>
					<dim>1</dim>
					<dim>1</dim>
				</port>
			</output>
		</layer>
		<layer id="568" name="3563356727573" type="Const" version="opset1">
			<data offset="0" size="4" shape="" element_type="f32"/>
			<output>
				<port id="0" precision="FP32"/>
			</output>
		</layer>
		<layer id="569" name="3564356829367" type="Const" version="opset1">
			<data offset="0" size="4" shape="" element_type="f32"/>
			<output>
				<port id="0" precision="FP32"/>
			</output>
		</layer>
		<layer id="570" name="3565356927567" type="Const" version="opset1">
			<data offset="0" size="4" shape="" element_type="f32"/>
			<output>
				<port id="0" precision="FP32"/>
			</output>
		</layer>
		<layer id="571" name="3566357030150" type="Const" version="opset1">
			<data offset="0" size="4" shape="" element_type="f32"/>
			<output>
				<port id="0" precision="FP32"/>
			</output>
		</layer>
		<layer id="572" name="2014201628413" type="Const" version="opset1">
			<data offset="42116" size="512" shape="1,128,1,1" element_type="f32"/>
			<output>
				<port id="0" precision="FP32">
					<dim>1</dim>
					<dim>128</dim>
					<dim>1</dim>
					<dim>1</dim>
				</port>
			</output>
		</layer>
		<layer id="573" name="3743374729061" type="Const" version="opset1">
			<data offset="0" size="4" shape="" element_type="f32"/>
			<output>
				<port id="0" precision="FP32"/>
			</output>
		</layer>
		<layer id="574" name="3744374829877" type="Const" version="opset1">
			<data offset="0" size="4" shape="" element_type="f32"/>
			<output>
				<port id="0" precision="FP32"/>
			</output>
		</layer>
		<layer id="575" name="3745374927654" type="Const" version="opset1">
			<data offset="0" size="4" shape="" element_type="f32"/>
			<output>
				<port id="0" precision="FP32"/>
			</output>
		</layer>
		<layer id="576" name="3746375029034" type="Const" version="opset1">
			<data offset="0" size="4" shape="" element_type="f32"/>
			<output>
				<port id="0" precision="FP32"/>
			</output>
		</layer>
		<layer id="577" name="Constant_1005892528071" type="Const" version="opset1">
			<data offset="99716" size="1408" shape="1,352,1,1" element_type="f32"/>
			<rt_info>
				<attribute name="fused_names" version="0" value="8.denselayer4.norm1.bias, 8.denselayer4.norm1.running_mean, 8.denselayer4.norm1.running_var, 8.denselayer4.norm1.weight, BatchNormalization_142"/>
			</rt_info>
			<output>
				<port id="0" precision="FP32">
					<dim>1</dim>
					<dim>352</dim>
					<dim>1</dim>
					<dim>1</dim>
				</port>
			</output>
		</layer>
		<layer id="578" name="8997900129076" type="Const" version="opset1">
			<data offset="0" size="4" shape="" element_type="f32"/>
			<output>
				<port id="0" precision="FP32"/>
			</output>
		</layer>
		<layer id="579" name="8998900227555" type="Const" version="opset1">
			<data offset="0" size="4" shape="" element_type="f32"/>
			<output>
				<port id="0" precision="FP32"/>
			</output>
		</layer>
		<layer id="580" name="8999900328965" type="Const" version="opset1">
			<data offset="0" size="4" shape="" element_type="f32"/>
			<output>
				<port id="0" precision="FP32"/>
			</output>
		</layer>
		<layer id="581" name="9000900428515" type="Const" version="opset1">
			<data offset="0" size="4" shape="" element_type="f32"/>
			<output>
				<port id="0" precision="FP32"/>
			</output>
		</layer>
		<layer id="582" name="2010201227417" type="Const" version="opset1">
			<data offset="41988" size="128" shape="1,32,1,1" element_type="f32"/>
			<output>
				<port id="0" precision="FP32">
					<dim>1</dim>
					<dim>32</dim>
					<dim>1</dim>
					<dim>1</dim>
				</port>
			</output>
		</layer>
		<layer id="583" name="3643364731629" type="Const" version="opset1">
			<data offset="0" size="4" shape="" element_type="f32"/>
			<output>
				<port id="0" precision="FP32"/>
			</output>
		</layer>
		<layer id="584" name="3644364827087" type="Const" version="opset1">
			<data offset="0" size="4" shape="" element_type="f32"/>
			<output>
				<port id="0" precision="FP32"/>
			</output>
		</layer>
		<layer id="585" name="3645364926901" type="Const" version="opset1">
			<data offset="0" size="4" shape="" element_type="f32"/>
			<output>
				<port id="0" precision="FP32"/>
			</output>
		</layer>
		<layer id="586" name="3646365028755" type="Const" version="opset1">
			<data offset="0" size="4" shape="" element_type="f32"/>
			<output>
				<port id="0" precision="FP32"/>
			</output>
		</layer>
		<layer id="587" name="2006200831233" type="Const" version="opset1">
			<data offset="42116" size="512" shape="1,128,1,1" element_type="f32"/>
			<output>
				<port id="0" precision="FP32">
					<dim>1</dim>
					<dim>128</dim>
					<dim>1</dim>
					<dim>1</dim>
				</port>
			</output>
		</layer>
		<layer id="588" name="5513551727246" type="Const" version="opset1">
			<data offset="0" size="4" shape="" element_type="f32"/>
			<output>
				<port id="0" precision="FP32"/>
			</output>
		</layer>
		<layer id="589" name="5514551829442" type="Const" version="opset1">
			<data offset="0" size="4" shape="" element_type="f32"/>
			<output>
				<port id="0" precision="FP32"/>
			</output>
		</layer>
		<layer id="590" name="5515551931149" type="Const" version="opset1">
			<data offset="0" size="4" shape="" element_type="f32"/>
			<output>
				<port id="0" precision="FP32"/>
			</output>
		</layer>
		<layer id="591" name="5516552028953" type="Const" version="opset1">
			<data offset="0" size="4" shape="" element_type="f32"/>
			<output>
				<port id="0" precision="FP32"/>
			</output>
		</layer>
		<layer id="592" name="Constant_993291427852" type="Const" version="opset1">
			<data offset="101124" size="1280" shape="1,320,1,1" element_type="f32"/>
			<rt_info>
				<attribute name="fused_names" version="0" value="8.denselayer3.norm1.bias, 8.denselayer3.norm1.running_mean, 8.denselayer3.norm1.running_var, 8.denselayer3.norm1.weight, BatchNormalization_136"/>
			</rt_info>
			<output>
				<port id="0" precision="FP32">
					<dim>1</dim>
					<dim>320</dim>
					<dim>1</dim>
					<dim>1</dim>
				</port>
			</output>
		</layer>
		<layer id="593" name="8957896129385" type="Const" version="opset1">
			<data offset="0" size="4" shape="" element_type="f32"/>
			<output>
				<port id="0" precision="FP32"/>
			</output>
		</layer>
		<layer id="594" name="8958896227747" type="Const" version="opset1">
			<data offset="0" size="4" shape="" element_type="f32"/>
			<output>
				<port id="0" precision="FP32"/>
			</output>
		</layer>
		<layer id="595" name="8959896329082" type="Const" version="opset1">
			<data offset="0" size="4" shape="" element_type="f32"/>
			<output>
				<port id="0" precision="FP32"/>
			</output>
		</layer>
		<layer id="596" name="8960896428362" type="Const" version="opset1">
			<data offset="0" size="4" shape="" element_type="f32"/>
			<output>
				<port id="0" precision="FP32"/>
			</output>
		</layer>
		<layer id="597" name="2002200429484" type="Const" version="opset1">
			<data offset="41988" size="128" shape="1,32,1,1" element_type="f32"/>
			<output>
				<port id="0" precision="FP32">
					<dim>1</dim>
					<dim>32</dim>
					<dim>1</dim>
					<dim>1</dim>
				</port>
			</output>
		</layer>
		<layer id="598" name="5173517727822" type="Const" version="opset1">
			<data offset="0" size="4" shape="" element_type="f32"/>
			<output>
				<port id="0" precision="FP32"/>
			</output>
		</layer>
		<layer id="599" name="5174517830513" type="Const" version="opset1">
			<data offset="0" size="4" shape="" element_type="f32"/>
			<output>
				<port id="0" precision="FP32"/>
			</output>
		</layer>
		<layer id="600" name="5175517927243" type="Const" version="opset1">
			<data offset="0" size="4" shape="" element_type="f32"/>
			<output>
				<port id="0" precision="FP32"/>
			</output>
		</layer>
		<layer id="601" name="5176518031173" type="Const" version="opset1">
			<data offset="0" size="4" shape="" element_type="f32"/>
			<output>
				<port id="0" precision="FP32"/>
			</output>
		</layer>
		<layer id="602" name="1998200029544" type="Const" version="opset1">
			<data offset="42116" size="512" shape="1,128,1,1" element_type="f32"/>
			<output>
				<port id="0" precision="FP32">
					<dim>1</dim>
					<dim>128</dim>
					<dim>1</dim>
					<dim>1</dim>
				</port>
			</output>
		</layer>
		<layer id="603" name="4173417727930" type="Const" version="opset1">
			<data offset="0" size="4" shape="" element_type="f32"/>
			<output>
				<port id="0" precision="FP32"/>
			</output>
		</layer>
		<layer id="604" name="4174417829019" type="Const" version="opset1">
			<data offset="0" size="4" shape="" element_type="f32"/>
			<output>
				<port id="0" precision="FP32"/>
			</output>
		</layer>
		<layer id="605" name="4175417929304" type="Const" version="opset1">
			<data offset="0" size="4" shape="" element_type="f32"/>
			<output>
				<port id="0" precision="FP32"/>
			</output>
		</layer>
		<layer id="606" name="4176418028656" type="Const" version="opset1">
			<data offset="0" size="4" shape="" element_type="f32"/>
			<output>
				<port id="0" precision="FP32"/>
			</output>
		</layer>
		<layer id="607" name="Constant_980690327432" type="Const" version="opset1">
			<data offset="102404" size="1152" shape="1,288,1,1" element_type="f32"/>
			<rt_info>
				<attribute name="fused_names" version="0" value="8.denselayer2.norm1.bias, 8.denselayer2.norm1.running_mean, 8.denselayer2.norm1.running_var, 8.denselayer2.norm1.weight, BatchNormalization_130"/>
			</rt_info>
			<output>
				<port id="0" precision="FP32">
					<dim>1</dim>
					<dim>288</dim>
					<dim>1</dim>
					<dim>1</dim>
				</port>
			</output>
		</layer>
		<layer id="608" name="8917892130795" type="Const" version="opset1">
			<data offset="0" size="4" shape="" element_type="f32"/>
			<output>
				<port id="0" precision="FP32"/>
			</output>
		</layer>
		<layer id="609" name="8918892230129" type="Const" version="opset1">
			<data offset="0" size="4" shape="" element_type="f32"/>
			<output>
				<port id="0" precision="FP32"/>
			</output>
		</layer>
		<layer id="610" name="8919892327456" type="Const" version="opset1">
			<data offset="0" size="4" shape="" element_type="f32"/>
			<output>
				<port id="0" precision="FP32"/>
			</output>
		</layer>
		<layer id="611" name="8920892429598" type="Const" version="opset1">
			<data offset="0" size="4" shape="" element_type="f32"/>
			<output>
				<port id="0" precision="FP32"/>
			</output>
		</layer>
		<layer id="612" name="3533353730189" type="Const" version="opset1">
			<data offset="0" size="4" shape="" element_type="f32"/>
			<output>
				<port id="0" precision="FP32"/>
			</output>
		</layer>
		<layer id="613" name="3534353827966" type="Const" version="opset1">
			<data offset="0" size="4" shape="" element_type="f32"/>
			<output>
				<port id="0" precision="FP32"/>
			</output>
		</layer>
		<layer id="614" name="3535353930387" type="Const" version="opset1">
			<data offset="0" size="4" shape="" element_type="f32"/>
			<output>
				<port id="0" precision="FP32"/>
			</output>
		</layer>
		<layer id="615" name="3536354031362" type="Const" version="opset1">
			<data offset="0" size="4" shape="" element_type="f32"/>
			<output>
				<port id="0" precision="FP32"/>
			</output>
		</layer>
		<layer id="616" name="1986198828920" type="Const" version="opset1">
			<data offset="103556" size="1024" shape="1,256,1,1" element_type="f32"/>
			<output>
				<port id="0" precision="FP32">
					<dim>1</dim>
					<dim>256</dim>
					<dim>1</dim>
					<dim>1</dim>
				</port>
			</output>
		</layer>
		<layer id="617" name="5193519731287" type="Const" version="opset1">
			<data offset="0" size="4" shape="" element_type="f32"/>
			<output>
				<port id="0" precision="FP32"/>
			</output>
		</layer>
		<layer id="618" name="5194519830309" type="Const" version="opset1">
			<data offset="0" size="4" shape="" element_type="f32"/>
			<output>
				<port id="0" precision="FP32"/>
			</output>
		</layer>
		<layer id="619" name="5195519930291" type="Const" version="opset1">
			<data offset="0" size="4" shape="" element_type="f32"/>
			<output>
				<port id="0" precision="FP32"/>
			</output>
		</layer>
		<layer id="620" name="5196520028797" type="Const" version="opset1">
			<data offset="0" size="4" shape="" element_type="f32"/>
			<output>
				<port id="0" precision="FP32"/>
			</output>
		</layer>
		<layer id="621" name="Constant_955488430858" type="Const" version="opset1">
			<data offset="90756" size="2048" shape="1,512,1,1" element_type="f32"/>
			<rt_info>
				<attribute name="fused_names" version="0" value="7.norm.bias, 7.norm.running_mean, 7.norm.running_var, 7.norm.weight, BatchNormalization_118"/>
			</rt_info>
			<output>
				<port id="0" precision="FP32">
					<dim>1</dim>
					<dim>512</dim>
					<dim>1</dim>
					<dim>1</dim>
				</port>
			</output>
		</layer>
		<layer id="622" name="8907891129109" type="Const" version="opset1">
			<data offset="0" size="4" shape="" element_type="f32"/>
			<output>
				<port id="0" precision="FP32"/>
			</output>
		</layer>
		<layer id="623" name="8908891227501" type="Const" version="opset1">
			<data offset="0" size="4" shape="" element_type="f32"/>
			<output>
				<port id="0" precision="FP32"/>
			</output>
		</layer>
…
		<edge from-layer="2091" from-port="0" to-layer="2094" to-port="3"/>
		<edge from-layer="2092" from-port="0" to-layer="2094" to-port="4"/>
		<edge from-layer="2088" from-port="5" to-layer="2095" to-port="0"/>
		<edge from-layer="2094" from-port="5" to-layer="2095" to-port="1"/>
		<edge from-layer="2095" from-port="2" to-layer="2096" to-port="0"/>
		<edge from-layer="228" from-port="0" to-layer="2096" to-port="1"/>
		<edge from-layer="2096" from-port="2" to-layer="2097" to-port="0"/>
		<edge from-layer="2097" from-port="1" to-layer="2098" to-port="0"/>
		<edge from-layer="224" from-port="0" to-layer="2098" to-port="1"/>
		<edge from-layer="225" from-port="0" to-layer="2098" to-port="2"/>
		<edge from-layer="226" from-port="0" to-layer="2098" to-port="3"/>
		<edge from-layer="227" from-port="0" to-layer="2098" to-port="4"/>
		<edge from-layer="2103" from-port="0" to-layer="2104" to-port="0"/>
		<edge from-layer="2099" from-port="0" to-layer="2104" to-port="1"/>
		<edge from-layer="2100" from-port="0" to-layer="2104" to-port="2"/>
		<edge from-layer="2101" from-port="0" to-layer="2104" to-port="3"/>
		<edge from-layer="2102" from-port="0" to-layer="2104" to-port="4"/>
		<edge from-layer="2098" from-port="5" to-layer="2105" to-port="0"/>
		<edge from-layer="2104" from-port="5" to-layer="2105" to-port="1"/>
		<edge from-layer="2105" from-port="2" to-layer="2106" to-port="0"/>
		<edge from-layer="223" from-port="0" to-layer="2106" to-port="1"/>
		<edge from-layer="2106" from-port="2" to-layer="2107" to-port="0"/>
		<edge from-layer="219" from-port="0" to-layer="2107" to-port="1"/>
		<edge from-layer="220" from-port="0" to-layer="2107" to-port="2"/>
		<edge from-layer="221" from-port="0" to-layer="2107" to-port="3"/>
		<edge from-layer="222" from-port="0" to-layer="2107" to-port="4"/>
		<edge from-layer="2018" from-port="5" to-layer="2108" to-port="0"/>
		<edge from-layer="2057" from-port="5" to-layer="2108" to-port="1"/>
		<edge from-layer="2082" from-port="5" to-layer="2108" to-port="2"/>
		<edge from-layer="2107" from-port="5" to-layer="2108" to-port="3"/>
		<edge from-layer="2108" from-port="4" to-layer="2109" to-port="0"/>
		<edge from-layer="218" from-port="0" to-layer="2109" to-port="1"/>
		<edge from-layer="2109" from-port="2" to-layer="2111" to-port="0"/>
		<edge from-layer="2110" from-port="0" to-layer="2111" to-port="1"/>
		<edge from-layer="2111" from-port="2" to-layer="2112" to-port="0"/>
		<edge from-layer="2112" from-port="1" to-layer="2113" to-port="0"/>
		<edge from-layer="214" from-port="0" to-layer="2113" to-port="1"/>
		<edge from-layer="215" from-port="0" to-layer="2113" to-port="2"/>
		<edge from-layer="216" from-port="0" to-layer="2113" to-port="3"/>
		<edge from-layer="217" from-port="0" to-layer="2113" to-port="4"/>
		<edge from-layer="2118" from-port="0" to-layer="2119" to-port="0"/>
		<edge from-layer="2114" from-port="0" to-layer="2119" to-port="1"/>
		<edge from-layer="2115" from-port="0" to-layer="2119" to-port="2"/>
		<edge from-layer="2116" from-port="0" to-layer="2119" to-port="3"/>
		<edge from-layer="2117" from-port="0" to-layer="2119" to-port="4"/>
		<edge from-layer="2113" from-port="5" to-layer="2120" to-port="0"/>
		<edge from-layer="2119" from-port="5" to-layer="2120" to-port="1"/>
		<edge from-layer="2120" from-port="2" to-layer="2121" to-port="0"/>
		<edge from-layer="213" from-port="0" to-layer="2121" to-port="1"/>
		<edge from-layer="2121" from-port="2" to-layer="2122" to-port="0"/>
		<edge from-layer="2122" from-port="1" to-layer="2123" to-port="0"/>
		<edge from-layer="209" from-port="0" to-layer="2123" to-port="1"/>
		<edge from-layer="210" from-port="0" to-layer="2123" to-port="2"/>
		<edge from-layer="211" from-port="0" to-layer="2123" to-port="3"/>
		<edge from-layer="212" from-port="0" to-layer="2123" to-port="4"/>
		<edge from-layer="2128" from-port="0" to-layer="2129" to-port="0"/>
		<edge from-layer="2124" from-port="0" to-layer="2129" to-port="1"/>
		<edge from-layer="2125" from-port="0" to-layer="2129" to-port="2"/>
		<edge from-layer="2126" from-port="0" to-layer="2129" to-port="3"/>
		<edge from-layer="2127" from-port="0" to-layer="2129" to-port="4"/>
		<edge from-layer="2123" from-port="5" to-layer="2130" to-port="0"/>
		<edge from-layer="2129" from-port="5" to-layer="2130" to-port="1"/>
		<edge from-layer="2130" from-port="2" to-layer="2131" to-port="0"/>
		<edge from-layer="208" from-port="0" to-layer="2131" to-port="1"/>
		<edge from-layer="2131" from-port="2" to-layer="2132" to-port="0"/>
		<edge from-layer="204" from-port="0" to-layer="2132" to-port="1"/>
		<edge from-layer="205" from-port="0" to-layer="2132" to-port="2"/>
		<edge from-layer="206" from-port="0" to-layer="2132" to-port="3"/>
		<edge from-layer="207" from-port="0" to-layer="2132" to-port="4"/>
		<edge from-layer="2018" from-port="5" to-layer="2133" to-port="0"/>
		<edge from-layer="2057" from-port="5" to-layer="2133" to-port="1"/>
		<edge from-layer="2082" from-port="5" to-layer="2133" to-port="2"/>
		<edge from-layer="2107" from-port="5" to-layer="2133" to-port="3"/>
		<edge from-layer="2132" from-port="5" to-layer="2133" to-port="4"/>
		<edge from-layer="2133" from-port="5" to-layer="2134" to-port="0"/>
		<edge from-layer="203" from-port="0" to-layer="2134" to-port="1"/>
		<edge from-layer="2134" from-port="2" to-layer="2136" to-port="0"/>
		<edge from-layer="2135" from-port="0" to-layer="2136" to-port="1"/>
		<edge from-layer="2136" from-port="2" to-layer="2137" to-port="0"/>
		<edge from-layer="2137" from-port="1" to-layer="2138" to-port="0"/>
		<edge from-layer="199" from-port="0" to-layer="2138" to-port="1"/>
		<edge from-layer="200" from-port="0" to-layer="2138" to-port="2"/>
		<edge from-layer="201" from-port="0" to-layer="2138" to-port="3"/>
		<edge from-layer="202" from-port="0" to-layer="2138" to-port="4"/>
		<edge from-layer="2143" from-port="0" to-layer="2144" to-port="0"/>
		<edge from-layer="2139" from-port="0" to-layer="2144" to-port="1"/>
		<edge from-layer="2140" from-port="0" to-layer="2144" to-port="2"/>
		<edge from-layer="2141" from-port="0" to-layer="2144" to-port="3"/>
		<edge from-layer="2142" from-port="0" to-layer="2144" to-port="4"/>
		<edge from-layer="2138" from-port="5" to-layer="2145" to-port="0"/>
		<edge from-layer="2144" from-port="5" to-layer="2145" to-port="1"/>
		<edge from-layer="2145" from-port="2" to-layer="2146" to-port="0"/>
		<edge from-layer="198" from-port="0" to-layer="2146" to-port="1"/>
		<edge from-layer="2146" from-port="2" to-layer="2147" to-port="0"/>
		<edge from-layer="2147" from-port="1" to-layer="2148" to-port="0"/>
		<edge from-layer="194" from-port="0" to-layer="2148" to-port="1"/>
		<edge from-layer="195" from-port="0" to-layer="2148" to-port="2"/>
		<edge from-layer="196" from-port="0" to-layer="2148" to-port="3"/>
		<edge from-layer="197" from-port="0" to-layer="2148" to-port="4"/>
		<edge from-layer="2153" from-port="0" to-layer="2154" to-port="0"/>
		<edge from-layer="2149" from-port="0" to-layer="2154" to-port="1"/>
		<edge from-layer="2150" from-port="0" to-layer="2154" to-port="2"/>
		<edge from-layer="2151" from-port="0" to-layer="2154" to-port="3"/>
		<edge from-layer="2152" from-port="0" to-layer="2154" to-port="4"/>
		<edge from-layer="2148" from-port="5" to-layer="2155" to-port="0"/>
		<edge from-layer="2154" from-port="5" to-layer="2155" to-port="1"/>
		<edge from-layer="2155" from-port="2" to-layer="2156" to-port="0"/>
		<edge from-layer="193" from-port="0" to-layer="2156" to-port="1"/>
		<edge from-layer="2156" from-port="2" to-layer="2157" to-port="0"/>
		<edge from-layer="189" from-port="0" to-layer="2157" to-port="1"/>
		<edge from-layer="190" from-port="0" to-layer="2157" to-port="2"/>
		<edge from-layer="191" from-port="0" to-layer="2157" to-port="3"/>
		<edge from-layer="192" from-port="0" to-layer="2157" to-port="4"/>
		<edge from-layer="2018" from-port="5" to-layer="2158" to-port="0"/>
		<edge from-layer="2057" from-port="5" to-layer="2158" to-port="1"/>
		<edge from-layer="2082" from-port="5" to-layer="2158" to-port="2"/>
		<edge from-layer="2107" from-port="5" to-layer="2158" to-port="3"/>
		<edge from-layer="2132" from-port="5" to-layer="2158" to-port="4"/>
		<edge from-layer="2157" from-port="5" to-layer="2158" to-port="5"/>
		<edge from-layer="2158" from-port="6" to-layer="2159" to-port="0"/>
		<edge from-layer="188" from-port="0" to-layer="2159" to-port="1"/>
		<edge from-layer="2159" from-port="2" to-layer="2161" to-port="0"/>
		<edge from-layer="2160" from-port="0" to-layer="2161" to-port="1"/>
		<edge from-layer="2161" from-port="2" to-layer="2162" to-port="0"/>
		<edge from-layer="2162" from-port="1" to-layer="2163" to-port="0"/>
		<edge from-layer="184" from-port="0" to-layer="2163" to-port="1"/>
		<edge from-layer="185" from-port="0" to-layer="2163" to-port="2"/>
		<edge from-layer="186" from-port="0" to-layer="2163" to-port="3"/>
		<edge from-layer="187" from-port="0" to-layer="2163" to-port="4"/>
		<edge from-layer="2168" from-port="0" to-layer="2169" to-port="0"/>
		<edge from-layer="2164" from-port="0" to-layer="2169" to-port="1"/>
		<edge from-layer="2165" from-port="0" to-layer="2169" to-port="2"/>
		<edge from-layer="2166" from-port="0" to-layer="2169" to-port="3"/>
		<edge from-layer="2167" from-port="0" to-layer="2169" to-port="4"/>
		<edge from-layer="2163" from-port="5" to-layer="2170" to-port="0"/>
		<edge from-layer="2169" from-port="5" to-layer="2170" to-port="1"/>
		<edge from-layer="2170" from-port="2" to-layer="2171" to-port="0"/>
		<edge from-layer="183" from-port="0" to-layer="2171" to-port="1"/>
		<edge from-layer="2171" from-port="2" to-layer="2172" to-port="0"/>
		<edge from-layer="2172" from-port="1" to-layer="2173" to-port="0"/>
		<edge from-layer="179" from-port="0" to-layer="2173" to-port="1"/>
		<edge from-layer="180" from-port="0" to-layer="2173" to-port="2"/>
		<edge from-layer="181" from-port="0" to-layer="2173" to-port="3"/>
		<edge from-layer="182" from-port="0" to-layer="2173" to-port="4"/>
		<edge from-layer="2178" from-port="0" to-layer="2179" to-port="0"/>
		<edge from-layer="2174" from-port="0" to-layer="2179" to-port="1"/>
		<edge from-layer="2175" from-port="0" to-layer="2179" to-port="2"/>
		<edge from-layer="2176" from-port="0" to-layer="2179" to-port="3"/>
		<edge from-layer="2177" from-port="0" to-layer="2179" to-port="4"/>
		<edge from-layer="2173" from-port="5" to-layer="2180" to-port="0"/>
		<edge from-layer="2179" from-port="5" to-layer="2180" to-port="1"/>
		<edge from-layer="2180" from-port="2" to-layer="2181" to-port="0"/>
		<edge from-layer="178" from-port="0" to-layer="2181" to-port="1"/>
		<edge from-layer="2181" from-port="2" to-layer="2182" to-port="0"/>
		<edge from-layer="174" from-port="0" to-layer="2182" to-port="1"/>
		<edge from-layer="175" from-port="0" to-layer="2182" to-port="2"/>
		<edge from-layer="176" from-port="0" to-layer="2182" to-port="3"/>
		<edge from-layer="177" from-port="0" to-layer="2182" to-port="4"/>
		<edge from-layer="2018" from-port="5" to-layer="2183" to-port="0"/>
		<edge from-layer="2057" from-port="5" to-layer="2183" to-port="1"/>
		<edge from-layer="2082" from-port="5" to-layer="2183" to-port="2"/>
		<edge from-layer="2107" from-port="5" to-layer="2183" to-port="3"/>
		<edge from-layer="2132" from-port="5" to-layer="2183" to-port="4"/>
		<edge from-layer="2157" from-port="5" to-layer="2183" to-port="5"/>
		<edge from-layer="2182" from-port="5" to-layer="2183" to-port="6"/>
		<edge from-layer="2183" from-port="7" to-layer="2184" to-port="0"/>
		<edge from-layer="173" from-port="0" to-layer="2184" to-port="1"/>
		<edge from-layer="2184" from-port="2" to-layer="2186" to-port="0"/>
		<edge from-layer="2185" from-port="0" to-layer="2186" to-port="1"/>
		<edge from-layer="2186" from-port="2" to-layer="2187" to-port="0"/>
		<edge from-layer="2187" from-port="1" to-layer="2188" to-port="0"/>
		<edge from-layer="169" from-port="0" to-layer="2188" to-port="1"/>
		<edge from-layer="170" from-port="0" to-layer="2188" to-port="2"/>
		<edge from-layer="171" from-port="0" to-layer="2188" to-port="3"/>
		<edge from-layer="172" from-port="0" to-layer="2188" to-port="4"/>
		<edge from-layer="2193" from-port="0" to-layer="2194" to-port="0"/>
		<edge from-layer="2189" from-port="0" to-layer="2194" to-port="1"/>
		<edge from-layer="2190" from-port="0" to-layer="2194" to-port="2"/>
		<edge from-layer="2191" from-port="0" to-layer="2194" to-port="3"/>
		<edge from-layer="2192" from-port="0" to-layer="2194" to-port="4"/>
		<edge from-layer="2188" from-port="5" to-layer="2195" to-port="0"/>
		<edge from-layer="2194" from-port="5" to-layer="2195" to-port="1"/>
		<edge from-layer="2195" from-port="2" to-layer="2196" to-port="0"/>
		<edge from-layer="168" from-port="0" to-layer="2196" to-port="1"/>
		<edge from-layer="2196" from-port="2" to-layer="2197" to-port="0"/>
		<edge from-layer="2197" from-port="1" to-layer="2198" to-port="0"/>
		<edge from-layer="164" from-port="0" to-layer="2198" to-port="1"/>
		<edge from-layer="165" from-port="0" to-layer="2198" to-port="2"/>
		<edge from-layer="166" from-port="0" to-layer="2198" to-port="3"/>
		<edge from-layer="167" from-port="0" to-layer="2198" to-port="4"/>
		<edge from-layer="2203" from-port="0" to-layer="2204" to-port="0"/>
		<edge from-layer="2199" from-port="0" to-layer="2204" to-port="1"/>
		<edge from-layer="2200" from-port="0" to-layer="2204" to-port="2"/>
		<edge from-layer="2201" from-port="0" to-layer="2204" to-port="3"/>
		<edge from-layer="2202" from-port="0" to-layer="2204" to-port="4"/>
		<edge from-layer="2198" from-port="5" to-layer="2205" to-port="0"/>
		<edge from-layer="2204" from-port="5" to-layer="2205" to-port="1"/>
		<edge from-layer="2205" from-port="2" to-layer="2206" to-port="0"/>
		<edge from-layer="163" from-port="0" to-layer="2206" to-port="1"/>
		<edge from-layer="2206" from-port="2" to-layer="2207" to-port="0"/>
		<edge from-layer="159" from-port="0" to-layer="2207" to-port="1"/>
		<edge from-layer="160" from-port="0" to-layer="2207" to-port="2"/>
		<edge from-layer="161" from-port="0" to-layer="2207" to-port="3"/>
		<edge from-layer="162" from-port="0" to-layer="2207" to-port="4"/>
		<edge from-layer="2018" from-port="5" to-layer="2208" to-port="0"/>
		<edge from-layer="2057" from-port="5" to-layer="2208" to-port="1"/>
		<edge from-layer="2082" from-port="5" to-layer="2208" to-port="2"/>
		<edge from-layer="2107" from-port="5" to-layer="2208" to-port="3"/>
		<edge from-layer="2132" from-port="5" to-layer="2208" to-port="4"/>
		<edge from-layer="2157" from-port="5" to-layer="2208" to-port="5"/>
		<edge from-layer="2182" from-port="5" to-layer="2208" to-port="6"/>
		<edge from-layer="2207" from-port="5" to-layer="2208" to-port="7"/>
		<edge from-layer="2208" from-port="8" to-layer="2209" to-port="0"/>
		<edge from-layer="158" from-port="0" to-layer="2209" to-port="1"/>
		<edge from-layer="2209" from-port="2" to-layer="2211" to-port="0"/>
		<edge from-layer="2210" from-port="0" to-layer="2211" to-port="1"/>
		<edge from-layer="2211" from-port="2" to-layer="2212" to-port="0"/>
		<edge from-layer="2212" from-port="1" to-layer="2213" to-port="0"/>
		<edge from-layer="154" from-port="0" to-layer="2213" to-port="1"/>
		<edge from-layer="155" from-port="0" to-layer="2213" to-port="2"/>
		<edge from-layer="156" from-port="0" to-layer="2213" to-port="3"/>
		<edge from-layer="157" from-port="0" to-layer="2213" to-port="4"/>
		<edge from-layer="2218" from-port="0" to-layer="2219" to-port="0"/>
		<edge from-layer="2214" from-port="0" to-layer="2219" to-port="1"/>
		<edge from-layer="2215" from-port="0" to-layer="2219" to-port="2"/>
		<edge from-layer="2216" from-port="0" to-layer="2219" to-port="3"/>
		<edge from-layer="2217" from-port="0" to-layer="2219" to-port="4"/>
		<edge from-layer="2213" from-port="5" to-layer="2220" to-port="0"/>
		<edge from-layer="2219" from-port="5" to-layer="2220" to-port="1"/>
		<edge from-layer="2220" from-port="2" to-layer="2221" to-port="0"/>
		<edge from-layer="153" from-port="0" to-layer="2221" to-port="1"/>
		<edge from-layer="2221" from-port="2" to-layer="2222" to-port="0"/>
		<edge from-layer="2222" from-port="1" to-layer="2223" to-port="0"/>
		<edge from-layer="149" from-port="0" to-layer="2223" to-port="1"/>
		<edge from-layer="150" from-port="0" to-layer="2223" to-port="2"/>
		<edge from-layer="151" from-port="0" to-layer="2223" to-port="3"/>
		<edge from-layer="152" from-port="0" to-layer="2223" to-port="4"/>
		<edge from-layer="2228" from-port="0" to-layer="2229" to-port="0"/>
		<edge from-layer="2224" from-port="0" to-layer="2229" to-port="1"/>
		<edge from-layer="2225" from-port="0" to-layer="2229" to-port="2"/>
		<edge from-layer="2226" from-port="0" to-layer="2229" to-port="3"/>
		<edge from-layer="2227" from-port="0" to-layer="2229" to-port="4"/>
		<edge from-layer="2223" from-port="5" to-layer="2230" to-port="0"/>
		<edge from-layer="2229" from-port="5" to-layer="2230" to-port="1"/>
		<edge from-layer="2230" from-port="2" to-layer="2231" to-port="0"/>
		<edge from-layer="148" from-port="0" to-layer="2231" to-port="1"/>
		<edge from-layer="2231" from-port="2" to-layer="2232" to-port="0"/>
		<edge from-layer="144" from-port="0" to-layer="2232" to-port="1"/>
		<edge from-layer="145" from-port="0" to-layer="2232" to-port="2"/>
		<edge from-layer="146" from-port="0" to-layer="2232" to-port="3"/>
		<edge from-layer="147" from-port="0" to-layer="2232" to-port="4"/>
		<edge from-layer="2018" from-port="5" to-layer="2233" to-port="0"/>
		<edge from-layer="2057" from-port="5" to-layer="2233" to-port="1"/>
		<edge from-layer="2082" from-port="5" to-layer="2233" to-port="2"/>
		<edge from-layer="2107" from-port="5" to-layer="2233" to-port="3"/>
		<edge from-layer="2132" from-port="5" to-layer="2233" to-port="4"/>
		<edge from-layer="2157" from-port="5" to-layer="2233" to-port="5"/>
		<edge from-layer="2182" from-port="5" to-layer="2233" to-port="6"/>
		<edge from-layer="2207" from-port="5" to-layer="2233" to-port="7"/>
		<edge from-layer="2232" from-port="5" to-layer="2233" to-port="8"/>
		<edge from-layer="2233" from-port="9" to-layer="2234" to-port="0"/>
		<edge from-layer="143" from-port="0" to-layer="2234" to-port="1"/>
		<edge from-layer="2234" from-port="2" to-layer="2236" to-port="0"/>
		<edge from-layer="2235" from-port="0" to-layer="2236" to-port="1"/>
		<edge from-layer="2236" from-port="2" to-layer="2237" to-port="0"/>
		<edge from-layer="2237" from-port="1" to-layer="2238" to-port="0"/>
		<edge from-layer="139" from-port="0" to-layer="2238" to-port="1"/>
		<edge from-layer="140" from-port="0" to-layer="2238" to-port="2"/>
		<edge from-layer="141" from-port="0" to-layer="2238" to-port="3"/>
		<edge from-layer="142" from-port="0" to-layer="2238" to-port="4"/>
		<edge from-layer="2243" from-port="0" to-layer="2244" to-port="0"/>
		<edge from-layer="2239" from-port="0" to-layer="2244" to-port="1"/>
		<edge from-layer="2240" from-port="0" to-layer="2244" to-port="2"/>
		<edge from-layer="2241" from-port="0" to-layer="2244" to-port="3"/>
		<edge from-layer="2242" from-port="0" to-layer="2244" to-port="4"/>
		<edge from-layer="2238" from-port="5" to-layer="2245" to-port="0"/>
		<edge from-layer="2244" from-port="5" to-layer="2245" to-port="1"/>
		<edge from-layer="2245" from-port="2" to-layer="2246" to-port="0"/>
		<edge from-layer="138" from-port="0" to-layer="2246" to-port="1"/>
		<edge from-layer="2246" from-port="2" to-layer="2247" to-port="0"/>
		<edge from-layer="2247" from-port="1" to-layer="2248" to-port="0"/>
		<edge from-layer="134" from-port="0" to-layer="2248" to-port="1"/>
		<edge from-layer="135" from-port="0" to-layer="2248" to-port="2"/>
		<edge from-layer="136" from-port="0" to-layer="2248" to-port="3"/>
		<edge from-layer="137" from-port="0" to-layer="2248" to-port="4"/>
		<edge from-layer="2253" from-port="0" to-layer="2254" to-port="0"/>
		<edge from-layer="2249" from-port="0" to-layer="2254" to-port="1"/>
		<edge from-layer="2250" from-port="0" to-layer="2254" to-port="2"/>
		<edge from-layer="2251" from-port="0" to-layer="2254" to-port="3"/>
		<edge from-layer="2252" from-port="0" to-layer="2254" to-port="4"/>
		<edge from-layer="2248" from-port="5" to-layer="2255" to-port="0"/>
		<edge from-layer="2254" from-port="5" to-layer="2255" to-port="1"/>
		<edge from-layer="2255" from-port="2" to-layer="2256" to-port="0"/>
		<edge from-layer="133" from-port="0" to-layer="2256" to-port="1"/>
		<edge from-layer="2256" from-port="2" to-layer="2257" to-port="0"/>
		<edge from-layer="129" from-port="0" to-layer="2257" to-port="1"/>
		<edge from-layer="130" from-port="0" to-layer="2257" to-port="2"/>
		<edge from-layer="131" from-port="0" to-layer="2257" to-port="3"/>
		<edge from-layer="132" from-port="0" to-layer="2257" to-port="4"/>
		<edge from-layer="2018" from-port="5" to-layer="2258" to-port="0"/>
		<edge from-layer="2057" from-port="5" to-layer="2258" to-port="1"/>
		<edge from-layer="2082" from-port="5" to-layer="2258" to-port="2"/>
		<edge from-layer="2107" from-port="5" to-layer="2258" to-port="3"/>
		<edge from-layer="2132" from-port="5" to-layer="2258" to-port="4"/>
		<edge from-layer="2157" from-port="5" to-layer="2258" to-port="5"/>
		<edge from-layer="2182" from-port="5" to-layer="2258" to-port="6"/>
		<edge from-layer="2207" from-port="5" to-layer="2258" to-port="7"/>
		<edge from-layer="2232" from-port="5" to-layer="2258" to-port="8"/>
		<edge from-layer="2257" from-port="5" to-layer="2258" to-port="9"/>
		<edge from-layer="2258" from-port="10" to-layer="2259" to-port="0"/>
		<edge from-layer="128" from-port="0" to-layer="2259" to-port="1"/>
		<edge from-layer="2259" from-port="2" to-layer="2261" to-port="0"/>
		<edge from-layer="2260" from-port="0" to-layer="2261" to-port="1"/>
		<edge from-layer="2261" from-port="2" to-layer="2262" to-port="0"/>
		<edge from-layer="2262" from-port="1" to-layer="2263" to-port="0"/>
		<edge from-layer="124" from-port="0" to-layer="2263" to-port="1"/>
		<edge from-layer="125" from-port="0" to-layer="2263" to-port="2"/>
		<edge from-layer="126" from-port="0" to-layer="2263" to-port="3"/>
		<edge from-layer="127" from-port="0" to-layer="2263" to-port="4"/>
		<edge from-layer="2268" from-port="0" to-layer="2269" to-port="0"/>
		<edge from-layer="2264" from-port="0" to-layer="2269" to-port="1"/>
		<edge from-layer="2265" from-port="0" to-layer="2269" to-port="2"/>
		<edge from-layer="2266" from-port="0" to-layer="2269" to-port="3"/>
		<edge from-layer="2267" from-port="0" to-layer="2269" to-port="4"/>
		<edge from-layer="2263" from-port="5" to-layer="2270" to-port="0"/>
		<edge from-layer="2269" from-port="5" to-layer="2270" to-port="1"/>
		<edge from-layer="2270" from-port="2" to-layer="2271" to-port="0"/>
		<edge from-layer="123" from-port="0" to-layer="2271" to-port="1"/>
		<edge from-layer="2271" from-port="2" to-layer="2272" to-port="0"/>
		<edge from-layer="2272" from-port="1" to-layer="2273" to-port="0"/>
		<edge from-layer="119" from-port="0" to-layer="2273" to-port="1"/>
		<edge from-layer="120" from-port="0" to-layer="2273" to-port="2"/>
		<edge from-layer="121" from-port="0" to-layer="2273" to-port="3"/>
		<edge from-layer="122" from-port="0" to-layer="2273" to-port="4"/>
		<edge from-layer="2278" from-port="0" to-layer="2279" to-port="0"/>
		<edge from-layer="2274" from-port="0" to-layer="2279" to-port="1"/>
		<edge from-layer="2275" from-port="0" to-layer="2279" to-port="2"/>
		<edge from-layer="2276" from-port="0" to-layer="2279" to-port="3"/>
		<edge from-layer="2277" from-port="0" to-layer="2279" to-port="4"/>
		<edge from-layer="2273" from-port="5" to-layer="2280" to-port="0"/>
		<edge from-layer="2279" from-port="5" to-layer="2280" to-port="1"/>
		<edge from-layer="2280" from-port="2" to-layer="2281" to-port="0"/>
		<edge from-layer="118" from-port="0" to-layer="2281" to-port="1"/>
		<edge from-layer="2281" from-port="2" to-layer="2282" to-port="0"/>
		<edge from-layer="114" from-port="0" to-layer="2282" to-port="1"/>
		<edge from-layer="115" from-port="0" to-layer="2282" to-port="2"/>
		<edge from-layer="116" from-port="0" to-layer="2282" to-port="3"/>
		<edge from-layer="117" from-port="0" to-layer="2282" to-port="4"/>
		<edge from-layer="2018" from-port="5" to-layer="2283" to-port="0"/>
		<edge from-layer="2057" from-port="5" to-layer="2283" to-port="1"/>
		<edge from-layer="2082" from-port="5" to-layer="2283" to-port="2"/>
		<edge from-layer="2107" from-port="5" to-layer="2283" to-port="3"/>
		<edge from-layer="2132" from-port="5" to-layer="2283" to-port="4"/>
		<edge from-layer="2157" from-port="5" to-layer="2283" to-port="5"/>
		<edge from-layer="2182" from-port="5" to-layer="2283" to-port="6"/>
		<edge from-layer="2207" from-port="5" to-layer="2283" to-port="7"/>
		<edge from-layer="2232" from-port="5" to-layer="2283" to-port="8"/>
		<edge from-layer="2257" from-port="5" to-layer="2283" to-port="9"/>
		<edge from-layer="2282" from-port="5" to-layer="2283" to-port="10"/>
		<edge from-layer="2283" from-port="11" to-layer="2284" to-port="0"/>
		<edge from-layer="113" from-port="0" to-layer="2284" to-port="1"/>
		<edge from-layer="2284" from-port="2" to-layer="2286" to-port="0"/>
		<edge from-layer="2285" from-port="0" to-layer="2286" to-port="1"/>
		<edge from-layer="2286" from-port="2" to-layer="2287" to-port="0"/>
		<edge from-layer="2287" from-port="1" to-layer="2288" to-port="0"/>
		<edge from-layer="109" from-port="0" to-layer="2288" to-port="1"/>
		<edge from-layer="110" from-port="0" to-layer="2288" to-port="2"/>
		<edge from-layer="111" from-port="0" to-layer="2288" to-port="3"/>
		<edge from-layer="112" from-port="0" to-layer="2288" to-port="4"/>
		<edge from-layer="2293" from-port="0" to-layer="2294" to-port="0"/>
		<edge from-layer="2289" from-port="0" to-layer="2294" to-port="1"/>
		<edge from-layer="2290" from-port="0" to-layer="2294" to-port="2"/>
		<edge from-layer="2291" from-port="0" to-layer="2294" to-port="3"/>
		<edge from-layer="2292" from-port="0" to-layer="2294" to-port="4"/>
		<edge from-layer="2288" from-port="5" to-layer="2295" to-port="0"/>
		<edge from-layer="2294" from-port="5" to-layer="2295" to-port="1"/>
		<edge from-layer="2295" from-port="2" to-layer="2296" to-port="0"/>
		<edge from-layer="108" from-port="0" to-layer="2296" to-port="1"/>
		<edge from-layer="2296" from-port="2" to-layer="2297" to-port="0"/>
		<edge from-layer="2297" from-port="1" to-layer="2298" to-port="0"/>
		<edge from-layer="104" from-port="0" to-layer="2298" to-port="1"/>
		<edge from-layer="105" from-port="0" to-layer="2298" to-port="2"/>
		<edge from-layer="106" from-port="0" to-layer="2298" to-port="3"/>
		<edge from-layer="107" from-port="0" to-layer="2298" to-port="4"/>
		<edge from-layer="2303" from-port="0" to-layer="2304" to-port="0"/>
		<edge from-layer="2299" from-port="0" to-layer="2304" to-port="1"/>
		<edge from-layer="2300" from-port="0" to-layer="2304" to-port="2"/>
		<edge from-layer="2301" from-port="0" to-layer="2304" to-port="3"/>
		<edge from-layer="2302" from-port="0" to-layer="2304" to-port="4"/>
		<edge from-layer="2298" from-port="5" to-layer="2305" to-port="0"/>
		<edge from-layer="2304" from-port="5" to-layer="2305" to-port="1"/>
		<edge from-layer="2305" from-port="2" to-layer="2306" to-port="0"/>
		<edge from-layer="103" from-port="0" to-layer="2306" to-port="1"/>
		<edge from-layer="2306" from-port="2" to-layer="2307" to-port="0"/>
		<edge from-layer="99" from-port="0" to-layer="2307" to-port="1"/>
		<edge from-layer="100" from-port="0" to-layer="2307" to-port="2"/>
		<edge from-layer="101" from-port="0" to-layer="2307" to-port="3"/>
		<edge from-layer="102" from-port="0" to-layer="2307" to-port="4"/>
		<edge from-layer="2018" from-port="5" to-layer="2308" to-port="0"/>
		<edge from-layer="2057" from-port="5" to-layer="2308" to-port="1"/>
		<edge from-layer="2082" from-port="5" to-layer="2308" to-port="2"/>
		<edge from-layer="2107" from-port="5" to-layer="2308" to-port="3"/>
		<edge from-layer="2132" from-port="5" to-layer="2308" to-port="4"/>
		<edge from-layer="2157" from-port="5" to-layer="2308" to-port="5"/>
		<edge from-layer="2182" from-port="5" to-layer="2308" to-port="6"/>
		<edge from-layer="2207" from-port="5" to-layer="2308" to-port="7"/>
		<edge from-layer="2232" from-port="5" to-layer="2308" to-port="8"/>
		<edge from-layer="2257" from-port="5" to-layer="2308" to-port="9"/>
		<edge from-layer="2282" from-port="5" to-layer="2308" to-port="10"/>
		<edge from-layer="2307" from-port="5" to-layer="2308" to-port="11"/>
		<edge from-layer="2308" from-port="12" to-layer="2309" to-port="0"/>
		<edge from-layer="98" from-port="0" to-layer="2309" to-port="1"/>
		<edge from-layer="2309" from-port="2" to-layer="2311" to-port="0"/>
		<edge from-layer="2310" from-port="0" to-layer="2311" to-port="1"/>
		<edge from-layer="2311" from-port="2" to-layer="2312" to-port="0"/>
		<edge from-layer="2312" from-port="1" to-layer="2313" to-port="0"/>
		<edge from-layer="94" from-port="0" to-layer="2313" to-port="1"/>
		<edge from-layer="95" from-port="0" to-layer="2313" to-port="2"/>
		<edge from-layer="96" from-port="0" to-layer="2313" to-port="3"/>
		<edge from-layer="97" from-port="0" to-layer="2313" to-port="4"/>
		<edge from-layer="2318" from-port="0" to-layer="2319" to-port="0"/>
		<edge from-layer="2314" from-port="0" to-layer="2319" to-port="1"/>
		<edge from-layer="2315" from-port="0" to-layer="2319" to-port="2"/>
		<edge from-layer="2316" from-port="0" to-layer="2319" to-port="3"/>
		<edge from-layer="2317" from-port="0" to-layer="2319" to-port="4"/>
		<edge from-layer="2313" from-port="5" to-layer="2320" to-port="0"/>
		<edge from-layer="2319" from-port="5" to-layer="2320" to-port="1"/>
		<edge from-layer="2320" from-port="2" to-layer="2321" to-port="0"/>
		<edge from-layer="93" from-port="0" to-layer="2321" to-port="1"/>
		<edge from-layer="2321" from-port="2" to-layer="2322" to-port="0"/>
		<edge from-layer="2322" from-port="1" to-layer="2323" to-port="0"/>
		<edge from-layer="89" from-port="0" to-layer="2323" to-port="1"/>
		<edge from-layer="90" from-port="0" to-layer="2323" to-port="2"/>
		<edge from-layer="91" from-port="0" to-layer="2323" to-port="3"/>
		<edge from-layer="92" from-port="0" to-layer="2323" to-port="4"/>
		<edge from-layer="2328" from-port="0" to-layer="2329" to-port="0"/>
		<edge from-layer="2324" from-port="0" to-layer="2329" to-port="1"/>
		<edge from-layer="2325" from-port="0" to-layer="2329" to-port="2"/>
		<edge from-layer="2326" from-port="0" to-layer="2329" to-port="3"/>
		<edge from-layer="2327" from-port="0" to-layer="2329" to-port="4"/>
		<edge from-layer="2323" from-port="5" to-layer="2330" to-port="0"/>
		<edge from-layer="2329" from-port="5" to-layer="2330" to-port="1"/>
		<edge from-layer="2330" from-port="2" to-layer="2331" to-port="0"/>
		<edge from-layer="88" from-port="0" to-layer="2331" to-port="1"/>
		<edge from-layer="2331" from-port="2" to-layer="2332" to-port="0"/>
		<edge from-layer="84" from-port="0" to-layer="2332" to-port="1"/>
		<edge from-layer="85" from-port="0" to-layer="2332" to-port="2"/>
		<edge from-layer="86" from-port="0" to-layer="2332" to-port="3"/>
		<edge from-layer="87" from-port="0" to-layer="2332" to-port="4"/>
		<edge from-layer="2018" from-port="5" to-layer="2333" to-port="0"/>
		<edge from-layer="2057" from-port="5" to-layer="2333" to-port="1"/>
		<edge from-layer="2082" from-port="5" to-layer="2333" to-port="2"/>
		<edge from-layer="2107" from-port="5" to-layer="2333" to-port="3"/>
		<edge from-layer="2132" from-port="5" to-layer="2333" to-port="4"/>
		<edge from-layer="2157" from-port="5" to-layer="2333" to-port="5"/>
		<edge from-layer="2182" from-port="5" to-layer="2333" to-port="6"/>
		<edge from-layer="2207" from-port="5" to-layer="2333" to-port="7"/>
		<edge from-layer="2232" from-port="5" to-layer="2333" to-port="8"/>
		<edge from-layer="2257" from-port="5" to-layer="2333" to-port="9"/>
		<edge from-layer="2282" from-port="5" to-layer="2333" to-port="10"/>
		<edge from-layer="2307" from-port="5" to-layer="2333" to-port="11"/>
		<edge from-layer="2332" from-port="5" to-layer="2333" to-port="12"/>
		<edge from-layer="2333" from-port="13" to-layer="2334" to-port="0"/>
		<edge from-layer="83" from-port="0" to-layer="2334" to-port="1"/>
		<edge from-layer="2334" from-port="2" to-layer="2336" to-port="0"/>
		<edge from-layer="2335" from-port="0" to-layer="2336" to-port="1"/>
		<edge from-layer="2336" from-port="2" to-layer="2337" to-port="0"/>
		<edge from-layer="2337" from-port="1" to-layer="2338" to-port="0"/>
		<edge from-layer="79" from-port="0" to-layer="2338" to-port="1"/>
		<edge from-layer="80" from-port="0" to-layer="2338" to-port="2"/>
		<edge from-layer="81" from-port="0" to-layer="2338" to-port="3"/>
		<edge from-layer="82" from-port="0" to-layer="2338" to-port="4"/>
		<edge from-layer="2343" from-port="0" to-layer="2344" to-port="0"/>
		<edge from-layer="2339" from-port="0" to-layer="2344" to-port="1"/>
		<edge from-layer="2340" from-port="0" to-layer="2344" to-port="2"/>
		<edge from-layer="2341" from-port="0" to-layer="2344" to-port="3"/>
		<edge from-layer="2342" from-port="0" to-layer="2344" to-port="4"/>
		<edge from-layer="2338" from-port="5" to-layer="2345" to-port="0"/>
		<edge from-layer="2344" from-port="5" to-layer="2345" to-port="1"/>
		<edge from-layer="2345" from-port="2" to-layer="2346" to-port="0"/>
		<edge from-layer="78" from-port="0" to-layer="2346" to-port="1"/>
		<edge from-layer="2346" from-port="2" to-layer="2347" to-port="0"/>
		<edge from-layer="2347" from-port="1" to-layer="2348" to-port="0"/>
		<edge from-layer="74" from-port="0" to-layer="2348" to-port="1"/>
		<edge from-layer="75" from-port="0" to-layer="2348" to-port="2"/>
		<edge from-layer="76" from-port="0" to-layer="2348" to-port="3"/>
		<edge from-layer="77" from-port="0" to-layer="2348" to-port="4"/>
		<edge from-layer="2353" from-port="0" to-layer="2354" to-port="0"/>
		<edge from-layer="2349" from-port="0" to-layer="2354" to-port="1"/>
		<edge from-layer="2350" from-port="0" to-layer="2354" to-port="2"/>
		<edge from-layer="2351" from-port="0" to-layer="2354" to-port="3"/>
		<edge from-layer="2352" from-port="0" to-layer="2354" to-port="4"/>
		<edge from-layer="2348" from-port="5" to-layer="2355" to-port="0"/>
		<edge from-layer="2354" from-port="5" to-layer="2355" to-port="1"/>
		<edge from-layer="2355" from-port="2" to-layer="2356" to-port="0"/>
		<edge from-layer="73" from-port="0" to-layer="2356" to-port="1"/>
		<edge from-layer="2356" from-port="2" to-layer="2357" to-port="0"/>
		<edge from-layer="69" from-port="0" to-layer="2357" to-port="1"/>
		<edge from-layer="70" from-port="0" to-layer="2357" to-port="2"/>
		<edge from-layer="71" from-port="0" to-layer="2357" to-port="3"/>
		<edge from-layer="72" from-port="0" to-layer="2357" to-port="4"/>
		<edge from-layer="2018" from-port="5" to-layer="2358" to-port="0"/>
		<edge from-layer="2057" from-port="5" to-layer="2358" to-port="1"/>
		<edge from-layer="2082" from-port="5" to-layer="2358" to-port="2"/>
		<edge from-layer="2107" from-port="5" to-layer="2358" to-port="3"/>
		<edge from-layer="2132" from-port="5" to-layer="2358" to-port="4"/>
		<edge from-layer="2157" from-port="5" to-layer="2358" to-port="5"/>
		<edge from-layer="2182" from-port="5" to-layer="2358" to-port="6"/>
		<edge from-layer="2207" from-port="5" to-layer="2358" to-port="7"/>
		<edge from-layer="2232" from-port="5" to-layer="2358" to-port="8"/>
		<edge from-layer="2257" from-port="5" to-layer="2358" to-port="9"/>
		<edge from-layer="2282" from-port="5" to-layer="2358" to-port="10"/>
		<edge from-layer="2307" from-port="5" to-layer="2358" to-port="11"/>
		<edge from-layer="2332" from-port="5" to-layer="2358" to-port="12"/>
		<edge from-layer="2357" from-port="5" to-layer="2358" to-port="13"/>
		<edge from-layer="2358" from-port="14" to-layer="2359" to-port="0"/>
		<edge from-layer="68" from-port="0" to-layer="2359" to-port="1"/>
		<edge from-layer="2359" from-port="2" to-layer="2361" to-port="0"/>
		<edge from-layer="2360" from-port="0" to-layer="2361" to-port="1"/>
		<edge from-layer="2361" from-port="2" to-layer="2362" to-port="0"/>
		<edge from-layer="2362" from-port="1" to-layer="2363" to-port="0"/>
		<edge from-layer="64" from-port="0" to-layer="2363" to-port="1"/>
		<edge from-layer="65" from-port="0" to-layer="2363" to-port="2"/>
		<edge from-layer="66" from-port="0" to-layer="2363" to-port="3"/>
		<edge from-layer="67" from-port="0" to-layer="2363" to-port="4"/>
		<edge from-layer="2368" from-port="0" to-layer="2369" to-port="0"/>
		<edge from-layer="2364" from-port="0" to-layer="2369" to-port="1"/>
		<edge from-layer="2365" from-port="0" to-layer="2369" to-port="2"/>
		<edge from-layer="2366" from-port="0" to-layer="2369" to-port="3"/>
		<edge from-layer="2367" from-port="0" to-layer="2369" to-port="4"/>
		<edge from-layer="2363" from-port="5" to-layer="2370" to-port="0"/>
		<edge from-layer="2369" from-port="5" to-layer="2370" to-port="1"/>
		<edge from-layer="2370" from-port="2" to-layer="2371" to-port="0"/>
		<edge from-layer="63" from-port="0" to-layer="2371" to-port="1"/>
		<edge from-layer="2371" from-port="2" to-layer="2372" to-port="0"/>
		<edge from-layer="2372" from-port="1" to-layer="2373" to-port="0"/>
		<edge from-layer="59" from-port="0" to-layer="2373" to-port="1"/>
		<edge from-layer="60" from-port="0" to-layer="2373" to-port="2"/>
		<edge from-layer="61" from-port="0" to-layer="2373" to-port="3"/>
		<edge from-layer="62" from-port="0" to-layer="2373" to-port="4"/>
		<edge from-layer="2378" from-port="0" to-layer="2379" to-port="0"/>
		<edge from-layer="2374" from-port="0" to-layer="2379" to-port="1"/>
		<edge from-layer="2375" from-port="0" to-layer="2379" to-port="2"/>
		<edge from-layer="2376" from-port="0" to-layer="2379" to-port="3"/>
		<edge from-layer="2377" from-port="0" to-layer="2379" to-port="4"/>
		<edge from-layer="2373" from-port="5" to-layer="2380" to-port="0"/>
		<edge from-layer="2379" from-port="5" to-layer="2380" to-port="1"/>
		<edge from-layer="2380" from-port="2" to-layer="2381" to-port="0"/>
		<edge from-layer="58" from-port="0" to-layer="2381" to-port="1"/>
		<edge from-layer="2381" from-port="2" to-layer="2382" to-port="0"/>
		<edge from-layer="54" from-port="0" to-layer="2382" to-port="1"/>
		<edge from-layer="55" from-port="0" to-layer="2382" to-port="2"/>
		<edge from-layer="56" from-port="0" to-layer="2382" to-port="3"/>
		<edge from-layer="57" from-port="0" to-layer="2382" to-port="4"/>
		<edge from-layer="2018" from-port="5" to-layer="2383" to-port="0"/>
		<edge from-layer="2057" from-port="5" to-layer="2383" to-port="1"/>
		<edge from-layer="2082" from-port="5" to-layer="2383" to-port="2"/>
		<edge from-layer="2107" from-port="5" to-layer="2383" to-port="3"/>
		<edge from-layer="2132" from-port="5" to-layer="2383" to-port="4"/>
		<edge from-layer="2157" from-port="5" to-layer="2383" to-port="5"/>
		<edge from-layer="2182" from-port="5" to-layer="2383" to-port="6"/>
		<edge from-layer="2207" from-port="5" to-layer="2383" to-port="7"/>
		<edge from-layer="2232" from-port="5" to-layer="2383" to-port="8"/>
		<edge from-layer="2257" from-port="5" to-layer="2383" to-port="9"/>
		<edge from-layer="2282" from-port="5" to-layer="2383" to-port="10"/>
		<edge from-layer="2307" from-port="5" to-layer="2383" to-port="11"/>
		<edge from-layer="2332" from-port="5" to-layer="2383" to-port="12"/>
		<edge from-layer="2357" from-port="5" to-layer="2383" to-port="13"/>
		<edge from-layer="2382" from-port="5" to-layer="2383" to-port="14"/>
		<edge from-layer="2383" from-port="15" to-layer="2384" to-port="0"/>
		<edge from-layer="53" from-port="0" to-layer="2384" to-port="1"/>
		<edge from-layer="2384" from-port="2" to-layer="2386" to-port="0"/>
		<edge from-layer="2385" from-port="0" to-layer="2386" to-port="1"/>
		<edge from-layer="2386" from-port="2" to-layer="2387" to-port="0"/>
		<edge from-layer="2387" from-port="1" to-layer="2388" to-port="0"/>
		<edge from-layer="49" from-port="0" to-layer="2388" to-port="1"/>
		<edge from-layer="50" from-port="0" to-layer="2388" to-port="2"/>
		<edge from-layer="51" from-port="0" to-layer="2388" to-port="3"/>
		<edge from-layer="52" from-port="0" to-layer="2388" to-port="4"/>
		<edge from-layer="2393" from-port="0" to-layer="2394" to-port="0"/>
		<edge from-layer="2389" from-port="0" to-layer="2394" to-port="1"/>
		<edge from-layer="2390" from-port="0" to-layer="2394" to-port="2"/>
		<edge from-layer="2391" from-port="0" to-layer="2394" to-port="3"/>
		<edge from-layer="2392" from-port="0" to-layer="2394" to-port="4"/>
		<edge from-layer="2388" from-port="5" to-layer="2395" to-port="0"/>
		<edge from-layer="2394" from-port="5" to-layer="2395" to-port="1"/>
		<edge from-layer="2395" from-port="2" to-layer="2396" to-port="0"/>
		<edge from-layer="48" from-port="0" to-layer="2396" to-port="1"/>
		<edge from-layer="2396" from-port="2" to-layer="2397" to-port="0"/>
		<edge from-layer="2397" from-port="1" to-layer="2398" to-port="0"/>
		<edge from-layer="44" from-port="0" to-layer="2398" to-port="1"/>
		<edge from-layer="45" from-port="0" to-layer="2398" to-port="2"/>
		<edge from-layer="46" from-port="0" to-layer="2398" to-port="3"/>
		<edge from-layer="47" from-port="0" to-layer="2398" to-port="4"/>
		<edge from-layer="2403" from-port="0" to-layer="2404" to-port="0"/>
		<edge from-layer="2399" from-port="0" to-layer="2404" to-port="1"/>
		<edge from-layer="2400" from-port="0" to-layer="2404" to-port="2"/>
		<edge from-layer="2401" from-port="0" to-layer="2404" to-port="3"/>
		<edge from-layer="2402" from-port="0" to-layer="2404" to-port="4"/>
		<edge from-layer="2398" from-port="5" to-layer="2405" to-port="0"/>
		<edge from-layer="2404" from-port="5" to-layer="2405" to-port="1"/>
		<edge from-layer="2405" from-port="2" to-layer="2406" to-port="0"/>
		<edge from-layer="43" from-port="0" to-layer="2406" to-port="1"/>
		<edge from-layer="2406" from-port="2" to-layer="2407" to-port="0"/>
		<edge from-layer="39" from-port="0" to-layer="2407" to-port="1"/>
		<edge from-layer="40" from-port="0" to-layer="2407" to-port="2"/>
		<edge from-layer="41" from-port="0" to-layer="2407" to-port="3"/>
		<edge from-layer="42" from-port="0" to-layer="2407" to-port="4"/>
		<edge from-layer="2018" from-port="5" to-layer="2408" to-port="0"/>
		<edge from-layer="2057" from-port="5" to-layer="2408" to-port="1"/>
		<edge from-layer="2082" from-port="5" to-layer="2408" to-port="2"/>
		<edge from-layer="2107" from-port="5" to-layer="2408" to-port="3"/>
		<edge from-layer="2132" from-port="5" to-layer="2408" to-port="4"/>
		<edge from-layer="2157" from-port="5" to-layer="2408" to-port="5"/>
		<edge from-layer="2182" from-port="5" to-layer="2408" to-port="6"/>
		<edge from-layer="2207" from-port="5" to-layer="2408" to-port="7"/>
		<edge from-layer="2232" from-port="5" to-layer="2408" to-port="8"/>
		<edge from-layer="2257" from-port="5" to-layer="2408" to-port="9"/>
		<edge from-layer="2282" from-port="5" to-layer="2408" to-port="10"/>
		<edge from-layer="2307" from-port="5" to-layer="2408" to-port="11"/>
		<edge from-layer="2332" from-port="5" to-layer="2408" to-port="12"/>
		<edge from-layer="2357" from-port="5" to-layer="2408" to-port="13"/>
		<edge from-layer="2382" from-port="5" to-layer="2408" to-port="14"/>
		<edge from-layer="2407" from-port="5" to-layer="2408" to-port="15"/>
		<edge from-layer="2408" from-port="16" to-layer="2409" to-port="0"/>
		<edge from-layer="38" from-port="0" to-layer="2409" to-port="1"/>
		<edge from-layer="2409" from-port="2" to-layer="2411" to-port="0"/>
		<edge from-layer="2410" from-port="0" to-layer="2411" to-port="1"/>
		<edge from-layer="2411" from-port="2" to-layer="2412" to-port="0"/>
		<edge from-layer="2412" from-port="1" to-layer="2413" to-port="0"/>
		<edge from-layer="34" from-port="0" to-layer="2413" to-port="1"/>
		<edge from-layer="35" from-port="0" to-layer="2413" to-port="2"/>
		<edge from-layer="36" from-port="0" to-layer="2413" to-port="3"/>
		<edge from-layer="37" from-port="0" to-layer="2413" to-port="4"/>
		<edge from-layer="2418" from-port="0" to-layer="2419" to-port="0"/>
		<edge from-layer="2414" from-port="0" to-layer="2419" to-port="1"/>
		<edge from-layer="2415" from-port="0" to-layer="2419" to-port="2"/>
		<edge from-layer="2416" from-port="0" to-layer="2419" to-port="3"/>
		<edge from-layer="2417" from-port="0" to-layer="2419" to-port="4"/>
		<edge from-layer="2413" from-port="5" to-layer="2420" to-port="0"/>
		<edge from-layer="2419" from-port="5" to-layer="2420" to-port="1"/>
		<edge from-layer="2420" from-port="2" to-layer="2421" to-port="0"/>
		<edge from-layer="33" from-port="0" to-layer="2421" to-port="1"/>
		<edge from-layer="2421" from-port="2" to-layer="2422" to-port="0"/>
		<edge from-layer="2422" from-port="1" to-layer="2423" to-port="0"/>
		<edge from-layer="29" from-port="0" to-layer="2423" to-port="1"/>
		<edge from-layer="30" from-port="0" to-layer="2423" to-port="2"/>
		<edge from-layer="31" from-port="0" to-layer="2423" to-port="3"/>
		<edge from-layer="32" from-port="0" to-layer="2423" to-port="4"/>
		<edge from-layer="2428" from-port="0" to-layer="2429" to-port="0"/>
		<edge from-layer="2424" from-port="0" to-layer="2429" to-port="1"/>
		<edge from-layer="2425" from-port="0" to-layer="2429" to-port="2"/>
		<edge from-layer="2426" from-port="0" to-layer="2429" to-port="3"/>
		<edge from-layer="2427" from-port="0" to-layer="2429" to-port="4"/>
		<edge from-layer="2423" from-port="5" to-layer="2430" to-port="0"/>
		<edge from-layer="2429" from-port="5" to-layer="2430" to-port="1"/>
		<edge from-layer="2430" from-port="2" to-layer="2431" to-port="0"/>
		<edge from-layer="28" from-port="0" to-layer="2431" to-port="1"/>
		<edge from-layer="2431" from-port="2" to-layer="2432" to-port="0"/>
		<edge from-layer="24" from-port="0" to-layer="2432" to-port="1"/>
		<edge from-layer="25" from-port="0" to-layer="2432" to-port="2"/>
		<edge from-layer="26" from-port="0" to-layer="2432" to-port="3"/>
		<edge from-layer="27" from-port="0" to-layer="2432" to-port="4"/>
		<edge from-layer="2018" from-port="5" to-layer="2433" to-port="0"/>
		<edge from-layer="2057" from-port="5" to-layer="2433" to-port="1"/>
		<edge from-layer="2082" from-port="5" to-layer="2433" to-port="2"/>
		<edge from-layer="2107" from-port="5" to-layer="2433" to-port="3"/>
		<edge from-layer="2132" from-port="5" to-layer="2433" to-port="4"/>
		<edge from-layer="2157" from-port="5" to-layer="2433" to-port="5"/>
		<edge from-layer="2182" from-port="5" to-layer="2433" to-port="6"/>
		<edge from-layer="2207" from-port="5" to-layer="2433" to-port="7"/>
		<edge from-layer="2232" from-port="5" to-layer="2433" to-port="8"/>
		<edge from-layer="2257" from-port="5" to-layer="2433" to-port="9"/>
		<edge from-layer="2282" from-port="5" to-layer="2433" to-port="10"/>
		<edge from-layer="2307" from-port="5" to-layer="2433" to-port="11"/>
		<edge from-layer="2332" from-port="5" to-layer="2433" to-port="12"/>
		<edge from-layer="2357" from-port="5" to-layer="2433" to-port="13"/>
		<edge from-layer="2382" from-port="5" to-layer="2433" to-port="14"/>
		<edge from-layer="2407" from-port="5" to-layer="2433" to-port="15"/>
		<edge from-layer="2432" from-port="5" to-layer="2433" to-port="16"/>
		<edge from-layer="2433" from-port="17" to-layer="2434" to-port="0"/>
		<edge from-layer="23" from-port="0" to-layer="2434" to-port="1"/>
		<edge from-layer="2434" from-port="2" to-layer="2436" to-port="0"/>
		<edge from-layer="2435" from-port="0" to-layer="2436" to-port="1"/>
		<edge from-layer="2436" from-port="2" to-layer="2437" to-port="0"/>
	</edges>
	<meta_data>
		<MO_version value="custom_master_ab8c2f6fd8ac9088a90f1009f8842498c7bda197"/>
		<Runtime_version value="custom_master_ab8c2f6fd8ac9088a90f1009f8842498c7bda197"/>
		<legacy_path value="True"/>
		<cli_parameters>
			<caffe_parser_path value="DIR"/>
			<compress_fp16 value="False"/>
			<data_type value="FP32"/>
			<disable_nhwc_to_nchw value="False"/>
			<disable_omitting_optional value="False"/>
			<disable_resnet_optimization value="False"/>
			<disable_weights_compression value="False"/>
			<enable_concat_optimization value="False"/>
			<enable_flattening_nested_params value="False"/>
			<enable_ssd_gluoncv value="False"/>
			<extensions value="DIR"/>
			<framework value="onnx"/>
			<freeze_placeholder_with_value value="{}"/>
			<input_model value="DIR/densenet121_example.onnx"/>
			<input_model_is_text value="False"/>
			<k value="DIR/CustomLayersMapping.xml"/>
			<layout value="()"/>
			<layout_values value="{}"/>
			<legacy_mxnet_model value="False"/>
			<log_level value="ERROR"/>
			<mean_scale_values value="{}"/>
			<mean_values value="()"/>
			<model_name value="densenet121_example"/>
			<output_dir value="DIR"/>
			<placeholder_data_types value="{}"/>
			<progress value="False"/>
			<remove_memory value="False"/>
			<remove_output_softmax value="False"/>
			<reverse_input_channels value="False"/>
			<save_params_from_nd value="False"/>
			<scale_values value="()"/>
			<silent value="False"/>
			<source_layout value="()"/>
			<static_shape value="False"/>
			<stream_output value="False"/>
			<target_layout value="()"/>
			<transform value=""/>
			<use_legacy_frontend value="False"/>
			<use_new_frontend value="False"/>
			<unset unset_cli_parameters="batch, counts, disable_fusing, finegrain_fusing, input, input_checkpoint, input_meta_graph, input_proto, input_shape, input_symbol, mean_file, mean_file_offsets, nd_prefix_name, output, placeholder_shapes, pretrained_model_name, saved_model_dir, saved_model_tags, scale, tensorboard_logdir, tensorflow_custom_layer_libraries, tensorflow_custom_operations_config_update, tensorflow_object_detection_api_pipeline_config, tensorflow_use_custom_operations_config, transformations_config"/>
		</cli_parameters>
	</meta_data>
	<quantization_parameters>
		<config/>
		<version value="{}"/>
		<cli_params value="{}"/>
	</quantization_parameters>
</net>
