<?xml version="1.0" ?>
<net name="torch-jit-export" version="11">
	<layers>
		<layer id="511" name="input" type="Parameter" version="opset1">
			<data shape="1,3,224,224" element_type="f32"/>
			<output>
				<port id="0" precision="FP32" names="input">
					<dim>1</dim>
					<dim>3</dim>
					<dim>224</dim>
					<dim>224</dim>
					<rt_info/>
				</port>
			</output>
		</layer>
		<layer id="0" name="1086108810690" type="Const" version="opset1">
			<data offset="0" size="5120" shape="1,1280,1,1" element_type="f32"/>
			<output>
				<port id="0" precision="FP32">
					<dim>1</dim>
					<dim>1280</dim>
					<dim>1</dim>
					<dim>1</dim>
				</port>
			</output>
		</layer>
		<layer id="1" name="1497150110489" type="Const" version="opset1">
			<data offset="5120" size="4" shape="" element_type="f32"/>
			<output>
				<port id="0" precision="FP32"/>
			</output>
		</layer>
		<layer id="2" name="1498150210456" type="Const" version="opset1">
			<data offset="5120" size="4" shape="" element_type="f32"/>
			<output>
				<port id="0" precision="FP32"/>
			</output>
		</layer>
		<layer id="3" name="1499150310069" type="Const" version="opset1">
			<data offset="5120" size="4" shape="" element_type="f32"/>
			<output>
				<port id="0" precision="FP32"/>
			</output>
		</layer>
		<layer id="4" name="150015049718" type="Const" version="opset1">
			<data offset="5120" size="4" shape="" element_type="f32"/>
			<output>
				<port id="0" precision="FP32"/>
			</output>
		</layer>
		<layer id="5" name="1082108410243" type="Const" version="opset1">
			<data offset="5124" size="1280" shape="1,320,1,1" element_type="f32"/>
			<output>
				<port id="0" precision="FP32">
					<dim>1</dim>
					<dim>320</dim>
					<dim>1</dim>
					<dim>1</dim>
				</port>
			</output>
		</layer>
		<layer id="6" name="162716319583" type="Const" version="opset1">
			<data offset="5120" size="4" shape="" element_type="f32"/>
			<output>
				<port id="0" precision="FP32"/>
			</output>
		</layer>
		<layer id="7" name="1628163210441" type="Const" version="opset1">
			<data offset="5120" size="4" shape="" element_type="f32"/>
			<output>
				<port id="0" precision="FP32"/>
			</output>
		</layer>
		<layer id="8" name="1629163311215" type="Const" version="opset1">
			<data offset="5120" size="4" shape="" element_type="f32"/>
			<output>
				<port id="0" precision="FP32"/>
			</output>
		</layer>
		<layer id="9" name="1630163410669" type="Const" version="opset1">
			<data offset="5120" size="4" shape="" element_type="f32"/>
			<output>
				<port id="0" precision="FP32"/>
			</output>
		</layer>
		<layer id="10" name="2597260110360" type="Const" version="opset1">
			<data offset="5120" size="4" shape="" element_type="f32"/>
			<output>
				<port id="0" precision="FP32"/>
			</output>
		</layer>
		<layer id="11" name="2598260211605" type="Const" version="opset1">
			<data offset="5120" size="4" shape="" element_type="f32"/>
			<output>
				<port id="0" precision="FP32"/>
			</output>
		</layer>
		<layer id="12" name="2599260310588" type="Const" version="opset1">
			<data offset="5120" size="4" shape="" element_type="f32"/>
			<output>
				<port id="0" precision="FP32"/>
			</output>
		</layer>
		<layer id="13" name="260026049928" type="Const" version="opset1">
			<data offset="5120" size="4" shape="" element_type="f32"/>
			<output>
				<port id="0" precision="FP32"/>
			</output>
		</layer>
		<layer id="14" name="1078108011338" type="Const" version="opset1">
			<data offset="6404" size="4608" shape="1,1152,1,1" element_type="f32"/>
			<output>
				<port id="0" precision="FP32">
					<dim>1</dim>
					<dim>1152</dim>
					<dim>1</dim>
					<dim>1</dim>
				</port>
			</output>
		</layer>
		<layer id="15" name="1074107611410" type="Const" version="opset1">
			<data offset="11012" size="192" shape="1,48,1,1" element_type="f32"/>
			<output>
				<port id="0" precision="FP32">
					<dim>1</dim>
					<dim>48</dim>
					<dim>1</dim>
					<dim>1</dim>
				</port>
			</output>
		</layer>
		<layer id="16" name="Range_56315589529" type="Const" version="opset1">
			<data offset="11204" size="16" shape="2" element_type="i64"/>
			<output>
				<port id="0" precision="I64">
					<dim>2</dim>
				</port>
			</output>
		</layer>
		<layer id="17" name="256725719589" type="Const" version="opset1">
			<data offset="5120" size="4" shape="" element_type="f32"/>
			<output>
				<port id="0" precision="FP32"/>
			</output>
		</layer>
		<layer id="18" name="2568257211254" type="Const" version="opset1">
			<data offset="5120" size="4" shape="" element_type="f32"/>
			<output>
				<port id="0" precision="FP32"/>
			</output>
		</layer>
		<layer id="19" name="256925739673" type="Const" version="opset1">
			<data offset="5120" size="4" shape="" element_type="f32"/>
			<output>
				<port id="0" precision="FP32"/>
			</output>
		</layer>
		<layer id="20" name="257025749646" type="Const" version="opset1">
			<data offset="5120" size="4" shape="" element_type="f32"/>
			<output>
				<port id="0" precision="FP32"/>
			</output>
		</layer>
		<layer id="21" name="1070107210756" type="Const" version="opset1">
			<data offset="6404" size="4608" shape="1,1152,1,1" element_type="f32"/>
			<output>
				<port id="0" precision="FP32">
					<dim>1</dim>
					<dim>1152</dim>
					<dim>1</dim>
					<dim>1</dim>
				</port>
			</output>
		</layer>
		<layer id="22" name="1967197110042" type="Const" version="opset1">
			<data offset="5120" size="4" shape="" element_type="f32"/>
			<output>
				<port id="0" precision="FP32"/>
			</output>
		</layer>
		<layer id="23" name="1968197210255" type="Const" version="opset1">
			<data offset="5120" size="4" shape="" element_type="f32"/>
			<output>
				<port id="0" precision="FP32"/>
			</output>
		</layer>
		<layer id="24" name="1969197311386" type="Const" version="opset1">
			<data offset="5120" size="4" shape="" element_type="f32"/>
			<output>
				<port id="0" precision="FP32"/>
			</output>
		</layer>
		<layer id="25" name="1970197410651" type="Const" version="opset1">
			<data offset="5120" size="4" shape="" element_type="f32"/>
			<output>
				<port id="0" precision="FP32"/>
			</output>
		</layer>
		<layer id="26" name="1066106810381" type="Const" version="opset1">
			<data offset="6404" size="4608" shape="1,1152,1,1" element_type="f32"/>
			<output>
				<port id="0" precision="FP32">
					<dim>1</dim>
					<dim>1152</dim>
					<dim>1</dim>
					<dim>1</dim>
				</port>
			</output>
		</layer>
		<layer id="27" name="2977298111602" type="Const" version="opset1">
			<data offset="5120" size="4" shape="" element_type="f32"/>
			<output>
				<port id="0" precision="FP32"/>
			</output>
		</layer>
		<layer id="28" name="2978298210354" type="Const" version="opset1">
			<data offset="5120" size="4" shape="" element_type="f32"/>
			<output>
				<port id="0" precision="FP32"/>
			</output>
		</layer>
		<layer id="29" name="2979298311329" type="Const" version="opset1">
			<data offset="5120" size="4" shape="" element_type="f32"/>
			<output>
				<port id="0" precision="FP32"/>
			</output>
		</layer>
		<layer id="30" name="298029849982" type="Const" version="opset1">
			<data offset="5120" size="4" shape="" element_type="f32"/>
			<output>
				<port id="0" precision="FP32"/>
			</output>
		</layer>
		<layer id="31" name="1797180110858" type="Const" version="opset1">
			<data offset="5120" size="4" shape="" element_type="f32"/>
			<output>
				<port id="0" precision="FP32"/>
			</output>
		</layer>
		<layer id="32" name="1798180210753" type="Const" version="opset1">
			<data offset="5120" size="4" shape="" element_type="f32"/>
			<output>
				<port id="0" precision="FP32"/>
			</output>
		</layer>
		<layer id="33" name="1799180310888" type="Const" version="opset1">
			<data offset="5120" size="4" shape="" element_type="f32"/>
			<output>
				<port id="0" precision="FP32"/>
			</output>
		</layer>
		<layer id="34" name="1800180410738" type="Const" version="opset1">
			<data offset="5120" size="4" shape="" element_type="f32"/>
			<output>
				<port id="0" precision="FP32"/>
			</output>
		</layer>
		<layer id="35" name="1062106410963" type="Const" version="opset1">
			<data offset="11220" size="768" shape="1,192,1,1" element_type="f32"/>
			<output>
				<port id="0" precision="FP32">
					<dim>1</dim>
					<dim>192</dim>
					<dim>1</dim>
					<dim>1</dim>
				</port>
			</output>
		</layer>
		<layer id="36" name="2437244111404" type="Const" version="opset1">
			<data offset="5120" size="4" shape="" element_type="f32"/>
			<output>
				<port id="0" precision="FP32"/>
			</output>
		</layer>
		<layer id="37" name="2438244210198" type="Const" version="opset1">
			<data offset="5120" size="4" shape="" element_type="f32"/>
			<output>
				<port id="0" precision="FP32"/>
			</output>
		</layer>
		<layer id="38" name="2439244311206" type="Const" version="opset1">
			<data offset="5120" size="4" shape="" element_type="f32"/>
			<output>
				<port id="0" precision="FP32"/>
			</output>
		</layer>
		<layer id="39" name="2440244410915" type="Const" version="opset1">
			<data offset="5120" size="4" shape="" element_type="f32"/>
			<output>
				<port id="0" precision="FP32"/>
			</output>
		</layer>
		<layer id="40" name="1777178110903" type="Const" version="opset1">
			<data offset="5120" size="4" shape="" element_type="f32"/>
			<output>
				<port id="0" precision="FP32"/>
			</output>
		</layer>
		<layer id="41" name="1778178210723" type="Const" version="opset1">
			<data offset="5120" size="4" shape="" element_type="f32"/>
			<output>
				<port id="0" precision="FP32"/>
			</output>
		</layer>
		<layer id="42" name="1779178310621" type="Const" version="opset1">
			<data offset="5120" size="4" shape="" element_type="f32"/>
			<output>
				<port id="0" precision="FP32"/>
			</output>
		</layer>
		<layer id="43" name="1780178410105" type="Const" version="opset1">
			<data offset="5120" size="4" shape="" element_type="f32"/>
			<output>
				<port id="0" precision="FP32"/>
			</output>
		</layer>
		<layer id="44" name="1058106010450" type="Const" version="opset1">
			<data offset="6404" size="4608" shape="1,1152,1,1" element_type="f32"/>
			<output>
				<port id="0" precision="FP32">
					<dim>1</dim>
					<dim>1152</dim>
					<dim>1</dim>
					<dim>1</dim>
				</port>
			</output>
		</layer>
		<layer id="45" name="1054105610129" type="Const" version="opset1">
			<data offset="11012" size="192" shape="1,48,1,1" element_type="f32"/>
			<output>
				<port id="0" precision="FP32">
					<dim>1</dim>
					<dim>48</dim>
					<dim>1</dim>
					<dim>1</dim>
				</port>
			</output>
		</layer>
		<layer id="46" name="Range_527854011695" type="Const" version="opset1">
			<data offset="11204" size="16" shape="2" element_type="i64"/>
			<output>
				<port id="0" precision="I64">
					<dim>2</dim>
				</port>
			</output>
		</layer>
		<layer id="47" name="249725019502" type="Const" version="opset1">
			<data offset="5120" size="4" shape="" element_type="f32"/>
			<output>
				<port id="0" precision="FP32"/>
			</output>
		</layer>
		<layer id="48" name="2498250211044" type="Const" version="opset1">
			<data offset="5120" size="4" shape="" element_type="f32"/>
			<output>
				<port id="0" precision="FP32"/>
			</output>
		</layer>
		<layer id="49" name="249925039868" type="Const" version="opset1">
			<data offset="5120" size="4" shape="" element_type="f32"/>
			<output>
				<port id="0" precision="FP32"/>
			</output>
		</layer>
		<layer id="50" name="2500250410714" type="Const" version="opset1">
			<data offset="5120" size="4" shape="" element_type="f32"/>
			<output>
				<port id="0" precision="FP32"/>
			</output>
		</layer>
		<layer id="51" name="1050105211491" type="Const" version="opset1">
			<data offset="6404" size="4608" shape="1,1152,1,1" element_type="f32"/>
			<output>
				<port id="0" precision="FP32">
					<dim>1</dim>
					<dim>1152</dim>
					<dim>1</dim>
					<dim>1</dim>
				</port>
			</output>
		</layer>
		<layer id="52" name="1837184110420" type="Const" version="opset1">
			<data offset="5120" size="4" shape="" element_type="f32"/>
			<output>
				<port id="0" precision="FP32"/>
			</output>
		</layer>
		<layer id="53" name="183818429586" type="Const" version="opset1">
			<data offset="5120" size="4" shape="" element_type="f32"/>
			<output>
				<port id="0" precision="FP32"/>
			</output>
		</layer>
		<layer id="54" name="1839184310336" type="Const" version="opset1">
			<data offset="5120" size="4" shape="" element_type="f32"/>
			<output>
				<port id="0" precision="FP32"/>
			</output>
		</layer>
		<layer id="55" name="1840184411692" type="Const" version="opset1">
			<data offset="5120" size="4" shape="" element_type="f32"/>
			<output>
				<port id="0" precision="FP32"/>
			</output>
		</layer>
		<layer id="56" name="1046104810732" type="Const" version="opset1">
			<data offset="6404" size="4608" shape="1,1152,1,1" element_type="f32"/>
			<output>
				<port id="0" precision="FP32">
					<dim>1</dim>
					<dim>1152</dim>
					<dim>1</dim>
					<dim>1</dim>
				</port>
			</output>
		</layer>
		<layer id="57" name="2847285111344" type="Const" version="opset1">
			<data offset="5120" size="4" shape="" element_type="f32"/>
			<output>
				<port id="0" precision="FP32"/>
			</output>
		</layer>
		<layer id="58" name="2848285210789" type="Const" version="opset1">
			<data offset="5120" size="4" shape="" element_type="f32"/>
			<output>
				<port id="0" precision="FP32"/>
			</output>
		</layer>
		<layer id="59" name="2849285311584" type="Const" version="opset1">
			<data offset="5120" size="4" shape="" element_type="f32"/>
			<output>
				<port id="0" precision="FP32"/>
			</output>
		</layer>
		<layer id="60" name="285028549769" type="Const" version="opset1">
			<data offset="5120" size="4" shape="" element_type="f32"/>
			<output>
				<port id="0" precision="FP32"/>
			</output>
		</layer>
		<layer id="61" name="77153411134" type="Const" version="opset1">
			<data offset="11988" size="884736" shape="1152,192,1,1" element_type="f32"/>
			<output>
				<port id="0" precision="FP32" names="771">
					<dim>1152</dim>
					<dim>192</dim>
					<dim>1</dim>
					<dim>1</dim>
				</port>
			</output>
		</layer>
		<layer id="62" name="Conv_204/WithoutBiases/fq_weights_1" type="FakeQuantize" version="opset1">
			<data levels="0" auto_broadcast="numpy"/>
			<input>
				<port id="0">
					<dim>1152</dim>
					<dim>192</dim>
					<dim>1</dim>
					<dim>1</dim>
				</port>
				<port id="1"/>
				<port id="2"/>
				<port id="3"/>
				<port id="4"/>
			</input>
			<output>
				<port id="5" precision="FP32">
					<dim>1152</dim>
					<dim>192</dim>
					<dim>1</dim>
					<dim>1</dim>
				</port>
			</output>
		</layer>
		<layer id="63" name="1807181111458" type="Const" version="opset1">
			<data offset="5120" size="4" shape="" element_type="f32"/>
			<output>
				<port id="0" precision="FP32"/>
			</output>
		</layer>
		<layer id="64" name="1808181210960" type="Const" version="opset1">
			<data offset="5120" size="4" shape="" element_type="f32"/>
			<output>
				<port id="0" precision="FP32"/>
			</output>
		</layer>
		<layer id="65" name="1809181311212" type="Const" version="opset1">
			<data offset="5120" size="4" shape="" element_type="f32"/>
			<output>
				<port id="0" precision="FP32"/>
			</output>
		</layer>
		<layer id="66" name="1810181410414" type="Const" version="opset1">
			<data offset="5120" size="4" shape="" element_type="f32"/>
			<output>
				<port id="0" precision="FP32"/>
			</output>
		</layer>
		<layer id="67" name="1757176111266" type="Const" version="opset1">
			<data offset="5120" size="4" shape="" element_type="f32"/>
			<output>
				<port id="0" precision="FP32"/>
			</output>
		</layer>
		<layer id="68" name="175817629985" type="Const" version="opset1">
			<data offset="5120" size="4" shape="" element_type="f32"/>
			<output>
				<port id="0" precision="FP32"/>
			</output>
		</layer>
		<layer id="69" name="1759176311569" type="Const" version="opset1">
			<data offset="5120" size="4" shape="" element_type="f32"/>
			<output>
				<port id="0" precision="FP32"/>
			</output>
		</layer>
		<layer id="70" name="1760176411101" type="Const" version="opset1">
			<data offset="5120" size="4" shape="" element_type="f32"/>
			<output>
				<port id="0" precision="FP32"/>
			</output>
		</layer>
		<layer id="71" name="1042104410273" type="Const" version="opset1">
			<data offset="11220" size="768" shape="1,192,1,1" element_type="f32"/>
			<output>
				<port id="0" precision="FP32">
					<dim>1</dim>
					<dim>192</dim>
					<dim>1</dim>
					<dim>1</dim>
				</port>
			</output>
		</layer>
		<layer id="72" name="185718619544" type="Const" version="opset1">
			<data offset="5120" size="4" shape="" element_type="f32"/>
			<output>
				<port id="0" precision="FP32"/>
			</output>
		</layer>
		<layer id="73" name="1858186210357" type="Const" version="opset1">
			<data offset="5120" size="4" shape="" element_type="f32"/>
			<output>
				<port id="0" precision="FP32"/>
			</output>
		</layer>
		<layer id="74" name="1859186310513" type="Const" version="opset1">
			<data offset="5120" size="4" shape="" element_type="f32"/>
			<output>
				<port id="0" precision="FP32"/>
			</output>
		</layer>
		<layer id="75" name="1860186411518" type="Const" version="opset1">
			<data offset="5120" size="4" shape="" element_type="f32"/>
			<output>
				<port id="0" precision="FP32"/>
			</output>
		</layer>
		<layer id="76" name="2507251110987" type="Const" version="opset1">
			<data offset="5120" size="4" shape="" element_type="f32"/>
			<output>
				<port id="0" precision="FP32"/>
			</output>
		</layer>
		<layer id="77" name="2508251211098" type="Const" version="opset1">
			<data offset="5120" size="4" shape="" element_type="f32"/>
			<output>
				<port id="0" precision="FP32"/>
			</output>
		</layer>
		<layer id="78" name="2509251311722" type="Const" version="opset1">
			<data offset="5120" size="4" shape="" element_type="f32"/>
			<output>
				<port id="0" precision="FP32"/>
			</output>
		</layer>
		<layer id="79" name="2510251410318" type="Const" version="opset1">
			<data offset="5120" size="4" shape="" element_type="f32"/>
			<output>
				<port id="0" precision="FP32"/>
			</output>
		</layer>
		<layer id="80" name="1038104011572" type="Const" version="opset1">
			<data offset="6404" size="4608" shape="1,1152,1,1" element_type="f32"/>
			<output>
				<port id="0" precision="FP32">
					<dim>1</dim>
					<dim>1152</dim>
					<dim>1</dim>
					<dim>1</dim>
				</port>
			</output>
		</layer>
		<layer id="81" name="1034103610717" type="Const" version="opset1">
			<data offset="11012" size="192" shape="1,48,1,1" element_type="f32"/>
			<output>
				<port id="0" precision="FP32">
					<dim>1</dim>
					<dim>48</dim>
					<dim>1</dim>
					<dim>1</dim>
				</port>
			</output>
		</layer>
		<layer id="82" name="Range_492552211095" type="Const" version="opset1">
			<data offset="11204" size="16" shape="2" element_type="i64"/>
			<output>
				<port id="0" precision="I64">
					<dim>2</dim>
				</port>
			</output>
		</layer>
		<layer id="83" name="2427243111221" type="Const" version="opset1">
			<data offset="5120" size="4" shape="" element_type="f32"/>
			<output>
				<port id="0" precision="FP32"/>
			</output>
		</layer>
		<layer id="84" name="2428243210783" type="Const" version="opset1">
			<data offset="5120" size="4" shape="" element_type="f32"/>
			<output>
				<port id="0" precision="FP32"/>
			</output>
		</layer>
		<layer id="85" name="2429243310024" type="Const" version="opset1">
			<data offset="5120" size="4" shape="" element_type="f32"/>
			<output>
				<port id="0" precision="FP32"/>
			</output>
		</layer>
		<layer id="86" name="243024349508" type="Const" version="opset1">
			<data offset="5120" size="4" shape="" element_type="f32"/>
			<output>
				<port id="0" precision="FP32"/>
			</output>
		</layer>
		<layer id="87" name="1030103210936" type="Const" version="opset1">
			<data offset="6404" size="4608" shape="1,1152,1,1" element_type="f32"/>
			<output>
				<port id="0" precision="FP32">
					<dim>1</dim>
					<dim>1152</dim>
					<dim>1</dim>
					<dim>1</dim>
				</port>
			</output>
		</layer>
		<layer id="88" name="2407241111251" type="Const" version="opset1">
			<data offset="5120" size="4" shape="" element_type="f32"/>
			<output>
				<port id="0" precision="FP32"/>
			</output>
		</layer>
		<layer id="89" name="2408241210531" type="Const" version="opset1">
			<data offset="5120" size="4" shape="" element_type="f32"/>
			<output>
				<port id="0" precision="FP32"/>
			</output>
		</layer>
		<layer id="90" name="2409241311359" type="Const" version="opset1">
			<data offset="5120" size="4" shape="" element_type="f32"/>
			<output>
				<port id="0" precision="FP32"/>
			</output>
		</layer>
		<layer id="91" name="241024149538" type="Const" version="opset1">
			<data offset="5120" size="4" shape="" element_type="f32"/>
			<output>
				<port id="0" precision="FP32"/>
			</output>
		</layer>
		<layer id="92" name="1026102810681" type="Const" version="opset1">
			<data offset="6404" size="4608" shape="1,1152,1,1" element_type="f32"/>
			<output>
				<port id="0" precision="FP32">
					<dim>1</dim>
					<dim>1152</dim>
					<dim>1</dim>
					<dim>1</dim>
				</port>
			</output>
		</layer>
		<layer id="93" name="1687169110870" type="Const" version="opset1">
			<data offset="5120" size="4" shape="" element_type="f32"/>
			<output>
				<port id="0" precision="FP32"/>
			</output>
		</layer>
		<layer id="94" name="1688169210465" type="Const" version="opset1">
			<data offset="5120" size="4" shape="" element_type="f32"/>
			<output>
				<port id="0" precision="FP32"/>
			</output>
		</layer>
		<layer id="95" name="1689169311092" type="Const" version="opset1">
			<data offset="5120" size="4" shape="" element_type="f32"/>
			<output>
				<port id="0" precision="FP32"/>
			</output>
		</layer>
		<layer id="96" name="1690169411335" type="Const" version="opset1">
			<data offset="5120" size="4" shape="" element_type="f32"/>
			<output>
				<port id="0" precision="FP32"/>
			</output>
		</layer>
		<layer id="97" name="76251610048" type="Const" version="opset1">
			<data offset="896724" size="884736" shape="1152,192,1,1" element_type="f32"/>
			<output>
				<port id="0" precision="FP32" names="762">
					<dim>1152</dim>
					<dim>192</dim>
					<dim>1</dim>
					<dim>1</dim>
				</port>
			</output>
		</layer>
		<layer id="98" name="Conv_189/WithoutBiases/fq_weights_1" type="FakeQuantize" version="opset1">
			<data levels="0" auto_broadcast="numpy"/>
			<input>
				<port id="0">
					<dim>1152</dim>
					<dim>192</dim>
					<dim>1</dim>
					<dim>1</dim>
				</port>
				<port id="1"/>
				<port id="2"/>
				<port id="3"/>
				<port id="4"/>
			</input>
			<output>
				<port id="5" precision="FP32">
					<dim>1152</dim>
					<dim>192</dim>
					<dim>1</dim>
					<dim>1</dim>
				</port>
			</output>
		</layer>
		<layer id="99" name="1767177110834" type="Const" version="opset1">
			<data offset="5120" size="4" shape="" element_type="f32"/>
			<output>
				<port id="0" precision="FP32"/>
			</output>
		</layer>
		<layer id="100" name="1768177210699" type="Const" version="opset1">
			<data offset="5120" size="4" shape="" element_type="f32"/>
			<output>
				<port id="0" precision="FP32"/>
			</output>
		</layer>
		<layer id="101" name="1769177310165" type="Const" version="opset1">
			<data offset="5120" size="4" shape="" element_type="f32"/>
			<output>
				<port id="0" precision="FP32"/>
			</output>
		</layer>
		<layer id="102" name="1770177410090" type="Const" version="opset1">
			<data offset="5120" size="4" shape="" element_type="f32"/>
			<output>
				<port id="0" precision="FP32"/>
			</output>
		</layer>
		<layer id="103" name="2087209111302" type="Const" version="opset1">
			<data offset="5120" size="4" shape="" element_type="f32"/>
			<output>
				<port id="0" precision="FP32"/>
			</output>
		</layer>
		<layer id="104" name="208820929484" type="Const" version="opset1">
			<data offset="5120" size="4" shape="" element_type="f32"/>
			<output>
				<port id="0" precision="FP32"/>
			</output>
		</layer>
		<layer id="105" name="2089209311434" type="Const" version="opset1">
			<data offset="5120" size="4" shape="" element_type="f32"/>
			<output>
				<port id="0" precision="FP32"/>
			</output>
		</layer>
		<layer id="106" name="2090209410507" type="Const" version="opset1">
			<data offset="5120" size="4" shape="" element_type="f32"/>
			<output>
				<port id="0" precision="FP32"/>
			</output>
		</layer>
		<layer id="107" name="1022102410270" type="Const" version="opset1">
			<data offset="11220" size="768" shape="1,192,1,1" element_type="f32"/>
			<output>
				<port id="0" precision="FP32">
					<dim>1</dim>
					<dim>192</dim>
					<dim>1</dim>
					<dim>1</dim>
				</port>
			</output>
		</layer>
		<layer id="108" name="2047205110240" type="Const" version="opset1">
			<data offset="5120" size="4" shape="" element_type="f32"/>
			<output>
				<port id="0" precision="FP32"/>
			</output>
		</layer>
		<layer id="109" name="204820529877" type="Const" version="opset1">
			<data offset="5120" size="4" shape="" element_type="f32"/>
			<output>
				<port id="0" precision="FP32"/>
			</output>
		</layer>
		<layer id="110" name="2049205310564" type="Const" version="opset1">
			<data offset="5120" size="4" shape="" element_type="f32"/>
			<output>
				<port id="0" precision="FP32"/>
			</output>
		</layer>
		<layer id="111" name="2050205410486" type="Const" version="opset1">
			<data offset="5120" size="4" shape="" element_type="f32"/>
			<output>
				<port id="0" precision="FP32"/>
			</output>
		</layer>
		<layer id="112" name="1947195110672" type="Const" version="opset1">
			<data offset="5120" size="4" shape="" element_type="f32"/>
			<output>
				<port id="0" precision="FP32"/>
			</output>
		</layer>
		<layer id="113" name="1948195210750" type="Const" version="opset1">
			<data offset="5120" size="4" shape="" element_type="f32"/>
			<output>
				<port id="0" precision="FP32"/>
			</output>
		</layer>
		<layer id="114" name="1949195311398" type="Const" version="opset1">
			<data offset="5120" size="4" shape="" element_type="f32"/>
			<output>
				<port id="0" precision="FP32"/>
			</output>
		</layer>
		<layer id="115" name="1950195410777" type="Const" version="opset1">
			<data offset="5120" size="4" shape="" element_type="f32"/>
			<output>
				<port id="0" precision="FP32"/>
			</output>
		</layer>
		<layer id="116" name="1018102010003" type="Const" version="opset1">
			<data offset="6404" size="4608" shape="1,1152,1,1" element_type="f32"/>
			<output>
				<port id="0" precision="FP32">
					<dim>1</dim>
					<dim>1152</dim>
					<dim>1</dim>
					<dim>1</dim>
				</port>
			</output>
		</layer>
		<layer id="117" name="1014101611341" type="Const" version="opset1">
			<data offset="11012" size="192" shape="1,48,1,1" element_type="f32"/>
			<output>
				<port id="0" precision="FP32">
					<dim>1</dim>
					<dim>48</dim>
					<dim>1</dim>
					<dim>1</dim>
				</port>
			</output>
		</layer>
		<layer id="118" name="Range_457250410957" type="Const" version="opset1">
			<data offset="11204" size="16" shape="2" element_type="i64"/>
			<output>
				<port id="0" precision="I64">
					<dim>2</dim>
				</port>
			</output>
		</layer>
		<layer id="119" name="305730619883" type="Const" version="opset1">
			<data offset="5120" size="4" shape="" element_type="f32"/>
			<output>
				<port id="0" precision="FP32"/>
			</output>
		</layer>
		<layer id="120" name="3058306210606" type="Const" version="opset1">
			<data offset="5120" size="4" shape="" element_type="f32"/>
			<output>
				<port id="0" precision="FP32"/>
			</output>
		</layer>
		<layer id="121" name="3059306310480" type="Const" version="opset1">
			<data offset="5120" size="4" shape="" element_type="f32"/>
			<output>
				<port id="0" precision="FP32"/>
			</output>
		</layer>
		<layer id="122" name="3060306410156" type="Const" version="opset1">
			<data offset="5120" size="4" shape="" element_type="f32"/>
			<output>
				<port id="0" precision="FP32"/>
			</output>
		</layer>
		<layer id="123" name="101010129979" type="Const" version="opset1">
			<data offset="6404" size="4608" shape="1,1152,1,1" element_type="f32"/>
			<output>
				<port id="0" precision="FP32">
					<dim>1</dim>
					<dim>1152</dim>
					<dim>1</dim>
					<dim>1</dim>
				</port>
			</output>
		</layer>
		<layer id="124" name="198719919778" type="Const" version="opset1">
			<data offset="5120" size="4" shape="" element_type="f32"/>
			<output>
				<port id="0" precision="FP32"/>
			</output>
		</layer>
		<layer id="125" name="1988199211176" type="Const" version="opset1">
			<data offset="5120" size="4" shape="" element_type="f32"/>
			<output>
				<port id="0" precision="FP32"/>
			</output>
		</layer>
		<layer id="126" name="198919939496" type="Const" version="opset1">
			<data offset="5120" size="4" shape="" element_type="f32"/>
			<output>
				<port id="0" precision="FP32"/>
			</output>
		</layer>
		<layer id="127" name="199019949691" type="Const" version="opset1">
			<data offset="5120" size="4" shape="" element_type="f32"/>
			<output>
				<port id="0" precision="FP32"/>
			</output>
		</layer>
		<layer id="128" name="1006100810378" type="Const" version="opset1">
			<data offset="6404" size="4608" shape="1,1152,1,1" element_type="f32"/>
			<output>
				<port id="0" precision="FP32">
					<dim>1</dim>
					<dim>1152</dim>
					<dim>1</dim>
					<dim>1</dim>
				</port>
			</output>
		</layer>
		<layer id="129" name="2307231111065" type="Const" version="opset1">
			<data offset="5120" size="4" shape="" element_type="f32"/>
			<output>
				<port id="0" precision="FP32"/>
			</output>
		</layer>
		<layer id="130" name="2308231210222" type="Const" version="opset1">
			<data offset="5120" size="4" shape="" element_type="f32"/>
			<output>
				<port id="0" precision="FP32"/>
			</output>
		</layer>
		<layer id="131" name="230923139745" type="Const" version="opset1">
			<data offset="5120" size="4" shape="" element_type="f32"/>
			<output>
				<port id="0" precision="FP32"/>
			</output>
		</layer>
		<layer id="132" name="2310231411317" type="Const" version="opset1">
			<data offset="5120" size="4" shape="" element_type="f32"/>
			<output>
				<port id="0" precision="FP32"/>
			</output>
		</layer>
		<layer id="133" name="75349811104" type="Const" version="opset1">
			<data offset="1781460" size="884736" shape="1152,192,1,1" element_type="f32"/>
			<output>
				<port id="0" precision="FP32" names="753">
					<dim>1152</dim>
					<dim>192</dim>
					<dim>1</dim>
					<dim>1</dim>
				</port>
			</output>
		</layer>
		<layer id="134" name="Conv_174/WithoutBiases/fq_weights_1" type="FakeQuantize" version="opset1">
			<data levels="0" auto_broadcast="numpy"/>
			<input>
				<port id="0">
					<dim>1152</dim>
					<dim>192</dim>
					<dim>1</dim>
					<dim>1</dim>
				</port>
				<port id="1"/>
				<port id="2"/>
				<port id="3"/>
				<port id="4"/>
			</input>
			<output>
				<port id="5" precision="FP32">
					<dim>1152</dim>
					<dim>192</dim>
					<dim>1</dim>
					<dim>1</dim>
				</port>
			</output>
		</layer>
		<layer id="135" name="2097210111473" type="Const" version="opset1">
			<data offset="5120" size="4" shape="" element_type="f32"/>
			<output>
				<port id="0" precision="FP32"/>
			</output>
		</layer>
		<layer id="136" name="2098210211230" type="Const" version="opset1">
			<data offset="5120" size="4" shape="" element_type="f32"/>
			<output>
				<port id="0" precision="FP32"/>
			</output>
		</layer>
		<layer id="137" name="2099210311713" type="Const" version="opset1">
			<data offset="5120" size="4" shape="" element_type="f32"/>
			<output>
				<port id="0" precision="FP32"/>
			</output>
		</layer>
		<layer id="138" name="210021049580" type="Const" version="opset1">
			<data offset="5120" size="4" shape="" element_type="f32"/>
			<output>
				<port id="0" precision="FP32"/>
			</output>
		</layer>
		<layer id="139" name="1002100411527" type="Const" version="opset1">
			<data offset="11220" size="768" shape="1,192,1,1" element_type="f32"/>
			<output>
				<port id="0" precision="FP32">
					<dim>1</dim>
					<dim>192</dim>
					<dim>1</dim>
					<dim>1</dim>
				</port>
			</output>
		</layer>
		<layer id="140" name="274727519757" type="Const" version="opset1">
			<data offset="5120" size="4" shape="" element_type="f32"/>
			<output>
				<port id="0" precision="FP32"/>
			</output>
		</layer>
		<layer id="141" name="2748275211002" type="Const" version="opset1">
			<data offset="5120" size="4" shape="" element_type="f32"/>
			<output>
				<port id="0" precision="FP32"/>
			</output>
		</layer>
		<layer id="142" name="2749275311512" type="Const" version="opset1">
			<data offset="5120" size="4" shape="" element_type="f32"/>
			<output>
				<port id="0" precision="FP32"/>
			</output>
		</layer>
		<layer id="143" name="2750275410054" type="Const" version="opset1">
			<data offset="5120" size="4" shape="" element_type="f32"/>
			<output>
				<port id="0" precision="FP32"/>
			</output>
		</layer>
		<layer id="144" name="1927193111620" type="Const" version="opset1">
			<data offset="5120" size="4" shape="" element_type="f32"/>
			<output>
				<port id="0" precision="FP32"/>
			</output>
		</layer>
		<layer id="145" name="192819329772" type="Const" version="opset1">
			<data offset="5120" size="4" shape="" element_type="f32"/>
			<output>
				<port id="0" precision="FP32"/>
			</output>
		</layer>
		<layer id="146" name="1929193310978" type="Const" version="opset1">
			<data offset="5120" size="4" shape="" element_type="f32"/>
			<output>
				<port id="0" precision="FP32"/>
			</output>
		</layer>
		<layer id="147" name="1930193410912" type="Const" version="opset1">
			<data offset="5120" size="4" shape="" element_type="f32"/>
			<output>
				<port id="0" precision="FP32"/>
			</output>
		</layer>
		<layer id="148" name="998100010009" type="Const" version="opset1">
			<data offset="2666196" size="2688" shape="1,672,1,1" element_type="f32"/>
			<output>
				<port id="0" precision="FP32">
					<dim>1</dim>
					<dim>672</dim>
					<dim>1</dim>
					<dim>1</dim>
				</port>
			</output>
		</layer>
		<layer id="149" name="99499611677" type="Const" version="opset1">
			<data offset="2668884" size="112" shape="1,28,1,1" element_type="f32"/>
			<output>
				<port id="0" precision="FP32">
					<dim>1</dim>
					<dim>28</dim>
					<dim>1</dim>
					<dim>1</dim>
				</port>
			</output>
		</layer>
		<layer id="150" name="Range_422048710051" type="Const" version="opset1">
			<data offset="11204" size="16" shape="2" element_type="i64"/>
			<output>
				<port id="0" precision="I64">
					<dim>2</dim>
				</port>
			</output>
		</layer>
		<layer id="151" name="1557156110894" type="Const" version="opset1">
			<data offset="5120" size="4" shape="" element_type="f32"/>
			<output>
				<port id="0" precision="FP32"/>
			</output>
		</layer>
		<layer id="152" name="1558156211041" type="Const" version="opset1">
			<data offset="5120" size="4" shape="" element_type="f32"/>
			<output>
				<port id="0" precision="FP32"/>
			</output>
		</layer>
		<layer id="153" name="1559156310099" type="Const" version="opset1">
			<data offset="5120" size="4" shape="" element_type="f32"/>
			<output>
				<port id="0" precision="FP32"/>
			</output>
		</layer>
		<layer id="154" name="156015649562" type="Const" version="opset1">
			<data offset="5120" size="4" shape="" element_type="f32"/>
			<output>
				<port id="0" precision="FP32"/>
			</output>
		</layer>
		<layer id="155" name="9909929997" type="Const" version="opset1">
			<data offset="2666196" size="2688" shape="1,672,1,1" element_type="f32"/>
			<output>
				<port id="0" precision="FP32">
					<dim>1</dim>
					<dim>672</dim>
					<dim>1</dim>
					<dim>1</dim>
				</port>
			</output>
		</layer>
		<layer id="156" name="181718219697" type="Const" version="opset1">
			<data offset="5120" size="4" shape="" element_type="f32"/>
			<output>
				<port id="0" precision="FP32"/>
			</output>
		</layer>
		<layer id="157" name="1818182211071" type="Const" version="opset1">
			<data offset="5120" size="4" shape="" element_type="f32"/>
			<output>
				<port id="0" precision="FP32"/>
			</output>
		</layer>
		<layer id="158" name="1819182310840" type="Const" version="opset1">
			<data offset="5120" size="4" shape="" element_type="f32"/>
			<output>
				<port id="0" precision="FP32"/>
			</output>
		</layer>
		<layer id="159" name="1820182410468" type="Const" version="opset1">
			<data offset="5120" size="4" shape="" element_type="f32"/>
			<output>
				<port id="0" precision="FP32"/>
			</output>
		</layer>
		<layer id="160" name="98698810969" type="Const" version="opset1">
			<data offset="2666196" size="2688" shape="1,672,1,1" element_type="f32"/>
			<output>
				<port id="0" precision="FP32">
					<dim>1</dim>
					<dim>672</dim>
					<dim>1</dim>
					<dim>1</dim>
				</port>
			</output>
		</layer>
		<layer id="161" name="1607161110867" type="Const" version="opset1">
			<data offset="5120" size="4" shape="" element_type="f32"/>
			<output>
				<port id="0" precision="FP32"/>
			</output>
		</layer>
		<layer id="162" name="160816129649" type="Const" version="opset1">
			<data offset="5120" size="4" shape="" element_type="f32"/>
			<output>
				<port id="0" precision="FP32"/>
			</output>
		</layer>
		<layer id="163" name="1609161311278" type="Const" version="opset1">
			<data offset="5120" size="4" shape="" element_type="f32"/>
			<output>
				<port id="0" precision="FP32"/>
			</output>
		</layer>
		<layer id="164" name="161016149919" type="Const" version="opset1">
			<data offset="5120" size="4" shape="" element_type="f32"/>
			<output>
				<port id="0" precision="FP32"/>
			</output>
		</layer>
		<layer id="165" name="2767277110102" type="Const" version="opset1">
			<data offset="5120" size="4" shape="" element_type="f32"/>
			<output>
				<port id="0" precision="FP32"/>
			</output>
		</layer>
		<layer id="166" name="2768277211143" type="Const" version="opset1">
			<data offset="5120" size="4" shape="" element_type="f32"/>
			<output>
				<port id="0" precision="FP32"/>
			</output>
		</layer>
		<layer id="167" name="2769277310609" type="Const" version="opset1">
			<data offset="5120" size="4" shape="" element_type="f32"/>
			<output>
				<port id="0" precision="FP32"/>
			</output>
		</layer>
		<layer id="168" name="2770277410876" type="Const" version="opset1">
			<data offset="5120" size="4" shape="" element_type="f32"/>
			<output>
				<port id="0" precision="FP32"/>
			</output>
		</layer>
		<layer id="169" name="9829849907" type="Const" version="opset1">
			<data offset="2668996" size="448" shape="1,112,1,1" element_type="f32"/>
			<output>
				<port id="0" precision="FP32">
					<dim>1</dim>
					<dim>112</dim>
					<dim>1</dim>
					<dim>1</dim>
				</port>
			</output>
		</layer>
		<layer id="170" name="2277228111671" type="Const" version="opset1">
			<data offset="5120" size="4" shape="" element_type="f32"/>
			<output>
				<port id="0" precision="FP32"/>
			</output>
		</layer>
		<layer id="171" name="2278228210438" type="Const" version="opset1">
			<data offset="5120" size="4" shape="" element_type="f32"/>
			<output>
				<port id="0" precision="FP32"/>
			</output>
		</layer>
		<layer id="172" name="2279228310558" type="Const" version="opset1">
			<data offset="5120" size="4" shape="" element_type="f32"/>
			<output>
				<port id="0" precision="FP32"/>
			</output>
		</layer>
		<layer id="173" name="2280228410822" type="Const" version="opset1">
			<data offset="5120" size="4" shape="" element_type="f32"/>
			<output>
				<port id="0" precision="FP32"/>
			</output>
		</layer>
		<layer id="174" name="1707171110405" type="Const" version="opset1">
			<data offset="5120" size="4" shape="" element_type="f32"/>
			<output>
				<port id="0" precision="FP32"/>
			</output>
		</layer>
		<layer id="175" name="1708171211413" type="Const" version="opset1">
			<data offset="5120" size="4" shape="" element_type="f32"/>
			<output>
				<port id="0" precision="FP32"/>
			</output>
		</layer>
		<layer id="176" name="170917139556" type="Const" version="opset1">
			<data offset="5120" size="4" shape="" element_type="f32"/>
			<output>
				<port id="0" precision="FP32"/>
			</output>
		</layer>
		<layer id="177" name="1710171410594" type="Const" version="opset1">
			<data offset="5120" size="4" shape="" element_type="f32"/>
			<output>
				<port id="0" precision="FP32"/>
			</output>
		</layer>
		<layer id="178" name="9789809553" type="Const" version="opset1">
			<data offset="2666196" size="2688" shape="1,672,1,1" element_type="f32"/>
			<output>
				<port id="0" precision="FP32">
					<dim>1</dim>
					<dim>672</dim>
					<dim>1</dim>
					<dim>1</dim>
				</port>
			</output>
		</layer>
		<layer id="179" name="97497611179" type="Const" version="opset1">
			<data offset="2668884" size="112" shape="1,28,1,1" element_type="f32"/>
			<output>
				<port id="0" precision="FP32">
					<dim>1</dim>
					<dim>28</dim>
					<dim>1</dim>
					<dim>1</dim>
				</port>
			</output>
		</layer>
		<layer id="180" name="Range_386746910642" type="Const" version="opset1">
			<data offset="11204" size="16" shape="2" element_type="i64"/>
			<output>
				<port id="0" precision="I64">
					<dim>2</dim>
				</port>
			</output>
		</layer>
		<layer id="181" name="1487149110495" type="Const" version="opset1">
			<data offset="5120" size="4" shape="" element_type="f32"/>
			<output>
				<port id="0" precision="FP32"/>
			</output>
		</layer>
		<layer id="182" name="1488149211308" type="Const" version="opset1">
			<data offset="5120" size="4" shape="" element_type="f32"/>
			<output>
				<port id="0" precision="FP32"/>
			</output>
		</layer>
		<layer id="183" name="148914939709" type="Const" version="opset1">
			<data offset="5120" size="4" shape="" element_type="f32"/>
			<output>
				<port id="0" precision="FP32"/>
			</output>
		</layer>
		<layer id="184" name="1490149410162" type="Const" version="opset1">
			<data offset="5120" size="4" shape="" element_type="f32"/>
			<output>
				<port id="0" precision="FP32"/>
			</output>
		</layer>
		<layer id="185" name="9709729808" type="Const" version="opset1">
			<data offset="2666196" size="2688" shape="1,672,1,1" element_type="f32"/>
			<output>
				<port id="0" precision="FP32">
					<dim>1</dim>
					<dim>672</dim>
					<dim>1</dim>
					<dim>1</dim>
				</port>
			</output>
		</layer>
		<layer id="186" name="2857286110015" type="Const" version="opset1">
			<data offset="5120" size="4" shape="" element_type="f32"/>
			<output>
				<port id="0" precision="FP32"/>
			</output>
		</layer>
		<layer id="187" name="2858286210825" type="Const" version="opset1">
			<data offset="5120" size="4" shape="" element_type="f32"/>
			<output>
				<port id="0" precision="FP32"/>
			</output>
		</layer>
		<layer id="188" name="2859286310693" type="Const" version="opset1">
			<data offset="5120" size="4" shape="" element_type="f32"/>
			<output>
				<port id="0" precision="FP32"/>
			</output>
		</layer>
		<layer id="189" name="2860286410345" type="Const" version="opset1">
			<data offset="5120" size="4" shape="" element_type="f32"/>
			<output>
				<port id="0" precision="FP32"/>
			</output>
		</layer>
		<layer id="190" name="9669689523" type="Const" version="opset1">
			<data offset="2666196" size="2688" shape="1,672,1,1" element_type="f32"/>
			<output>
				<port id="0" precision="FP32">
					<dim>1</dim>
					<dim>672</dim>
					<dim>1</dim>
					<dim>1</dim>
				</port>
			</output>
		</layer>
		<layer id="191" name="2797280110078" type="Const" version="opset1">
			<data offset="5120" size="4" shape="" element_type="f32"/>
			<output>
				<port id="0" precision="FP32"/>
			</output>
		</layer>
		<layer id="192" name="2798280211110" type="Const" version="opset1">
			<data offset="5120" size="4" shape="" element_type="f32"/>
			<output>
				<port id="0" precision="FP32"/>
			</output>
		</layer>
		<layer id="193" name="2799280311158" type="Const" version="opset1">
			<data offset="5120" size="4" shape="" element_type="f32"/>
			<output>
				<port id="0" precision="FP32"/>
			</output>
		</layer>
		<layer id="194" name="2800280411047" type="Const" version="opset1">
			<data offset="5120" size="4" shape="" element_type="f32"/>
			<output>
				<port id="0" precision="FP32"/>
			</output>
		</layer>
		<layer id="195" name="73546310861" type="Const" version="opset1">
			<data offset="2669444" size="301056" shape="672,112,1,1" element_type="f32"/>
			<output>
				<port id="0" precision="FP32" names="735">
					<dim>672</dim>
					<dim>112</dim>
					<dim>1</dim>
					<dim>1</dim>
				</port>
			</output>
		</layer>
		<layer id="196" name="Conv_145/WithoutBiases/fq_weights_1" type="FakeQuantize" version="opset1">
			<data levels="0" auto_broadcast="numpy"/>
			<input>
				<port id="0">
					<dim>672</dim>
					<dim>112</dim>
					<dim>1</dim>
					<dim>1</dim>
				</port>
				<port id="1"/>
				<port id="2"/>
				<port id="3"/>
				<port id="4"/>
			</input>
			<output>
				<port id="5" precision="FP32">
					<dim>672</dim>
					<dim>112</dim>
					<dim>1</dim>
					<dim>1</dim>
				</port>
			</output>
		</layer>
		<layer id="197" name="2777278111674" type="Const" version="opset1">
			<data offset="5120" size="4" shape="" element_type="f32"/>
			<output>
				<port id="0" precision="FP32"/>
			</output>
		</layer>
		<layer id="198" name="277827829643" type="Const" version="opset1">
			<data offset="5120" size="4" shape="" element_type="f32"/>
			<output>
				<port id="0" precision="FP32"/>
			</output>
		</layer>
		<layer id="199" name="2779278311530" type="Const" version="opset1">
			<data offset="5120" size="4" shape="" element_type="f32"/>
			<output>
				<port id="0" precision="FP32"/>
			</output>
		</layer>
		<layer id="200" name="2780278410600" type="Const" version="opset1">
			<data offset="5120" size="4" shape="" element_type="f32"/>
			<output>
				<port id="0" precision="FP32"/>
			</output>
		</layer>
		<layer id="201" name="2677268111191" type="Const" version="opset1">
			<data offset="5120" size="4" shape="" element_type="f32"/>
			<output>
				<port id="0" precision="FP32"/>
			</output>
		</layer>
		<layer id="202" name="267826829742" type="Const" version="opset1">
			<data offset="5120" size="4" shape="" element_type="f32"/>
			<output>
				<port id="0" precision="FP32"/>
			</output>
		</layer>
		<layer id="203" name="267926839829" type="Const" version="opset1">
			<data offset="5120" size="4" shape="" element_type="f32"/>
			<output>
				<port id="0" precision="FP32"/>
			</output>
		</layer>
		<layer id="204" name="2680268411323" type="Const" version="opset1">
			<data offset="5120" size="4" shape="" element_type="f32"/>
			<output>
				<port id="0" precision="FP32"/>
			</output>
		</layer>
		<layer id="205" name="96296411443" type="Const" version="opset1">
			<data offset="2668996" size="448" shape="1,112,1,1" element_type="f32"/>
			<output>
				<port id="0" precision="FP32">
					<dim>1</dim>
					<dim>112</dim>
					<dim>1</dim>
					<dim>1</dim>
				</port>
			</output>
		</layer>
		<layer id="206" name="2897290111497" type="Const" version="opset1">
			<data offset="5120" size="4" shape="" element_type="f32"/>
			<output>
				<port id="0" precision="FP32"/>
			</output>
		</layer>
		<layer id="207" name="289829029991" type="Const" version="opset1">
			<data offset="5120" size="4" shape="" element_type="f32"/>
			<output>
				<port id="0" precision="FP32"/>
			</output>
		</layer>
		<layer id="208" name="289929039904" type="Const" version="opset1">
			<data offset="5120" size="4" shape="" element_type="f32"/>
			<output>
				<port id="0" precision="FP32"/>
			</output>
		</layer>
		<layer id="209" name="2900290410279" type="Const" version="opset1">
			<data offset="5120" size="4" shape="" element_type="f32"/>
			<output>
				<port id="0" precision="FP32"/>
			</output>
		</layer>
		<layer id="210" name="2367237110189" type="Const" version="opset1">
			<data offset="5120" size="4" shape="" element_type="f32"/>
			<output>
				<port id="0" precision="FP32"/>
			</output>
		</layer>
		<layer id="211" name="2368237211020" type="Const" version="opset1">
			<data offset="5120" size="4" shape="" element_type="f32"/>
			<output>
				<port id="0" precision="FP32"/>
			</output>
		</layer>
		<layer id="212" name="2369237310855" type="Const" version="opset1">
			<data offset="5120" size="4" shape="" element_type="f32"/>
			<output>
				<port id="0" precision="FP32"/>
			</output>
		</layer>
		<layer id="213" name="2370237410933" type="Const" version="opset1">
			<data offset="5120" size="4" shape="" element_type="f32"/>
			<output>
				<port id="0" precision="FP32"/>
			</output>
		</layer>
		<layer id="214" name="9589609541" type="Const" version="opset1">
			<data offset="2666196" size="2688" shape="1,672,1,1" element_type="f32"/>
			<output>
				<port id="0" precision="FP32">
					<dim>1</dim>
					<dim>672</dim>
					<dim>1</dim>
					<dim>1</dim>
				</port>
			</output>
		</layer>
		<layer id="215" name="95495610696" type="Const" version="opset1">
			<data offset="2668884" size="112" shape="1,28,1,1" element_type="f32"/>
			<output>
				<port id="0" precision="FP32">
					<dim>1</dim>
					<dim>28</dim>
					<dim>1</dim>
					<dim>1</dim>
				</port>
			</output>
		</layer>
		<layer id="216" name="Range_351445111395" type="Const" version="opset1">
			<data offset="11204" size="16" shape="2" element_type="i64"/>
			<output>
				<port id="0" precision="I64">
					<dim>2</dim>
				</port>
			</output>
		</layer>
		<layer id="217" name="169717019601" type="Const" version="opset1">
			<data offset="5120" size="4" shape="" element_type="f32"/>
			<output>
				<port id="0" precision="FP32"/>
			</output>
		</layer>
		<layer id="218" name="1698170211551" type="Const" version="opset1">
			<data offset="5120" size="4" shape="" element_type="f32"/>
			<output>
				<port id="0" precision="FP32"/>
			</output>
		</layer>
		<layer id="219" name="1699170311170" type="Const" version="opset1">
			<data offset="5120" size="4" shape="" element_type="f32"/>
			<output>
				<port id="0" precision="FP32"/>
			</output>
		</layer>
		<layer id="220" name="1700170410384" type="Const" version="opset1">
			<data offset="5120" size="4" shape="" element_type="f32"/>
			<output>
				<port id="0" precision="FP32"/>
			</output>
		</layer>
		<layer id="221" name="9509529715" type="Const" version="opset1">
			<data offset="2666196" size="2688" shape="1,672,1,1" element_type="f32"/>
			<output>
				<port id="0" precision="FP32">
					<dim>1</dim>
					<dim>672</dim>
					<dim>1</dim>
					<dim>1</dim>
				</port>
			</output>
		</layer>
		<layer id="222" name="234723519547" type="Const" version="opset1">
			<data offset="5120" size="4" shape="" element_type="f32"/>
			<output>
				<port id="0" precision="FP32"/>
			</output>
		</layer>
		<layer id="223" name="2348235210174" type="Const" version="opset1">
			<data offset="5120" size="4" shape="" element_type="f32"/>
			<output>
				<port id="0" precision="FP32"/>
			</output>
		</layer>
		<layer id="224" name="2349235310966" type="Const" version="opset1">
			<data offset="5120" size="4" shape="" element_type="f32"/>
			<output>
				<port id="0" precision="FP32"/>
			</output>
		</layer>
		<layer id="225" name="2350235411668" type="Const" version="opset1">
			<data offset="5120" size="4" shape="" element_type="f32"/>
			<output>
				<port id="0" precision="FP32"/>
			</output>
		</layer>
		<layer id="226" name="94694810267" type="Const" version="opset1">
			<data offset="2666196" size="2688" shape="1,672,1,1" element_type="f32"/>
			<output>
				<port id="0" precision="FP32">
					<dim>1</dim>
					<dim>672</dim>
					<dim>1</dim>
					<dim>1</dim>
				</port>
			</output>
		</layer>
		<layer id="227" name="2037204110276" type="Const" version="opset1">
			<data offset="5120" size="4" shape="" element_type="f32"/>
			<output>
				<port id="0" precision="FP32"/>
			</output>
		</layer>
		<layer id="228" name="2038204211368" type="Const" version="opset1">
			<data offset="5120" size="4" shape="" element_type="f32"/>
			<output>
				<port id="0" precision="FP32"/>
			</output>
		</layer>
		<layer id="229" name="2039204310792" type="Const" version="opset1">
			<data offset="5120" size="4" shape="" element_type="f32"/>
			<output>
				<port id="0" precision="FP32"/>
			</output>
		</layer>
		<layer id="230" name="2040204410249" type="Const" version="opset1">
			<data offset="5120" size="4" shape="" element_type="f32"/>
			<output>
				<port id="0" precision="FP32"/>
			</output>
		</layer>
		<layer id="231" name="72644510351" type="Const" version="opset1">
			<data offset="2970500" size="301056" shape="672,112,1,1" element_type="f32"/>
			<output>
				<port id="0" precision="FP32" names="726">
					<dim>672</dim>
					<dim>112</dim>
					<dim>1</dim>
					<dim>1</dim>
				</port>
			</output>
		</layer>
		<layer id="232" name="Conv_130/WithoutBiases/fq_weights_1" type="FakeQuantize" version="opset1">
			<data levels="0" auto_broadcast="numpy"/>
			<input>
				<port id="0">
					<dim>672</dim>
					<dim>112</dim>
					<dim>1</dim>
					<dim>1</dim>
				</port>
				<port id="1"/>
				<port id="2"/>
				<port id="3"/>
				<port id="4"/>
			</input>
			<output>
				<port id="5" precision="FP32">
					<dim>672</dim>
					<dim>112</dim>
					<dim>1</dim>
					<dim>1</dim>
				</port>
			</output>
		</layer>
		<layer id="233" name="2687269110330" type="Const" version="opset1">
			<data offset="5120" size="4" shape="" element_type="f32"/>
			<output>
				<port id="0" precision="FP32"/>
			</output>
		</layer>
		<layer id="234" name="268826929688" type="Const" version="opset1">
			<data offset="5120" size="4" shape="" element_type="f32"/>
			<output>
				<port id="0" precision="FP32"/>
			</output>
		</layer>
		<layer id="235" name="2689269311161" type="Const" version="opset1">
			<data offset="5120" size="4" shape="" element_type="f32"/>
			<output>
				<port id="0" precision="FP32"/>
			</output>
		</layer>
		<layer id="236" name="2690269411272" type="Const" version="opset1">
			<data offset="5120" size="4" shape="" element_type="f32"/>
			<output>
				<port id="0" precision="FP32"/>
			</output>
		</layer>
		<layer id="237" name="94294410093" type="Const" version="opset1">
			<data offset="2668996" size="448" shape="1,112,1,1" element_type="f32"/>
			<output>
				<port id="0" precision="FP32">
					<dim>1</dim>
					<dim>112</dim>
					<dim>1</dim>
					<dim>1</dim>
				</port>
			</output>
		</layer>
		<layer id="238" name="2147215110246" type="Const" version="opset1">
			<data offset="5120" size="4" shape="" element_type="f32"/>
			<output>
				<port id="0" precision="FP32"/>
			</output>
		</layer>
		<layer id="239" name="2148215211122" type="Const" version="opset1">
			<data offset="5120" size="4" shape="" element_type="f32"/>
			<output>
				<port id="0" precision="FP32"/>
			</output>
		</layer>
		<layer id="240" name="2149215310906" type="Const" version="opset1">
			<data offset="5120" size="4" shape="" element_type="f32"/>
			<output>
				<port id="0" precision="FP32"/>
			</output>
		</layer>
		<layer id="241" name="2150215411566" type="Const" version="opset1">
			<data offset="5120" size="4" shape="" element_type="f32"/>
			<output>
				<port id="0" precision="FP32"/>
			</output>
		</layer>
		<layer id="242" name="1467147111653" type="Const" version="opset1">
			<data offset="5120" size="4" shape="" element_type="f32"/>
			<output>
				<port id="0" precision="FP32"/>
			</output>
		</layer>
		<layer id="243" name="1468147210705" type="Const" version="opset1">
			<data offset="5120" size="4" shape="" element_type="f32"/>
			<output>
				<port id="0" precision="FP32"/>
			</output>
		</layer>
		<layer id="244" name="146914739802" type="Const" version="opset1">
			<data offset="5120" size="4" shape="" element_type="f32"/>
			<output>
				<port id="0" precision="FP32"/>
			</output>
		</layer>
		<layer id="245" name="1470147410585" type="Const" version="opset1">
			<data offset="5120" size="4" shape="" element_type="f32"/>
			<output>
				<port id="0" precision="FP32"/>
			</output>
		</layer>
		<layer id="246" name="93894010675" type="Const" version="opset1">
			<data offset="3271556" size="1920" shape="1,480,1,1" element_type="f32"/>
			<output>
				<port id="0" precision="FP32">
					<dim>1</dim>
					<dim>480</dim>
					<dim>1</dim>
					<dim>1</dim>
				</port>
			</output>
		</layer>
		<layer id="247" name="93493610294" type="Const" version="opset1">
			<data offset="3273476" size="80" shape="1,20,1,1" element_type="f32"/>
			<output>
				<port id="0" precision="FP32">
					<dim>1</dim>
					<dim>20</dim>
					<dim>1</dim>
					<dim>1</dim>
				</port>
			</output>
		</layer>
		<layer id="248" name="Range_316243410864" type="Const" version="opset1">
			<data offset="11204" size="16" shape="2" element_type="i64"/>
			<output>
				<port id="0" precision="I64">
					<dim>2</dim>
				</port>
			</output>
		</layer>
		<layer id="249" name="2827283110327" type="Const" version="opset1">
			<data offset="5120" size="4" shape="" element_type="f32"/>
			<output>
				<port id="0" precision="FP32"/>
			</output>
		</layer>
		<layer id="250" name="2828283210645" type="Const" version="opset1">
			<data offset="5120" size="4" shape="" element_type="f32"/>
			<output>
				<port id="0" precision="FP32"/>
			</output>
		</layer>
		<layer id="251" name="2829283311119" type="Const" version="opset1">
			<data offset="5120" size="4" shape="" element_type="f32"/>
			<output>
				<port id="0" precision="FP32"/>
			</output>
		</layer>
		<layer id="252" name="2830283411182" type="Const" version="opset1">
			<data offset="5120" size="4" shape="" element_type="f32"/>
			<output>
				<port id="0" precision="FP32"/>
			</output>
		</layer>
		<layer id="253" name="9309329934" type="Const" version="opset1">
			<data offset="3271556" size="1920" shape="1,480,1,1" element_type="f32"/>
			<output>
				<port id="0" precision="FP32">
					<dim>1</dim>
					<dim>480</dim>
					<dim>1</dim>
					<dim>1</dim>
				</port>
			</output>
		</layer>
		<layer id="254" name="1587159111521" type="Const" version="opset1">
			<data offset="5120" size="4" shape="" element_type="f32"/>
			<output>
				<port id="0" precision="FP32"/>
			</output>
		</layer>
		<layer id="255" name="1588159211320" type="Const" version="opset1">
			<data offset="5120" size="4" shape="" element_type="f32"/>
			<output>
				<port id="0" precision="FP32"/>
			</output>
		</layer>
		<layer id="256" name="1589159310747" type="Const" version="opset1">
			<data offset="5120" size="4" shape="" element_type="f32"/>
			<output>
				<port id="0" precision="FP32"/>
			</output>
		</layer>
		<layer id="257" name="1590159411680" type="Const" version="opset1">
			<data offset="5120" size="4" shape="" element_type="f32"/>
			<output>
				<port id="0" precision="FP32"/>
			</output>
		</layer>
		<layer id="258" name="92692811623" type="Const" version="opset1">
			<data offset="3271556" size="1920" shape="1,480,1,1" element_type="f32"/>
			<output>
				<port id="0" precision="FP32">
					<dim>1</dim>
					<dim>480</dim>
					<dim>1</dim>
					<dim>1</dim>
				</port>
			</output>
		</layer>
		<layer id="259" name="1907191110237" type="Const" version="opset1">
			<data offset="5120" size="4" shape="" element_type="f32"/>
			<output>
				<port id="0" precision="FP32"/>
			</output>
		</layer>
		<layer id="260" name="1908191211617" type="Const" version="opset1">
			<data offset="5120" size="4" shape="" element_type="f32"/>
			<output>
				<port id="0" precision="FP32"/>
			</output>
		</layer>
		<layer id="261" name="1909191310924" type="Const" version="opset1">
			<data offset="5120" size="4" shape="" element_type="f32"/>
			<output>
				<port id="0" precision="FP32"/>
			</output>
		</layer>
		<layer id="262" name="1910191410807" type="Const" version="opset1">
			<data offset="5120" size="4" shape="" element_type="f32"/>
			<output>
				<port id="0" precision="FP32"/>
			</output>
		</layer>
		<layer id="263" name="2327233111635" type="Const" version="opset1">
			<data offset="5120" size="4" shape="" element_type="f32"/>
			<output>
				<port id="0" precision="FP32"/>
			</output>
		</layer>
		<layer id="264" name="2328233211545" type="Const" version="opset1">
			<data offset="5120" size="4" shape="" element_type="f32"/>
			<output>
				<port id="0" precision="FP32"/>
			</output>
		</layer>
		<layer id="265" name="232923339574" type="Const" version="opset1">
			<data offset="5120" size="4" shape="" element_type="f32"/>
			<output>
				<port id="0" precision="FP32"/>
			</output>
		</layer>
		<layer id="266" name="2330233411428" type="Const" version="opset1">
			<data offset="5120" size="4" shape="" element_type="f32"/>
			<output>
				<port id="0" precision="FP32"/>
			</output>
		</layer>
		<layer id="267" name="92292410897" type="Const" version="opset1">
			<data offset="3273556" size="320" shape="1,80,1,1" element_type="f32"/>
			<output>
				<port id="0" precision="FP32">
					<dim>1</dim>
					<dim>80</dim>
					<dim>1</dim>
					<dim>1</dim>
				</port>
			</output>
		</layer>
		<layer id="268" name="3017302110075" type="Const" version="opset1">
			<data offset="5120" size="4" shape="" element_type="f32"/>
			<output>
				<port id="0" precision="FP32"/>
			</output>
		</layer>
		<layer id="269" name="3018302210066" type="Const" version="opset1">
			<data offset="5120" size="4" shape="" element_type="f32"/>
			<output>
				<port id="0" precision="FP32"/>
			</output>
		</layer>
		<layer id="270" name="301930239694" type="Const" version="opset1">
			<data offset="5120" size="4" shape="" element_type="f32"/>
			<output>
				<port id="0" precision="FP32"/>
			</output>
		</layer>
		<layer id="271" name="3020302410297" type="Const" version="opset1">
			<data offset="5120" size="4" shape="" element_type="f32"/>
			<output>
				<port id="0" precision="FP32"/>
			</output>
		</layer>
		<layer id="272" name="217721819925" type="Const" version="opset1">
			<data offset="5120" size="4" shape="" element_type="f32"/>
			<output>
				<port id="0" precision="FP32"/>
			</output>
		</layer>
		<layer id="273" name="217821829826" type="Const" version="opset1">
			<data offset="5120" size="4" shape="" element_type="f32"/>
			<output>
				<port id="0" precision="FP32"/>
			</output>
		</layer>
		<layer id="274" name="217921839739" type="Const" version="opset1">
			<data offset="5120" size="4" shape="" element_type="f32"/>
			<output>
				<port id="0" precision="FP32"/>
			</output>
		</layer>
		<layer id="275" name="2180218411662" type="Const" version="opset1">
			<data offset="5120" size="4" shape="" element_type="f32"/>
			<output>
				<port id="0" precision="FP32"/>
			</output>
		</layer>
		<layer id="276" name="91892010582" type="Const" version="opset1">
			<data offset="3271556" size="1920" shape="1,480,1,1" element_type="f32"/>
			<output>
				<port id="0" precision="FP32">
					<dim>1</dim>
					<dim>480</dim>
					<dim>1</dim>
					<dim>1</dim>
				</port>
			</output>
		</layer>
		<layer id="277" name="91491610720" type="Const" version="opset1">
			<data offset="3273476" size="80" shape="1,20,1,1" element_type="f32"/>
			<output>
				<port id="0" precision="FP32">
					<dim>1</dim>
					<dim>20</dim>
					<dim>1</dim>
					<dim>1</dim>
				</port>
			</output>
		</layer>
		<layer id="278" name="Range_280941610843" type="Const" version="opset1">
			<data offset="11204" size="16" shape="2" element_type="i64"/>
			<output>
				<port id="0" precision="I64">
					<dim>2</dim>
				</port>
			</output>
		</layer>
		<layer id="279" name="2637264111422" type="Const" version="opset1">
			<data offset="5120" size="4" shape="" element_type="f32"/>
			<output>
				<port id="0" precision="FP32"/>
			</output>
		</layer>
		<layer id="280" name="2638264210576" type="Const" version="opset1">
			<data offset="5120" size="4" shape="" element_type="f32"/>
			<output>
				<port id="0" precision="FP32"/>
			</output>
		</layer>
		<layer id="281" name="2639264311452" type="Const" version="opset1">
			<data offset="5120" size="4" shape="" element_type="f32"/>
			<output>
				<port id="0" precision="FP32"/>
			</output>
		</layer>
		<layer id="282" name="2640264410141" type="Const" version="opset1">
			<data offset="5120" size="4" shape="" element_type="f32"/>
			<output>
				<port id="0" precision="FP32"/>
			</output>
		</layer>
		<layer id="283" name="9109129625" type="Const" version="opset1">
			<data offset="3271556" size="1920" shape="1,480,1,1" element_type="f32"/>
			<output>
				<port id="0" precision="FP32">
					<dim>1</dim>
					<dim>480</dim>
					<dim>1</dim>
					<dim>1</dim>
				</port>
			</output>
		</layer>
		<layer id="284" name="2007201111086" type="Const" version="opset1">
			<data offset="5120" size="4" shape="" element_type="f32"/>
			<output>
				<port id="0" precision="FP32"/>
			</output>
		</layer>
		<layer id="285" name="2008201210171" type="Const" version="opset1">
			<data offset="5120" size="4" shape="" element_type="f32"/>
			<output>
				<port id="0" precision="FP32"/>
			</output>
		</layer>
		<layer id="286" name="2009201311233" type="Const" version="opset1">
			<data offset="5120" size="4" shape="" element_type="f32"/>
			<output>
				<port id="0" precision="FP32"/>
			</output>
		</layer>
		<layer id="287" name="2010201411638" type="Const" version="opset1">
			<data offset="5120" size="4" shape="" element_type="f32"/>
			<output>
				<port id="0" precision="FP32"/>
			</output>
		</layer>
		<layer id="288" name="90690811482" type="Const" version="opset1">
			<data offset="3271556" size="1920" shape="1,480,1,1" element_type="f32"/>
			<output>
				<port id="0" precision="FP32">
					<dim>1</dim>
					<dim>480</dim>
					<dim>1</dim>
					<dim>1</dim>
				</port>
			</output>
		</layer>
		<layer id="289" name="222722319805" type="Const" version="opset1">
			<data offset="5120" size="4" shape="" element_type="f32"/>
			<output>
				<port id="0" precision="FP32"/>
			</output>
		</layer>
		<layer id="290" name="2228223210033" type="Const" version="opset1">
			<data offset="5120" size="4" shape="" element_type="f32"/>
			<output>
				<port id="0" precision="FP32"/>
			</output>
		</layer>
		<layer id="291" name="2229223311596" type="Const" version="opset1">
			<data offset="5120" size="4" shape="" element_type="f32"/>
			<output>
				<port id="0" precision="FP32"/>
			</output>
		</layer>
		<layer id="292" name="223022349622" type="Const" version="opset1">
			<data offset="5120" size="4" shape="" element_type="f32"/>
			<output>
				<port id="0" precision="FP32"/>
			</output>
		</layer>
		<layer id="293" name="70841010474" type="Const" version="opset1">
			<data offset="3273876" size="153600" shape="480,80,1,1" element_type="f32"/>
			<output>
				<port id="0" precision="FP32" names="708">
					<dim>480</dim>
					<dim>80</dim>
					<dim>1</dim>
					<dim>1</dim>
				</port>
			</output>
		</layer>
		<layer id="294" name="Conv_101/WithoutBiases/fq_weights_1" type="FakeQuantize" version="opset1">
			<data levels="0" auto_broadcast="numpy"/>
			<input>
				<port id="0">
					<dim>480</dim>
					<dim>80</dim>
					<dim>1</dim>
					<dim>1</dim>
				</port>
				<port id="1"/>
				<port id="2"/>
				<port id="3"/>
				<port id="4"/>
			</input>
			<output>
				<port id="5" precision="FP32">
					<dim>480</dim>
					<dim>80</dim>
					<dim>1</dim>
					<dim>1</dim>
				</port>
			</output>
		</layer>
		<layer id="295" name="233723419568" type="Const" version="opset1">
			<data offset="5120" size="4" shape="" element_type="f32"/>
			<output>
				<port id="0" precision="FP32"/>
			</output>
		</layer>
		<layer id="296" name="233823429850" type="Const" version="opset1">
			<data offset="5120" size="4" shape="" element_type="f32"/>
			<output>
				<port id="0" precision="FP32"/>
			</output>
		</layer>
		<layer id="297" name="233923439976" type="Const" version="opset1">
			<data offset="5120" size="4" shape="" element_type="f32"/>
			<output>
				<port id="0" precision="FP32"/>
			</output>
		</layer>
		<layer id="298" name="234023449856" type="Const" version="opset1">
			<data offset="5120" size="4" shape="" element_type="f32"/>
			<output>
				<port id="0" precision="FP32"/>
			</output>
		</layer>
		<layer id="299" name="2717272111548" type="Const" version="opset1">
			<data offset="5120" size="4" shape="" element_type="f32"/>
			<output>
				<port id="0" precision="FP32"/>
			</output>
		</layer>
		<layer id="300" name="2718272210522" type="Const" version="opset1">
			<data offset="5120" size="4" shape="" element_type="f32"/>
			<output>
				<port id="0" precision="FP32"/>
			</output>
		</layer>
		<layer id="301" name="271927239943" type="Const" version="opset1">
			<data offset="5120" size="4" shape="" element_type="f32"/>
			<output>
				<port id="0" precision="FP32"/>
			</output>
		</layer>
		<layer id="302" name="2720272410954" type="Const" version="opset1">
			<data offset="5120" size="4" shape="" element_type="f32"/>
			<output>
				<port id="0" precision="FP32"/>
			</output>
		</layer>
		<layer id="303" name="90290410186" type="Const" version="opset1">
			<data offset="3273556" size="320" shape="1,80,1,1" element_type="f32"/>
			<output>
				<port id="0" precision="FP32">
					<dim>1</dim>
					<dim>80</dim>
					<dim>1</dim>
					<dim>1</dim>
				</port>
			</output>
		</layer>
		<layer id="304" name="212721319514" type="Const" version="opset1">
			<data offset="5120" size="4" shape="" element_type="f32"/>
			<output>
				<port id="0" precision="FP32"/>
			</output>
		</layer>
		<layer id="305" name="2128213210387" type="Const" version="opset1">
			<data offset="5120" size="4" shape="" element_type="f32"/>
			<output>
				<port id="0" precision="FP32"/>
			</output>
		</layer>
		<layer id="306" name="212921339595" type="Const" version="opset1">
			<data offset="5120" size="4" shape="" element_type="f32"/>
			<output>
				<port id="0" precision="FP32"/>
			</output>
		</layer>
		<layer id="307" name="2130213410453" type="Const" version="opset1">
			<data offset="5120" size="4" shape="" element_type="f32"/>
			<output>
				<port id="0" precision="FP32"/>
			</output>
		</layer>
		<layer id="308" name="2957296110828" type="Const" version="opset1">
			<data offset="5120" size="4" shape="" element_type="f32"/>
			<output>
				<port id="0" precision="FP32"/>
			</output>
		</layer>
		<layer id="309" name="295829629790" type="Const" version="opset1">
			<data offset="5120" size="4" shape="" element_type="f32"/>
			<output>
				<port id="0" precision="FP32"/>
			</output>
		</layer>
		<layer id="310" name="2959296310567" type="Const" version="opset1">
			<data offset="5120" size="4" shape="" element_type="f32"/>
			<output>
				<port id="0" precision="FP32"/>
			</output>
		</layer>
		<layer id="311" name="2960296410837" type="Const" version="opset1">
			<data offset="5120" size="4" shape="" element_type="f32"/>
			<output>
				<port id="0" precision="FP32"/>
			</output>
		</layer>
		<layer id="312" name="89890011455" type="Const" version="opset1">
			<data offset="3271556" size="1920" shape="1,480,1,1" element_type="f32"/>
			<output>
				<port id="0" precision="FP32">
					<dim>1</dim>
					<dim>480</dim>
					<dim>1</dim>
					<dim>1</dim>
				</port>
			</output>
		</layer>
		<layer id="313" name="8948969604" type="Const" version="opset1">
			<data offset="3273476" size="80" shape="1,20,1,1" element_type="f32"/>
			<output>
				<port id="0" precision="FP32">
					<dim>1</dim>
					<dim>20</dim>
					<dim>1</dim>
					<dim>1</dim>
				</port>
			</output>
		</layer>
		<layer id="314" name="Range_245639811629" type="Const" version="opset1">
			<data offset="11204" size="16" shape="2" element_type="i64"/>
			<output>
				<port id="0" precision="I64">
					<dim>2</dim>
				</port>
			</output>
		</layer>
		<layer id="315" name="216721719628" type="Const" version="opset1">
			<data offset="5120" size="4" shape="" element_type="f32"/>
			<output>
				<port id="0" precision="FP32"/>
			</output>
		</layer>
		<layer id="316" name="2168217210315" type="Const" version="opset1">
			<data offset="5120" size="4" shape="" element_type="f32"/>
			<output>
				<port id="0" precision="FP32"/>
			</output>
		</layer>
		<layer id="317" name="2169217311479" type="Const" version="opset1">
			<data offset="5120" size="4" shape="" element_type="f32"/>
			<output>
				<port id="0" precision="FP32"/>
			</output>
		</layer>
		<layer id="318" name="2170217411494" type="Const" version="opset1">
			<data offset="5120" size="4" shape="" element_type="f32"/>
			<output>
				<port id="0" precision="FP32"/>
			</output>
		</layer>
		<layer id="319" name="89089210459" type="Const" version="opset1">
			<data offset="3271556" size="1920" shape="1,480,1,1" element_type="f32"/>
			<output>
				<port id="0" precision="FP32">
					<dim>1</dim>
					<dim>480</dim>
					<dim>1</dim>
					<dim>1</dim>
				</port>
			</output>
		</layer>
		<layer id="320" name="245724619730" type="Const" version="opset1">
			<data offset="5120" size="4" shape="" element_type="f32"/>
			<output>
				<port id="0" precision="FP32"/>
			</output>
		</layer>
		<layer id="321" name="2458246210711" type="Const" version="opset1">
			<data offset="5120" size="4" shape="" element_type="f32"/>
			<output>
				<port id="0" precision="FP32"/>
			</output>
		</layer>
		<layer id="322" name="2459246311311" type="Const" version="opset1">
			<data offset="5120" size="4" shape="" element_type="f32"/>
			<output>
				<port id="0" precision="FP32"/>
			</output>
		</layer>
		<layer id="323" name="246024649820" type="Const" version="opset1">
			<data offset="5120" size="4" shape="" element_type="f32"/>
			<output>
				<port id="0" precision="FP32"/>
			</output>
		</layer>
		<layer id="324" name="8868889727" type="Const" version="opset1">
			<data offset="3271556" size="1920" shape="1,480,1,1" element_type="f32"/>
			<output>
				<port id="0" precision="FP32">
					<dim>1</dim>
					<dim>480</dim>
					<dim>1</dim>
					<dim>1</dim>
				</port>
			</output>
		</layer>
		<layer id="325" name="1577158110126" type="Const" version="opset1">
			<data offset="5120" size="4" shape="" element_type="f32"/>
			<output>
				<port id="0" precision="FP32"/>
			</output>
		</layer>
		<layer id="326" name="1578158210636" type="Const" version="opset1">
			<data offset="5120" size="4" shape="" element_type="f32"/>
			<output>
				<port id="0" precision="FP32"/>
			</output>
		</layer>
		<layer id="327" name="1579158311128" type="Const" version="opset1">
			<data offset="5120" size="4" shape="" element_type="f32"/>
			<output>
				<port id="0" precision="FP32"/>
			</output>
		</layer>
		<layer id="328" name="1580158410201" type="Const" version="opset1">
			<data offset="5120" size="4" shape="" element_type="f32"/>
			<output>
				<port id="0" precision="FP32"/>
			</output>
		</layer>
		<layer id="329" name="69939211314" type="Const" version="opset1">
			<data offset="3427476" size="153600" shape="480,80,1,1" element_type="f32"/>
			<output>
				<port id="0" precision="FP32" names="699">
					<dim>480</dim>
					<dim>80</dim>
					<dim>1</dim>
					<dim>1</dim>
				</port>
			</output>
		</layer>
		<layer id="330" name="Conv_86/WithoutBiases/fq_weights_1" type="FakeQuantize" version="opset1">
			<data levels="0" auto_broadcast="numpy"/>
			<input>
				<port id="0">
					<dim>480</dim>
					<dim>80</dim>
					<dim>1</dim>
					<dim>1</dim>
				</port>
				<port id="1"/>
				<port id="2"/>
				<port id="3"/>
				<port id="4"/>
			</input>
			<output>
				<port id="5" precision="FP32">
					<dim>480</dim>
					<dim>80</dim>
					<dim>1</dim>
					<dim>1</dim>
				</port>
			</output>
		</layer>
		<layer id="331" name="272727319748" type="Const" version="opset1">
			<data offset="5120" size="4" shape="" element_type="f32"/>
			<output>
				<port id="0" precision="FP32"/>
			</output>
		</layer>
		<layer id="332" name="2728273210942" type="Const" version="opset1">
			<data offset="5120" size="4" shape="" element_type="f32"/>
			<output>
				<port id="0" precision="FP32"/>
			</output>
		</layer>
		<layer id="333" name="2729273310816" type="Const" version="opset1">
			<data offset="5120" size="4" shape="" element_type="f32"/>
			<output>
				<port id="0" precision="FP32"/>
			</output>
		</layer>
		<layer id="334" name="273027349499" type="Const" version="opset1">
			<data offset="5120" size="4" shape="" element_type="f32"/>
			<output>
				<port id="0" precision="FP32"/>
			</output>
		</layer>
		<layer id="335" name="88288411242" type="Const" version="opset1">
			<data offset="3273556" size="320" shape="1,80,1,1" element_type="f32"/>
			<output>
				<port id="0" precision="FP32">
					<dim>1</dim>
					<dim>80</dim>
					<dim>1</dim>
					<dim>1</dim>
				</port>
			</output>
		</layer>
		<layer id="336" name="287728819610" type="Const" version="opset1">
			<data offset="5120" size="4" shape="" element_type="f32"/>
			<output>
				<port id="0" precision="FP32"/>
			</output>
		</layer>
		<layer id="337" name="287828829901" type="Const" version="opset1">
			<data offset="5120" size="4" shape="" element_type="f32"/>
			<output>
				<port id="0" precision="FP32"/>
			</output>
		</layer>
		<layer id="338" name="2879288311509" type="Const" version="opset1">
			<data offset="5120" size="4" shape="" element_type="f32"/>
			<output>
				<port id="0" precision="FP32"/>
			</output>
		</layer>
		<layer id="339" name="2880288410549" type="Const" version="opset1">
			<data offset="5120" size="4" shape="" element_type="f32"/>
			<output>
				<port id="0" precision="FP32"/>
			</output>
		</layer>
		<layer id="340" name="2237224110435" type="Const" version="opset1">
			<data offset="5120" size="4" shape="" element_type="f32"/>
			<output>
				<port id="0" precision="FP32"/>
			</output>
		</layer>
		<layer id="341" name="2238224210393" type="Const" version="opset1">
			<data offset="5120" size="4" shape="" element_type="f32"/>
			<output>
				<port id="0" precision="FP32"/>
			</output>
		</layer>
		<layer id="342" name="2239224311155" type="Const" version="opset1">
			<data offset="5120" size="4" shape="" element_type="f32"/>
			<output>
				<port id="0" precision="FP32"/>
			</output>
		</layer>
		<layer id="343" name="2240224410063" type="Const" version="opset1">
			<data offset="5120" size="4" shape="" element_type="f32"/>
			<output>
				<port id="0" precision="FP32"/>
			</output>
		</layer>
		<layer id="344" name="87888010546" type="Const" version="opset1">
			<data offset="3581076" size="960" shape="1,240,1,1" element_type="f32"/>
			<output>
				<port id="0" precision="FP32">
					<dim>1</dim>
					<dim>240</dim>
					<dim>1</dim>
					<dim>1</dim>
				</port>
			</output>
		</layer>
		<layer id="345" name="87487610768" type="Const" version="opset1">
			<data offset="3582036" size="40" shape="1,10,1,1" element_type="f32"/>
			<output>
				<port id="0" precision="FP32">
					<dim>1</dim>
					<dim>10</dim>
					<dim>1</dim>
					<dim>1</dim>
				</port>
			</output>
		</layer>
		<layer id="346" name="Range_210438110399" type="Const" version="opset1">
			<data offset="11204" size="16" shape="2" element_type="i64"/>
			<output>
				<port id="0" precision="I64">
					<dim>2</dim>
				</port>
			</output>
		</layer>
		<layer id="347" name="266726719910" type="Const" version="opset1">
			<data offset="5120" size="4" shape="" element_type="f32"/>
			<output>
				<port id="0" precision="FP32"/>
			</output>
		</layer>
		<layer id="348" name="2668267211083" type="Const" version="opset1">
			<data offset="5120" size="4" shape="" element_type="f32"/>
			<output>
				<port id="0" precision="FP32"/>
			</output>
		</layer>
		<layer id="349" name="2669267311425" type="Const" version="opset1">
			<data offset="5120" size="4" shape="" element_type="f32"/>
			<output>
				<port id="0" precision="FP32"/>
			</output>
		</layer>
		<layer id="350" name="2670267411467" type="Const" version="opset1">
			<data offset="5120" size="4" shape="" element_type="f32"/>
			<output>
				<port id="0" precision="FP32"/>
			</output>
		</layer>
		<layer id="351" name="87087210234" type="Const" version="opset1">
			<data offset="3581076" size="960" shape="1,240,1,1" element_type="f32"/>
			<output>
				<port id="0" precision="FP32">
					<dim>1</dim>
					<dim>240</dim>
					<dim>1</dim>
					<dim>1</dim>
				</port>
			</output>
		</layer>
		<layer id="352" name="2107211111293" type="Const" version="opset1">
			<data offset="5120" size="4" shape="" element_type="f32"/>
			<output>
				<port id="0" precision="FP32"/>
			</output>
		</layer>
		<layer id="353" name="2108211210285" type="Const" version="opset1">
			<data offset="5120" size="4" shape="" element_type="f32"/>
			<output>
				<port id="0" precision="FP32"/>
			</output>
		</layer>
		<layer id="354" name="210921139958" type="Const" version="opset1">
			<data offset="5120" size="4" shape="" element_type="f32"/>
			<output>
				<port id="0" precision="FP32"/>
			</output>
		</layer>
		<layer id="355" name="2110211410873" type="Const" version="opset1">
			<data offset="5120" size="4" shape="" element_type="f32"/>
			<output>
				<port id="0" precision="FP32"/>
			</output>
		</layer>
		<layer id="356" name="86686810108" type="Const" version="opset1">
			<data offset="3581076" size="960" shape="1,240,1,1" element_type="f32"/>
			<output>
				<port id="0" precision="FP32">
					<dim>1</dim>
					<dim>240</dim>
					<dim>1</dim>
					<dim>1</dim>
				</port>
			</output>
		</layer>
		<layer id="357" name="3037304110012" type="Const" version="opset1">
			<data offset="5120" size="4" shape="" element_type="f32"/>
			<output>
				<port id="0" precision="FP32"/>
			</output>
		</layer>
		<layer id="358" name="303830429634" type="Const" version="opset1">
			<data offset="5120" size="4" shape="" element_type="f32"/>
			<output>
				<port id="0" precision="FP32"/>
			</output>
		</layer>
		<layer id="359" name="3039304310849" type="Const" version="opset1">
			<data offset="5120" size="4" shape="" element_type="f32"/>
			<output>
				<port id="0" precision="FP32"/>
			</output>
		</layer>
		<layer id="360" name="3040304411011" type="Const" version="opset1">
			<data offset="5120" size="4" shape="" element_type="f32"/>
			<output>
				<port id="0" precision="FP32"/>
			</output>
		</layer>
		<layer id="361" name="2917292110885" type="Const" version="opset1">
			<data offset="5120" size="4" shape="" element_type="f32"/>
			<output>
				<port id="0" precision="FP32"/>
			</output>
		</layer>
		<layer id="362" name="291829229796" type="Const" version="opset1">
			<data offset="5120" size="4" shape="" element_type="f32"/>
			<output>
				<port id="0" precision="FP32"/>
			</output>
		</layer>
		<layer id="363" name="291929239685" type="Const" version="opset1">
			<data offset="5120" size="4" shape="" element_type="f32"/>
			<output>
				<port id="0" precision="FP32"/>
			</output>
		</layer>
		<layer id="364" name="2920292411464" type="Const" version="opset1">
			<data offset="5120" size="4" shape="" element_type="f32"/>
			<output>
				<port id="0" precision="FP32"/>
			</output>
		</layer>
		<layer id="365" name="86286411326" type="Const" version="opset1">
			<data offset="3582076" size="160" shape="1,40,1,1" element_type="f32"/>
			<output>
				<port id="0" precision="FP32">
					<dim>1</dim>
					<dim>40</dim>
					<dim>1</dim>
					<dim>1</dim>
				</port>
			</output>
		</layer>
		<layer id="366" name="2697270111068" type="Const" version="opset1">
			<data offset="5120" size="4" shape="" element_type="f32"/>
			<output>
				<port id="0" precision="FP32"/>
			</output>
		</layer>
		<layer id="367" name="2698270210429" type="Const" version="opset1">
			<data offset="5120" size="4" shape="" element_type="f32"/>
			<output>
				<port id="0" precision="FP32"/>
			</output>
		</layer>
		<layer id="368" name="269927039679" type="Const" version="opset1">
			<data offset="5120" size="4" shape="" element_type="f32"/>
			<output>
				<port id="0" precision="FP32"/>
			</output>
		</layer>
		<layer id="369" name="270027049667" type="Const" version="opset1">
			<data offset="5120" size="4" shape="" element_type="f32"/>
			<output>
				<port id="0" precision="FP32"/>
			</output>
		</layer>
		<layer id="370" name="2807281111185" type="Const" version="opset1">
			<data offset="5120" size="4" shape="" element_type="f32"/>
			<output>
				<port id="0" precision="FP32"/>
			</output>
		</layer>
		<layer id="371" name="2808281211626" type="Const" version="opset1">
			<data offset="5120" size="4" shape="" element_type="f32"/>
			<output>
				<port id="0" precision="FP32"/>
			</output>
		</layer>
		<layer id="372" name="2809281310909" type="Const" version="opset1">
			<data offset="5120" size="4" shape="" element_type="f32"/>
			<output>
				<port id="0" precision="FP32"/>
			</output>
		</layer>
		<layer id="373" name="281028149760" type="Const" version="opset1">
			<data offset="5120" size="4" shape="" element_type="f32"/>
			<output>
				<port id="0" precision="FP32"/>
			</output>
		</layer>
		<layer id="374" name="85886010579" type="Const" version="opset1">
			<data offset="3581076" size="960" shape="1,240,1,1" element_type="f32"/>
			<output>
				<port id="0" precision="FP32">
					<dim>1</dim>
					<dim>240</dim>
					<dim>1</dim>
					<dim>1</dim>
				</port>
			</output>
		</layer>
		<layer id="375" name="85485611014" type="Const" version="opset1">
			<data offset="3582036" size="40" shape="1,10,1,1" element_type="f32"/>
			<output>
				<port id="0" precision="FP32">
					<dim>1</dim>
					<dim>10</dim>
					<dim>1</dim>
					<dim>1</dim>
				</port>
			</output>
		</layer>
		<layer id="376" name="Range_175136311641" type="Const" version="opset1">
			<data offset="11204" size="16" shape="2" element_type="i64"/>
			<output>
				<port id="0" precision="I64">
					<dim>2</dim>
				</port>
			</output>
		</layer>
		<layer id="377" name="2737274111593" type="Const" version="opset1">
			<data offset="5120" size="4" shape="" element_type="f32"/>
			<output>
				<port id="0" precision="FP32"/>
			</output>
		</layer>
		<layer id="378" name="2738274210900" type="Const" version="opset1">
			<data offset="5120" size="4" shape="" element_type="f32"/>
			<output>
				<port id="0" precision="FP32"/>
			</output>
		</layer>
		<layer id="379" name="273927439559" type="Const" version="opset1">
			<data offset="5120" size="4" shape="" element_type="f32"/>
			<output>
				<port id="0" precision="FP32"/>
			</output>
		</layer>
		<layer id="380" name="2740274411719" type="Const" version="opset1">
			<data offset="5120" size="4" shape="" element_type="f32"/>
			<output>
				<port id="0" precision="FP32"/>
			</output>
		</layer>
		<layer id="381" name="85085210369" type="Const" version="opset1">
			<data offset="3581076" size="960" shape="1,240,1,1" element_type="f32"/>
			<output>
				<port id="0" precision="FP32">
					<dim>1</dim>
					<dim>240</dim>
					<dim>1</dim>
					<dim>1</dim>
				</port>
			</output>
		</layer>
		<layer id="382" name="3067307110819" type="Const" version="opset1">
			<data offset="5120" size="4" shape="" element_type="f32"/>
			<output>
				<port id="0" precision="FP32"/>
			</output>
		</layer>
		<layer id="383" name="306830729823" type="Const" version="opset1">
			<data offset="5120" size="4" shape="" element_type="f32"/>
			<output>
				<port id="0" precision="FP32"/>
			</output>
		</layer>
		<layer id="384" name="3069307310411" type="Const" version="opset1">
			<data offset="5120" size="4" shape="" element_type="f32"/>
			<output>
				<port id="0" precision="FP32"/>
			</output>
		</layer>
		<layer id="385" name="307030749844" type="Const" version="opset1">
			<data offset="5120" size="4" shape="" element_type="f32"/>
			<output>
				<port id="0" precision="FP32"/>
			</output>
		</layer>
		<layer id="386" name="8468489784" type="Const" version="opset1">
			<data offset="3581076" size="960" shape="1,240,1,1" element_type="f32"/>
			<output>
				<port id="0" precision="FP32">
					<dim>1</dim>
					<dim>240</dim>
					<dim>1</dim>
					<dim>1</dim>
				</port>
			</output>
		</layer>
		<layer id="387" name="2537254111353" type="Const" version="opset1">
			<data offset="5120" size="4" shape="" element_type="f32"/>
			<output>
				<port id="0" precision="FP32"/>
			</output>
		</layer>
		<layer id="388" name="253825429712" type="Const" version="opset1">
			<data offset="5120" size="4" shape="" element_type="f32"/>
			<output>
				<port id="0" precision="FP32"/>
			</output>
		</layer>
		<layer id="389" name="2539254311152" type="Const" version="opset1">
			<data offset="5120" size="4" shape="" element_type="f32"/>
			<output>
				<port id="0" precision="FP32"/>
			</output>
		</layer>
		<layer id="390" name="2540254411698" type="Const" version="opset1">
			<data offset="5120" size="4" shape="" element_type="f32"/>
			<output>
				<port id="0" precision="FP32"/>
			</output>
		</layer>
		<layer id="391" name="68135711725" type="Const" version="opset1">
			<data offset="3582236" size="38400" shape="240,40,1,1" element_type="f32"/>
			<output>
				<port id="0" precision="FP32" names="681">
					<dim>240</dim>
					<dim>40</dim>
					<dim>1</dim>
					<dim>1</dim>
				</port>
			</output>
		</layer>
		<layer id="392" name="Conv_57/WithoutBiases/fq_weights_1" type="FakeQuantize" version="opset1">
			<data levels="0" auto_broadcast="numpy"/>
			<input>
				<port id="0">
					<dim>240</dim>
					<dim>40</dim>
					<dim>1</dim>
					<dim>1</dim>
				</port>
				<port id="1"/>
				<port id="2"/>
				<port id="3"/>
				<port id="4"/>
			</input>
			<output>
				<port id="5" precision="FP32">
					<dim>240</dim>
					<dim>40</dim>
					<dim>1</dim>
					<dim>1</dim>
				</port>
			</output>
		</layer>
		<layer id="393" name="2927293111203" type="Const" version="opset1">
			<data offset="5120" size="4" shape="" element_type="f32"/>
			<output>
				<port id="0" precision="FP32"/>
			</output>
		</layer>
		<layer id="394" name="2928293211008" type="Const" version="opset1">
			<data offset="5120" size="4" shape="" element_type="f32"/>
			<output>
				<port id="0" precision="FP32"/>
			</output>
		</layer>
		<layer id="395" name="2929293311446" type="Const" version="opset1">
			<data offset="5120" size="4" shape="" element_type="f32"/>
			<output>
				<port id="0" precision="FP32"/>
			</output>
		</layer>
		<layer id="396" name="2930293411419" type="Const" version="opset1">
			<data offset="5120" size="4" shape="" element_type="f32"/>
			<output>
				<port id="0" precision="FP32"/>
			</output>
		</layer>
		<layer id="397" name="8428449871" type="Const" version="opset1">
			<data offset="3582076" size="160" shape="1,40,1,1" element_type="f32"/>
			<output>
				<port id="0" precision="FP32">
					<dim>1</dim>
					<dim>40</dim>
					<dim>1</dim>
					<dim>1</dim>
				</port>
			</output>
		</layer>
		<layer id="398" name="1727173111062" type="Const" version="opset1">
			<data offset="5120" size="4" shape="" element_type="f32"/>
			<output>
				<port id="0" precision="FP32"/>
			</output>
		</layer>
		<layer id="399" name="1728173210471" type="Const" version="opset1">
			<data offset="5120" size="4" shape="" element_type="f32"/>
			<output>
				<port id="0" precision="FP32"/>
			</output>
		</layer>
		<layer id="400" name="1729173310087" type="Const" version="opset1">
			<data offset="5120" size="4" shape="" element_type="f32"/>
			<output>
				<port id="0" precision="FP32"/>
			</output>
		</layer>
		<layer id="401" name="1730173411296" type="Const" version="opset1">
			<data offset="5120" size="4" shape="" element_type="f32"/>
			<output>
				<port id="0" precision="FP32"/>
			</output>
		</layer>
		<layer id="402" name="1517152110930" type="Const" version="opset1">
			<data offset="5120" size="4" shape="" element_type="f32"/>
			<output>
				<port id="0" precision="FP32"/>
			</output>
		</layer>
		<layer id="403" name="151815229655" type="Const" version="opset1">
			<data offset="5120" size="4" shape="" element_type="f32"/>
			<output>
				<port id="0" precision="FP32"/>
			</output>
		</layer>
		<layer id="404" name="151915239733" type="Const" version="opset1">
			<data offset="5120" size="4" shape="" element_type="f32"/>
			<output>
				<port id="0" precision="FP32"/>
			</output>
		</layer>
		<layer id="405" name="152015249565" type="Const" version="opset1">
			<data offset="5120" size="4" shape="" element_type="f32"/>
			<output>
				<port id="0" precision="FP32"/>
			</output>
		</layer>
		<layer id="406" name="83884010570" type="Const" version="opset1">
			<data offset="3620636" size="576" shape="1,144,1,1" element_type="f32"/>
			<output>
				<port id="0" precision="FP32">
					<dim>1</dim>
					<dim>144</dim>
					<dim>1</dim>
					<dim>1</dim>
				</port>
			</output>
		</layer>
		<layer id="407" name="83483610759" type="Const" version="opset1">
			<data offset="3621212" size="24" shape="1,6,1,1" element_type="f32"/>
			<output>
				<port id="0" precision="FP32">
					<dim>1</dim>
					<dim>6</dim>
					<dim>1</dim>
					<dim>1</dim>
				</port>
			</output>
		</layer>
		<layer id="408" name="Range_139934611383" type="Const" version="opset1">
			<data offset="11204" size="16" shape="2" element_type="i64"/>
			<output>
				<port id="0" precision="I64">
					<dim>2</dim>
				</port>
			</output>
		</layer>
		<layer id="409" name="174717519571" type="Const" version="opset1">
			<data offset="5120" size="4" shape="" element_type="f32"/>
			<output>
				<port id="0" precision="FP32"/>
			</output>
		</layer>
		<layer id="410" name="174817529859" type="Const" version="opset1">
			<data offset="5120" size="4" shape="" element_type="f32"/>
			<output>
				<port id="0" precision="FP32"/>
			</output>
		</layer>
		<layer id="411" name="1749175311716" type="Const" version="opset1">
			<data offset="5120" size="4" shape="" element_type="f32"/>
			<output>
				<port id="0" precision="FP32"/>
			</output>
		</layer>
		<layer id="412" name="1750175411332" type="Const" version="opset1">
			<data offset="5120" size="4" shape="" element_type="f32"/>
			<output>
				<port id="0" precision="FP32"/>
			</output>
		</layer>
		<layer id="413" name="83083210213" type="Const" version="opset1">
			<data offset="3620636" size="576" shape="1,144,1,1" element_type="f32"/>
			<output>
				<port id="0" precision="FP32">
					<dim>1</dim>
					<dim>144</dim>
					<dim>1</dim>
					<dim>1</dim>
				</port>
			</output>
		</layer>
		<layer id="414" name="2547255111236" type="Const" version="opset1">
			<data offset="5120" size="4" shape="" element_type="f32"/>
			<output>
				<port id="0" precision="FP32"/>
			</output>
		</layer>
		<layer id="415" name="254825529682" type="Const" version="opset1">
			<data offset="5120" size="4" shape="" element_type="f32"/>
			<output>
				<port id="0" precision="FP32"/>
			</output>
		</layer>
		<layer id="416" name="2549255310417" type="Const" version="opset1">
			<data offset="5120" size="4" shape="" element_type="f32"/>
			<output>
				<port id="0" precision="FP32"/>
			</output>
		</layer>
		<layer id="417" name="2550255410225" type="Const" version="opset1">
			<data offset="5120" size="4" shape="" element_type="f32"/>
			<output>
				<port id="0" precision="FP32"/>
			</output>
		</layer>
		<layer id="418" name="82682810624" type="Const" version="opset1">
			<data offset="3620636" size="576" shape="1,144,1,1" element_type="f32"/>
			<output>
				<port id="0" precision="FP32">
					<dim>1</dim>
					<dim>144</dim>
					<dim>1</dim>
					<dim>1</dim>
				</port>
			</output>
		</layer>
		<layer id="419" name="165716619526" type="Const" version="opset1">
			<data offset="5120" size="4" shape="" element_type="f32"/>
			<output>
				<port id="0" precision="FP32"/>
			</output>
		</layer>
		<layer id="420" name="1658166211476" type="Const" version="opset1">
			<data offset="5120" size="4" shape="" element_type="f32"/>
			<output>
				<port id="0" precision="FP32"/>
			</output>
		</layer>
		<layer id="421" name="1659166311362" type="Const" version="opset1">
			<data offset="5120" size="4" shape="" element_type="f32"/>
			<output>
				<port id="0" precision="FP32"/>
			</output>
		</layer>
		<layer id="422" name="1660166410612" type="Const" version="opset1">
			<data offset="5120" size="4" shape="" element_type="f32"/>
			<output>
				<port id="0" precision="FP32"/>
			</output>
		</layer>
		<layer id="423" name="1537154111305" type="Const" version="opset1">
			<data offset="5120" size="4" shape="" element_type="f32"/>
			<output>
				<port id="0" precision="FP32"/>
			</output>
		</layer>
		<layer id="424" name="153815429550" type="Const" version="opset1">
			<data offset="5120" size="4" shape="" element_type="f32"/>
			<output>
				<port id="0" precision="FP32"/>
			</output>
		</layer>
		<layer id="425" name="1539154310216" type="Const" version="opset1">
			<data offset="5120" size="4" shape="" element_type="f32"/>
			<output>
				<port id="0" precision="FP32"/>
			</output>
		</layer>
		<layer id="426" name="154015449874" type="Const" version="opset1">
			<data offset="5120" size="4" shape="" element_type="f32"/>
			<output>
				<port id="0" precision="FP32"/>
			</output>
		</layer>
		<layer id="427" name="82282411350" type="Const" version="opset1">
			<data offset="3621236" size="96" shape="1,24,1,1" element_type="f32"/>
			<output>
				<port id="0" precision="FP32">
					<dim>1</dim>
					<dim>24</dim>
					<dim>1</dim>
					<dim>1</dim>
				</port>
			</output>
		</layer>
		<layer id="428" name="2067207110168" type="Const" version="opset1">
			<data offset="5120" size="4" shape="" element_type="f32"/>
			<output>
				<port id="0" precision="FP32"/>
			</output>
		</layer>
		<layer id="429" name="2068207210882" type="Const" version="opset1">
			<data offset="5120" size="4" shape="" element_type="f32"/>
			<output>
				<port id="0" precision="FP32"/>
			</output>
		</layer>
		<layer id="430" name="2069207310993" type="Const" version="opset1">
			<data offset="5120" size="4" shape="" element_type="f32"/>
			<output>
				<port id="0" precision="FP32"/>
			</output>
		</layer>
		<layer id="431" name="2070207410231" type="Const" version="opset1">
			<data offset="5120" size="4" shape="" element_type="f32"/>
			<output>
				<port id="0" precision="FP32"/>
			</output>
		</layer>
		<layer id="432" name="1877188110180" type="Const" version="opset1">
			<data offset="5120" size="4" shape="" element_type="f32"/>
			<output>
				<port id="0" precision="FP32"/>
			</output>
		</layer>
		<layer id="433" name="187818829973" type="Const" version="opset1">
			<data offset="5120" size="4" shape="" element_type="f32"/>
			<output>
				<port id="0" precision="FP32"/>
			</output>
		</layer>
		<layer id="434" name="1879188311563" type="Const" version="opset1">
			<data offset="5120" size="4" shape="" element_type="f32"/>
			<output>
				<port id="0" precision="FP32"/>
			</output>
		</layer>
		<layer id="435" name="1880188410990" type="Const" version="opset1">
			<data offset="5120" size="4" shape="" element_type="f32"/>
			<output>
				<port id="0" precision="FP32"/>
			</output>
		</layer>
		<layer id="436" name="81882011023" type="Const" version="opset1">
			<data offset="3620636" size="576" shape="1,144,1,1" element_type="f32"/>
			<output>
				<port id="0" precision="FP32">
					<dim>1</dim>
					<dim>144</dim>
					<dim>1</dim>
					<dim>1</dim>
				</port>
			</output>
		</layer>
		<layer id="437" name="81481610147" type="Const" version="opset1">
			<data offset="3621212" size="24" shape="1,6,1,1" element_type="f32"/>
			<output>
				<port id="0" precision="FP32">
					<dim>1</dim>
					<dim>6</dim>
					<dim>1</dim>
					<dim>1</dim>
				</port>
			</output>
		</layer>
		<layer id="438" name="Range_104632810891" type="Const" version="opset1">
			<data offset="11204" size="16" shape="2" element_type="i64"/>
			<output>
				<port id="0" precision="I64">
					<dim>2</dim>
				</port>
			</output>
		</layer>
		<layer id="439" name="1897190110207" type="Const" version="opset1">
			<data offset="5120" size="4" shape="" element_type="f32"/>
			<output>
				<port id="0" precision="FP32"/>
			</output>
		</layer>
		<layer id="440" name="1898190210687" type="Const" version="opset1">
			<data offset="5120" size="4" shape="" element_type="f32"/>
			<output>
				<port id="0" precision="FP32"/>
			</output>
		</layer>
		<layer id="441" name="189919039763" type="Const" version="opset1">
			<data offset="5120" size="4" shape="" element_type="f32"/>
			<output>
				<port id="0" precision="FP32"/>
			</output>
		</layer>
		<layer id="442" name="1900190411389" type="Const" version="opset1">
			<data offset="5120" size="4" shape="" element_type="f32"/>
			<output>
				<port id="0" precision="FP32"/>
			</output>
		</layer>
		<layer id="443" name="81081210372" type="Const" version="opset1">
			<data offset="3620636" size="576" shape="1,144,1,1" element_type="f32"/>
			<output>
				<port id="0" precision="FP32">
					<dim>1</dim>
					<dim>144</dim>
					<dim>1</dim>
					<dim>1</dim>
				</port>
			</output>
		</layer>
		<layer id="444" name="219722019637" type="Const" version="opset1">
			<data offset="5120" size="4" shape="" element_type="f32"/>
			<output>
				<port id="0" precision="FP32"/>
			</output>
		</layer>
		<layer id="445" name="2198220211380" type="Const" version="opset1">
			<data offset="5120" size="4" shape="" element_type="f32"/>
			<output>
				<port id="0" precision="FP32"/>
			</output>
		</layer>
		<layer id="446" name="2199220311392" type="Const" version="opset1">
			<data offset="5120" size="4" shape="" element_type="f32"/>
			<output>
				<port id="0" precision="FP32"/>
			</output>
		</layer>
		<layer id="447" name="2200220410945" type="Const" version="opset1">
			<data offset="5120" size="4" shape="" element_type="f32"/>
			<output>
				<port id="0" precision="FP32"/>
			</output>
		</layer>
		<layer id="448" name="80680810813" type="Const" version="opset1">
			<data offset="3620636" size="576" shape="1,144,1,1" element_type="f32"/>
			<output>
				<port id="0" precision="FP32">
					<dim>1</dim>
					<dim>144</dim>
					<dim>1</dim>
					<dim>1</dim>
				</port>
			</output>
		</layer>
		<layer id="449" name="2627263110927" type="Const" version="opset1">
			<data offset="5120" size="4" shape="" element_type="f32"/>
			<output>
				<port id="0" precision="FP32"/>
			</output>
		</layer>
		<layer id="450" name="2628263211689" type="Const" version="opset1">
			<data offset="5120" size="4" shape="" element_type="f32"/>
			<output>
				<port id="0" precision="FP32"/>
			</output>
		</layer>
		<layer id="451" name="2629263310321" type="Const" version="opset1">
			<data offset="5120" size="4" shape="" element_type="f32"/>
			<output>
				<port id="0" precision="FP32"/>
			</output>
		</layer>
		<layer id="452" name="2630263411029" type="Const" version="opset1">
			<data offset="5120" size="4" shape="" element_type="f32"/>
			<output>
				<port id="0" precision="FP32"/>
			</output>
		</layer>
		<layer id="453" name="66332211017" type="Const" version="opset1">
			<data offset="3621332" size="13824" shape="144,24,1,1" element_type="f32"/>
			<output>
				<port id="0" precision="FP32" names="663">
					<dim>144</dim>
					<dim>24</dim>
					<dim>1</dim>
					<dim>1</dim>
				</port>
			</output>
		</layer>
		<layer id="454" name="Conv_28/WithoutBiases/fq_weights_1" type="FakeQuantize" version="opset1">
			<data levels="0" auto_broadcast="numpy"/>
			<input>
				<port id="0">
					<dim>144</dim>
					<dim>24</dim>
					<dim>1</dim>
					<dim>1</dim>
				</port>
				<port id="1"/>
				<port id="2"/>
				<port id="3"/>
				<port id="4"/>
			</input>
			<output>
				<port id="5" precision="FP32">
					<dim>144</dim>
					<dim>24</dim>
					<dim>1</dim>
					<dim>1</dim>
				</port>
			</output>
		</layer>
		<layer id="455" name="154715519706" type="Const" version="opset1">
			<data offset="5120" size="4" shape="" element_type="f32"/>
			<output>
				<port id="0" precision="FP32"/>
			</output>
		</layer>
		<layer id="456" name="1548155211704" type="Const" version="opset1">
			<data offset="5120" size="4" shape="" element_type="f32"/>
			<output>
				<port id="0" precision="FP32"/>
			</output>
		</layer>
		<layer id="457" name="1549155310846" type="Const" version="opset1">
			<data offset="5120" size="4" shape="" element_type="f32"/>
			<output>
				<port id="0" precision="FP32"/>
			</output>
		</layer>
		<layer id="458" name="1550155410072" type="Const" version="opset1">
			<data offset="5120" size="4" shape="" element_type="f32"/>
			<output>
				<port id="0" precision="FP32"/>
			</output>
		</layer>
		<layer id="459" name="80280411407" type="Const" version="opset1">
			<data offset="3621236" size="96" shape="1,24,1,1" element_type="f32"/>
			<output>
				<port id="0" precision="FP32">
					<dim>1</dim>
					<dim>24</dim>
					<dim>1</dim>
					<dim>1</dim>
				</port>
			</output>
		</layer>
		<layer id="460" name="2647265110081" type="Const" version="opset1">
			<data offset="5120" size="4" shape="" element_type="f32"/>
			<output>
				<port id="0" precision="FP32"/>
			</output>
		</layer>
		<layer id="461" name="2648265210684" type="Const" version="opset1">
			<data offset="5120" size="4" shape="" element_type="f32"/>
			<output>
				<port id="0" precision="FP32"/>
			</output>
		</layer>
		<layer id="462" name="264926539511" type="Const" version="opset1">
			<data offset="5120" size="4" shape="" element_type="f32"/>
			<output>
				<port id="0" precision="FP32"/>
			</output>
		</layer>
		<layer id="463" name="265026549946" type="Const" version="opset1">
			<data offset="5120" size="4" shape="" element_type="f32"/>
			<output>
				<port id="0" precision="FP32"/>
			</output>
		</layer>
		<layer id="464" name="1447145110948" type="Const" version="opset1">
			<data offset="5120" size="4" shape="" element_type="f32"/>
			<output>
				<port id="0" precision="FP32"/>
			</output>
		</layer>
		<layer id="465" name="1448145210306" type="Const" version="opset1">
			<data offset="5120" size="4" shape="" element_type="f32"/>
			<output>
				<port id="0" precision="FP32"/>
			</output>
		</layer>
		<layer id="466" name="1449145311287" type="Const" version="opset1">
			<data offset="5120" size="4" shape="" element_type="f32"/>
			<output>
				<port id="0" precision="FP32"/>
			</output>
		</layer>
		<layer id="467" name="1450145411632" type="Const" version="opset1">
			<data offset="5120" size="4" shape="" element_type="f32"/>
			<output>
				<port id="0" precision="FP32"/>
			</output>
		</layer>
		<layer id="468" name="7988009613" type="Const" version="opset1">
			<data offset="3635156" size="384" shape="1,96,1,1" element_type="f32"/>
			<output>
				<port id="0" precision="FP32">
					<dim>1</dim>
					<dim>96</dim>
					<dim>1</dim>
					<dim>1</dim>
				</port>
			</output>
		</layer>
		<layer id="469" name="7947969814" type="Const" version="opset1">
			<data offset="3635540" size="16" shape="1,4,1,1" element_type="f32"/>
			<output>
				<port id="0" precision="FP32">
					<dim>1</dim>
					<dim>4</dim>
					<dim>1</dim>
					<dim>1</dim>
				</port>
			</output>
		</layer>
		<layer id="470" name="Range_69431110462" type="Const" version="opset1">
			<data offset="11204" size="16" shape="2" element_type="i64"/>
			<output>
				<port id="0" precision="I64">
					<dim>2</dim>
				</port>
			</output>
		</layer>
		<layer id="471" name="2317232110654" type="Const" version="opset1">
			<data offset="5120" size="4" shape="" element_type="f32"/>
			<output>
				<port id="0" precision="FP32"/>
			</output>
		</layer>
		<layer id="472" name="2318232210312" type="Const" version="opset1">
			<data offset="5120" size="4" shape="" element_type="f32"/>
			<output>
				<port id="0" precision="FP32"/>
			</output>
		</layer>
		<layer id="473" name="2319232310039" type="Const" version="opset1">
			<data offset="5120" size="4" shape="" element_type="f32"/>
			<output>
				<port id="0" precision="FP32"/>
			</output>
		</layer>
		<layer id="474" name="2320232411539" type="Const" version="opset1">
			<data offset="5120" size="4" shape="" element_type="f32"/>
			<output>
				<port id="0" precision="FP32"/>
			</output>
		</layer>
		<layer id="475" name="7907929898" type="Const" version="opset1">
			<data offset="3635156" size="384" shape="1,96,1,1" element_type="f32"/>
			<output>
				<port id="0" precision="FP32">
					<dim>1</dim>
					<dim>96</dim>
					<dim>1</dim>
					<dim>1</dim>
				</port>
			</output>
		</layer>
		<layer id="476" name="225722619619" type="Const" version="opset1">
			<data offset="5120" size="4" shape="" element_type="f32"/>
			<output>
				<port id="0" precision="FP32"/>
			</output>
		</layer>
		<layer id="477" name="225822629652" type="Const" version="opset1">
			<data offset="5120" size="4" shape="" element_type="f32"/>
			<output>
				<port id="0" precision="FP32"/>
			</output>
		</layer>
		<layer id="478" name="225922639817" type="Const" version="opset1">
			<data offset="5120" size="4" shape="" element_type="f32"/>
			<output>
				<port id="0" precision="FP32"/>
			</output>
		</layer>
		<layer id="479" name="2260226410537" type="Const" version="opset1">
			<data offset="5120" size="4" shape="" element_type="f32"/>
			<output>
				<port id="0" precision="FP32"/>
			</output>
		</layer>
		<layer id="480" name="7867889841" type="Const" version="opset1">
			<data offset="3635156" size="384" shape="1,96,1,1" element_type="f32"/>
			<output>
				<port id="0" precision="FP32">
					<dim>1</dim>
					<dim>96</dim>
					<dim>1</dim>
					<dim>1</dim>
				</port>
			</output>
		</layer>
		<layer id="481" name="2937294111542" type="Const" version="opset1">
			<data offset="5120" size="4" shape="" element_type="f32"/>
			<output>
				<port id="0" precision="FP32"/>
			</output>
		</layer>
		<layer id="482" name="2938294210498" type="Const" version="opset1">
			<data offset="5120" size="4" shape="" element_type="f32"/>
			<output>
				<port id="0" precision="FP32"/>
			</output>
		</layer>
		<layer id="483" name="2939294311080" type="Const" version="opset1">
			<data offset="5120" size="4" shape="" element_type="f32"/>
			<output>
				<port id="0" precision="FP32"/>
			</output>
		</layer>
		<layer id="484" name="294029449931" type="Const" version="opset1">
			<data offset="5120" size="4" shape="" element_type="f32"/>
			<output>
				<port id="0" precision="FP32"/>
			</output>
		</layer>
		<layer id="485" name="78278410852" type="Const" version="opset1">
			<data offset="3635556" size="64" shape="1,16,1,1" element_type="f32"/>
			<output>
				<port id="0" precision="FP32">
					<dim>1</dim>
					<dim>16</dim>
					<dim>1</dim>
					<dim>1</dim>
				</port>
			</output>
		</layer>
		<layer id="486" name="2387239110615" type="Const" version="opset1">
			<data offset="5120" size="4" shape="" element_type="f32"/>
			<output>
				<port id="0" precision="FP32"/>
			</output>
		</layer>
		<layer id="487" name="2388239210153" type="Const" version="opset1">
			<data offset="5120" size="4" shape="" element_type="f32"/>
			<output>
				<port id="0" precision="FP32"/>
			</output>
		</layer>
		<layer id="488" name="2389239311356" type="Const" version="opset1">
			<data offset="5120" size="4" shape="" element_type="f32"/>
			<output>
				<port id="0" precision="FP32"/>
			</output>
		</layer>
		<layer id="489" name="2390239410504" type="Const" version="opset1">
			<data offset="5120" size="4" shape="" element_type="f32"/>
			<output>
				<port id="0" precision="FP32"/>
			</output>
		</layer>
		<layer id="490" name="2997300110000" type="Const" version="opset1">
			<data offset="5120" size="4" shape="" element_type="f32"/>
			<output>
				<port id="0" precision="FP32"/>
			</output>
		</layer>
		<layer id="491" name="2998300211371" type="Const" version="opset1">
			<data offset="5120" size="4" shape="" element_type="f32"/>
			<output>
				<port id="0" precision="FP32"/>
			</output>
		</layer>
		<layer id="492" name="2999300310996" type="Const" version="opset1">
			<data offset="5120" size="4" shape="" element_type="f32"/>
			<output>
				<port id="0" precision="FP32"/>
			</output>
		</layer>
		<layer id="493" name="3000300410627" type="Const" version="opset1">
			<data offset="5120" size="4" shape="" element_type="f32"/>
			<output>
				<port id="0" precision="FP32"/>
			</output>
		</layer>
		<layer id="494" name="7787809490" type="Const" version="opset1">
			<data offset="3635620" size="128" shape="1,32,1,1" element_type="f32"/>
			<output>
				<port id="0" precision="FP32">
					<dim>1</dim>
					<dim>32</dim>
					<dim>1</dim>
					<dim>1</dim>
				</port>
			</output>
		</layer>
		<layer id="495" name="77477611710" type="Const" version="opset1">
			<data offset="3635748" size="32" shape="1,8,1,1" element_type="f32"/>
			<output>
				<port id="0" precision="FP32">
					<dim>1</dim>
					<dim>8</dim>
					<dim>1</dim>
					<dim>1</dim>
				</port>
			</output>
		</layer>
		<layer id="496" name="Range_34229410444" type="Const" version="opset1">
			<data offset="11204" size="16" shape="2" element_type="i64"/>
			<output>
				<port id="0" precision="I64">
					<dim>2</dim>
				</port>
			</output>
		</layer>
		<layer id="497" name="1647165111218" type="Const" version="opset1">
			<data offset="5120" size="4" shape="" element_type="f32"/>
			<output>
				<port id="0" precision="FP32"/>
			</output>
		</layer>
		<layer id="498" name="1648165211281" type="Const" version="opset1">
			<data offset="5120" size="4" shape="" element_type="f32"/>
			<output>
				<port id="0" precision="FP32"/>
			</output>
		</layer>
		<layer id="499" name="1649165310045" type="Const" version="opset1">
			<data offset="5120" size="4" shape="" element_type="f32"/>
			<output>
				<port id="0" precision="FP32"/>
			</output>
		</layer>
		<layer id="500" name="1650165410324" type="Const" version="opset1">
			<data offset="5120" size="4" shape="" element_type="f32"/>
			<output>
				<port id="0" precision="FP32"/>
			</output>
		</layer>
		<layer id="501" name="77077211056" type="Const" version="opset1">
			<data offset="3635620" size="128" shape="1,32,1,1" element_type="f32"/>
			<output>
				<port id="0" precision="FP32">
					<dim>1</dim>
					<dim>32</dim>
					<dim>1</dim>
					<dim>1</dim>
				</port>
			</output>
		</layer>
		<layer id="502" name="257725819988" type="Const" version="opset1">
			<data offset="5120" size="4" shape="" element_type="f32"/>
			<output>
				<port id="0" precision="FP32"/>
			</output>
		</layer>
		<layer id="503" name="2578258210120" type="Const" version="opset1">
			<data offset="5120" size="4" shape="" element_type="f32"/>
			<output>
				<port id="0" precision="FP32"/>
			</output>
		</layer>
		<layer id="504" name="257925839937" type="Const" version="opset1">
			<data offset="5120" size="4" shape="" element_type="f32"/>
			<output>
				<port id="0" precision="FP32"/>
			</output>
		</layer>
		<layer id="505" name="2580258411149" type="Const" version="opset1">
			<data offset="5120" size="4" shape="" element_type="f32"/>
			<output>
				<port id="0" precision="FP32"/>
			</output>
		</layer>
		<layer id="506" name="76676810555" type="Const" version="opset1">
			<data offset="3635620" size="128" shape="1,32,1,1" element_type="f32"/>
			<output>
				<port id="0" precision="FP32">
					<dim>1</dim>
					<dim>32</dim>
					<dim>1</dim>
					<dim>1</dim>
				</port>
			</output>
		</layer>
		<layer id="507" name="2477248110408" type="Const" version="opset1">
			<data offset="5120" size="4" shape="" element_type="f32"/>
			<output>
				<port id="0" precision="FP32"/>
			</output>
		</layer>
		<layer id="508" name="2478248211053" type="Const" version="opset1">
			<data offset="5120" size="4" shape="" element_type="f32"/>
			<output>
				<port id="0" precision="FP32"/>
			</output>
		</layer>
		<layer id="509" name="2479248311599" type="Const" version="opset1">
			<data offset="5120" size="4" shape="" element_type="f32"/>
			<output>
				<port id="0" precision="FP32"/>
			</output>
		</layer>
		<layer id="510" name="2480248410591" type="Const" version="opset1">
			<data offset="5120" size="4" shape="" element_type="f32"/>
			<output>
				<port id="0" precision="FP32"/>
			</output>
		</layer>
		<layer id="512" name="Conv_0/WithoutBiases/fq_input_0" type="FakeQuantize" version="opset1">
			<data levels="0" auto_broadcast="numpy"/>
			<input>
				<port id="0">
					<dim>1</dim>
					<dim>3</dim>
					<dim>224</dim>
					<dim>224</dim>
				</port>
				<port id="1"/>
				<port id="2"/>
				<port id="3"/>
				<port id="4"/>
			</input>
			<output>
				<port id="5" precision="FP32">
					<dim>1</dim>
					<dim>3</dim>
					<dim>224</dim>
					<dim>224</dim>
				</port>
			</output>
		</layer>
		<layer id="513" name="2487249111125" type="Const" version="opset1">
			<data offset="5120" size="4" shape="" element_type="f32"/>
			<output>
				<port id="0" precision="FP32"/>
			</output>
		</layer>
		<layer id="514" name="2488249210666" type="Const" version="opset1">
			<data offset="5120" size="4" shape="" element_type="f32"/>
			<output>
				<port id="0" precision="FP32"/>
			</output>
		</layer>
		<layer id="515" name="2489249311665" type="Const" version="opset1">
			<data offset="5120" size="4" shape="" element_type="f32"/>
			<output>
				<port id="0" precision="FP32"/>
			</output>
		</layer>
		<layer id="516" name="2490249411140" type="Const" version="opset1">
			<data offset="5120" size="4" shape="" element_type="f32"/>
			<output>
				<port id="0" precision="FP32"/>
			</output>
		</layer>
		<layer id="517" name="64528811227" type="Const" version="opset1">
			<data offset="3635780" size="3456" shape="32,3,3,3" element_type="f32"/>
			<output>
				<port id="0" precision="FP32" names="645">
					<dim>32</dim>
					<dim>3</dim>
					<dim>3</dim>
					<dim>3</dim>
				</port>
			</output>
		</layer>
		<layer id="518" name="Conv_0/WithoutBiases/fq_weights_1" type="FakeQuantize" version="opset1">
			<data levels="0" auto_broadcast="numpy"/>
			<input>
				<port id="0">
					<dim>32</dim>
					<dim>3</dim>
					<dim>3</dim>
					<dim>3</dim>
				</port>
				<port id="1"/>
				<port id="2"/>
				<port id="3"/>
				<port id="4"/>
			</input>
			<output>
				<port id="5" precision="FP32">
					<dim>32</dim>
					<dim>3</dim>
					<dim>3</dim>
					<dim>3</dim>
				</port>
			</output>
		</layer>
		<layer id="519" name="Conv_0/WithoutBiases" type="Convolution" version="opset1">
			<data auto_pad="explicit" strides="2,2" dilations="1,1" pads_begin="1,1" pads_end="1,1"/>
			<input>
				<port id="0">
					<dim>1</dim>
					<dim>3</dim>
					<dim>224</dim>
					<dim>224</dim>
				</port>
				<port id="1">
					<dim>32</dim>
					<dim>3</dim>
					<dim>3</dim>
					<dim>3</dim>
				</port>
			</input>
			<output>
				<port id="2" precision="FP32" names="644">
					<dim>1</dim>
					<dim>32</dim>
					<dim>112</dim>
					<dim>112</dim>
				</port>
			</output>
		</layer>
		<layer id="520" name="Conv_0/WithoutBiases/add_" type="Add" version="opset1">
			<data auto_broadcast="numpy"/>
			<input>
				<port id="0">
					<dim>1</dim>
					<dim>32</dim>
					<dim>112</dim>
					<dim>112</dim>
				</port>
				<port id="1">
					<dim>1</dim>
					<dim>32</dim>
					<dim>1</dim>
					<dim>1</dim>
				</port>
			</input>
			<output>
				<port id="2" precision="FP32">
					<dim>1</dim>
					<dim>32</dim>
					<dim>112</dim>
					<dim>112</dim>
				</port>
			</output>
		</layer>
		<layer id="521" name="Mul_2" type="Swish" version="opset4">
			<input>
				<port id="0">
					<dim>1</dim>
					<dim>32</dim>
					<dim>112</dim>
					<dim>112</dim>
				</port>
			</input>
			<output>
				<port id="1" precision="FP32" names="362">
					<dim>1</dim>
					<dim>32</dim>
					<dim>112</dim>
					<dim>112</dim>
				</port>
			</output>
		</layer>
		<layer id="522" name="Conv_3/WithoutBiases/fq_input_0" type="FakeQuantize" version="opset1">
			<data levels="0" auto_broadcast="numpy"/>
			<input>
				<port id="0">
					<dim>1</dim>
					<dim>32</dim>
					<dim>112</dim>
					<dim>112</dim>
				</port>
				<port id="1"/>
				<port id="2"/>
				<port id="3"/>
				<port id="4"/>
			</input>
			<output>
				<port id="5" precision="FP32">
					<dim>1</dim>
					<dim>32</dim>
					<dim>112</dim>
					<dim>112</dim>
				</port>
			</output>
		</layer>
		<layer id="523" name="Conv_3/WithoutBiases/weights_shape770211167" type="Const" version="opset1">
			<data offset="3639236" size="40" shape="5" element_type="i64"/>
			<output>
				<port id="0" precision="I64">
					<dim>5</dim>
				</port>
			</output>
		</layer>
		<layer id="524" name="2587259110774" type="Const" version="opset1">
			<data offset="5120" size="4" shape="" element_type="f32"/>
			<output>
				<port id="0" precision="FP32"/>
			</output>
		</layer>
		<layer id="525" name="2588259210501" type="Const" version="opset1">
			<data offset="5120" size="4" shape="" element_type="f32"/>
			<output>
				<port id="0" precision="FP32"/>
			</output>
		</layer>
		<layer id="526" name="2589259310027" type="Const" version="opset1">
			<data offset="5120" size="4" shape="" element_type="f32"/>
			<output>
				<port id="0" precision="FP32"/>
			</output>
		</layer>
		<layer id="527" name="2590259410309" type="Const" version="opset1">
			<data offset="5120" size="4" shape="" element_type="f32"/>
			<output>
				<port id="0" precision="FP32"/>
			</output>
		</layer>
		<layer id="528" name="Reshape_22029111194" type="Const" version="opset1">
			<data offset="3639276" size="1152" shape="32,1,3,3" element_type="f32"/>
			<output>
				<port id="0" precision="FP32">
					<dim>32</dim>
					<dim>1</dim>
					<dim>3</dim>
					<dim>3</dim>
				</port>
			</output>
		</layer>
		<layer id="529" name="Conv_3/WithoutBiases/fq_weights_1" type="FakeQuantize" version="opset1">
			<data levels="0" auto_broadcast="numpy"/>
			<input>
				<port id="0">
					<dim>32</dim>
					<dim>1</dim>
					<dim>3</dim>
					<dim>3</dim>
				</port>
				<port id="1"/>
				<port id="2"/>
				<port id="3"/>
				<port id="4"/>
			</input>
			<output>
				<port id="5" precision="FP32">
					<dim>32</dim>
					<dim>1</dim>
					<dim>3</dim>
					<dim>3</dim>
				</port>
			</output>
		</layer>
		<layer id="530" name="7701" type="Reshape" version="opset1">
			<data special_zero="true"/>
			<input>
				<port id="0">
					<dim>32</dim>
					<dim>1</dim>
					<dim>3</dim>
					<dim>3</dim>
				</port>
				<port id="1">
					<dim>5</dim>
				</port>
			</input>
			<output>
				<port id="2" precision="FP32">
					<dim>32</dim>
					<dim>1</dim>
					<dim>1</dim>
					<dim>3</dim>
					<dim>3</dim>
				</port>
			</output>
		</layer>
		<layer id="531" name="Conv_3/WithoutBiases" type="GroupConvolution" version="opset1">
			<data auto_pad="explicit" strides="1,1" dilations="1,1" pads_begin="1,1" pads_end="1,1"/>
			<input>
				<port id="0">
					<dim>1</dim>
					<dim>32</dim>
					<dim>112</dim>
					<dim>112</dim>
				</port>
				<port id="1">
					<dim>32</dim>
					<dim>1</dim>
					<dim>1</dim>
					<dim>3</dim>
					<dim>3</dim>
				</port>
			</input>
			<output>
				<port id="2" precision="FP32" names="647">
					<dim>1</dim>
					<dim>32</dim>
					<dim>112</dim>
					<dim>112</dim>
				</port>
			</output>
		</layer>
		<layer id="532" name="Conv_3/WithoutBiases/add_" type="Add" version="opset1">
			<data auto_broadcast="numpy"/>
			<input>
				<port id="0">
					<dim>1</dim>
					<dim>32</dim>
					<dim>112</dim>
					<dim>112</dim>
				</port>
				<port id="1">
					<dim>1</dim>
					<dim>32</dim>
					<dim>1</dim>
					<dim>1</dim>
				</port>
			</input>
			<output>
				<port id="2" precision="FP32">
					<dim>1</dim>
					<dim>32</dim>
					<dim>112</dim>
					<dim>112</dim>
				</port>
			</output>
		</layer>
		<layer id="533" name="Mul_5" type="Swish" version="opset4">
			<input>
				<port id="0">
					<dim>1</dim>
					<dim>32</dim>
					<dim>112</dim>
					<dim>112</dim>
				</port>
			</input>
			<output>
				<port id="1" precision="FP32" names="366">
					<dim>1</dim>
					<dim>32</dim>
					<dim>112</dim>
					<dim>112</dim>
				</port>
			</output>
		</layer>
		<layer id="534" name="GlobalAveragePool_6/fq_input_0" type="FakeQuantize" version="opset1">
			<data levels="0" auto_broadcast="numpy"/>
			<input>
				<port id="0">
					<dim>1</dim>
					<dim>32</dim>
					<dim>112</dim>
					<dim>112</dim>
				</port>
				<port id="1"/>
				<port id="2"/>
				<port id="3"/>
				<port id="4"/>
			</input>
			<output>
				<port id="5" precision="FP32">
					<dim>1</dim>
					<dim>32</dim>
					<dim>112</dim>
					<dim>112</dim>
				</port>
			</output>
		</layer>
		<layer id="535" name="GlobalAveragePool_6" type="ReduceMean" version="opset1">
			<data keep_dims="true"/>
			<input>
				<port id="0">
					<dim>1</dim>
					<dim>32</dim>
					<dim>112</dim>
					<dim>112</dim>
				</port>
				<port id="1">
					<dim>2</dim>
				</port>
			</input>
			<output>
				<port id="2" precision="FP32" names="367">
					<dim>1</dim>
					<dim>32</dim>
					<dim>1</dim>
					<dim>1</dim>
				</port>
			</output>
		</layer>
		<layer id="536" name="1.0.block.1.fc1.weight29610339" type="Const" version="opset1">
			<data offset="3640428" size="1024" shape="8,32,1,1" element_type="f32"/>
			<output>
				<port id="0" precision="FP32" names="1.0.block.1.fc1.weight">
					<dim>8</dim>
					<dim>32</dim>
					<dim>1</dim>
					<dim>1</dim>
				</port>
			</output>
		</layer>
		<layer id="537" name="Conv_7/WithoutBiases" type="Convolution" version="opset1">
			<data auto_pad="explicit" strides="1,1" dilations="1,1" pads_begin="0,0" pads_end="0,0"/>
			<input>
				<port id="0">
					<dim>1</dim>
					<dim>32</dim>
					<dim>1</dim>
					<dim>1</dim>
				</port>
				<port id="1">
					<dim>8</dim>
					<dim>32</dim>
					<dim>1</dim>
					<dim>1</dim>
				</port>
			</input>
			<output>
				<port id="2" precision="FP32" names="368">
					<dim>1</dim>
					<dim>8</dim>
					<dim>1</dim>
					<dim>1</dim>
				</port>
			</output>
		</layer>
		<layer id="538" name="Conv_7/WithoutBiases/add_" type="Add" version="opset1">
			<data auto_broadcast="numpy"/>
			<input>
				<port id="0">
					<dim>1</dim>
					<dim>8</dim>
					<dim>1</dim>
					<dim>1</dim>
				</port>
				<port id="1">
					<dim>1</dim>
					<dim>8</dim>
					<dim>1</dim>
					<dim>1</dim>
				</port>
			</input>
			<output>
				<port id="2" precision="FP32">
					<dim>1</dim>
					<dim>8</dim>
					<dim>1</dim>
					<dim>1</dim>
				</port>
			</output>
		</layer>
		<layer id="539" name="Mul_9" type="Swish" version="opset4">
			<input>
				<port id="0">
					<dim>1</dim>
					<dim>8</dim>
					<dim>1</dim>
					<dim>1</dim>
				</port>
			</input>
			<output>
				<port id="1" precision="FP32" names="370">
					<dim>1</dim>
					<dim>8</dim>
					<dim>1</dim>
					<dim>1</dim>
				</port>
			</output>
		</layer>
		<layer id="540" name="1.0.block.1.fc2.weight29911560" type="Const" version="opset1">
			<data offset="3641452" size="1024" shape="32,8,1,1" element_type="f32"/>
			<output>
				<port id="0" precision="FP32" names="1.0.block.1.fc2.weight">
					<dim>32</dim>
					<dim>8</dim>
					<dim>1</dim>
					<dim>1</dim>
				</port>
			</output>
		</layer>
		<layer id="541" name="Conv_10/WithoutBiases" type="Convolution" version="opset1">
			<data auto_pad="explicit" strides="1,1" dilations="1,1" pads_begin="0,0" pads_end="0,0"/>
			<input>
				<port id="0">
					<dim>1</dim>
					<dim>8</dim>
					<dim>1</dim>
					<dim>1</dim>
				</port>
				<port id="1">
					<dim>32</dim>
					<dim>8</dim>
					<dim>1</dim>
					<dim>1</dim>
				</port>
			</input>
			<output>
				<port id="2" precision="FP32" names="371">
					<dim>1</dim>
					<dim>32</dim>
					<dim>1</dim>
					<dim>1</dim>
				</port>
			</output>
		</layer>
		<layer id="542" name="Conv_10/WithoutBiases/add_" type="Add" version="opset1">
			<data auto_broadcast="numpy"/>
			<input>
				<port id="0">
					<dim>1</dim>
					<dim>32</dim>
					<dim>1</dim>
					<dim>1</dim>
				</port>
				<port id="1">
					<dim>1</dim>
					<dim>32</dim>
					<dim>1</dim>
					<dim>1</dim>
				</port>
			</input>
			<output>
				<port id="2" precision="FP32">
					<dim>1</dim>
					<dim>32</dim>
					<dim>1</dim>
					<dim>1</dim>
				</port>
			</output>
		</layer>
		<layer id="543" name="Sigmoid_11" type="Sigmoid" version="opset1">
			<input>
				<port id="0">
					<dim>1</dim>
					<dim>32</dim>
					<dim>1</dim>
					<dim>1</dim>
				</port>
			</input>
			<output>
				<port id="1" precision="FP32" names="372">
					<dim>1</dim>
					<dim>32</dim>
					<dim>1</dim>
					<dim>1</dim>
				</port>
			</output>
		</layer>
		<layer id="544" name="Mul_12/fq_input_0" type="FakeQuantize" version="opset1">
			<data levels="0" auto_broadcast="numpy"/>
			<input>
				<port id="0">
					<dim>1</dim>
					<dim>32</dim>
					<dim>1</dim>
					<dim>1</dim>
				</port>
				<port id="1"/>
				<port id="2"/>
				<port id="3"/>
				<port id="4"/>
			</input>
			<output>
				<port id="5" precision="FP32">
					<dim>1</dim>
					<dim>32</dim>
					<dim>1</dim>
					<dim>1</dim>
				</port>
			</output>
		</layer>
		<layer id="545" name="Mul_12" type="Multiply" version="opset1">
			<data auto_broadcast="numpy"/>
			<input>
				<port id="0">
					<dim>1</dim>
					<dim>32</dim>
					<dim>1</dim>
					<dim>1</dim>
				</port>
				<port id="1">
					<dim>1</dim>
					<dim>32</dim>
					<dim>112</dim>
					<dim>112</dim>
				</port>
			</input>
			<output>
				<port id="2" precision="FP32" names="373">
					<dim>1</dim>
					<dim>32</dim>
					<dim>112</dim>
					<dim>112</dim>
				</port>
			</output>
		</layer>
		<layer id="546" name="Conv_13/WithoutBiases/fq_input_0" type="FakeQuantize" version="opset1">
			<data levels="0" auto_broadcast="numpy"/>
			<input>
				<port id="0">
					<dim>1</dim>
					<dim>32</dim>
					<dim>112</dim>
					<dim>112</dim>
				</port>
				<port id="1"/>
				<port id="2"/>
				<port id="3"/>
				<port id="4"/>
			</input>
			<output>
				<port id="5" precision="FP32">
					<dim>1</dim>
					<dim>32</dim>
					<dim>112</dim>
					<dim>112</dim>
				</port>
			</output>
		</layer>
		<layer id="547" name="2397240110030" type="Const" version="opset1">
			<data offset="5120" size="4" shape="" element_type="f32"/>
			<output>
				<port id="0" precision="FP32"/>
			</output>
		</layer>
		<layer id="548" name="2398240211503" type="Const" version="opset1">
			<data offset="5120" size="4" shape="" element_type="f32"/>
			<output>
				<port id="0" precision="FP32"/>
			</output>
		</layer>
		<layer id="549" name="2399240311614" type="Const" version="opset1">
			<data offset="5120" size="4" shape="" element_type="f32"/>
			<output>
				<port id="0" precision="FP32"/>
			</output>
		</layer>
		<layer id="550" name="2400240410981" type="Const" version="opset1">
			<data offset="5120" size="4" shape="" element_type="f32"/>
			<output>
				<port id="0" precision="FP32"/>
			</output>
		</layer>
		<layer id="551" name="65130310144" type="Const" version="opset1">
			<data offset="3642476" size="2048" shape="16,32,1,1" element_type="f32"/>
			<output>
				<port id="0" precision="FP32" names="651">
					<dim>16</dim>
					<dim>32</dim>
					<dim>1</dim>
					<dim>1</dim>
				</port>
			</output>
		</layer>
		<layer id="552" name="Conv_13/WithoutBiases/fq_weights_1" type="FakeQuantize" version="opset1">
			<data levels="0" auto_broadcast="numpy"/>
			<input>
				<port id="0">
					<dim>16</dim>
					<dim>32</dim>
					<dim>1</dim>
					<dim>1</dim>
				</port>
				<port id="1"/>
				<port id="2"/>
				<port id="3"/>
				<port id="4"/>
			</input>
			<output>
				<port id="5" precision="FP32">
					<dim>16</dim>
					<dim>32</dim>
					<dim>1</dim>
					<dim>1</dim>
				</port>
			</output>
		</layer>
		<layer id="553" name="Conv_13/WithoutBiases" type="Convolution" version="opset1">
			<data auto_pad="explicit" strides="1,1" dilations="1,1" pads_begin="0,0" pads_end="0,0"/>
			<input>
				<port id="0">
					<dim>1</dim>
					<dim>32</dim>
					<dim>112</dim>
					<dim>112</dim>
				</port>
				<port id="1">
					<dim>16</dim>
					<dim>32</dim>
					<dim>1</dim>
					<dim>1</dim>
				</port>
			</input>
			<output>
				<port id="2" precision="FP32" names="650">
					<dim>1</dim>
					<dim>16</dim>
					<dim>112</dim>
					<dim>112</dim>
				</port>
			</output>
		</layer>
		<layer id="554" name="Conv_13/WithoutBiases/add_" type="Add" version="opset1">
			<data auto_broadcast="numpy"/>
			<input>
				<port id="0">
					<dim>1</dim>
					<dim>16</dim>
					<dim>112</dim>
					<dim>112</dim>
				</port>
				<port id="1">
					<dim>1</dim>
					<dim>16</dim>
					<dim>1</dim>
					<dim>1</dim>
				</port>
			</input>
			<output>
				<port id="2" precision="FP32">
					<dim>1</dim>
					<dim>16</dim>
					<dim>112</dim>
					<dim>112</dim>
				</port>
			</output>
		</layer>
		<layer id="555" name="Conv_14/WithoutBiases/fq_input_0" type="FakeQuantize" version="opset1">
			<data levels="0" auto_broadcast="numpy"/>
			<input>
				<port id="0">
					<dim>1</dim>
					<dim>16</dim>
					<dim>112</dim>
					<dim>112</dim>
				</port>
				<port id="1"/>
				<port id="2"/>
				<port id="3"/>
				<port id="4"/>
			</input>
			<output>
				<port id="5" precision="FP32">
					<dim>1</dim>
					<dim>16</dim>
					<dim>112</dim>
					<dim>112</dim>
				</port>
			</output>
		</layer>
		<layer id="556" name="2947295110735" type="Const" version="opset1">
			<data offset="5120" size="4" shape="" element_type="f32"/>
			<output>
				<port id="0" precision="FP32"/>
			</output>
		</layer>
		<layer id="557" name="2948295210132" type="Const" version="opset1">
			<data offset="5120" size="4" shape="" element_type="f32"/>
			<output>
				<port id="0" precision="FP32"/>
			</output>
		</layer>
		<layer id="558" name="2949295311197" type="Const" version="opset1">
			<data offset="5120" size="4" shape="" element_type="f32"/>
			<output>
				<port id="0" precision="FP32"/>
			</output>
		</layer>
		<layer id="559" name="2950295410663" type="Const" version="opset1">
			<data offset="5120" size="4" shape="" element_type="f32"/>
			<output>
				<port id="0" precision="FP32"/>
			</output>
		</layer>
		<layer id="560" name="65430510618" type="Const" version="opset1">
			<data offset="3644524" size="6144" shape="96,16,1,1" element_type="f32"/>
			<output>
				<port id="0" precision="FP32" names="654">
					<dim>96</dim>
					<dim>16</dim>
					<dim>1</dim>
					<dim>1</dim>
				</port>
			</output>
		</layer>
		<layer id="561" name="Conv_14/WithoutBiases/fq_weights_1" type="FakeQuantize" version="opset1">
			<data levels="0" auto_broadcast="numpy"/>
			<input>
				<port id="0">
					<dim>96</dim>
					<dim>16</dim>
					<dim>1</dim>
					<dim>1</dim>
				</port>
				<port id="1"/>
				<port id="2"/>
				<port id="3"/>
				<port id="4"/>
			</input>
			<output>
				<port id="5" precision="FP32">
					<dim>96</dim>
					<dim>16</dim>
					<dim>1</dim>
					<dim>1</dim>
				</port>
			</output>
		</layer>
		<layer id="562" name="Conv_14/WithoutBiases" type="Convolution" version="opset1">
			<data auto_pad="explicit" strides="1,1" dilations="1,1" pads_begin="0,0" pads_end="0,0"/>
			<input>
				<port id="0">
					<dim>1</dim>
					<dim>16</dim>
					<dim>112</dim>
					<dim>112</dim>
				</port>
				<port id="1">
					<dim>96</dim>
					<dim>16</dim>
					<dim>1</dim>
					<dim>1</dim>
				</port>
			</input>
			<output>
				<port id="2" precision="FP32" names="653">
					<dim>1</dim>
					<dim>96</dim>
					<dim>112</dim>
					<dim>112</dim>
				</port>
			</output>
		</layer>
		<layer id="563" name="Conv_14/WithoutBiases/add_" type="Add" version="opset1">
			<data auto_broadcast="numpy"/>
			<input>
				<port id="0">
					<dim>1</dim>
					<dim>96</dim>
					<dim>112</dim>
					<dim>112</dim>
				</port>
				<port id="1">
					<dim>1</dim>
					<dim>96</dim>
					<dim>1</dim>
					<dim>1</dim>
				</port>
			</input>
			<output>
				<port id="2" precision="FP32">
					<dim>1</dim>
					<dim>96</dim>
					<dim>112</dim>
					<dim>112</dim>
				</port>
			</output>
		</layer>
		<layer id="564" name="Mul_16" type="Swish" version="opset4">
			<input>
				<port id="0">
					<dim>1</dim>
					<dim>96</dim>
					<dim>112</dim>
					<dim>112</dim>
				</port>
			</input>
			<output>
				<port id="1" precision="FP32" names="379">
					<dim>1</dim>
					<dim>96</dim>
					<dim>112</dim>
					<dim>112</dim>
				</port>
			</output>
		</layer>
		<layer id="565" name="Conv_17/WithoutBiases/fq_input_0" type="FakeQuantize" version="opset1">
			<data levels="0" auto_broadcast="numpy"/>
			<input>
				<port id="0">
					<dim>1</dim>
					<dim>96</dim>
					<dim>112</dim>
					<dim>112</dim>
				</port>
				<port id="1"/>
				<port id="2"/>
				<port id="3"/>
				<port id="4"/>
			</input>
			<output>
				<port id="5" precision="FP32">
					<dim>1</dim>
					<dim>96</dim>
					<dim>112</dim>
					<dim>112</dim>
				</port>
			</output>
		</layer>
		<layer id="566" name="Conv_17/WithoutBiases/weights_shape771610729" type="Const" version="opset1">
			<data offset="3650668" size="40" shape="5" element_type="i64"/>
			<output>
				<port id="0" precision="I64">
					<dim>5</dim>
				</port>
			</output>
		</layer>
		<layer id="567" name="226722719664" type="Const" version="opset1">
			<data offset="5120" size="4" shape="" element_type="f32"/>
			<output>
				<port id="0" precision="FP32"/>
			</output>
		</layer>
		<layer id="568" name="2268227210303" type="Const" version="opset1">
			<data offset="5120" size="4" shape="" element_type="f32"/>
			<output>
				<port id="0" precision="FP32"/>
			</output>
		</layer>
		<layer id="569" name="226922739835" type="Const" version="opset1">
			<data offset="5120" size="4" shape="" element_type="f32"/>
			<output>
				<port id="0" precision="FP32"/>
			</output>
		</layer>
		<layer id="570" name="2270227410057" type="Const" version="opset1">
			<data offset="5120" size="4" shape="" element_type="f32"/>
			<output>
				<port id="0" precision="FP32"/>
			</output>
		</layer>
		<layer id="571" name="Reshape_57230811416" type="Const" version="opset1">
			<data offset="3650708" size="3456" shape="96,1,3,3" element_type="f32"/>
			<output>
				<port id="0" precision="FP32">
					<dim>96</dim>
					<dim>1</dim>
					<dim>3</dim>
					<dim>3</dim>
				</port>
			</output>
		</layer>
		<layer id="572" name="Conv_17/WithoutBiases/fq_weights_1" type="FakeQuantize" version="opset1">
			<data levels="0" auto_broadcast="numpy"/>
			<input>
				<port id="0">
					<dim>96</dim>
					<dim>1</dim>
					<dim>3</dim>
					<dim>3</dim>
				</port>
				<port id="1"/>
				<port id="2"/>
				<port id="3"/>
				<port id="4"/>
			</input>
			<output>
				<port id="5" precision="FP32">
					<dim>96</dim>
					<dim>1</dim>
					<dim>3</dim>
					<dim>3</dim>
				</port>
			</output>
		</layer>
		<layer id="573" name="7715" type="Reshape" version="opset1">
			<data special_zero="true"/>
			<input>
				<port id="0">
					<dim>96</dim>
					<dim>1</dim>
					<dim>3</dim>
					<dim>3</dim>
				</port>
				<port id="1">
					<dim>5</dim>
				</port>
			</input>
			<output>
				<port id="2" precision="FP32">
					<dim>96</dim>
					<dim>1</dim>
					<dim>1</dim>
					<dim>3</dim>
					<dim>3</dim>
				</port>
			</output>
		</layer>
		<layer id="574" name="Conv_17/WithoutBiases" type="GroupConvolution" version="opset1">
			<data auto_pad="explicit" strides="2,2" dilations="1,1" pads_begin="1,1" pads_end="1,1"/>
			<input>
				<port id="0">
					<dim>1</dim>
					<dim>96</dim>
					<dim>112</dim>
					<dim>112</dim>
				</port>
				<port id="1">
					<dim>96</dim>
					<dim>1</dim>
					<dim>1</dim>
					<dim>3</dim>
					<dim>3</dim>
				</port>
			</input>
			<output>
				<port id="2" precision="FP32" names="656">
					<dim>1</dim>
					<dim>96</dim>
					<dim>56</dim>
					<dim>56</dim>
				</port>
			</output>
		</layer>
		<layer id="575" name="Conv_17/WithoutBiases/add_" type="Add" version="opset1">
			<data auto_broadcast="numpy"/>
			<input>
				<port id="0">
					<dim>1</dim>
					<dim>96</dim>
					<dim>56</dim>
					<dim>56</dim>
				</port>
				<port id="1">
					<dim>1</dim>
					<dim>96</dim>
					<dim>1</dim>
					<dim>1</dim>
				</port>
			</input>
			<output>
				<port id="2" precision="FP32">
					<dim>1</dim>
					<dim>96</dim>
					<dim>56</dim>
					<dim>56</dim>
				</port>
			</output>
		</layer>
		<layer id="576" name="Mul_19" type="Swish" version="opset4">
			<input>
				<port id="0">
					<dim>1</dim>
					<dim>96</dim>
					<dim>56</dim>
					<dim>56</dim>
				</port>
			</input>
			<output>
				<port id="1" precision="FP32" names="383">
					<dim>1</dim>
					<dim>96</dim>
					<dim>56</dim>
					<dim>56</dim>
				</port>
			</output>
		</layer>
		<layer id="577" name="GlobalAveragePool_20/fq_input_0" type="FakeQuantize" version="opset1">
			<data levels="0" auto_broadcast="numpy"/>
			<input>
				<port id="0">
					<dim>1</dim>
					<dim>96</dim>
					<dim>56</dim>
					<dim>56</dim>
				</port>
				<port id="1"/>
				<port id="2"/>
				<port id="3"/>
				<port id="4"/>
			</input>
			<output>
				<port id="5" precision="FP32">
					<dim>1</dim>
					<dim>96</dim>
					<dim>56</dim>
					<dim>56</dim>
				</port>
			</output>
		</layer>
		<layer id="578" name="GlobalAveragePool_20" type="ReduceMean" version="opset1">
			<data keep_dims="true"/>
			<input>
				<port id="0">
					<dim>1</dim>
					<dim>96</dim>
					<dim>56</dim>
					<dim>56</dim>
				</port>
				<port id="1">
					<dim>2</dim>
				</port>
			</input>
			<output>
				<port id="2" precision="FP32" names="384">
					<dim>1</dim>
					<dim>96</dim>
					<dim>1</dim>
					<dim>1</dim>
				</port>
			</output>
		</layer>
		<layer id="579" name="2.0.block.2.fc1.weight31310177" type="Const" version="opset1">
			<data offset="3654164" size="1536" shape="4,96,1,1" element_type="f32"/>
			<output>
				<port id="0" precision="FP32" names="2.0.block.2.fc1.weight">
					<dim>4</dim>
					<dim>96</dim>
					<dim>1</dim>
					<dim>1</dim>
				</port>
			</output>
		</layer>
		<layer id="580" name="Conv_21/WithoutBiases" type="Convolution" version="opset1">
			<data auto_pad="explicit" strides="1,1" dilations="1,1" pads_begin="0,0" pads_end="0,0"/>
			<input>
				<port id="0">
					<dim>1</dim>
					<dim>96</dim>
					<dim>1</dim>
					<dim>1</dim>
				</port>
				<port id="1">
					<dim>4</dim>
					<dim>96</dim>
					<dim>1</dim>
					<dim>1</dim>
				</port>
			</input>
			<output>
				<port id="2" precision="FP32" names="385">
					<dim>1</dim>
					<dim>4</dim>
					<dim>1</dim>
					<dim>1</dim>
				</port>
			</output>
		</layer>
		<layer id="581" name="Conv_21/WithoutBiases/add_" type="Add" version="opset1">
			<data auto_broadcast="numpy"/>
			<input>
				<port id="0">
					<dim>1</dim>
					<dim>4</dim>
					<dim>1</dim>
					<dim>1</dim>
				</port>
				<port id="1">
					<dim>1</dim>
					<dim>4</dim>
					<dim>1</dim>
					<dim>1</dim>
				</port>
			</input>
			<output>
				<port id="2" precision="FP32">
					<dim>1</dim>
					<dim>4</dim>
					<dim>1</dim>
					<dim>1</dim>
				</port>
			</output>
		</layer>
		<layer id="582" name="Mul_23" type="Swish" version="opset4">
			<input>
				<port id="0">
					<dim>1</dim>
					<dim>4</dim>
					<dim>1</dim>
					<dim>1</dim>
				</port>
			</input>
			<output>
				<port id="1" precision="FP32" names="387">
					<dim>1</dim>
					<dim>4</dim>
					<dim>1</dim>
					<dim>1</dim>
				</port>
			</output>
		</layer>
		<layer id="583" name="2.0.block.2.fc2.weight31611401" type="Const" version="opset1">
			<data offset="3655700" size="1536" shape="96,4,1,1" element_type="f32"/>
			<output>
				<port id="0" precision="FP32" names="2.0.block.2.fc2.weight">
					<dim>96</dim>
					<dim>4</dim>
					<dim>1</dim>
					<dim>1</dim>
				</port>
			</output>
		</layer>
		<layer id="584" name="Conv_24/WithoutBiases" type="Convolution" version="opset1">
			<data auto_pad="explicit" strides="1,1" dilations="1,1" pads_begin="0,0" pads_end="0,0"/>
			<input>
				<port id="0">
					<dim>1</dim>
					<dim>4</dim>
					<dim>1</dim>
					<dim>1</dim>
				</port>
				<port id="1">
					<dim>96</dim>
					<dim>4</dim>
					<dim>1</dim>
					<dim>1</dim>
				</port>
			</input>
			<output>
				<port id="2" precision="FP32" names="388">
					<dim>1</dim>
					<dim>96</dim>
					<dim>1</dim>
					<dim>1</dim>
				</port>
			</output>
		</layer>
		<layer id="585" name="Conv_24/WithoutBiases/add_" type="Add" version="opset1">
			<data auto_broadcast="numpy"/>
			<input>
				<port id="0">
					<dim>1</dim>
					<dim>96</dim>
					<dim>1</dim>
					<dim>1</dim>
				</port>
				<port id="1">
					<dim>1</dim>
					<dim>96</dim>
					<dim>1</dim>
					<dim>1</dim>
				</port>
			</input>
			<output>
				<port id="2" precision="FP32">
					<dim>1</dim>
					<dim>96</dim>
					<dim>1</dim>
					<dim>1</dim>
				</port>
			</output>
		</layer>
		<layer id="586" name="Sigmoid_25" type="Sigmoid" version="opset1">
			<input>
				<port id="0">
					<dim>1</dim>
					<dim>96</dim>
					<dim>1</dim>
					<dim>1</dim>
				</port>
			</input>
			<output>
				<port id="1" precision="FP32" names="389">
					<dim>1</dim>
					<dim>96</dim>
					<dim>1</dim>
					<dim>1</dim>
				</port>
			</output>
		</layer>
		<layer id="587" name="Mul_26/fq_input_0" type="FakeQuantize" version="opset1">
			<data levels="0" auto_broadcast="numpy"/>
			<input>
				<port id="0">
					<dim>1</dim>
					<dim>96</dim>
					<dim>1</dim>
					<dim>1</dim>
				</port>
				<port id="1"/>
				<port id="2"/>
				<port id="3"/>
				<port id="4"/>
			</input>
			<output>
				<port id="5" precision="FP32">
					<dim>1</dim>
					<dim>96</dim>
					<dim>1</dim>
					<dim>1</dim>
				</port>
			</output>
		</layer>
		<layer id="588" name="Mul_26" type="Multiply" version="opset1">
			<data auto_broadcast="numpy"/>
			<input>
				<port id="0">
					<dim>1</dim>
					<dim>96</dim>
					<dim>1</dim>
					<dim>1</dim>
				</port>
				<port id="1">
					<dim>1</dim>
					<dim>96</dim>
					<dim>56</dim>
					<dim>56</dim>
				</port>
			</input>
			<output>
				<port id="2" precision="FP32" names="390">
					<dim>1</dim>
					<dim>96</dim>
					<dim>56</dim>
					<dim>56</dim>
				</port>
			</output>
		</layer>
		<layer id="589" name="Conv_27/WithoutBiases/fq_input_0" type="FakeQuantize" version="opset1">
			<data levels="0" auto_broadcast="numpy"/>
			<input>
				<port id="0">
					<dim>1</dim>
					<dim>96</dim>
					<dim>56</dim>
					<dim>56</dim>
				</port>
				<port id="1"/>
				<port id="2"/>
				<port id="3"/>
				<port id="4"/>
			</input>
			<output>
				<port id="5" precision="FP32">
					<dim>1</dim>
					<dim>96</dim>
					<dim>56</dim>
					<dim>56</dim>
				</port>
			</output>
		</layer>
		<layer id="590" name="2657266110726" type="Const" version="opset1">
			<data offset="5120" size="4" shape="" element_type="f32"/>
			<output>
				<port id="0" precision="FP32"/>
			</output>
		</layer>
		<layer id="591" name="2658266211611" type="Const" version="opset1">
			<data offset="5120" size="4" shape="" element_type="f32"/>
			<output>
				<port id="0" precision="FP32"/>
			</output>
		</layer>
		<layer id="592" name="2659266311365" type="Const" version="opset1">
			<data offset="5120" size="4" shape="" element_type="f32"/>
			<output>
				<port id="0" precision="FP32"/>
			</output>
		</layer>
		<layer id="593" name="266026649661" type="Const" version="opset1">
			<data offset="5120" size="4" shape="" element_type="f32"/>
			<output>
				<port id="0" precision="FP32"/>
			</output>
		</layer>
		<layer id="594" name="66032010006" type="Const" version="opset1">
			<data offset="3657236" size="9216" shape="24,96,1,1" element_type="f32"/>
			<output>
				<port id="0" precision="FP32" names="660">
					<dim>24</dim>
					<dim>96</dim>
					<dim>1</dim>
					<dim>1</dim>
				</port>
			</output>
		</layer>
		<layer id="595" name="Conv_27/WithoutBiases/fq_weights_1" type="FakeQuantize" version="opset1">
			<data levels="0" auto_broadcast="numpy"/>
			<input>
				<port id="0">
					<dim>24</dim>
					<dim>96</dim>
					<dim>1</dim>
					<dim>1</dim>
				</port>
				<port id="1"/>
				<port id="2"/>
				<port id="3"/>
				<port id="4"/>
			</input>
			<output>
				<port id="5" precision="FP32">
					<dim>24</dim>
					<dim>96</dim>
					<dim>1</dim>
					<dim>1</dim>
				</port>
			</output>
		</layer>
		<layer id="596" name="Conv_27/WithoutBiases" type="Convolution" version="opset1">
			<data auto_pad="explicit" strides="1,1" dilations="1,1" pads_begin="0,0" pads_end="0,0"/>
			<input>
				<port id="0">
					<dim>1</dim>
					<dim>96</dim>
					<dim>56</dim>
					<dim>56</dim>
				</port>
				<port id="1">
					<dim>24</dim>
					<dim>96</dim>
					<dim>1</dim>
					<dim>1</dim>
				</port>
			</input>
			<output>
				<port id="2" precision="FP32" names="659">
					<dim>1</dim>
					<dim>24</dim>
					<dim>56</dim>
					<dim>56</dim>
				</port>
			</output>
		</layer>
		<layer id="597" name="Conv_27/WithoutBiases/add_" type="Add" version="opset1">
			<data auto_broadcast="numpy"/>
			<input>
				<port id="0">
					<dim>1</dim>
					<dim>24</dim>
					<dim>56</dim>
					<dim>56</dim>
				</port>
				<port id="1">
					<dim>1</dim>
					<dim>24</dim>
					<dim>1</dim>
					<dim>1</dim>
				</port>
			</input>
			<output>
				<port id="2" precision="FP32">
					<dim>1</dim>
					<dim>24</dim>
					<dim>56</dim>
					<dim>56</dim>
				</port>
			</output>
		</layer>
		<layer id="598" name="Add_42/fq_input_1" type="FakeQuantize" version="opset1">
			<data levels="0" auto_broadcast="numpy"/>
			<input>
				<port id="0">
					<dim>1</dim>
…
		<edge from-layer="324" from-port="0" to-layer="764" to-port="1"/>
		<edge from-layer="764" from-port="2" to-layer="765" to-port="0"/>
		<edge from-layer="765" from-port="1" to-layer="766" to-port="0"/>
		<edge from-layer="320" from-port="0" to-layer="766" to-port="1"/>
		<edge from-layer="321" from-port="0" to-layer="766" to-port="2"/>
		<edge from-layer="322" from-port="0" to-layer="766" to-port="3"/>
		<edge from-layer="323" from-port="0" to-layer="766" to-port="4"/>
		<edge from-layer="772" from-port="0" to-layer="773" to-port="0"/>
		<edge from-layer="768" from-port="0" to-layer="773" to-port="1"/>
		<edge from-layer="769" from-port="0" to-layer="773" to-port="2"/>
		<edge from-layer="770" from-port="0" to-layer="773" to-port="3"/>
		<edge from-layer="771" from-port="0" to-layer="773" to-port="4"/>
		<edge from-layer="773" from-port="5" to-layer="774" to-port="0"/>
		<edge from-layer="767" from-port="0" to-layer="774" to-port="1"/>
		<edge from-layer="766" from-port="5" to-layer="775" to-port="0"/>
		<edge from-layer="774" from-port="2" to-layer="775" to-port="1"/>
		<edge from-layer="775" from-port="2" to-layer="776" to-port="0"/>
		<edge from-layer="319" from-port="0" to-layer="776" to-port="1"/>
		<edge from-layer="776" from-port="2" to-layer="777" to-port="0"/>
		<edge from-layer="777" from-port="1" to-layer="778" to-port="0"/>
		<edge from-layer="315" from-port="0" to-layer="778" to-port="1"/>
		<edge from-layer="316" from-port="0" to-layer="778" to-port="2"/>
		<edge from-layer="317" from-port="0" to-layer="778" to-port="3"/>
		<edge from-layer="318" from-port="0" to-layer="778" to-port="4"/>
		<edge from-layer="778" from-port="5" to-layer="779" to-port="0"/>
		<edge from-layer="314" from-port="0" to-layer="779" to-port="1"/>
		<edge from-layer="779" from-port="2" to-layer="781" to-port="0"/>
		<edge from-layer="780" from-port="0" to-layer="781" to-port="1"/>
		<edge from-layer="781" from-port="2" to-layer="782" to-port="0"/>
		<edge from-layer="313" from-port="0" to-layer="782" to-port="1"/>
		<edge from-layer="782" from-port="2" to-layer="783" to-port="0"/>
		<edge from-layer="783" from-port="1" to-layer="785" to-port="0"/>
		<edge from-layer="784" from-port="0" to-layer="785" to-port="1"/>
		<edge from-layer="785" from-port="2" to-layer="786" to-port="0"/>
		<edge from-layer="312" from-port="0" to-layer="786" to-port="1"/>
		<edge from-layer="786" from-port="2" to-layer="787" to-port="0"/>
		<edge from-layer="787" from-port="1" to-layer="788" to-port="0"/>
		<edge from-layer="308" from-port="0" to-layer="788" to-port="1"/>
		<edge from-layer="309" from-port="0" to-layer="788" to-port="2"/>
		<edge from-layer="310" from-port="0" to-layer="788" to-port="3"/>
		<edge from-layer="311" from-port="0" to-layer="788" to-port="4"/>
		<edge from-layer="788" from-port="5" to-layer="789" to-port="0"/>
		<edge from-layer="778" from-port="5" to-layer="789" to-port="1"/>
		<edge from-layer="789" from-port="2" to-layer="790" to-port="0"/>
		<edge from-layer="304" from-port="0" to-layer="790" to-port="1"/>
		<edge from-layer="305" from-port="0" to-layer="790" to-port="2"/>
		<edge from-layer="306" from-port="0" to-layer="790" to-port="3"/>
		<edge from-layer="307" from-port="0" to-layer="790" to-port="4"/>
		<edge from-layer="795" from-port="0" to-layer="796" to-port="0"/>
		<edge from-layer="791" from-port="0" to-layer="796" to-port="1"/>
		<edge from-layer="792" from-port="0" to-layer="796" to-port="2"/>
		<edge from-layer="793" from-port="0" to-layer="796" to-port="3"/>
		<edge from-layer="794" from-port="0" to-layer="796" to-port="4"/>
		<edge from-layer="790" from-port="5" to-layer="797" to-port="0"/>
		<edge from-layer="796" from-port="5" to-layer="797" to-port="1"/>
		<edge from-layer="797" from-port="2" to-layer="798" to-port="0"/>
		<edge from-layer="303" from-port="0" to-layer="798" to-port="1"/>
		<edge from-layer="798" from-port="2" to-layer="799" to-port="0"/>
		<edge from-layer="299" from-port="0" to-layer="799" to-port="1"/>
		<edge from-layer="300" from-port="0" to-layer="799" to-port="2"/>
		<edge from-layer="301" from-port="0" to-layer="799" to-port="3"/>
		<edge from-layer="302" from-port="0" to-layer="799" to-port="4"/>
		<edge from-layer="799" from-port="5" to-layer="800" to-port="0"/>
		<edge from-layer="762" from-port="5" to-layer="800" to-port="1"/>
		<edge from-layer="800" from-port="2" to-layer="801" to-port="0"/>
		<edge from-layer="295" from-port="0" to-layer="801" to-port="1"/>
		<edge from-layer="296" from-port="0" to-layer="801" to-port="2"/>
		<edge from-layer="297" from-port="0" to-layer="801" to-port="3"/>
		<edge from-layer="298" from-port="0" to-layer="801" to-port="4"/>
		<edge from-layer="801" from-port="5" to-layer="802" to-port="0"/>
		<edge from-layer="294" from-port="5" to-layer="802" to-port="1"/>
		<edge from-layer="802" from-port="2" to-layer="803" to-port="0"/>
		<edge from-layer="288" from-port="0" to-layer="803" to-port="1"/>
		<edge from-layer="803" from-port="2" to-layer="804" to-port="0"/>
		<edge from-layer="804" from-port="1" to-layer="805" to-port="0"/>
		<edge from-layer="284" from-port="0" to-layer="805" to-port="1"/>
		<edge from-layer="285" from-port="0" to-layer="805" to-port="2"/>
		<edge from-layer="286" from-port="0" to-layer="805" to-port="3"/>
		<edge from-layer="287" from-port="0" to-layer="805" to-port="4"/>
		<edge from-layer="811" from-port="0" to-layer="812" to-port="0"/>
		<edge from-layer="807" from-port="0" to-layer="812" to-port="1"/>
		<edge from-layer="808" from-port="0" to-layer="812" to-port="2"/>
		<edge from-layer="809" from-port="0" to-layer="812" to-port="3"/>
		<edge from-layer="810" from-port="0" to-layer="812" to-port="4"/>
		<edge from-layer="812" from-port="5" to-layer="813" to-port="0"/>
		<edge from-layer="806" from-port="0" to-layer="813" to-port="1"/>
		<edge from-layer="805" from-port="5" to-layer="814" to-port="0"/>
		<edge from-layer="813" from-port="2" to-layer="814" to-port="1"/>
		<edge from-layer="814" from-port="2" to-layer="815" to-port="0"/>
		<edge from-layer="283" from-port="0" to-layer="815" to-port="1"/>
		<edge from-layer="815" from-port="2" to-layer="816" to-port="0"/>
		<edge from-layer="816" from-port="1" to-layer="817" to-port="0"/>
		<edge from-layer="279" from-port="0" to-layer="817" to-port="1"/>
		<edge from-layer="280" from-port="0" to-layer="817" to-port="2"/>
		<edge from-layer="281" from-port="0" to-layer="817" to-port="3"/>
		<edge from-layer="282" from-port="0" to-layer="817" to-port="4"/>
		<edge from-layer="817" from-port="5" to-layer="818" to-port="0"/>
		<edge from-layer="278" from-port="0" to-layer="818" to-port="1"/>
		<edge from-layer="818" from-port="2" to-layer="820" to-port="0"/>
		<edge from-layer="819" from-port="0" to-layer="820" to-port="1"/>
		<edge from-layer="820" from-port="2" to-layer="821" to-port="0"/>
		<edge from-layer="277" from-port="0" to-layer="821" to-port="1"/>
		<edge from-layer="821" from-port="2" to-layer="822" to-port="0"/>
		<edge from-layer="822" from-port="1" to-layer="824" to-port="0"/>
		<edge from-layer="823" from-port="0" to-layer="824" to-port="1"/>
		<edge from-layer="824" from-port="2" to-layer="825" to-port="0"/>
		<edge from-layer="276" from-port="0" to-layer="825" to-port="1"/>
		<edge from-layer="825" from-port="2" to-layer="826" to-port="0"/>
		<edge from-layer="826" from-port="1" to-layer="827" to-port="0"/>
		<edge from-layer="272" from-port="0" to-layer="827" to-port="1"/>
		<edge from-layer="273" from-port="0" to-layer="827" to-port="2"/>
		<edge from-layer="274" from-port="0" to-layer="827" to-port="3"/>
		<edge from-layer="275" from-port="0" to-layer="827" to-port="4"/>
		<edge from-layer="827" from-port="5" to-layer="828" to-port="0"/>
		<edge from-layer="817" from-port="5" to-layer="828" to-port="1"/>
		<edge from-layer="828" from-port="2" to-layer="829" to-port="0"/>
		<edge from-layer="268" from-port="0" to-layer="829" to-port="1"/>
		<edge from-layer="269" from-port="0" to-layer="829" to-port="2"/>
		<edge from-layer="270" from-port="0" to-layer="829" to-port="3"/>
		<edge from-layer="271" from-port="0" to-layer="829" to-port="4"/>
		<edge from-layer="834" from-port="0" to-layer="835" to-port="0"/>
		<edge from-layer="830" from-port="0" to-layer="835" to-port="1"/>
		<edge from-layer="831" from-port="0" to-layer="835" to-port="2"/>
		<edge from-layer="832" from-port="0" to-layer="835" to-port="3"/>
		<edge from-layer="833" from-port="0" to-layer="835" to-port="4"/>
		<edge from-layer="829" from-port="5" to-layer="836" to-port="0"/>
		<edge from-layer="835" from-port="5" to-layer="836" to-port="1"/>
		<edge from-layer="836" from-port="2" to-layer="837" to-port="0"/>
		<edge from-layer="267" from-port="0" to-layer="837" to-port="1"/>
		<edge from-layer="837" from-port="2" to-layer="838" to-port="0"/>
		<edge from-layer="263" from-port="0" to-layer="838" to-port="1"/>
		<edge from-layer="264" from-port="0" to-layer="838" to-port="2"/>
		<edge from-layer="265" from-port="0" to-layer="838" to-port="3"/>
		<edge from-layer="266" from-port="0" to-layer="838" to-port="4"/>
		<edge from-layer="838" from-port="5" to-layer="839" to-port="0"/>
		<edge from-layer="801" from-port="5" to-layer="839" to-port="1"/>
		<edge from-layer="839" from-port="2" to-layer="840" to-port="0"/>
		<edge from-layer="259" from-port="0" to-layer="840" to-port="1"/>
		<edge from-layer="260" from-port="0" to-layer="840" to-port="2"/>
		<edge from-layer="261" from-port="0" to-layer="840" to-port="3"/>
		<edge from-layer="262" from-port="0" to-layer="840" to-port="4"/>
		<edge from-layer="845" from-port="0" to-layer="846" to-port="0"/>
		<edge from-layer="841" from-port="0" to-layer="846" to-port="1"/>
		<edge from-layer="842" from-port="0" to-layer="846" to-port="2"/>
		<edge from-layer="843" from-port="0" to-layer="846" to-port="3"/>
		<edge from-layer="844" from-port="0" to-layer="846" to-port="4"/>
		<edge from-layer="840" from-port="5" to-layer="847" to-port="0"/>
		<edge from-layer="846" from-port="5" to-layer="847" to-port="1"/>
		<edge from-layer="847" from-port="2" to-layer="848" to-port="0"/>
		<edge from-layer="258" from-port="0" to-layer="848" to-port="1"/>
		<edge from-layer="848" from-port="2" to-layer="849" to-port="0"/>
		<edge from-layer="849" from-port="1" to-layer="850" to-port="0"/>
		<edge from-layer="254" from-port="0" to-layer="850" to-port="1"/>
		<edge from-layer="255" from-port="0" to-layer="850" to-port="2"/>
		<edge from-layer="256" from-port="0" to-layer="850" to-port="3"/>
		<edge from-layer="257" from-port="0" to-layer="850" to-port="4"/>
		<edge from-layer="856" from-port="0" to-layer="857" to-port="0"/>
		<edge from-layer="852" from-port="0" to-layer="857" to-port="1"/>
		<edge from-layer="853" from-port="0" to-layer="857" to-port="2"/>
		<edge from-layer="854" from-port="0" to-layer="857" to-port="3"/>
		<edge from-layer="855" from-port="0" to-layer="857" to-port="4"/>
		<edge from-layer="857" from-port="5" to-layer="858" to-port="0"/>
		<edge from-layer="851" from-port="0" to-layer="858" to-port="1"/>
		<edge from-layer="850" from-port="5" to-layer="859" to-port="0"/>
		<edge from-layer="858" from-port="2" to-layer="859" to-port="1"/>
		<edge from-layer="859" from-port="2" to-layer="860" to-port="0"/>
		<edge from-layer="253" from-port="0" to-layer="860" to-port="1"/>
		<edge from-layer="860" from-port="2" to-layer="861" to-port="0"/>
		<edge from-layer="861" from-port="1" to-layer="862" to-port="0"/>
		<edge from-layer="249" from-port="0" to-layer="862" to-port="1"/>
		<edge from-layer="250" from-port="0" to-layer="862" to-port="2"/>
		<edge from-layer="251" from-port="0" to-layer="862" to-port="3"/>
		<edge from-layer="252" from-port="0" to-layer="862" to-port="4"/>
		<edge from-layer="862" from-port="5" to-layer="863" to-port="0"/>
		<edge from-layer="248" from-port="0" to-layer="863" to-port="1"/>
		<edge from-layer="863" from-port="2" to-layer="865" to-port="0"/>
		<edge from-layer="864" from-port="0" to-layer="865" to-port="1"/>
		<edge from-layer="865" from-port="2" to-layer="866" to-port="0"/>
		<edge from-layer="247" from-port="0" to-layer="866" to-port="1"/>
		<edge from-layer="866" from-port="2" to-layer="867" to-port="0"/>
		<edge from-layer="867" from-port="1" to-layer="869" to-port="0"/>
		<edge from-layer="868" from-port="0" to-layer="869" to-port="1"/>
		<edge from-layer="869" from-port="2" to-layer="870" to-port="0"/>
		<edge from-layer="246" from-port="0" to-layer="870" to-port="1"/>
		<edge from-layer="870" from-port="2" to-layer="871" to-port="0"/>
		<edge from-layer="871" from-port="1" to-layer="872" to-port="0"/>
		<edge from-layer="242" from-port="0" to-layer="872" to-port="1"/>
		<edge from-layer="243" from-port="0" to-layer="872" to-port="2"/>
		<edge from-layer="244" from-port="0" to-layer="872" to-port="3"/>
		<edge from-layer="245" from-port="0" to-layer="872" to-port="4"/>
		<edge from-layer="872" from-port="5" to-layer="873" to-port="0"/>
		<edge from-layer="862" from-port="5" to-layer="873" to-port="1"/>
		<edge from-layer="873" from-port="2" to-layer="874" to-port="0"/>
		<edge from-layer="238" from-port="0" to-layer="874" to-port="1"/>
		<edge from-layer="239" from-port="0" to-layer="874" to-port="2"/>
		<edge from-layer="240" from-port="0" to-layer="874" to-port="3"/>
		<edge from-layer="241" from-port="0" to-layer="874" to-port="4"/>
		<edge from-layer="879" from-port="0" to-layer="880" to-port="0"/>
		<edge from-layer="875" from-port="0" to-layer="880" to-port="1"/>
		<edge from-layer="876" from-port="0" to-layer="880" to-port="2"/>
		<edge from-layer="877" from-port="0" to-layer="880" to-port="3"/>
		<edge from-layer="878" from-port="0" to-layer="880" to-port="4"/>
		<edge from-layer="874" from-port="5" to-layer="881" to-port="0"/>
		<edge from-layer="880" from-port="5" to-layer="881" to-port="1"/>
		<edge from-layer="881" from-port="2" to-layer="882" to-port="0"/>
		<edge from-layer="237" from-port="0" to-layer="882" to-port="1"/>
		<edge from-layer="882" from-port="2" to-layer="883" to-port="0"/>
		<edge from-layer="233" from-port="0" to-layer="883" to-port="1"/>
		<edge from-layer="234" from-port="0" to-layer="883" to-port="2"/>
		<edge from-layer="235" from-port="0" to-layer="883" to-port="3"/>
		<edge from-layer="236" from-port="0" to-layer="883" to-port="4"/>
		<edge from-layer="883" from-port="5" to-layer="884" to-port="0"/>
		<edge from-layer="232" from-port="5" to-layer="884" to-port="1"/>
		<edge from-layer="884" from-port="2" to-layer="885" to-port="0"/>
		<edge from-layer="226" from-port="0" to-layer="885" to-port="1"/>
		<edge from-layer="885" from-port="2" to-layer="886" to-port="0"/>
		<edge from-layer="886" from-port="1" to-layer="887" to-port="0"/>
		<edge from-layer="222" from-port="0" to-layer="887" to-port="1"/>
		<edge from-layer="223" from-port="0" to-layer="887" to-port="2"/>
		<edge from-layer="224" from-port="0" to-layer="887" to-port="3"/>
		<edge from-layer="225" from-port="0" to-layer="887" to-port="4"/>
		<edge from-layer="893" from-port="0" to-layer="894" to-port="0"/>
		<edge from-layer="889" from-port="0" to-layer="894" to-port="1"/>
		<edge from-layer="890" from-port="0" to-layer="894" to-port="2"/>
		<edge from-layer="891" from-port="0" to-layer="894" to-port="3"/>
		<edge from-layer="892" from-port="0" to-layer="894" to-port="4"/>
		<edge from-layer="894" from-port="5" to-layer="895" to-port="0"/>
		<edge from-layer="888" from-port="0" to-layer="895" to-port="1"/>
		<edge from-layer="887" from-port="5" to-layer="896" to-port="0"/>
		<edge from-layer="895" from-port="2" to-layer="896" to-port="1"/>
		<edge from-layer="896" from-port="2" to-layer="897" to-port="0"/>
		<edge from-layer="221" from-port="0" to-layer="897" to-port="1"/>
		<edge from-layer="897" from-port="2" to-layer="898" to-port="0"/>
		<edge from-layer="898" from-port="1" to-layer="899" to-port="0"/>
		<edge from-layer="217" from-port="0" to-layer="899" to-port="1"/>
		<edge from-layer="218" from-port="0" to-layer="899" to-port="2"/>
		<edge from-layer="219" from-port="0" to-layer="899" to-port="3"/>
		<edge from-layer="220" from-port="0" to-layer="899" to-port="4"/>
		<edge from-layer="899" from-port="5" to-layer="900" to-port="0"/>
		<edge from-layer="216" from-port="0" to-layer="900" to-port="1"/>
		<edge from-layer="900" from-port="2" to-layer="902" to-port="0"/>
		<edge from-layer="901" from-port="0" to-layer="902" to-port="1"/>
		<edge from-layer="902" from-port="2" to-layer="903" to-port="0"/>
		<edge from-layer="215" from-port="0" to-layer="903" to-port="1"/>
		<edge from-layer="903" from-port="2" to-layer="904" to-port="0"/>
		<edge from-layer="904" from-port="1" to-layer="906" to-port="0"/>
		<edge from-layer="905" from-port="0" to-layer="906" to-port="1"/>
		<edge from-layer="906" from-port="2" to-layer="907" to-port="0"/>
		<edge from-layer="214" from-port="0" to-layer="907" to-port="1"/>
		<edge from-layer="907" from-port="2" to-layer="908" to-port="0"/>
		<edge from-layer="908" from-port="1" to-layer="909" to-port="0"/>
		<edge from-layer="210" from-port="0" to-layer="909" to-port="1"/>
		<edge from-layer="211" from-port="0" to-layer="909" to-port="2"/>
		<edge from-layer="212" from-port="0" to-layer="909" to-port="3"/>
		<edge from-layer="213" from-port="0" to-layer="909" to-port="4"/>
		<edge from-layer="909" from-port="5" to-layer="910" to-port="0"/>
		<edge from-layer="899" from-port="5" to-layer="910" to-port="1"/>
		<edge from-layer="910" from-port="2" to-layer="911" to-port="0"/>
		<edge from-layer="206" from-port="0" to-layer="911" to-port="1"/>
		<edge from-layer="207" from-port="0" to-layer="911" to-port="2"/>
		<edge from-layer="208" from-port="0" to-layer="911" to-port="3"/>
		<edge from-layer="209" from-port="0" to-layer="911" to-port="4"/>
		<edge from-layer="916" from-port="0" to-layer="917" to-port="0"/>
		<edge from-layer="912" from-port="0" to-layer="917" to-port="1"/>
		<edge from-layer="913" from-port="0" to-layer="917" to-port="2"/>
		<edge from-layer="914" from-port="0" to-layer="917" to-port="3"/>
		<edge from-layer="915" from-port="0" to-layer="917" to-port="4"/>
		<edge from-layer="911" from-port="5" to-layer="918" to-port="0"/>
		<edge from-layer="917" from-port="5" to-layer="918" to-port="1"/>
		<edge from-layer="918" from-port="2" to-layer="919" to-port="0"/>
		<edge from-layer="205" from-port="0" to-layer="919" to-port="1"/>
		<edge from-layer="919" from-port="2" to-layer="920" to-port="0"/>
		<edge from-layer="201" from-port="0" to-layer="920" to-port="1"/>
		<edge from-layer="202" from-port="0" to-layer="920" to-port="2"/>
		<edge from-layer="203" from-port="0" to-layer="920" to-port="3"/>
		<edge from-layer="204" from-port="0" to-layer="920" to-port="4"/>
		<edge from-layer="920" from-port="5" to-layer="921" to-port="0"/>
		<edge from-layer="883" from-port="5" to-layer="921" to-port="1"/>
		<edge from-layer="921" from-port="2" to-layer="922" to-port="0"/>
		<edge from-layer="197" from-port="0" to-layer="922" to-port="1"/>
		<edge from-layer="198" from-port="0" to-layer="922" to-port="2"/>
		<edge from-layer="199" from-port="0" to-layer="922" to-port="3"/>
		<edge from-layer="200" from-port="0" to-layer="922" to-port="4"/>
		<edge from-layer="922" from-port="5" to-layer="923" to-port="0"/>
		<edge from-layer="196" from-port="5" to-layer="923" to-port="1"/>
		<edge from-layer="923" from-port="2" to-layer="924" to-port="0"/>
		<edge from-layer="190" from-port="0" to-layer="924" to-port="1"/>
		<edge from-layer="924" from-port="2" to-layer="925" to-port="0"/>
		<edge from-layer="925" from-port="1" to-layer="926" to-port="0"/>
		<edge from-layer="186" from-port="0" to-layer="926" to-port="1"/>
		<edge from-layer="187" from-port="0" to-layer="926" to-port="2"/>
		<edge from-layer="188" from-port="0" to-layer="926" to-port="3"/>
		<edge from-layer="189" from-port="0" to-layer="926" to-port="4"/>
		<edge from-layer="932" from-port="0" to-layer="933" to-port="0"/>
		<edge from-layer="928" from-port="0" to-layer="933" to-port="1"/>
		<edge from-layer="929" from-port="0" to-layer="933" to-port="2"/>
		<edge from-layer="930" from-port="0" to-layer="933" to-port="3"/>
		<edge from-layer="931" from-port="0" to-layer="933" to-port="4"/>
		<edge from-layer="933" from-port="5" to-layer="934" to-port="0"/>
		<edge from-layer="927" from-port="0" to-layer="934" to-port="1"/>
		<edge from-layer="926" from-port="5" to-layer="935" to-port="0"/>
		<edge from-layer="934" from-port="2" to-layer="935" to-port="1"/>
		<edge from-layer="935" from-port="2" to-layer="936" to-port="0"/>
		<edge from-layer="185" from-port="0" to-layer="936" to-port="1"/>
		<edge from-layer="936" from-port="2" to-layer="937" to-port="0"/>
		<edge from-layer="937" from-port="1" to-layer="938" to-port="0"/>
		<edge from-layer="181" from-port="0" to-layer="938" to-port="1"/>
		<edge from-layer="182" from-port="0" to-layer="938" to-port="2"/>
		<edge from-layer="183" from-port="0" to-layer="938" to-port="3"/>
		<edge from-layer="184" from-port="0" to-layer="938" to-port="4"/>
		<edge from-layer="938" from-port="5" to-layer="939" to-port="0"/>
		<edge from-layer="180" from-port="0" to-layer="939" to-port="1"/>
		<edge from-layer="939" from-port="2" to-layer="941" to-port="0"/>
		<edge from-layer="940" from-port="0" to-layer="941" to-port="1"/>
		<edge from-layer="941" from-port="2" to-layer="942" to-port="0"/>
		<edge from-layer="179" from-port="0" to-layer="942" to-port="1"/>
		<edge from-layer="942" from-port="2" to-layer="943" to-port="0"/>
		<edge from-layer="943" from-port="1" to-layer="945" to-port="0"/>
		<edge from-layer="944" from-port="0" to-layer="945" to-port="1"/>
		<edge from-layer="945" from-port="2" to-layer="946" to-port="0"/>
		<edge from-layer="178" from-port="0" to-layer="946" to-port="1"/>
		<edge from-layer="946" from-port="2" to-layer="947" to-port="0"/>
		<edge from-layer="947" from-port="1" to-layer="948" to-port="0"/>
		<edge from-layer="174" from-port="0" to-layer="948" to-port="1"/>
		<edge from-layer="175" from-port="0" to-layer="948" to-port="2"/>
		<edge from-layer="176" from-port="0" to-layer="948" to-port="3"/>
		<edge from-layer="177" from-port="0" to-layer="948" to-port="4"/>
		<edge from-layer="948" from-port="5" to-layer="949" to-port="0"/>
		<edge from-layer="938" from-port="5" to-layer="949" to-port="1"/>
		<edge from-layer="949" from-port="2" to-layer="950" to-port="0"/>
		<edge from-layer="170" from-port="0" to-layer="950" to-port="1"/>
		<edge from-layer="171" from-port="0" to-layer="950" to-port="2"/>
		<edge from-layer="172" from-port="0" to-layer="950" to-port="3"/>
		<edge from-layer="173" from-port="0" to-layer="950" to-port="4"/>
		<edge from-layer="955" from-port="0" to-layer="956" to-port="0"/>
		<edge from-layer="951" from-port="0" to-layer="956" to-port="1"/>
		<edge from-layer="952" from-port="0" to-layer="956" to-port="2"/>
		<edge from-layer="953" from-port="0" to-layer="956" to-port="3"/>
		<edge from-layer="954" from-port="0" to-layer="956" to-port="4"/>
		<edge from-layer="950" from-port="5" to-layer="957" to-port="0"/>
		<edge from-layer="956" from-port="5" to-layer="957" to-port="1"/>
		<edge from-layer="957" from-port="2" to-layer="958" to-port="0"/>
		<edge from-layer="169" from-port="0" to-layer="958" to-port="1"/>
		<edge from-layer="958" from-port="2" to-layer="959" to-port="0"/>
		<edge from-layer="165" from-port="0" to-layer="959" to-port="1"/>
		<edge from-layer="166" from-port="0" to-layer="959" to-port="2"/>
		<edge from-layer="167" from-port="0" to-layer="959" to-port="3"/>
		<edge from-layer="168" from-port="0" to-layer="959" to-port="4"/>
		<edge from-layer="959" from-port="5" to-layer="960" to-port="0"/>
		<edge from-layer="922" from-port="5" to-layer="960" to-port="1"/>
		<edge from-layer="960" from-port="2" to-layer="961" to-port="0"/>
		<edge from-layer="161" from-port="0" to-layer="961" to-port="1"/>
		<edge from-layer="162" from-port="0" to-layer="961" to-port="2"/>
		<edge from-layer="163" from-port="0" to-layer="961" to-port="3"/>
		<edge from-layer="164" from-port="0" to-layer="961" to-port="4"/>
		<edge from-layer="966" from-port="0" to-layer="967" to-port="0"/>
		<edge from-layer="962" from-port="0" to-layer="967" to-port="1"/>
		<edge from-layer="963" from-port="0" to-layer="967" to-port="2"/>
		<edge from-layer="964" from-port="0" to-layer="967" to-port="3"/>
		<edge from-layer="965" from-port="0" to-layer="967" to-port="4"/>
		<edge from-layer="961" from-port="5" to-layer="968" to-port="0"/>
		<edge from-layer="967" from-port="5" to-layer="968" to-port="1"/>
		<edge from-layer="968" from-port="2" to-layer="969" to-port="0"/>
		<edge from-layer="160" from-port="0" to-layer="969" to-port="1"/>
		<edge from-layer="969" from-port="2" to-layer="970" to-port="0"/>
		<edge from-layer="970" from-port="1" to-layer="971" to-port="0"/>
		<edge from-layer="156" from-port="0" to-layer="971" to-port="1"/>
		<edge from-layer="157" from-port="0" to-layer="971" to-port="2"/>
		<edge from-layer="158" from-port="0" to-layer="971" to-port="3"/>
		<edge from-layer="159" from-port="0" to-layer="971" to-port="4"/>
		<edge from-layer="977" from-port="0" to-layer="978" to-port="0"/>
		<edge from-layer="973" from-port="0" to-layer="978" to-port="1"/>
		<edge from-layer="974" from-port="0" to-layer="978" to-port="2"/>
		<edge from-layer="975" from-port="0" to-layer="978" to-port="3"/>
		<edge from-layer="976" from-port="0" to-layer="978" to-port="4"/>
		<edge from-layer="978" from-port="5" to-layer="979" to-port="0"/>
		<edge from-layer="972" from-port="0" to-layer="979" to-port="1"/>
		<edge from-layer="971" from-port="5" to-layer="980" to-port="0"/>
		<edge from-layer="979" from-port="2" to-layer="980" to-port="1"/>
		<edge from-layer="980" from-port="2" to-layer="981" to-port="0"/>
		<edge from-layer="155" from-port="0" to-layer="981" to-port="1"/>
		<edge from-layer="981" from-port="2" to-layer="982" to-port="0"/>
		<edge from-layer="982" from-port="1" to-layer="983" to-port="0"/>
		<edge from-layer="151" from-port="0" to-layer="983" to-port="1"/>
		<edge from-layer="152" from-port="0" to-layer="983" to-port="2"/>
		<edge from-layer="153" from-port="0" to-layer="983" to-port="3"/>
		<edge from-layer="154" from-port="0" to-layer="983" to-port="4"/>
		<edge from-layer="983" from-port="5" to-layer="984" to-port="0"/>
		<edge from-layer="150" from-port="0" to-layer="984" to-port="1"/>
		<edge from-layer="984" from-port="2" to-layer="986" to-port="0"/>
		<edge from-layer="985" from-port="0" to-layer="986" to-port="1"/>
		<edge from-layer="986" from-port="2" to-layer="987" to-port="0"/>
		<edge from-layer="149" from-port="0" to-layer="987" to-port="1"/>
		<edge from-layer="987" from-port="2" to-layer="988" to-port="0"/>
		<edge from-layer="988" from-port="1" to-layer="990" to-port="0"/>
		<edge from-layer="989" from-port="0" to-layer="990" to-port="1"/>
		<edge from-layer="990" from-port="2" to-layer="991" to-port="0"/>
		<edge from-layer="148" from-port="0" to-layer="991" to-port="1"/>
		<edge from-layer="991" from-port="2" to-layer="992" to-port="0"/>
		<edge from-layer="992" from-port="1" to-layer="993" to-port="0"/>
		<edge from-layer="144" from-port="0" to-layer="993" to-port="1"/>
		<edge from-layer="145" from-port="0" to-layer="993" to-port="2"/>
		<edge from-layer="146" from-port="0" to-layer="993" to-port="3"/>
		<edge from-layer="147" from-port="0" to-layer="993" to-port="4"/>
		<edge from-layer="993" from-port="5" to-layer="994" to-port="0"/>
		<edge from-layer="983" from-port="5" to-layer="994" to-port="1"/>
		<edge from-layer="994" from-port="2" to-layer="995" to-port="0"/>
		<edge from-layer="140" from-port="0" to-layer="995" to-port="1"/>
		<edge from-layer="141" from-port="0" to-layer="995" to-port="2"/>
		<edge from-layer="142" from-port="0" to-layer="995" to-port="3"/>
		<edge from-layer="143" from-port="0" to-layer="995" to-port="4"/>
		<edge from-layer="1000" from-port="0" to-layer="1001" to-port="0"/>
		<edge from-layer="996" from-port="0" to-layer="1001" to-port="1"/>
		<edge from-layer="997" from-port="0" to-layer="1001" to-port="2"/>
		<edge from-layer="998" from-port="0" to-layer="1001" to-port="3"/>
		<edge from-layer="999" from-port="0" to-layer="1001" to-port="4"/>
		<edge from-layer="995" from-port="5" to-layer="1002" to-port="0"/>
		<edge from-layer="1001" from-port="5" to-layer="1002" to-port="1"/>
		<edge from-layer="1002" from-port="2" to-layer="1003" to-port="0"/>
		<edge from-layer="139" from-port="0" to-layer="1003" to-port="1"/>
		<edge from-layer="1003" from-port="2" to-layer="1004" to-port="0"/>
		<edge from-layer="135" from-port="0" to-layer="1004" to-port="1"/>
		<edge from-layer="136" from-port="0" to-layer="1004" to-port="2"/>
		<edge from-layer="137" from-port="0" to-layer="1004" to-port="3"/>
		<edge from-layer="138" from-port="0" to-layer="1004" to-port="4"/>
		<edge from-layer="1004" from-port="5" to-layer="1005" to-port="0"/>
		<edge from-layer="134" from-port="5" to-layer="1005" to-port="1"/>
		<edge from-layer="1005" from-port="2" to-layer="1006" to-port="0"/>
		<edge from-layer="128" from-port="0" to-layer="1006" to-port="1"/>
		<edge from-layer="1006" from-port="2" to-layer="1007" to-port="0"/>
		<edge from-layer="1007" from-port="1" to-layer="1008" to-port="0"/>
		<edge from-layer="124" from-port="0" to-layer="1008" to-port="1"/>
		<edge from-layer="125" from-port="0" to-layer="1008" to-port="2"/>
		<edge from-layer="126" from-port="0" to-layer="1008" to-port="3"/>
		<edge from-layer="127" from-port="0" to-layer="1008" to-port="4"/>
		<edge from-layer="1014" from-port="0" to-layer="1015" to-port="0"/>
		<edge from-layer="1010" from-port="0" to-layer="1015" to-port="1"/>
		<edge from-layer="1011" from-port="0" to-layer="1015" to-port="2"/>
		<edge from-layer="1012" from-port="0" to-layer="1015" to-port="3"/>
		<edge from-layer="1013" from-port="0" to-layer="1015" to-port="4"/>
		<edge from-layer="1015" from-port="5" to-layer="1016" to-port="0"/>
		<edge from-layer="1009" from-port="0" to-layer="1016" to-port="1"/>
		<edge from-layer="1008" from-port="5" to-layer="1017" to-port="0"/>
		<edge from-layer="1016" from-port="2" to-layer="1017" to-port="1"/>
		<edge from-layer="1017" from-port="2" to-layer="1018" to-port="0"/>
		<edge from-layer="123" from-port="0" to-layer="1018" to-port="1"/>
		<edge from-layer="1018" from-port="2" to-layer="1019" to-port="0"/>
		<edge from-layer="1019" from-port="1" to-layer="1020" to-port="0"/>
		<edge from-layer="119" from-port="0" to-layer="1020" to-port="1"/>
		<edge from-layer="120" from-port="0" to-layer="1020" to-port="2"/>
		<edge from-layer="121" from-port="0" to-layer="1020" to-port="3"/>
		<edge from-layer="122" from-port="0" to-layer="1020" to-port="4"/>
		<edge from-layer="1020" from-port="5" to-layer="1021" to-port="0"/>
		<edge from-layer="118" from-port="0" to-layer="1021" to-port="1"/>
		<edge from-layer="1021" from-port="2" to-layer="1023" to-port="0"/>
		<edge from-layer="1022" from-port="0" to-layer="1023" to-port="1"/>
		<edge from-layer="1023" from-port="2" to-layer="1024" to-port="0"/>
		<edge from-layer="117" from-port="0" to-layer="1024" to-port="1"/>
		<edge from-layer="1024" from-port="2" to-layer="1025" to-port="0"/>
		<edge from-layer="1025" from-port="1" to-layer="1027" to-port="0"/>
		<edge from-layer="1026" from-port="0" to-layer="1027" to-port="1"/>
		<edge from-layer="1027" from-port="2" to-layer="1028" to-port="0"/>
		<edge from-layer="116" from-port="0" to-layer="1028" to-port="1"/>
		<edge from-layer="1028" from-port="2" to-layer="1029" to-port="0"/>
		<edge from-layer="1029" from-port="1" to-layer="1030" to-port="0"/>
		<edge from-layer="112" from-port="0" to-layer="1030" to-port="1"/>
		<edge from-layer="113" from-port="0" to-layer="1030" to-port="2"/>
		<edge from-layer="114" from-port="0" to-layer="1030" to-port="3"/>
		<edge from-layer="115" from-port="0" to-layer="1030" to-port="4"/>
		<edge from-layer="1030" from-port="5" to-layer="1031" to-port="0"/>
		<edge from-layer="1020" from-port="5" to-layer="1031" to-port="1"/>
		<edge from-layer="1031" from-port="2" to-layer="1032" to-port="0"/>
		<edge from-layer="108" from-port="0" to-layer="1032" to-port="1"/>
		<edge from-layer="109" from-port="0" to-layer="1032" to-port="2"/>
		<edge from-layer="110" from-port="0" to-layer="1032" to-port="3"/>
		<edge from-layer="111" from-port="0" to-layer="1032" to-port="4"/>
		<edge from-layer="1037" from-port="0" to-layer="1038" to-port="0"/>
		<edge from-layer="1033" from-port="0" to-layer="1038" to-port="1"/>
		<edge from-layer="1034" from-port="0" to-layer="1038" to-port="2"/>
		<edge from-layer="1035" from-port="0" to-layer="1038" to-port="3"/>
		<edge from-layer="1036" from-port="0" to-layer="1038" to-port="4"/>
		<edge from-layer="1032" from-port="5" to-layer="1039" to-port="0"/>
		<edge from-layer="1038" from-port="5" to-layer="1039" to-port="1"/>
		<edge from-layer="1039" from-port="2" to-layer="1040" to-port="0"/>
		<edge from-layer="107" from-port="0" to-layer="1040" to-port="1"/>
		<edge from-layer="1040" from-port="2" to-layer="1041" to-port="0"/>
		<edge from-layer="103" from-port="0" to-layer="1041" to-port="1"/>
		<edge from-layer="104" from-port="0" to-layer="1041" to-port="2"/>
		<edge from-layer="105" from-port="0" to-layer="1041" to-port="3"/>
		<edge from-layer="106" from-port="0" to-layer="1041" to-port="4"/>
		<edge from-layer="1041" from-port="5" to-layer="1042" to-port="0"/>
		<edge from-layer="1004" from-port="5" to-layer="1042" to-port="1"/>
		<edge from-layer="1042" from-port="2" to-layer="1043" to-port="0"/>
		<edge from-layer="99" from-port="0" to-layer="1043" to-port="1"/>
		<edge from-layer="100" from-port="0" to-layer="1043" to-port="2"/>
		<edge from-layer="101" from-port="0" to-layer="1043" to-port="3"/>
		<edge from-layer="102" from-port="0" to-layer="1043" to-port="4"/>
		<edge from-layer="1043" from-port="5" to-layer="1044" to-port="0"/>
		<edge from-layer="98" from-port="5" to-layer="1044" to-port="1"/>
		<edge from-layer="1044" from-port="2" to-layer="1045" to-port="0"/>
		<edge from-layer="92" from-port="0" to-layer="1045" to-port="1"/>
		<edge from-layer="1045" from-port="2" to-layer="1046" to-port="0"/>
		<edge from-layer="1046" from-port="1" to-layer="1047" to-port="0"/>
		<edge from-layer="88" from-port="0" to-layer="1047" to-port="1"/>
		<edge from-layer="89" from-port="0" to-layer="1047" to-port="2"/>
		<edge from-layer="90" from-port="0" to-layer="1047" to-port="3"/>
		<edge from-layer="91" from-port="0" to-layer="1047" to-port="4"/>
		<edge from-layer="1053" from-port="0" to-layer="1054" to-port="0"/>
		<edge from-layer="1049" from-port="0" to-layer="1054" to-port="1"/>
		<edge from-layer="1050" from-port="0" to-layer="1054" to-port="2"/>
		<edge from-layer="1051" from-port="0" to-layer="1054" to-port="3"/>
		<edge from-layer="1052" from-port="0" to-layer="1054" to-port="4"/>
		<edge from-layer="1054" from-port="5" to-layer="1055" to-port="0"/>
		<edge from-layer="1048" from-port="0" to-layer="1055" to-port="1"/>
		<edge from-layer="1047" from-port="5" to-layer="1056" to-port="0"/>
		<edge from-layer="1055" from-port="2" to-layer="1056" to-port="1"/>
		<edge from-layer="1056" from-port="2" to-layer="1057" to-port="0"/>
		<edge from-layer="87" from-port="0" to-layer="1057" to-port="1"/>
		<edge from-layer="1057" from-port="2" to-layer="1058" to-port="0"/>
		<edge from-layer="1058" from-port="1" to-layer="1059" to-port="0"/>
		<edge from-layer="83" from-port="0" to-layer="1059" to-port="1"/>
		<edge from-layer="84" from-port="0" to-layer="1059" to-port="2"/>
		<edge from-layer="85" from-port="0" to-layer="1059" to-port="3"/>
		<edge from-layer="86" from-port="0" to-layer="1059" to-port="4"/>
		<edge from-layer="1059" from-port="5" to-layer="1060" to-port="0"/>
		<edge from-layer="82" from-port="0" to-layer="1060" to-port="1"/>
		<edge from-layer="1060" from-port="2" to-layer="1062" to-port="0"/>
		<edge from-layer="1061" from-port="0" to-layer="1062" to-port="1"/>
		<edge from-layer="1062" from-port="2" to-layer="1063" to-port="0"/>
		<edge from-layer="81" from-port="0" to-layer="1063" to-port="1"/>
		<edge from-layer="1063" from-port="2" to-layer="1064" to-port="0"/>
		<edge from-layer="1064" from-port="1" to-layer="1066" to-port="0"/>
		<edge from-layer="1065" from-port="0" to-layer="1066" to-port="1"/>
		<edge from-layer="1066" from-port="2" to-layer="1067" to-port="0"/>
		<edge from-layer="80" from-port="0" to-layer="1067" to-port="1"/>
		<edge from-layer="1067" from-port="2" to-layer="1068" to-port="0"/>
		<edge from-layer="1068" from-port="1" to-layer="1069" to-port="0"/>
		<edge from-layer="76" from-port="0" to-layer="1069" to-port="1"/>
		<edge from-layer="77" from-port="0" to-layer="1069" to-port="2"/>
		<edge from-layer="78" from-port="0" to-layer="1069" to-port="3"/>
		<edge from-layer="79" from-port="0" to-layer="1069" to-port="4"/>
		<edge from-layer="1069" from-port="5" to-layer="1070" to-port="0"/>
		<edge from-layer="1059" from-port="5" to-layer="1070" to-port="1"/>
		<edge from-layer="1070" from-port="2" to-layer="1071" to-port="0"/>
		<edge from-layer="72" from-port="0" to-layer="1071" to-port="1"/>
		<edge from-layer="73" from-port="0" to-layer="1071" to-port="2"/>
		<edge from-layer="74" from-port="0" to-layer="1071" to-port="3"/>
		<edge from-layer="75" from-port="0" to-layer="1071" to-port="4"/>
		<edge from-layer="1076" from-port="0" to-layer="1077" to-port="0"/>
		<edge from-layer="1072" from-port="0" to-layer="1077" to-port="1"/>
		<edge from-layer="1073" from-port="0" to-layer="1077" to-port="2"/>
		<edge from-layer="1074" from-port="0" to-layer="1077" to-port="3"/>
		<edge from-layer="1075" from-port="0" to-layer="1077" to-port="4"/>
		<edge from-layer="1071" from-port="5" to-layer="1078" to-port="0"/>
		<edge from-layer="1077" from-port="5" to-layer="1078" to-port="1"/>
		<edge from-layer="1078" from-port="2" to-layer="1079" to-port="0"/>
		<edge from-layer="71" from-port="0" to-layer="1079" to-port="1"/>
		<edge from-layer="1079" from-port="2" to-layer="1080" to-port="0"/>
		<edge from-layer="67" from-port="0" to-layer="1080" to-port="1"/>
		<edge from-layer="68" from-port="0" to-layer="1080" to-port="2"/>
		<edge from-layer="69" from-port="0" to-layer="1080" to-port="3"/>
		<edge from-layer="70" from-port="0" to-layer="1080" to-port="4"/>
		<edge from-layer="1080" from-port="5" to-layer="1081" to-port="0"/>
		<edge from-layer="1043" from-port="5" to-layer="1081" to-port="1"/>
		<edge from-layer="1081" from-port="2" to-layer="1082" to-port="0"/>
		<edge from-layer="63" from-port="0" to-layer="1082" to-port="1"/>
		<edge from-layer="64" from-port="0" to-layer="1082" to-port="2"/>
		<edge from-layer="65" from-port="0" to-layer="1082" to-port="3"/>
		<edge from-layer="66" from-port="0" to-layer="1082" to-port="4"/>
		<edge from-layer="1082" from-port="5" to-layer="1083" to-port="0"/>
		<edge from-layer="62" from-port="5" to-layer="1083" to-port="1"/>
		<edge from-layer="1083" from-port="2" to-layer="1084" to-port="0"/>
		<edge from-layer="56" from-port="0" to-layer="1084" to-port="1"/>
		<edge from-layer="1084" from-port="2" to-layer="1085" to-port="0"/>
		<edge from-layer="1085" from-port="1" to-layer="1086" to-port="0"/>
		<edge from-layer="52" from-port="0" to-layer="1086" to-port="1"/>
		<edge from-layer="53" from-port="0" to-layer="1086" to-port="2"/>
		<edge from-layer="54" from-port="0" to-layer="1086" to-port="3"/>
		<edge from-layer="55" from-port="0" to-layer="1086" to-port="4"/>
		<edge from-layer="1092" from-port="0" to-layer="1093" to-port="0"/>
		<edge from-layer="1088" from-port="0" to-layer="1093" to-port="1"/>
		<edge from-layer="1089" from-port="0" to-layer="1093" to-port="2"/>
		<edge from-layer="1090" from-port="0" to-layer="1093" to-port="3"/>
		<edge from-layer="1091" from-port="0" to-layer="1093" to-port="4"/>
		<edge from-layer="1093" from-port="5" to-layer="1094" to-port="0"/>
		<edge from-layer="1087" from-port="0" to-layer="1094" to-port="1"/>
		<edge from-layer="1086" from-port="5" to-layer="1095" to-port="0"/>
		<edge from-layer="1094" from-port="2" to-layer="1095" to-port="1"/>
		<edge from-layer="1095" from-port="2" to-layer="1096" to-port="0"/>
		<edge from-layer="51" from-port="0" to-layer="1096" to-port="1"/>
		<edge from-layer="1096" from-port="2" to-layer="1097" to-port="0"/>
		<edge from-layer="1097" from-port="1" to-layer="1098" to-port="0"/>
		<edge from-layer="47" from-port="0" to-layer="1098" to-port="1"/>
		<edge from-layer="48" from-port="0" to-layer="1098" to-port="2"/>
		<edge from-layer="49" from-port="0" to-layer="1098" to-port="3"/>
		<edge from-layer="50" from-port="0" to-layer="1098" to-port="4"/>
		<edge from-layer="1098" from-port="5" to-layer="1099" to-port="0"/>
		<edge from-layer="46" from-port="0" to-layer="1099" to-port="1"/>
		<edge from-layer="1099" from-port="2" to-layer="1101" to-port="0"/>
		<edge from-layer="1100" from-port="0" to-layer="1101" to-port="1"/>
		<edge from-layer="1101" from-port="2" to-layer="1102" to-port="0"/>
		<edge from-layer="45" from-port="0" to-layer="1102" to-port="1"/>
		<edge from-layer="1102" from-port="2" to-layer="1103" to-port="0"/>
		<edge from-layer="1103" from-port="1" to-layer="1105" to-port="0"/>
		<edge from-layer="1104" from-port="0" to-layer="1105" to-port="1"/>
		<edge from-layer="1105" from-port="2" to-layer="1106" to-port="0"/>
		<edge from-layer="44" from-port="0" to-layer="1106" to-port="1"/>
		<edge from-layer="1106" from-port="2" to-layer="1107" to-port="0"/>
		<edge from-layer="1107" from-port="1" to-layer="1108" to-port="0"/>
		<edge from-layer="40" from-port="0" to-layer="1108" to-port="1"/>
		<edge from-layer="41" from-port="0" to-layer="1108" to-port="2"/>
		<edge from-layer="42" from-port="0" to-layer="1108" to-port="3"/>
		<edge from-layer="43" from-port="0" to-layer="1108" to-port="4"/>
		<edge from-layer="1108" from-port="5" to-layer="1109" to-port="0"/>
		<edge from-layer="1098" from-port="5" to-layer="1109" to-port="1"/>
		<edge from-layer="1109" from-port="2" to-layer="1110" to-port="0"/>
		<edge from-layer="36" from-port="0" to-layer="1110" to-port="1"/>
		<edge from-layer="37" from-port="0" to-layer="1110" to-port="2"/>
		<edge from-layer="38" from-port="0" to-layer="1110" to-port="3"/>
		<edge from-layer="39" from-port="0" to-layer="1110" to-port="4"/>
		<edge from-layer="1115" from-port="0" to-layer="1116" to-port="0"/>
		<edge from-layer="1111" from-port="0" to-layer="1116" to-port="1"/>
		<edge from-layer="1112" from-port="0" to-layer="1116" to-port="2"/>
		<edge from-layer="1113" from-port="0" to-layer="1116" to-port="3"/>
		<edge from-layer="1114" from-port="0" to-layer="1116" to-port="4"/>
		<edge from-layer="1110" from-port="5" to-layer="1117" to-port="0"/>
		<edge from-layer="1116" from-port="5" to-layer="1117" to-port="1"/>
		<edge from-layer="1117" from-port="2" to-layer="1118" to-port="0"/>
		<edge from-layer="35" from-port="0" to-layer="1118" to-port="1"/>
		<edge from-layer="1118" from-port="2" to-layer="1119" to-port="0"/>
		<edge from-layer="31" from-port="0" to-layer="1119" to-port="1"/>
		<edge from-layer="32" from-port="0" to-layer="1119" to-port="2"/>
		<edge from-layer="33" from-port="0" to-layer="1119" to-port="3"/>
		<edge from-layer="34" from-port="0" to-layer="1119" to-port="4"/>
		<edge from-layer="1119" from-port="5" to-layer="1120" to-port="0"/>
		<edge from-layer="1082" from-port="5" to-layer="1120" to-port="1"/>
		<edge from-layer="1120" from-port="2" to-layer="1121" to-port="0"/>
		<edge from-layer="27" from-port="0" to-layer="1121" to-port="1"/>
		<edge from-layer="28" from-port="0" to-layer="1121" to-port="2"/>
		<edge from-layer="29" from-port="0" to-layer="1121" to-port="3"/>
		<edge from-layer="30" from-port="0" to-layer="1121" to-port="4"/>
		<edge from-layer="1126" from-port="0" to-layer="1127" to-port="0"/>
		<edge from-layer="1122" from-port="0" to-layer="1127" to-port="1"/>
		<edge from-layer="1123" from-port="0" to-layer="1127" to-port="2"/>
		<edge from-layer="1124" from-port="0" to-layer="1127" to-port="3"/>
		<edge from-layer="1125" from-port="0" to-layer="1127" to-port="4"/>
		<edge from-layer="1121" from-port="5" to-layer="1128" to-port="0"/>
		<edge from-layer="1127" from-port="5" to-layer="1128" to-port="1"/>
		<edge from-layer="1128" from-port="2" to-layer="1129" to-port="0"/>
		<edge from-layer="26" from-port="0" to-layer="1129" to-port="1"/>
		<edge from-layer="1129" from-port="2" to-layer="1130" to-port="0"/>
		<edge from-layer="1130" from-port="1" to-layer="1131" to-port="0"/>
		<edge from-layer="22" from-port="0" to-layer="1131" to-port="1"/>
		<edge from-layer="23" from-port="0" to-layer="1131" to-port="2"/>
		<edge from-layer="24" from-port="0" to-layer="1131" to-port="3"/>
		<edge from-layer="25" from-port="0" to-layer="1131" to-port="4"/>
		<edge from-layer="1137" from-port="0" to-layer="1138" to-port="0"/>
		<edge from-layer="1133" from-port="0" to-layer="1138" to-port="1"/>
		<edge from-layer="1134" from-port="0" to-layer="1138" to-port="2"/>
		<edge from-layer="1135" from-port="0" to-layer="1138" to-port="3"/>
		<edge from-layer="1136" from-port="0" to-layer="1138" to-port="4"/>
		<edge from-layer="1138" from-port="5" to-layer="1139" to-port="0"/>
		<edge from-layer="1132" from-port="0" to-layer="1139" to-port="1"/>
		<edge from-layer="1131" from-port="5" to-layer="1140" to-port="0"/>
		<edge from-layer="1139" from-port="2" to-layer="1140" to-port="1"/>
		<edge from-layer="1140" from-port="2" to-layer="1141" to-port="0"/>
		<edge from-layer="21" from-port="0" to-layer="1141" to-port="1"/>
		<edge from-layer="1141" from-port="2" to-layer="1142" to-port="0"/>
		<edge from-layer="1142" from-port="1" to-layer="1143" to-port="0"/>
		<edge from-layer="17" from-port="0" to-layer="1143" to-port="1"/>
		<edge from-layer="18" from-port="0" to-layer="1143" to-port="2"/>
		<edge from-layer="19" from-port="0" to-layer="1143" to-port="3"/>
		<edge from-layer="20" from-port="0" to-layer="1143" to-port="4"/>
		<edge from-layer="1143" from-port="5" to-layer="1144" to-port="0"/>
		<edge from-layer="16" from-port="0" to-layer="1144" to-port="1"/>
		<edge from-layer="1144" from-port="2" to-layer="1146" to-port="0"/>
		<edge from-layer="1145" from-port="0" to-layer="1146" to-port="1"/>
		<edge from-layer="1146" from-port="2" to-layer="1147" to-port="0"/>
		<edge from-layer="15" from-port="0" to-layer="1147" to-port="1"/>
		<edge from-layer="1147" from-port="2" to-layer="1148" to-port="0"/>
		<edge from-layer="1148" from-port="1" to-layer="1150" to-port="0"/>
		<edge from-layer="1149" from-port="0" to-layer="1150" to-port="1"/>
		<edge from-layer="1150" from-port="2" to-layer="1151" to-port="0"/>
		<edge from-layer="14" from-port="0" to-layer="1151" to-port="1"/>
		<edge from-layer="1151" from-port="2" to-layer="1152" to-port="0"/>
		<edge from-layer="1152" from-port="1" to-layer="1153" to-port="0"/>
		<edge from-layer="10" from-port="0" to-layer="1153" to-port="1"/>
		<edge from-layer="11" from-port="0" to-layer="1153" to-port="2"/>
		<edge from-layer="12" from-port="0" to-layer="1153" to-port="3"/>
		<edge from-layer="13" from-port="0" to-layer="1153" to-port="4"/>
		<edge from-layer="1153" from-port="5" to-layer="1154" to-port="0"/>
		<edge from-layer="1143" from-port="5" to-layer="1154" to-port="1"/>
		<edge from-layer="1154" from-port="2" to-layer="1155" to-port="0"/>
		<edge from-layer="6" from-port="0" to-layer="1155" to-port="1"/>
		<edge from-layer="7" from-port="0" to-layer="1155" to-port="2"/>
		<edge from-layer="8" from-port="0" to-layer="1155" to-port="3"/>
		<edge from-layer="9" from-port="0" to-layer="1155" to-port="4"/>
		<edge from-layer="1160" from-port="0" to-layer="1161" to-port="0"/>
		<edge from-layer="1156" from-port="0" to-layer="1161" to-port="1"/>
		<edge from-layer="1157" from-port="0" to-layer="1161" to-port="2"/>
		<edge from-layer="1158" from-port="0" to-layer="1161" to-port="3"/>
		<edge from-layer="1159" from-port="0" to-layer="1161" to-port="4"/>
		<edge from-layer="1155" from-port="5" to-layer="1162" to-port="0"/>
		<edge from-layer="1161" from-port="5" to-layer="1162" to-port="1"/>
		<edge from-layer="1162" from-port="2" to-layer="1163" to-port="0"/>
		<edge from-layer="5" from-port="0" to-layer="1163" to-port="1"/>
		<edge from-layer="1163" from-port="2" to-layer="1164" to-port="0"/>
		<edge from-layer="1" from-port="0" to-layer="1164" to-port="1"/>
		<edge from-layer="2" from-port="0" to-layer="1164" to-port="2"/>
		<edge from-layer="3" from-port="0" to-layer="1164" to-port="3"/>
		<edge from-layer="4" from-port="0" to-layer="1164" to-port="4"/>
		<edge from-layer="1169" from-port="0" to-layer="1170" to-port="0"/>
		<edge from-layer="1165" from-port="0" to-layer="1170" to-port="1"/>
		<edge from-layer="1166" from-port="0" to-layer="1170" to-port="2"/>
		<edge from-layer="1167" from-port="0" to-layer="1170" to-port="3"/>
		<edge from-layer="1168" from-port="0" to-layer="1170" to-port="4"/>
		<edge from-layer="1164" from-port="5" to-layer="1171" to-port="0"/>
		<edge from-layer="1170" from-port="5" to-layer="1171" to-port="1"/>
		<edge from-layer="1171" from-port="2" to-layer="1172" to-port="0"/>
		<edge from-layer="0" from-port="0" to-layer="1172" to-port="1"/>
		<edge from-layer="1172" from-port="2" to-layer="1173" to-port="0"/>
		<edge from-layer="1173" from-port="1" to-layer="1174" to-port="0"/>
	</edges>
	<rt_info>
		<MO_version value="custom_master_03583d93cb02d913e914ff461ee14d4d0f0e46cd"/>
		<Runtime_version value="2022.3.0-8879-03583d93cb0"/>
		<conversion_parameters>
			<data_type value="FP32"/>
			<input_model value="DIR/efficientnet_b0_example.onnx"/>
			<model_name value="efficientnet_b0_example"/>
			<output_dir value="DIR"/>
		</conversion_parameters>
		<legacy_frontend value="False"/>
		<quantization_parameters/>
	</rt_info>
	<quantization_parameters>
		<config/>
		<version value="{}"/>
		<cli_params value="{}"/>
	</quantization_parameters>
</net>
