<?xml version="1.0" ?>
<net name="MOBILENET_V2" version="11">
	<layers>
		<layer id="0" name="data" type="Parameter" version="opset1">
			<data shape="1,3,224,224" element_type="f32"/>
			<rt_info>
				<attribute name="fused_names" version="0" value="data"/>
			</rt_info>
			<output>
				<port id="0" precision="FP32" names="data">
					<dim>1</dim>
					<dim>3</dim>
					<dim>224</dim>
					<dim>224</dim>
					<rt_info>
						<attribute name="layout" version="0" layout="[N,C,H,W]"/>
					</rt_info>
				</port>
			</output>
		</layer>
		<layer id="1" name="data_mul_11491173582731375" type="Const" version="opset1">
			<data offset="0" size="4" shape="1,1,1,1" element_type="f32"/>
			<rt_info>
				<attribute name="fused_names" version="0" value="data_mul_1149117358"/>
			</rt_info>
			<output>
				<port id="0" precision="FP32">
					<dim>1</dim>
					<dim>1</dim>
					<dim>1</dim>
					<dim>1</dim>
				</port>
			</output>
		</layer>
		<layer id="2" name="data/scale/Fused_Mul_" type="Multiply" version="opset1">
			<data auto_broadcast="numpy"/>
			<rt_info>
				<attribute name="fused_names" version="0" value="data/scale/Fused_Mul_"/>
			</rt_info>
			<input>
				<port id="0">
					<dim>1</dim>
					<dim>3</dim>
					<dim>224</dim>
					<dim>224</dim>
				</port>
				<port id="1">
					<dim>1</dim>
					<dim>1</dim>
					<dim>1</dim>
					<dim>1</dim>
				</port>
			</input>
			<output>
				<port id="2" precision="FP32">
					<dim>1</dim>
					<dim>3</dim>
					<dim>224</dim>
					<dim>224</dim>
				</port>
			</output>
		</layer>
		<layer id="3" name="data_add_11493171782751441" type="Const" version="opset1">
			<data offset="4" size="12" shape="1,3,1,1" element_type="f32"/>
			<rt_info>
				<attribute name="fused_names" version="0" value="data_add_1149317178"/>
			</rt_info>
			<output>
				<port id="0" precision="FP32">
					<dim>1</dim>
					<dim>3</dim>
					<dim>1</dim>
					<dim>1</dim>
				</port>
			</output>
		</layer>
		<layer id="4" name="data/mean/Fused_Add_" type="Add" version="opset1">
			<data auto_broadcast="numpy"/>
			<rt_info>
				<attribute name="fused_names" version="0" value="data/mean/Fused_Add_"/>
			</rt_info>
			<input>
				<port id="0">
					<dim>1</dim>
					<dim>3</dim>
					<dim>224</dim>
					<dim>224</dim>
				</port>
				<port id="1">
					<dim>1</dim>
					<dim>3</dim>
					<dim>1</dim>
					<dim>1</dim>
				</port>
			</input>
			<output>
				<port id="2" precision="FP32">
					<dim>1</dim>
					<dim>3</dim>
					<dim>224</dim>
					<dim>224</dim>
				</port>
			</output>
		</layer>
		<layer id="5" name="conv1/bn/mean/Fused_Mul__copy2771366" type="Const" version="opset1">
			<data offset="16" size="3456" shape="32,3,3,3" element_type="f32"/>
			<rt_info>
				<attribute name="fused_names" version="0" value="conv1/bn/mean/Fused_Mul__copy"/>
			</rt_info>
			<output>
				<port id="0" precision="FP32">
					<dim>32</dim>
					<dim>3</dim>
					<dim>3</dim>
					<dim>3</dim>
				</port>
			</output>
		</layer>
		<layer id="6" name="conv1" type="Convolution" version="opset1">
			<data auto_pad="explicit" strides="2,2" dilations="1,1" pads_begin="1,1" pads_end="1,1"/>
			<rt_info>
				<attribute name="fused_names" version="0" value="conv1"/>
			</rt_info>
			<input>
				<port id="0">
					<dim>1</dim>
					<dim>3</dim>
					<dim>224</dim>
					<dim>224</dim>
				</port>
				<port id="1">
					<dim>32</dim>
					<dim>3</dim>
					<dim>3</dim>
					<dim>3</dim>
				</port>
			</input>
			<output>
				<port id="2" precision="FP32">
					<dim>1</dim>
					<dim>32</dim>
					<dim>112</dim>
					<dim>112</dim>
				</port>
			</output>
		</layer>
		<layer id="7" name="data_add_11496115012791261" type="Const" version="opset1">
			<data offset="3472" size="128" shape="1,32,1,1" element_type="f32"/>
			<rt_info>
				<attribute name="fused_names" version="0" value="data_add_1149611501"/>
			</rt_info>
			<output>
				<port id="0" precision="FP32">
					<dim>1</dim>
					<dim>32</dim>
					<dim>1</dim>
					<dim>1</dim>
				</port>
			</output>
		</layer>
		<layer id="8" name="conv1/bn/variance/Fused_Add_" type="Add" version="opset1">
			<data auto_broadcast="numpy"/>
			<rt_info>
				<attribute name="fused_names" version="0" value="conv1/bn/variance/Fused_Add_"/>
			</rt_info>
			<input>
				<port id="0">
					<dim>1</dim>
					<dim>32</dim>
					<dim>112</dim>
					<dim>112</dim>
				</port>
				<port id="1">
					<dim>1</dim>
					<dim>32</dim>
					<dim>1</dim>
					<dim>1</dim>
				</port>
			</input>
			<output>
				<port id="2" precision="FP32" names="conv1/bn">
					<dim>1</dim>
					<dim>32</dim>
					<dim>112</dim>
					<dim>112</dim>
				</port>
			</output>
		</layer>
		<layer id="9" name="relu1" type="ReLU" version="opset1">
			<rt_info>
				<attribute name="fused_names" version="0" value="relu1"/>
			</rt_info>
			<input>
				<port id="0">
					<dim>1</dim>
					<dim>32</dim>
					<dim>112</dim>
					<dim>112</dim>
				</port>
			</input>
			<output>
				<port id="1" precision="FP32" names="conv1/bn">
					<dim>1</dim>
					<dim>32</dim>
					<dim>112</dim>
					<dim>112</dim>
				</port>
			</output>
		</layer>
		<layer id="10" name="conv2_1/expand/bn/mean/Fused_Mul__copy2821195" type="Const" version="opset1">
			<data offset="3600" size="4096" shape="32,32,1,1" element_type="f32"/>
			<rt_info>
				<attribute name="fused_names" version="0" value="conv2_1/expand/bn/mean/Fused_Mul__copy"/>
			</rt_info>
			<output>
				<port id="0" precision="FP32">
					<dim>32</dim>
					<dim>32</dim>
					<dim>1</dim>
					<dim>1</dim>
				</port>
			</output>
		</layer>
		<layer id="11" name="conv2_1/expand" type="Convolution" version="opset1">
			<data auto_pad="explicit" strides="1,1" dilations="1,1" pads_begin="0,0" pads_end="0,0"/>
			<rt_info>
				<attribute name="fused_names" version="0" value="conv2_1/expand"/>
			</rt_info>
			<input>
				<port id="0">
					<dim>1</dim>
					<dim>32</dim>
					<dim>112</dim>
					<dim>112</dim>
				</port>
				<port id="1">
					<dim>32</dim>
					<dim>32</dim>
					<dim>1</dim>
					<dim>1</dim>
				</port>
			</input>
			<output>
				<port id="2" precision="FP32">
					<dim>1</dim>
					<dim>32</dim>
					<dim>112</dim>
					<dim>112</dim>
				</port>
			</output>
		</layer>
		<layer id="12" name="data_add_11504115092841339" type="Const" version="opset1">
			<data offset="7696" size="128" shape="1,32,1,1" element_type="f32"/>
			<rt_info>
				<attribute name="fused_names" version="0" value="data_add_1150411509"/>
			</rt_info>
			<output>
				<port id="0" precision="FP32">
					<dim>1</dim>
					<dim>32</dim>
					<dim>1</dim>
					<dim>1</dim>
				</port>
			</output>
		</layer>
		<layer id="13" name="conv2_1/expand/bn/variance/Fused_Add_" type="Add" version="opset1">
			<data auto_broadcast="numpy"/>
			<rt_info>
				<attribute name="fused_names" version="0" value="conv2_1/expand/bn/variance/Fused_Add_"/>
			</rt_info>
			<input>
				<port id="0">
					<dim>1</dim>
					<dim>32</dim>
					<dim>112</dim>
					<dim>112</dim>
				</port>
				<port id="1">
					<dim>1</dim>
					<dim>32</dim>
					<dim>1</dim>
					<dim>1</dim>
				</port>
			</input>
			<output>
				<port id="2" precision="FP32" names="conv2_1/expand/bn">
					<dim>1</dim>
					<dim>32</dim>
					<dim>112</dim>
					<dim>112</dim>
				</port>
			</output>
		</layer>
		<layer id="14" name="relu2_1/expand" type="ReLU" version="opset1">
			<rt_info>
				<attribute name="fused_names" version="0" value="relu2_1/expand"/>
			</rt_info>
			<input>
				<port id="0">
					<dim>1</dim>
					<dim>32</dim>
					<dim>112</dim>
					<dim>112</dim>
				</port>
			</input>
			<output>
				<port id="1" precision="FP32" names="conv2_1/expand/bn">
					<dim>1</dim>
					<dim>32</dim>
					<dim>112</dim>
					<dim>112</dim>
				</port>
			</output>
		</layer>
		<layer id="15" name="conv2_1/dwise/bn/mean/Fused_Mul__copy287" type="Const" version="opset1">
			<data offset="7824" size="1152" shape="32,1,1,3,3" element_type="f32"/>
			<rt_info>
				<attribute name="fused_names" version="0" value="conv2_1/dwise/bn/mean/Fused_Mul__copy"/>
			</rt_info>
			<output>
				<port id="0" precision="FP32">
					<dim>32</dim>
					<dim>1</dim>
					<dim>1</dim>
					<dim>3</dim>
					<dim>3</dim>
				</port>
			</output>
		</layer>
		<layer id="16" name="conv2_1/dwise" type="GroupConvolution" version="opset1">
			<data auto_pad="explicit" strides="1,1" dilations="1,1" pads_begin="1,1" pads_end="1,1"/>
			<rt_info>
				<attribute name="fused_names" version="0" value="conv2_1/dwise"/>
			</rt_info>
			<input>
				<port id="0">
					<dim>1</dim>
					<dim>32</dim>
					<dim>112</dim>
					<dim>112</dim>
				</port>
				<port id="1">
					<dim>32</dim>
					<dim>1</dim>
					<dim>1</dim>
					<dim>3</dim>
					<dim>3</dim>
				</port>
			</input>
			<output>
				<port id="2" precision="FP32">
					<dim>1</dim>
					<dim>32</dim>
					<dim>112</dim>
					<dim>112</dim>
				</port>
			</output>
		</layer>
		<layer id="17" name="data_add_11512115172891177" type="Const" version="opset1">
			<data offset="8976" size="128" shape="1,32,1,1" element_type="f32"/>
			<rt_info>
				<attribute name="fused_names" version="0" value="data_add_1151211517"/>
			</rt_info>
			<output>
				<port id="0" precision="FP32">
					<dim>1</dim>
					<dim>32</dim>
					<dim>1</dim>
					<dim>1</dim>
				</port>
			</output>
		</layer>
		<layer id="18" name="conv2_1/dwise/bn/variance/Fused_Add_" type="Add" version="opset1">
			<data auto_broadcast="numpy"/>
			<rt_info>
				<attribute name="fused_names" version="0" value="conv2_1/dwise/bn/variance/Fused_Add_"/>
			</rt_info>
			<input>
				<port id="0">
					<dim>1</dim>
					<dim>32</dim>
					<dim>112</dim>
					<dim>112</dim>
				</port>
				<port id="1">
					<dim>1</dim>
					<dim>32</dim>
					<dim>1</dim>
					<dim>1</dim>
				</port>
			</input>
			<output>
				<port id="2" precision="FP32" names="conv2_1/dwise/bn">
					<dim>1</dim>
					<dim>32</dim>
					<dim>112</dim>
					<dim>112</dim>
				</port>
			</output>
		</layer>
		<layer id="19" name="relu2_1/dwise" type="ReLU" version="opset1">
			<rt_info>
				<attribute name="fused_names" version="0" value="relu2_1/dwise"/>
			</rt_info>
			<input>
				<port id="0">
					<dim>1</dim>
					<dim>32</dim>
					<dim>112</dim>
					<dim>112</dim>
				</port>
			</input>
			<output>
				<port id="1" precision="FP32" names="conv2_1/dwise/bn">
					<dim>1</dim>
					<dim>32</dim>
					<dim>112</dim>
					<dim>112</dim>
				</port>
			</output>
		</layer>
		<layer id="20" name="conv2_1/linear/bn/mean/Fused_Mul__copy2921222" type="Const" version="opset1">
			<data offset="9104" size="2048" shape="16,32,1,1" element_type="f32"/>
			<rt_info>
				<attribute name="fused_names" version="0" value="conv2_1/linear/bn/mean/Fused_Mul__copy"/>
			</rt_info>
			<output>
				<port id="0" precision="FP32">
					<dim>16</dim>
					<dim>32</dim>
					<dim>1</dim>
					<dim>1</dim>
				</port>
			</output>
		</layer>
		<layer id="21" name="conv2_1/linear" type="Convolution" version="opset1">
			<data auto_pad="explicit" strides="1,1" dilations="1,1" pads_begin="0,0" pads_end="0,0"/>
			<rt_info>
				<attribute name="fused_names" version="0" value="conv2_1/linear"/>
			</rt_info>
			<input>
				<port id="0">
					<dim>1</dim>
					<dim>32</dim>
					<dim>112</dim>
					<dim>112</dim>
				</port>
				<port id="1">
					<dim>16</dim>
					<dim>32</dim>
					<dim>1</dim>
					<dim>1</dim>
				</port>
			</input>
			<output>
				<port id="2" precision="FP32">
					<dim>1</dim>
					<dim>16</dim>
					<dim>112</dim>
					<dim>112</dim>
				</port>
			</output>
		</layer>
		<layer id="22" name="data_add_11520115252941321" type="Const" version="opset1">
			<data offset="11152" size="64" shape="1,16,1,1" element_type="f32"/>
			<rt_info>
				<attribute name="fused_names" version="0" value="data_add_1152011525"/>
			</rt_info>
			<output>
				<port id="0" precision="FP32">
					<dim>1</dim>
					<dim>16</dim>
					<dim>1</dim>
					<dim>1</dim>
				</port>
			</output>
		</layer>
		<layer id="23" name="conv2_1/linear/bn/variance/Fused_Add_" type="Add" version="opset1">
			<data auto_broadcast="numpy"/>
			<rt_info>
				<attribute name="fused_names" version="0" value="conv2_1/linear/bn/variance/Fused_Add_"/>
			</rt_info>
			<input>
				<port id="0">
					<dim>1</dim>
					<dim>16</dim>
					<dim>112</dim>
					<dim>112</dim>
				</port>
				<port id="1">
					<dim>1</dim>
					<dim>16</dim>
					<dim>1</dim>
					<dim>1</dim>
				</port>
			</input>
			<output>
				<port id="2" precision="FP32" names="conv2_1/linear/bn">
					<dim>1</dim>
					<dim>16</dim>
					<dim>112</dim>
					<dim>112</dim>
				</port>
			</output>
		</layer>
		<layer id="24" name="conv2_2/expand/bn/mean/Fused_Mul__copy2961198" type="Const" version="opset1">
			<data offset="11216" size="6144" shape="96,16,1,1" element_type="f32"/>
			<rt_info>
				<attribute name="fused_names" version="0" value="conv2_2/expand/bn/mean/Fused_Mul__copy"/>
			</rt_info>
			<output>
				<port id="0" precision="FP32">
					<dim>96</dim>
					<dim>16</dim>
					<dim>1</dim>
					<dim>1</dim>
				</port>
			</output>
		</layer>
		<layer id="25" name="conv2_2/expand" type="Convolution" version="opset1">
			<data auto_pad="explicit" strides="1,1" dilations="1,1" pads_begin="0,0" pads_end="0,0"/>
			<rt_info>
				<attribute name="fused_names" version="0" value="conv2_2/expand"/>
			</rt_info>
			<input>
				<port id="0">
					<dim>1</dim>
					<dim>16</dim>
					<dim>112</dim>
					<dim>112</dim>
				</port>
				<port id="1">
					<dim>96</dim>
					<dim>16</dim>
					<dim>1</dim>
					<dim>1</dim>
				</port>
			</input>
			<output>
				<port id="2" precision="FP32">
					<dim>1</dim>
					<dim>96</dim>
					<dim>112</dim>
					<dim>112</dim>
				</port>
			</output>
		</layer>
		<layer id="26" name="data_add_11528115332981180" type="Const" version="opset1">
			<data offset="17360" size="384" shape="1,96,1,1" element_type="f32"/>
			<rt_info>
				<attribute name="fused_names" version="0" value="data_add_1152811533"/>
			</rt_info>
			<output>
				<port id="0" precision="FP32">
					<dim>1</dim>
					<dim>96</dim>
					<dim>1</dim>
					<dim>1</dim>
				</port>
			</output>
		</layer>
		<layer id="27" name="conv2_2/expand/bn/variance/Fused_Add_" type="Add" version="opset1">
			<data auto_broadcast="numpy"/>
			<rt_info>
				<attribute name="fused_names" version="0" value="conv2_2/expand/bn/variance/Fused_Add_"/>
			</rt_info>
			<input>
				<port id="0">
					<dim>1</dim>
					<dim>96</dim>
					<dim>112</dim>
					<dim>112</dim>
				</port>
				<port id="1">
					<dim>1</dim>
					<dim>96</dim>
					<dim>1</dim>
					<dim>1</dim>
				</port>
			</input>
			<output>
				<port id="2" precision="FP32" names="conv2_2/expand/bn">
					<dim>1</dim>
					<dim>96</dim>
					<dim>112</dim>
					<dim>112</dim>
				</port>
			</output>
		</layer>
		<layer id="28" name="relu2_2/expand" type="ReLU" version="opset1">
			<rt_info>
				<attribute name="fused_names" version="0" value="relu2_2/expand"/>
			</rt_info>
			<input>
				<port id="0">
					<dim>1</dim>
					<dim>96</dim>
					<dim>112</dim>
					<dim>112</dim>
				</port>
			</input>
			<output>
				<port id="1" precision="FP32" names="conv2_2/expand/bn">
					<dim>1</dim>
					<dim>96</dim>
					<dim>112</dim>
					<dim>112</dim>
				</port>
			</output>
		</layer>
		<layer id="29" name="conv2_2/dwise/bn/mean/Fused_Mul__copy301" type="Const" version="opset1">
			<data offset="17744" size="3456" shape="96,1,1,3,3" element_type="f32"/>
			<rt_info>
				<attribute name="fused_names" version="0" value="conv2_2/dwise/bn/mean/Fused_Mul__copy"/>
			</rt_info>
			<output>
				<port id="0" precision="FP32">
					<dim>96</dim>
					<dim>1</dim>
					<dim>1</dim>
					<dim>3</dim>
					<dim>3</dim>
				</port>
			</output>
		</layer>
		<layer id="30" name="conv2_2/dwise" type="GroupConvolution" version="opset1">
			<data auto_pad="explicit" strides="2,2" dilations="1,1" pads_begin="1,1" pads_end="1,1"/>
			<rt_info>
				<attribute name="fused_names" version="0" value="conv2_2/dwise"/>
			</rt_info>
			<input>
				<port id="0">
					<dim>1</dim>
					<dim>96</dim>
					<dim>112</dim>
					<dim>112</dim>
				</port>
				<port id="1">
					<dim>96</dim>
					<dim>1</dim>
					<dim>1</dim>
					<dim>3</dim>
					<dim>3</dim>
				</port>
			</input>
			<output>
				<port id="2" precision="FP32">
					<dim>1</dim>
					<dim>96</dim>
					<dim>56</dim>
					<dim>56</dim>
				</port>
			</output>
		</layer>
		<layer id="31" name="data_add_11536115413031450" type="Const" version="opset1">
			<data offset="21200" size="384" shape="1,96,1,1" element_type="f32"/>
			<rt_info>
				<attribute name="fused_names" version="0" value="data_add_1153611541"/>
			</rt_info>
			<output>
				<port id="0" precision="FP32">
					<dim>1</dim>
					<dim>96</dim>
					<dim>1</dim>
					<dim>1</dim>
				</port>
			</output>
		</layer>
		<layer id="32" name="conv2_2/dwise/bn/variance/Fused_Add_" type="Add" version="opset1">
			<data auto_broadcast="numpy"/>
			<rt_info>
				<attribute name="fused_names" version="0" value="conv2_2/dwise/bn/variance/Fused_Add_"/>
			</rt_info>
			<input>
				<port id="0">
					<dim>1</dim>
					<dim>96</dim>
					<dim>56</dim>
					<dim>56</dim>
				</port>
				<port id="1">
					<dim>1</dim>
					<dim>96</dim>
					<dim>1</dim>
					<dim>1</dim>
				</port>
			</input>
			<output>
				<port id="2" precision="FP32" names="conv2_2/dwise/bn">
					<dim>1</dim>
					<dim>96</dim>
					<dim>56</dim>
					<dim>56</dim>
				</port>
			</output>
		</layer>
		<layer id="33" name="relu2_2/dwise" type="ReLU" version="opset1">
			<rt_info>
				<attribute name="fused_names" version="0" value="relu2_2/dwise"/>
			</rt_info>
			<input>
				<port id="0">
					<dim>1</dim>
					<dim>96</dim>
					<dim>56</dim>
					<dim>56</dim>
				</port>
			</input>
			<output>
				<port id="1" precision="FP32" names="conv2_2/dwise/bn">
					<dim>1</dim>
					<dim>96</dim>
					<dim>56</dim>
					<dim>56</dim>
				</port>
			</output>
		</layer>
		<layer id="34" name="conv2_2/linear/bn/mean/Fused_Mul__copy3061489" type="Const" version="opset1">
			<data offset="21584" size="9216" shape="24,96,1,1" element_type="f32"/>
			<rt_info>
				<attribute name="fused_names" version="0" value="conv2_2/linear/bn/mean/Fused_Mul__copy"/>
			</rt_info>
			<output>
				<port id="0" precision="FP32">
					<dim>24</dim>
					<dim>96</dim>
					<dim>1</dim>
					<dim>1</dim>
				</port>
			</output>
		</layer>
		<layer id="35" name="conv2_2/linear" type="Convolution" version="opset1">
			<data auto_pad="explicit" strides="1,1" dilations="1,1" pads_begin="0,0" pads_end="0,0"/>
			<rt_info>
				<attribute name="fused_names" version="0" value="conv2_2/linear"/>
			</rt_info>
			<input>
				<port id="0">
					<dim>1</dim>
					<dim>96</dim>
					<dim>56</dim>
					<dim>56</dim>
				</port>
				<port id="1">
					<dim>24</dim>
					<dim>96</dim>
					<dim>1</dim>
					<dim>1</dim>
				</port>
			</input>
			<output>
				<port id="2" precision="FP32">
					<dim>1</dim>
					<dim>24</dim>
					<dim>56</dim>
					<dim>56</dim>
				</port>
			</output>
		</layer>
		<layer id="36" name="data_add_11544115493081189" type="Const" version="opset1">
			<data offset="30800" size="96" shape="1,24,1,1" element_type="f32"/>
			<rt_info>
				<attribute name="fused_names" version="0" value="data_add_1154411549"/>
			</rt_info>
			<output>
				<port id="0" precision="FP32">
					<dim>1</dim>
					<dim>24</dim>
					<dim>1</dim>
					<dim>1</dim>
				</port>
			</output>
		</layer>
		<layer id="37" name="conv2_2/linear/bn/variance/Fused_Add_" type="Add" version="opset1">
			<data auto_broadcast="numpy"/>
			<rt_info>
				<attribute name="fused_names" version="0" value="conv2_2/linear/bn/variance/Fused_Add_"/>
			</rt_info>
			<input>
				<port id="0">
					<dim>1</dim>
					<dim>24</dim>
					<dim>56</dim>
					<dim>56</dim>
				</port>
				<port id="1">
					<dim>1</dim>
					<dim>24</dim>
					<dim>1</dim>
					<dim>1</dim>
				</port>
			</input>
			<output>
				<port id="2" precision="FP32" names="conv2_2/linear/bn">
					<dim>1</dim>
					<dim>24</dim>
					<dim>56</dim>
					<dim>56</dim>
				</port>
			</output>
		</layer>
		<layer id="38" name="conv3_1/expand/bn/mean/Fused_Mul__copy3101201" type="Const" version="opset1">
			<data offset="30896" size="13824" shape="144,24,1,1" element_type="f32"/>
			<rt_info>
				<attribute name="fused_names" version="0" value="conv3_1/expand/bn/mean/Fused_Mul__copy"/>
			</rt_info>
			<output>
				<port id="0" precision="FP32">
					<dim>144</dim>
					<dim>24</dim>
					<dim>1</dim>
					<dim>1</dim>
				</port>
			</output>
		</layer>
		<layer id="39" name="conv3_1/expand" type="Convolution" version="opset1">
			<data auto_pad="explicit" strides="1,1" dilations="1,1" pads_begin="0,0" pads_end="0,0"/>
			<rt_info>
				<attribute name="fused_names" version="0" value="conv3_1/expand"/>
			</rt_info>
			<input>
				<port id="0">
					<dim>1</dim>
					<dim>24</dim>
					<dim>56</dim>
					<dim>56</dim>
				</port>
				<port id="1">
					<dim>144</dim>
					<dim>24</dim>
					<dim>1</dim>
					<dim>1</dim>
				</port>
			</input>
			<output>
				<port id="2" precision="FP32">
					<dim>1</dim>
					<dim>144</dim>
					<dim>56</dim>
					<dim>56</dim>
				</port>
			</output>
		</layer>
		<layer id="40" name="data_add_11552115573121417" type="Const" version="opset1">
			<data offset="44720" size="576" shape="1,144,1,1" element_type="f32"/>
			<rt_info>
				<attribute name="fused_names" version="0" value="data_add_1155211557"/>
			</rt_info>
			<output>
				<port id="0" precision="FP32">
					<dim>1</dim>
					<dim>144</dim>
					<dim>1</dim>
					<dim>1</dim>
				</port>
			</output>
		</layer>
		<layer id="41" name="conv3_1/expand/bn/variance/Fused_Add_" type="Add" version="opset1">
			<data auto_broadcast="numpy"/>
			<rt_info>
				<attribute name="fused_names" version="0" value="conv3_1/expand/bn/variance/Fused_Add_"/>
			</rt_info>
			<input>
				<port id="0">
					<dim>1</dim>
					<dim>144</dim>
					<dim>56</dim>
					<dim>56</dim>
				</port>
				<port id="1">
					<dim>1</dim>
					<dim>144</dim>
					<dim>1</dim>
					<dim>1</dim>
				</port>
			</input>
			<output>
				<port id="2" precision="FP32" names="conv3_1/expand/bn">
					<dim>1</dim>
					<dim>144</dim>
					<dim>56</dim>
					<dim>56</dim>
				</port>
			</output>
		</layer>
		<layer id="42" name="relu3_1/expand" type="ReLU" version="opset1">
			<rt_info>
				<attribute name="fused_names" version="0" value="relu3_1/expand"/>
			</rt_info>
			<input>
				<port id="0">
					<dim>1</dim>
					<dim>144</dim>
					<dim>56</dim>
					<dim>56</dim>
				</port>
			</input>
			<output>
				<port id="1" precision="FP32" names="conv3_1/expand/bn">
					<dim>1</dim>
					<dim>144</dim>
					<dim>56</dim>
					<dim>56</dim>
				</port>
			</output>
		</layer>
		<layer id="43" name="conv3_1/dwise/bn/mean/Fused_Mul__copy315" type="Const" version="opset1">
			<data offset="45296" size="5184" shape="144,1,1,3,3" element_type="f32"/>
			<rt_info>
				<attribute name="fused_names" version="0" value="conv3_1/dwise/bn/mean/Fused_Mul__copy"/>
			</rt_info>
			<output>
				<port id="0" precision="FP32">
					<dim>144</dim>
					<dim>1</dim>
					<dim>1</dim>
					<dim>3</dim>
					<dim>3</dim>
				</port>
			</output>
		</layer>
		<layer id="44" name="conv3_1/dwise" type="GroupConvolution" version="opset1">
			<data auto_pad="explicit" strides="1,1" dilations="1,1" pads_begin="1,1" pads_end="1,1"/>
			<rt_info>
				<attribute name="fused_names" version="0" value="conv3_1/dwise"/>
			</rt_info>
			<input>
				<port id="0">
					<dim>1</dim>
					<dim>144</dim>
					<dim>56</dim>
					<dim>56</dim>
				</port>
				<port id="1">
					<dim>144</dim>
					<dim>1</dim>
					<dim>1</dim>
					<dim>3</dim>
					<dim>3</dim>
				</port>
			</input>
			<output>
				<port id="2" precision="FP32">
					<dim>1</dim>
					<dim>144</dim>
					<dim>56</dim>
					<dim>56</dim>
				</port>
			</output>
		</layer>
		<layer id="45" name="data_add_11560115653171426" type="Const" version="opset1">
			<data offset="50480" size="576" shape="1,144,1,1" element_type="f32"/>
			<rt_info>
				<attribute name="fused_names" version="0" value="data_add_1156011565"/>
			</rt_info>
			<output>
				<port id="0" precision="FP32">
					<dim>1</dim>
					<dim>144</dim>
					<dim>1</dim>
					<dim>1</dim>
				</port>
			</output>
		</layer>
		<layer id="46" name="conv3_1/dwise/bn/variance/Fused_Add_" type="Add" version="opset1">
			<data auto_broadcast="numpy"/>
			<rt_info>
				<attribute name="fused_names" version="0" value="conv3_1/dwise/bn/variance/Fused_Add_"/>
			</rt_info>
			<input>
				<port id="0">
					<dim>1</dim>
					<dim>144</dim>
					<dim>56</dim>
					<dim>56</dim>
				</port>
				<port id="1">
					<dim>1</dim>
					<dim>144</dim>
					<dim>1</dim>
					<dim>1</dim>
				</port>
			</input>
			<output>
				<port id="2" precision="FP32" names="conv3_1/dwise/bn">
					<dim>1</dim>
					<dim>144</dim>
					<dim>56</dim>
					<dim>56</dim>
				</port>
			</output>
		</layer>
		<layer id="47" name="relu3_1/dwise" type="ReLU" version="opset1">
			<rt_info>
				<attribute name="fused_names" version="0" value="relu3_1/dwise"/>
			</rt_info>
			<input>
				<port id="0">
					<dim>1</dim>
					<dim>144</dim>
					<dim>56</dim>
					<dim>56</dim>
				</port>
			</input>
			<output>
				<port id="1" precision="FP32" names="conv3_1/dwise/bn">
					<dim>1</dim>
					<dim>144</dim>
					<dim>56</dim>
					<dim>56</dim>
				</port>
			</output>
		</layer>
		<layer id="48" name="conv3_1/linear/bn/mean/Fused_Mul__copy3201453" type="Const" version="opset1">
			<data offset="51056" size="13824" shape="24,144,1,1" element_type="f32"/>
			<rt_info>
				<attribute name="fused_names" version="0" value="conv3_1/linear/bn/mean/Fused_Mul__copy"/>
			</rt_info>
			<output>
				<port id="0" precision="FP32">
					<dim>24</dim>
					<dim>144</dim>
					<dim>1</dim>
					<dim>1</dim>
				</port>
			</output>
		</layer>
		<layer id="49" name="conv3_1/linear" type="Convolution" version="opset1">
			<data auto_pad="explicit" strides="1,1" dilations="1,1" pads_begin="0,0" pads_end="0,0"/>
			<rt_info>
				<attribute name="fused_names" version="0" value="conv3_1/linear"/>
			</rt_info>
			<input>
				<port id="0">
					<dim>1</dim>
					<dim>144</dim>
					<dim>56</dim>
					<dim>56</dim>
				</port>
				<port id="1">
					<dim>24</dim>
					<dim>144</dim>
					<dim>1</dim>
					<dim>1</dim>
				</port>
			</input>
			<output>
				<port id="2" precision="FP32">
					<dim>1</dim>
					<dim>24</dim>
					<dim>56</dim>
					<dim>56</dim>
				</port>
			</output>
		</layer>
		<layer id="50" name="data_add_11568115733221369" type="Const" version="opset1">
			<data offset="64880" size="96" shape="1,24,1,1" element_type="f32"/>
			<rt_info>
				<attribute name="fused_names" version="0" value="data_add_1156811573"/>
			</rt_info>
			<output>
				<port id="0" precision="FP32">
					<dim>1</dim>
					<dim>24</dim>
					<dim>1</dim>
					<dim>1</dim>
				</port>
			</output>
		</layer>
		<layer id="51" name="conv3_1/linear/bn/variance/Fused_Add_" type="Add" version="opset1">
			<data auto_broadcast="numpy"/>
			<rt_info>
				<attribute name="fused_names" version="0" value="conv3_1/linear/bn/variance/Fused_Add_"/>
			</rt_info>
			<input>
				<port id="0">
					<dim>1</dim>
					<dim>24</dim>
					<dim>56</dim>
					<dim>56</dim>
				</port>
				<port id="1">
					<dim>1</dim>
					<dim>24</dim>
					<dim>1</dim>
					<dim>1</dim>
				</port>
			</input>
			<output>
				<port id="2" precision="FP32" names="conv3_1/linear/bn">
					<dim>1</dim>
					<dim>24</dim>
					<dim>56</dim>
					<dim>56</dim>
				</port>
			</output>
		</layer>
		<layer id="52" name="block_3_1" type="Add" version="opset1">
			<data auto_broadcast="numpy"/>
			<rt_info>
				<attribute name="fused_names" version="0" value="block_3_1"/>
			</rt_info>
			<input>
				<port id="0">
					<dim>1</dim>
					<dim>24</dim>
					<dim>56</dim>
					<dim>56</dim>
				</port>
				<port id="1">
					<dim>1</dim>
					<dim>24</dim>
					<dim>56</dim>
					<dim>56</dim>
				</port>
			</input>
			<output>
				<port id="2" precision="FP32" names="block_3_1">
					<dim>1</dim>
					<dim>24</dim>
					<dim>56</dim>
					<dim>56</dim>
				</port>
			</output>
		</layer>
		<layer id="53" name="conv3_2/expand/bn/mean/Fused_Mul__copy3251234" type="Const" version="opset1">
			<data offset="64976" size="13824" shape="144,24,1,1" element_type="f32"/>
			<rt_info>
				<attribute name="fused_names" version="0" value="conv3_2/expand/bn/mean/Fused_Mul__copy"/>
			</rt_info>
			<output>
				<port id="0" precision="FP32">
					<dim>144</dim>
					<dim>24</dim>
					<dim>1</dim>
					<dim>1</dim>
				</port>
			</output>
		</layer>
		<layer id="54" name="conv3_2/expand" type="Convolution" version="opset1">
			<data auto_pad="explicit" strides="1,1" dilations="1,1" pads_begin="0,0" pads_end="0,0"/>
			<rt_info>
				<attribute name="fused_names" version="0" value="conv3_2/expand"/>
			</rt_info>
			<input>
				<port id="0">
					<dim>1</dim>
					<dim>24</dim>
					<dim>56</dim>
					<dim>56</dim>
				</port>
				<port id="1">
					<dim>144</dim>
					<dim>24</dim>
					<dim>1</dim>
					<dim>1</dim>
				</port>
			</input>
			<output>
				<port id="2" precision="FP32">
					<dim>1</dim>
					<dim>144</dim>
					<dim>56</dim>
					<dim>56</dim>
				</port>
			</output>
		</layer>
		<layer id="55" name="data_add_11576115813271387" type="Const" version="opset1">
			<data offset="78800" size="576" shape="1,144,1,1" element_type="f32"/>
			<rt_info>
				<attribute name="fused_names" version="0" value="data_add_1157611581"/>
			</rt_info>
			<output>
				<port id="0" precision="FP32">
					<dim>1</dim>
					<dim>144</dim>
					<dim>1</dim>
					<dim>1</dim>
				</port>
			</output>
		</layer>
		<layer id="56" name="conv3_2/expand/bn/variance/Fused_Add_" type="Add" version="opset1">
			<data auto_broadcast="numpy"/>
			<rt_info>
				<attribute name="fused_names" version="0" value="conv3_2/expand/bn/variance/Fused_Add_"/>
			</rt_info>
			<input>
				<port id="0">
					<dim>1</dim>
					<dim>144</dim>
					<dim>56</dim>
					<dim>56</dim>
				</port>
				<port id="1">
					<dim>1</dim>
					<dim>144</dim>
					<dim>1</dim>
					<dim>1</dim>
				</port>
			</input>
			<output>
				<port id="2" precision="FP32" names="conv3_2/expand/bn">
					<dim>1</dim>
					<dim>144</dim>
					<dim>56</dim>
					<dim>56</dim>
				</port>
			</output>
		</layer>
		<layer id="57" name="relu3_2/expand" type="ReLU" version="opset1">
			<rt_info>
				<attribute name="fused_names" version="0" value="relu3_2/expand"/>
			</rt_info>
			<input>
				<port id="0">
					<dim>1</dim>
					<dim>144</dim>
					<dim>56</dim>
					<dim>56</dim>
				</port>
			</input>
			<output>
				<port id="1" precision="FP32" names="conv3_2/expand/bn">
					<dim>1</dim>
					<dim>144</dim>
					<dim>56</dim>
					<dim>56</dim>
				</port>
			</output>
		</layer>
		<layer id="58" name="conv3_2/dwise/bn/mean/Fused_Mul__copy330" type="Const" version="opset1">
			<data offset="79376" size="5184" shape="144,1,1,3,3" element_type="f32"/>
			<rt_info>
				<attribute name="fused_names" version="0" value="conv3_2/dwise/bn/mean/Fused_Mul__copy"/>
			</rt_info>
			<output>
				<port id="0" precision="FP32">
					<dim>144</dim>
					<dim>1</dim>
					<dim>1</dim>
					<dim>3</dim>
					<dim>3</dim>
				</port>
			</output>
		</layer>
		<layer id="59" name="conv3_2/dwise" type="GroupConvolution" version="opset1">
			<data auto_pad="explicit" strides="2,2" dilations="1,1" pads_begin="1,1" pads_end="1,1"/>
			<rt_info>
				<attribute name="fused_names" version="0" value="conv3_2/dwise"/>
			</rt_info>
			<input>
				<port id="0">
					<dim>1</dim>
					<dim>144</dim>
					<dim>56</dim>
					<dim>56</dim>
				</port>
				<port id="1">
					<dim>144</dim>
					<dim>1</dim>
					<dim>1</dim>
					<dim>3</dim>
					<dim>3</dim>
				</port>
			</input>
			<output>
				<port id="2" precision="FP32">
					<dim>1</dim>
					<dim>144</dim>
					<dim>28</dim>
					<dim>28</dim>
				</port>
			</output>
		</layer>
		<layer id="60" name="data_add_11584115893321258" type="Const" version="opset1">
			<data offset="84560" size="576" shape="1,144,1,1" element_type="f32"/>
			<rt_info>
				<attribute name="fused_names" version="0" value="data_add_1158411589"/>
			</rt_info>
			<output>
				<port id="0" precision="FP32">
					<dim>1</dim>
					<dim>144</dim>
					<dim>1</dim>
					<dim>1</dim>
				</port>
			</output>
		</layer>
		<layer id="61" name="conv3_2/dwise/bn/variance/Fused_Add_" type="Add" version="opset1">
			<data auto_broadcast="numpy"/>
			<rt_info>
				<attribute name="fused_names" version="0" value="conv3_2/dwise/bn/variance/Fused_Add_"/>
			</rt_info>
			<input>
				<port id="0">
					<dim>1</dim>
					<dim>144</dim>
					<dim>28</dim>
					<dim>28</dim>
				</port>
				<port id="1">
					<dim>1</dim>
					<dim>144</dim>
					<dim>1</dim>
					<dim>1</dim>
				</port>
			</input>
			<output>
				<port id="2" precision="FP32" names="conv3_2/dwise/bn">
					<dim>1</dim>
					<dim>144</dim>
					<dim>28</dim>
					<dim>28</dim>
				</port>
			</output>
		</layer>
		<layer id="62" name="relu3_2/dwise" type="ReLU" version="opset1">
			<rt_info>
				<attribute name="fused_names" version="0" value="relu3_2/dwise"/>
			</rt_info>
			<input>
				<port id="0">
					<dim>1</dim>
					<dim>144</dim>
					<dim>28</dim>
					<dim>28</dim>
				</port>
			</input>
			<output>
				<port id="1" precision="FP32" names="conv3_2/dwise/bn">
					<dim>1</dim>
					<dim>144</dim>
					<dim>28</dim>
					<dim>28</dim>
				</port>
			</output>
		</layer>
		<layer id="63" name="conv3_2/linear/bn/mean/Fused_Mul__copy3351336" type="Const" version="opset1">
			<data offset="85136" size="18432" shape="32,144,1,1" element_type="f32"/>
			<rt_info>
				<attribute name="fused_names" version="0" value="conv3_2/linear/bn/mean/Fused_Mul__copy"/>
			</rt_info>
			<output>
				<port id="0" precision="FP32">
					<dim>32</dim>
					<dim>144</dim>
					<dim>1</dim>
					<dim>1</dim>
				</port>
			</output>
		</layer>
		<layer id="64" name="conv3_2/linear" type="Convolution" version="opset1">
			<data auto_pad="explicit" strides="1,1" dilations="1,1" pads_begin="0,0" pads_end="0,0"/>
			<rt_info>
				<attribute name="fused_names" version="0" value="conv3_2/linear"/>
			</rt_info>
			<input>
				<port id="0">
					<dim>1</dim>
					<dim>144</dim>
					<dim>28</dim>
					<dim>28</dim>
				</port>
				<port id="1">
					<dim>32</dim>
					<dim>144</dim>
					<dim>1</dim>
					<dim>1</dim>
				</port>
			</input>
			<output>
				<port id="2" precision="FP32">
					<dim>1</dim>
					<dim>32</dim>
					<dim>28</dim>
					<dim>28</dim>
				</port>
			</output>
		</layer>
		<layer id="65" name="data_add_11592115973371183" type="Const" version="opset1">
			<data offset="103568" size="128" shape="1,32,1,1" element_type="f32"/>
			<rt_info>
				<attribute name="fused_names" version="0" value="data_add_1159211597"/>
			</rt_info>
			<output>
				<port id="0" precision="FP32">
					<dim>1</dim>
					<dim>32</dim>
					<dim>1</dim>
					<dim>1</dim>
				</port>
			</output>
		</layer>
		<layer id="66" name="conv3_2/linear/bn/variance/Fused_Add_" type="Add" version="opset1">
			<data auto_broadcast="numpy"/>
			<rt_info>
				<attribute name="fused_names" version="0" value="conv3_2/linear/bn/variance/Fused_Add_"/>
			</rt_info>
			<input>
				<port id="0">
					<dim>1</dim>
					<dim>32</dim>
					<dim>28</dim>
					<dim>28</dim>
				</port>
				<port id="1">
					<dim>1</dim>
					<dim>32</dim>
					<dim>1</dim>
					<dim>1</dim>
				</port>
			</input>
			<output>
				<port id="2" precision="FP32" names="conv3_2/linear/bn">
					<dim>1</dim>
					<dim>32</dim>
					<dim>28</dim>
					<dim>28</dim>
				</port>
			</output>
		</layer>
		<layer id="67" name="conv4_1/expand/bn/mean/Fused_Mul__copy3391213" type="Const" version="opset1">
			<data offset="103696" size="24576" shape="192,32,1,1" element_type="f32"/>
			<rt_info>
				<attribute name="fused_names" version="0" value="conv4_1/expand/bn/mean/Fused_Mul__copy"/>
			</rt_info>
			<output>
				<port id="0" precision="FP32">
					<dim>192</dim>
					<dim>32</dim>
					<dim>1</dim>
					<dim>1</dim>
				</port>
			</output>
		</layer>
		<layer id="68" name="conv4_1/expand" type="Convolution" version="opset1">
			<data auto_pad="explicit" strides="1,1" dilations="1,1" pads_begin="0,0" pads_end="0,0"/>
			<rt_info>
				<attribute name="fused_names" version="0" value="conv4_1/expand"/>
			</rt_info>
			<input>
				<port id="0">
					<dim>1</dim>
					<dim>32</dim>
					<dim>28</dim>
					<dim>28</dim>
				</port>
				<port id="1">
					<dim>192</dim>
					<dim>32</dim>
					<dim>1</dim>
					<dim>1</dim>
				</port>
			</input>
			<output>
				<port id="2" precision="FP32">
					<dim>1</dim>
					<dim>192</dim>
					<dim>28</dim>
					<dim>28</dim>
				</port>
			</output>
		</layer>
		<layer id="69" name="data_add_11600116053411225" type="Const" version="opset1">
			<data offset="128272" size="768" shape="1,192,1,1" element_type="f32"/>
			<rt_info>
				<attribute name="fused_names" version="0" value="data_add_1160011605"/>
			</rt_info>
			<output>
				<port id="0" precision="FP32">
					<dim>1</dim>
					<dim>192</dim>
					<dim>1</dim>
					<dim>1</dim>
				</port>
			</output>
		</layer>
		<layer id="70" name="conv4_1/expand/bn/variance/Fused_Add_" type="Add" version="opset1">
			<data auto_broadcast="numpy"/>
			<rt_info>
				<attribute name="fused_names" version="0" value="conv4_1/expand/bn/variance/Fused_Add_"/>
			</rt_info>
			<input>
				<port id="0">
					<dim>1</dim>
					<dim>192</dim>
					<dim>28</dim>
					<dim>28</dim>
				</port>
				<port id="1">
					<dim>1</dim>
					<dim>192</dim>
					<dim>1</dim>
					<dim>1</dim>
				</port>
			</input>
			<output>
				<port id="2" precision="FP32" names="conv4_1/expand/bn">
					<dim>1</dim>
					<dim>192</dim>
					<dim>28</dim>
					<dim>28</dim>
				</port>
			</output>
		</layer>
		<layer id="71" name="relu4_1/expand" type="ReLU" version="opset1">
			<rt_info>
				<attribute name="fused_names" version="0" value="relu4_1/expand"/>
			</rt_info>
			<input>
				<port id="0">
					<dim>1</dim>
					<dim>192</dim>
					<dim>28</dim>
					<dim>28</dim>
				</port>
			</input>
			<output>
				<port id="1" precision="FP32" names="conv4_1/expand/bn">
					<dim>1</dim>
					<dim>192</dim>
					<dim>28</dim>
					<dim>28</dim>
				</port>
			</output>
		</layer>
		<layer id="72" name="conv4_1/dwise/bn/mean/Fused_Mul__copy344" type="Const" version="opset1">
			<data offset="129040" size="6912" shape="192,1,1,3,3" element_type="f32"/>
			<rt_info>
				<attribute name="fused_names" version="0" value="conv4_1/dwise/bn/mean/Fused_Mul__copy"/>
			</rt_info>
			<output>
				<port id="0" precision="FP32">
					<dim>192</dim>
					<dim>1</dim>
					<dim>1</dim>
					<dim>3</dim>
					<dim>3</dim>
				</port>
			</output>
		</layer>
		<layer id="73" name="conv4_1/dwise" type="GroupConvolution" version="opset1">
			<data auto_pad="explicit" strides="1,1" dilations="1,1" pads_begin="1,1" pads_end="1,1"/>
			<rt_info>
				<attribute name="fused_names" version="0" value="conv4_1/dwise"/>
			</rt_info>
			<input>
				<port id="0">
					<dim>1</dim>
					<dim>192</dim>
					<dim>28</dim>
					<dim>28</dim>
				</port>
				<port id="1">
					<dim>192</dim>
					<dim>1</dim>
					<dim>1</dim>
					<dim>3</dim>
					<dim>3</dim>
				</port>
			</input>
			<output>
				<port id="2" precision="FP32">
					<dim>1</dim>
					<dim>192</dim>
					<dim>28</dim>
					<dim>28</dim>
				</port>
			</output>
		</layer>
		<layer id="74" name="data_add_11608116133461396" type="Const" version="opset1">
			<data offset="135952" size="768" shape="1,192,1,1" element_type="f32"/>
			<rt_info>
				<attribute name="fused_names" version="0" value="data_add_1160811613"/>
			</rt_info>
			<output>
				<port id="0" precision="FP32">
					<dim>1</dim>
					<dim>192</dim>
					<dim>1</dim>
					<dim>1</dim>
				</port>
			</output>
		</layer>
		<layer id="75" name="conv4_1/dwise/bn/variance/Fused_Add_" type="Add" version="opset1">
			<data auto_broadcast="numpy"/>
			<rt_info>
				<attribute name="fused_names" version="0" value="conv4_1/dwise/bn/variance/Fused_Add_"/>
			</rt_info>
			<input>
				<port id="0">
					<dim>1</dim>
					<dim>192</dim>
					<dim>28</dim>
					<dim>28</dim>
				</port>
				<port id="1">
					<dim>1</dim>
					<dim>192</dim>
					<dim>1</dim>
					<dim>1</dim>
				</port>
			</input>
			<output>
				<port id="2" precision="FP32" names="conv4_1/dwise/bn">
					<dim>1</dim>
					<dim>192</dim>
					<dim>28</dim>
					<dim>28</dim>
				</port>
			</output>
		</layer>
		<layer id="76" name="relu4_1/dwise" type="ReLU" version="opset1">
			<rt_info>
				<attribute name="fused_names" version="0" value="relu4_1/dwise"/>
			</rt_info>
			<input>
				<port id="0">
					<dim>1</dim>
					<dim>192</dim>
					<dim>28</dim>
					<dim>28</dim>
				</port>
			</input>
			<output>
				<port id="1" precision="FP32" names="conv4_1/dwise/bn">
					<dim>1</dim>
					<dim>192</dim>
					<dim>28</dim>
					<dim>28</dim>
				</port>
			</output>
		</layer>
		<layer id="77" name="conv4_1/linear/bn/mean/Fused_Mul__copy3491351" type="Const" version="opset1">
			<data offset="136720" size="24576" shape="32,192,1,1" element_type="f32"/>
			<rt_info>
				<attribute name="fused_names" version="0" value="conv4_1/linear/bn/mean/Fused_Mul__copy"/>
			</rt_info>
			<output>
				<port id="0" precision="FP32">
					<dim>32</dim>
					<dim>192</dim>
					<dim>1</dim>
					<dim>1</dim>
				</port>
			</output>
		</layer>
		<layer id="78" name="conv4_1/linear" type="Convolution" version="opset1">
			<data auto_pad="explicit" strides="1,1" dilations="1,1" pads_begin="0,0" pads_end="0,0"/>
			<rt_info>
				<attribute name="fused_names" version="0" value="conv4_1/linear"/>
			</rt_info>
			<input>
				<port id="0">
					<dim>1</dim>
					<dim>192</dim>
					<dim>28</dim>
					<dim>28</dim>
				</port>
				<port id="1">
					<dim>32</dim>
					<dim>192</dim>
					<dim>1</dim>
					<dim>1</dim>
				</port>
			</input>
			<output>
				<port id="2" precision="FP32">
					<dim>1</dim>
					<dim>32</dim>
					<dim>28</dim>
					<dim>28</dim>
				</port>
			</output>
		</layer>
		<layer id="79" name="data_add_11616116213511435" type="Const" version="opset1">
			<data offset="161296" size="128" shape="1,32,1,1" element_type="f32"/>
			<rt_info>
				<attribute name="fused_names" version="0" value="data_add_1161611621"/>
			</rt_info>
			<output>
				<port id="0" precision="FP32">
					<dim>1</dim>
					<dim>32</dim>
					<dim>1</dim>
					<dim>1</dim>
				</port>
			</output>
		</layer>
		<layer id="80" name="conv4_1/linear/bn/variance/Fused_Add_" type="Add" version="opset1">
			<data auto_broadcast="numpy"/>
			<rt_info>
				<attribute name="fused_names" version="0" value="conv4_1/linear/bn/variance/Fused_Add_"/>
			</rt_info>
			<input>
				<port id="0">
					<dim>1</dim>
					<dim>32</dim>
					<dim>28</dim>
					<dim>28</dim>
				</port>
				<port id="1">
					<dim>1</dim>
					<dim>32</dim>
					<dim>1</dim>
					<dim>1</dim>
				</port>
			</input>
			<output>
				<port id="2" precision="FP32" names="conv4_1/linear/bn">
					<dim>1</dim>
					<dim>32</dim>
					<dim>28</dim>
					<dim>28</dim>
				</port>
			</output>
		</layer>
		<layer id="81" name="block_4_1" type="Add" version="opset1">
			<data auto_broadcast="numpy"/>
			<rt_info>
				<attribute name="fused_names" version="0" value="block_4_1"/>
			</rt_info>
			<input>
				<port id="0">
					<dim>1</dim>
					<dim>32</dim>
					<dim>28</dim>
					<dim>28</dim>
				</port>
				<port id="1">
					<dim>1</dim>
					<dim>32</dim>
					<dim>28</dim>
					<dim>28</dim>
				</port>
			</input>
			<output>
				<port id="2" precision="FP32" names="block_4_1">
					<dim>1</dim>
					<dim>32</dim>
					<dim>28</dim>
					<dim>28</dim>
				</port>
			</output>
		</layer>
		<layer id="82" name="conv4_2/expand/bn/mean/Fused_Mul__copy3541300" type="Const" version="opset1">
			<data offset="161424" size="24576" shape="192,32,1,1" element_type="f32"/>
			<rt_info>
				<attribute name="fused_names" version="0" value="conv4_2/expand/bn/mean/Fused_Mul__copy"/>
			</rt_info>
			<output>
				<port id="0" precision="FP32">
					<dim>192</dim>
					<dim>32</dim>
					<dim>1</dim>
					<dim>1</dim>
				</port>
			</output>
		</layer>
		<layer id="83" name="conv4_2/expand" type="Convolution" version="opset1">
			<data auto_pad="explicit" strides="1,1" dilations="1,1" pads_begin="0,0" pads_end="0,0"/>
			<rt_info>
				<attribute name="fused_names" version="0" value="conv4_2/expand"/>
			</rt_info>
			<input>
				<port id="0">
					<dim>1</dim>
					<dim>32</dim>
					<dim>28</dim>
					<dim>28</dim>
				</port>
				<port id="1">
					<dim>192</dim>
					<dim>32</dim>
					<dim>1</dim>
					<dim>1</dim>
				</port>
			</input>
			<output>
				<port id="2" precision="FP32">
					<dim>1</dim>
					<dim>192</dim>
					<dim>28</dim>
					<dim>28</dim>
				</port>
			</output>
		</layer>
		<layer id="84" name="data_add_11624116293561420" type="Const" version="opset1">
			<data offset="186000" size="768" shape="1,192,1,1" element_type="f32"/>
			<rt_info>
				<attribute name="fused_names" version="0" value="data_add_1162411629"/>
			</rt_info>
			<output>
				<port id="0" precision="FP32">
					<dim>1</dim>
					<dim>192</dim>
					<dim>1</dim>
					<dim>1</dim>
				</port>
			</output>
		</layer>
		<layer id="85" name="conv4_2/expand/bn/variance/Fused_Add_" type="Add" version="opset1">
			<data auto_broadcast="numpy"/>
			<rt_info>
				<attribute name="fused_names" version="0" value="conv4_2/expand/bn/variance/Fused_Add_"/>
			</rt_info>
			<input>
				<port id="0">
					<dim>1</dim>
					<dim>192</dim>
					<dim>28</dim>
					<dim>28</dim>
				</port>
				<port id="1">
					<dim>1</dim>
					<dim>192</dim>
					<dim>1</dim>
					<dim>1</dim>
				</port>
			</input>
			<output>
				<port id="2" precision="FP32" names="conv4_2/expand/bn">
					<dim>1</dim>
					<dim>192</dim>
					<dim>28</dim>
					<dim>28</dim>
				</port>
			</output>
		</layer>
		<layer id="86" name="relu4_2/expand" type="ReLU" version="opset1">
			<rt_info>
				<attribute name="fused_names" version="0" value="relu4_2/expand"/>
			</rt_info>
			<input>
				<port id="0">
					<dim>1</dim>
					<dim>192</dim>
					<dim>28</dim>
					<dim>28</dim>
				</port>
			</input>
			<output>
				<port id="1" precision="FP32" names="conv4_2/expand/bn">
					<dim>1</dim>
					<dim>192</dim>
					<dim>28</dim>
					<dim>28</dim>
				</port>
			</output>
		</layer>
		<layer id="87" name="conv4_2/dwise/bn/mean/Fused_Mul__copy359" type="Const" version="opset1">
			<data offset="186768" size="6912" shape="192,1,1,3,3" element_type="f32"/>
			<rt_info>
				<attribute name="fused_names" version="0" value="conv4_2/dwise/bn/mean/Fused_Mul__copy"/>
			</rt_info>
			<output>
				<port id="0" precision="FP32">
					<dim>192</dim>
					<dim>1</dim>
					<dim>1</dim>
					<dim>3</dim>
					<dim>3</dim>
				</port>
			</output>
		</layer>
		<layer id="88" name="conv4_2/dwise" type="GroupConvolution" version="opset1">
			<data auto_pad="explicit" strides="1,1" dilations="1,1" pads_begin="1,1" pads_end="1,1"/>
			<rt_info>
				<attribute name="fused_names" version="0" value="conv4_2/dwise"/>
			</rt_info>
			<input>
				<port id="0">
					<dim>1</dim>
					<dim>192</dim>
					<dim>28</dim>
					<dim>28</dim>
				</port>
				<port id="1">
					<dim>192</dim>
					<dim>1</dim>
					<dim>1</dim>
					<dim>3</dim>
					<dim>3</dim>
				</port>
			</input>
			<output>
				<port id="2" precision="FP32">
					<dim>1</dim>
					<dim>192</dim>
					<dim>28</dim>
					<dim>28</dim>
				</port>
			</output>
		</layer>
		<layer id="89" name="data_add_11632116373611210" type="Const" version="opset1">
			<data offset="193680" size="768" shape="1,192,1,1" element_type="f32"/>
			<rt_info>
				<attribute name="fused_names" version="0" value="data_add_1163211637"/>
			</rt_info>
			<output>
				<port id="0" precision="FP32">
					<dim>1</dim>
					<dim>192</dim>
					<dim>1</dim>
					<dim>1</dim>
				</port>
			</output>
		</layer>
		<layer id="90" name="conv4_2/dwise/bn/variance/Fused_Add_" type="Add" version="opset1">
			<data auto_broadcast="numpy"/>
			<rt_info>
				<attribute name="fused_names" version="0" value="conv4_2/dwise/bn/variance/Fused_Add_"/>
			</rt_info>
			<input>
				<port id="0">
					<dim>1</dim>
					<dim>192</dim>
					<dim>28</dim>
					<dim>28</dim>
				</port>
				<port id="1">
					<dim>1</dim>
					<dim>192</dim>
					<dim>1</dim>
					<dim>1</dim>
				</port>
			</input>
			<output>
				<port id="2" precision="FP32" names="conv4_2/dwise/bn">
					<dim>1</dim>
					<dim>192</dim>
					<dim>28</dim>
					<dim>28</dim>
				</port>
			</output>
		</layer>
		<layer id="91" name="relu4_2/dwise" type="ReLU" version="opset1">
			<rt_info>
				<attribute name="fused_names" version="0" value="relu4_2/dwise"/>
			</rt_info>
			<input>
				<port id="0">
					<dim>1</dim>
					<dim>192</dim>
					<dim>28</dim>
					<dim>28</dim>
				</port>
			</input>
			<output>
				<port id="1" precision="FP32" names="conv4_2/dwise/bn">
					<dim>1</dim>
					<dim>192</dim>
					<dim>28</dim>
					<dim>28</dim>
				</port>
			</output>
		</layer>
		<layer id="92" name="conv4_2/linear/bn/mean/Fused_Mul__copy3641168" type="Const" version="opset1">
			<data offset="194448" size="24576" shape="32,192,1,1" element_type="f32"/>
			<rt_info>
				<attribute name="fused_names" version="0" value="conv4_2/linear/bn/mean/Fused_Mul__copy"/>
			</rt_info>
			<output>
				<port id="0" precision="FP32">
					<dim>32</dim>
					<dim>192</dim>
					<dim>1</dim>
					<dim>1</dim>
				</port>
			</output>
		</layer>
		<layer id="93" name="conv4_2/linear" type="Convolution" version="opset1">
			<data auto_pad="explicit" strides="1,1" dilations="1,1" pads_begin="0,0" pads_end="0,0"/>
			<rt_info>
				<attribute name="fused_names" version="0" value="conv4_2/linear"/>
			</rt_info>
			<input>
				<port id="0">
					<dim>1</dim>
					<dim>192</dim>
					<dim>28</dim>
					<dim>28</dim>
				</port>
				<port id="1">
					<dim>32</dim>
					<dim>192</dim>
					<dim>1</dim>
					<dim>1</dim>
				</port>
			</input>
			<output>
				<port id="2" precision="FP32">
					<dim>1</dim>
					<dim>32</dim>
					<dim>28</dim>
					<dim>28</dim>
				</port>
			</output>
		</layer>
		<layer id="94" name="data_add_11640116453661246" type="Const" version="opset1">
			<data offset="219024" size="128" shape="1,32,1,1" element_type="f32"/>
			<rt_info>
				<attribute name="fused_names" version="0" value="data_add_1164011645"/>
			</rt_info>
			<output>
				<port id="0" precision="FP32">
					<dim>1</dim>
					<dim>32</dim>
					<dim>1</dim>
					<dim>1</dim>
				</port>
			</output>
		</layer>
		<layer id="95" name="conv4_2/linear/bn/variance/Fused_Add_" type="Add" version="opset1">
			<data auto_broadcast="numpy"/>
			<rt_info>
				<attribute name="fused_names" version="0" value="conv4_2/linear/bn/variance/Fused_Add_"/>
			</rt_info>
			<input>
				<port id="0">
					<dim>1</dim>
					<dim>32</dim>
					<dim>28</dim>
					<dim>28</dim>
				</port>
				<port id="1">
					<dim>1</dim>
					<dim>32</dim>
					<dim>1</dim>
					<dim>1</dim>
				</port>
			</input>
			<output>
				<port id="2" precision="FP32" names="conv4_2/linear/bn">
					<dim>1</dim>
					<dim>32</dim>
					<dim>28</dim>
					<dim>28</dim>
				</port>
			</output>
		</layer>
		<layer id="96" name="block_4_2" type="Add" version="opset1">
			<data auto_broadcast="numpy"/>
			<rt_info>
				<attribute name="fused_names" version="0" value="block_4_2"/>
			</rt_info>
			<input>
				<port id="0">
					<dim>1</dim>
					<dim>32</dim>
					<dim>28</dim>
					<dim>28</dim>
				</port>
				<port id="1">
					<dim>1</dim>
					<dim>32</dim>
					<dim>28</dim>
					<dim>28</dim>
				</port>
			</input>
			<output>
				<port id="2" precision="FP32" names="block_4_2">
					<dim>1</dim>
					<dim>32</dim>
					<dim>28</dim>
					<dim>28</dim>
				</port>
			</output>
		</layer>
		<layer id="97" name="conv4_3/expand/bn/mean/Fused_Mul__copy3691480" type="Const" version="opset1">
			<data offset="219152" size="24576" shape="192,32,1,1" element_type="f32"/>
			<rt_info>
				<attribute name="fused_names" version="0" value="conv4_3/expand/bn/mean/Fused_Mul__copy"/>
			</rt_info>
			<output>
				<port id="0" precision="FP32">
					<dim>192</dim>
					<dim>32</dim>
					<dim>1</dim>
					<dim>1</dim>
				</port>
			</output>
		</layer>
		<layer id="98" name="conv4_3/expand" type="Convolution" version="opset1">
			<data auto_pad="explicit" strides="1,1" dilations="1,1" pads_begin="0,0" pads_end="0,0"/>
			<rt_info>
				<attribute name="fused_names" version="0" value="conv4_3/expand"/>
			</rt_info>
			<input>
				<port id="0">
					<dim>1</dim>
					<dim>32</dim>
					<dim>28</dim>
					<dim>28</dim>
				</port>
				<port id="1">
					<dim>192</dim>
					<dim>32</dim>
					<dim>1</dim>
					<dim>1</dim>
				</port>
			</input>
			<output>
				<port id="2" precision="FP32">
					<dim>1</dim>
					<dim>192</dim>
					<dim>28</dim>
					<dim>28</dim>
				</port>
			</output>
		</layer>
		<layer id="99" name="data_add_11648116533711294" type="Const" version="opset1">
			<data offset="243728" size="768" shape="1,192,1,1" element_type="f32"/>
			<rt_info>
				<attribute name="fused_names" version="0" value="data_add_1164811653"/>
			</rt_info>
			<output>
				<port id="0" precision="FP32">
					<dim>1</dim>
					<dim>192</dim>
					<dim>1</dim>
					<dim>1</dim>
				</port>
			</output>
		</layer>
		<layer id="100" name="conv4_3/expand/bn/variance/Fused_Add_" type="Add" version="opset1">
			<data auto_broadcast="numpy"/>
			<rt_info>
				<attribute name="fused_names" version="0" value="conv4_3/expand/bn/variance/Fused_Add_"/>
			</rt_info>
			<input>
				<port id="0">
					<dim>1</dim>
					<dim>192</dim>
					<dim>28</dim>
					<dim>28</dim>
				</port>
				<port id="1">
					<dim>1</dim>
					<dim>192</dim>
					<dim>1</dim>
					<dim>1</dim>
				</port>
			</input>
			<output>
				<port id="2" precision="FP32" names="conv4_3/expand/bn">
					<dim>1</dim>
					<dim>192</dim>
					<dim>28</dim>
					<dim>28</dim>
				</port>
			</output>
		</layer>
		<layer id="101" name="relu4_3/expand" type="ReLU" version="opset1">
			<rt_info>
				<attribute name="fused_names" version="0" value="relu4_3/expand"/>
			</rt_info>
			<input>
				<port id="0">
					<dim>1</dim>
					<dim>192</dim>
					<dim>28</dim>
					<dim>28</dim>
				</port>
			</input>
			<output>
				<port id="1" precision="FP32" names="conv4_3/expand/bn">
					<dim>1</dim>
					<dim>192</dim>
					<dim>28</dim>
					<dim>28</dim>
				</port>
			</output>
		</layer>
		<layer id="102" name="conv4_3/dwise/bn/mean/Fused_Mul__copy374" type="Const" version="opset1">
			<data offset="244496" size="6912" shape="192,1,1,3,3" element_type="f32"/>
			<rt_info>
				<attribute name="fused_names" version="0" value="conv4_3/dwise/bn/mean/Fused_Mul__copy"/>
			</rt_info>
			<output>
				<port id="0" precision="FP32">
					<dim>192</dim>
					<dim>1</dim>
					<dim>1</dim>
					<dim>3</dim>
					<dim>3</dim>
				</port>
			</output>
		</layer>
		<layer id="103" name="conv4_3/dwise" type="GroupConvolution" version="opset1">
			<data auto_pad="explicit" strides="1,1" dilations="1,1" pads_begin="1,1" pads_end="1,1"/>
			<rt_info>
				<attribute name="fused_names" version="0" value="conv4_3/dwise"/>
			</rt_info>
			<input>
				<port id="0">
					<dim>1</dim>
					<dim>192</dim>
					<dim>28</dim>
					<dim>28</dim>
				</port>
				<port id="1">
					<dim>192</dim>
					<dim>1</dim>
					<dim>1</dim>
					<dim>3</dim>
					<dim>3</dim>
				</port>
			</input>
			<output>
				<port id="2" precision="FP32">
					<dim>1</dim>
					<dim>192</dim>
					<dim>28</dim>
					<dim>28</dim>
				</port>
			</output>
		</layer>
		<layer id="104" name="data_add_11656116613761312" type="Const" version="opset1">
			<data offset="251408" size="768" shape="1,192,1,1" element_type="f32"/>
			<rt_info>
				<attribute name="fused_names" version="0" value="data_add_1165611661"/>
			</rt_info>
			<output>
				<port id="0" precision="FP32">
					<dim>1</dim>
					<dim>192</dim>
					<dim>1</dim>
					<dim>1</dim>
				</port>
			</output>
		</layer>
		<layer id="105" name="conv4_3/dwise/bn/variance/Fused_Add_" type="Add" version="opset1">
			<data auto_broadcast="numpy"/>
			<rt_info>
				<attribute name="fused_names" version="0" value="conv4_3/dwise/bn/variance/Fused_Add_"/>
			</rt_info>
			<input>
				<port id="0">
					<dim>1</dim>
					<dim>192</dim>
					<dim>28</dim>
					<dim>28</dim>
				</port>
				<port id="1">
					<dim>1</dim>
					<dim>192</dim>
					<dim>1</dim>
					<dim>1</dim>
				</port>
			</input>
			<output>
				<port id="2" precision="FP32" names="conv4_3/dwise/bn">
					<dim>1</dim>
					<dim>192</dim>
					<dim>28</dim>
					<dim>28</dim>
				</port>
			</output>
		</layer>
		<layer id="106" name="relu4_3/dwise" type="ReLU" version="opset1">
			<rt_info>
				<attribute name="fused_names" version="0" value="relu4_3/dwise"/>
			</rt_info>
			<input>
				<port id="0">
					<dim>1</dim>
					<dim>192</dim>
					<dim>28</dim>
					<dim>28</dim>
				</port>
			</input>
			<output>
				<port id="1" precision="FP32" names="conv4_3/dwise/bn">
					<dim>1</dim>
					<dim>192</dim>
					<dim>28</dim>
					<dim>28</dim>
				</port>
			</output>
		</layer>
		<layer id="107" name="conv4_3/linear/bn/mean/Fused_Mul__copy3791414" type="Const" version="opset1">
			<data offset="252176" size="49152" shape="64,192,1,1" element_type="f32"/>
			<rt_info>
				<attribute name="fused_names" version="0" value="conv4_3/linear/bn/mean/Fused_Mul__copy"/>
			</rt_info>
			<output>
				<port id="0" precision="FP32">
					<dim>64</dim>
					<dim>192</dim>
					<dim>1</dim>
					<dim>1</dim>
				</port>
			</output>
		</layer>
		<layer id="108" name="conv4_3/linear" type="Convolution" version="opset1">
			<data auto_pad="explicit" strides="1,1" dilations="1,1" pads_begin="0,0" pads_end="0,0"/>
			<rt_info>
				<attribute name="fused_names" version="0" value="conv4_3/linear"/>
			</rt_info>
			<input>
				<port id="0">
					<dim>1</dim>
					<dim>192</dim>
					<dim>28</dim>
					<dim>28</dim>
				</port>
				<port id="1">
					<dim>64</dim>
					<dim>192</dim>
					<dim>1</dim>
					<dim>1</dim>
				</port>
			</input>
			<output>
				<port id="2" precision="FP32">
					<dim>1</dim>
					<dim>64</dim>
					<dim>28</dim>
					<dim>28</dim>
				</port>
			</output>
		</layer>
		<layer id="109" name="data_add_11664116693811408" type="Const" version="opset1">
			<data offset="301328" size="256" shape="1,64,1,1" element_type="f32"/>
			<rt_info>
				<attribute name="fused_names" version="0" value="data_add_1166411669"/>
			</rt_info>
			<output>
				<port id="0" precision="FP32">
					<dim>1</dim>
					<dim>64</dim>
					<dim>1</dim>
					<dim>1</dim>
				</port>
			</output>
		</layer>
		<layer id="110" name="conv4_3/linear/bn/variance/Fused_Add_" type="Add" version="opset1">
			<data auto_broadcast="numpy"/>
			<rt_info>
				<attribute name="fused_names" version="0" value="conv4_3/linear/bn/variance/Fused_Add_"/>
			</rt_info>
			<input>
				<port id="0">
					<dim>1</dim>
					<dim>64</dim>
					<dim>28</dim>
					<dim>28</dim>
				</port>
				<port id="1">
					<dim>1</dim>
					<dim>64</dim>
					<dim>1</dim>
					<dim>1</dim>
				</port>
			</input>
			<output>
				<port id="2" precision="FP32" names="conv4_3/linear/bn">
					<dim>1</dim>
					<dim>64</dim>
					<dim>28</dim>
					<dim>28</dim>
				</port>
			</output>
		</layer>
		<layer id="111" name="conv4_4/expand/bn/mean/Fused_Mul__copy3831318" type="Const" version="opset1">
			<data offset="301584" size="98304" shape="384,64,1,1" element_type="f32"/>
			<rt_info>
				<attribute name="fused_names" version="0" value="conv4_4/expand/bn/mean/Fused_Mul__copy"/>
			</rt_info>
			<output>
				<port id="0" precision="FP32">
					<dim>384</dim>
					<dim>64</dim>
					<dim>1</dim>
					<dim>1</dim>
				</port>
			</output>
		</layer>
		<layer id="112" name="conv4_4/expand" type="Convolution" version="opset1">
			<data auto_pad="explicit" strides="1,1" dilations="1,1" pads_begin="0,0" pads_end="0,0"/>
			<rt_info>
				<attribute name="fused_names" version="0" value="conv4_4/expand"/>
			</rt_info>
			<input>
				<port id="0">
					<dim>1</dim>
					<dim>64</dim>
					<dim>28</dim>
					<dim>28</dim>
				</port>
				<port id="1">
					<dim>384</dim>
					<dim>64</dim>
					<dim>1</dim>
					<dim>1</dim>
				</port>
			</input>
			<output>
				<port id="2" precision="FP32">
					<dim>1</dim>
					<dim>384</dim>
					<dim>28</dim>
					<dim>28</dim>
				</port>
			</output>
		</layer>
		<layer id="113" name="data_add_11672116773851399" type="Const" version="opset1">
			<data offset="399888" size="1536" shape="1,384,1,1" element_type="f32"/>
			<rt_info>
				<attribute name="fused_names" version="0" value="data_add_1167211677"/>
			</rt_info>
			<output>
				<port id="0" precision="FP32">
					<dim>1</dim>
					<dim>384</dim>
					<dim>1</dim>
					<dim>1</dim>
				</port>
			</output>
		</layer>
		<layer id="114" name="conv4_4/expand/bn/variance/Fused_Add_" type="Add" version="opset1">
			<data auto_broadcast="numpy"/>
			<rt_info>
				<attribute name="fused_names" version="0" value="conv4_4/expand/bn/variance/Fused_Add_"/>
			</rt_info>
			<input>
				<port id="0">
					<dim>1</dim>
					<dim>384</dim>
					<dim>28</dim>
					<dim>28</dim>
				</port>
				<port id="1">
					<dim>1</dim>
					<dim>384</dim>
					<dim>1</dim>
					<dim>1</dim>
				</port>
			</input>
			<output>
				<port id="2" precision="FP32" names="conv4_4/expand/bn">
					<dim>1</dim>
					<dim>384</dim>
					<dim>28</dim>
					<dim>28</dim>
				</port>
			</output>
		</layer>
		<layer id="115" name="relu4_4/expand" type="ReLU" version="opset1">
			<rt_info>
				<attribute name="fused_names" version="0" value="relu4_4/expand"/>
			</rt_info>
			<input>
				<port id="0">
					<dim>1</dim>
					<dim>384</dim>
					<dim>28</dim>
					<dim>28</dim>
				</port>
			</input>
			<output>
				<port id="1" precision="FP32" names="conv4_4/expand/bn">
					<dim>1</dim>
					<dim>384</dim>
					<dim>28</dim>
					<dim>28</dim>
				</port>
			</output>
		</layer>
		<layer id="116" name="conv4_4/dwise/bn/mean/Fused_Mul__copy388" type="Const" version="opset1">
			<data offset="401424" size="13824" shape="384,1,1,3,3" element_type="f32"/>
			<rt_info>
				<attribute name="fused_names" version="0" value="conv4_4/dwise/bn/mean/Fused_Mul__copy"/>
			</rt_info>
			<output>
				<port id="0" precision="FP32">
					<dim>384</dim>
					<dim>1</dim>
					<dim>1</dim>
					<dim>3</dim>
					<dim>3</dim>
				</port>
			</output>
		</layer>
		<layer id="117" name="conv4_4/dwise" type="GroupConvolution" version="opset1">
			<data auto_pad="explicit" strides="1,1" dilations="1,1" pads_begin="1,1" pads_end="1,1"/>
			<rt_info>
				<attribute name="fused_names" version="0" value="conv4_4/dwise"/>
			</rt_info>
			<input>
				<port id="0">
					<dim>1</dim>
					<dim>384</dim>
					<dim>28</dim>
					<dim>28</dim>
				</port>
				<port id="1">
					<dim>384</dim>
					<dim>1</dim>
					<dim>1</dim>
					<dim>3</dim>
					<dim>3</dim>
				</port>
			</input>
			<output>
				<port id="2" precision="FP32">
					<dim>1</dim>
					<dim>384</dim>
					<dim>28</dim>
					<dim>28</dim>
				</port>
			</output>
		</layer>
		<layer id="118" name="data_add_11680116853901405" type="Const" version="opset1">
			<data offset="415248" size="1536" shape="1,384,1,1" element_type="f32"/>
			<rt_info>
				<attribute name="fused_names" version="0" value="data_add_1168011685"/>
			</rt_info>
			<output>
				<port id="0" precision="FP32">
					<dim>1</dim>
					<dim>384</dim>
					<dim>1</dim>
					<dim>1</dim>
				</port>
			</output>
		</layer>
		<layer id="119" name="conv4_4/dwise/bn/variance/Fused_Add_" type="Add" version="opset1">
			<data auto_broadcast="numpy"/>
			<rt_info>
				<attribute name="fused_names" version="0" value="conv4_4/dwise/bn/variance/Fused_Add_"/>
			</rt_info>
			<input>
				<port id="0">
					<dim>1</dim>
					<dim>384</dim>
					<dim>28</dim>
					<dim>28</dim>
				</port>
				<port id="1">
					<dim>1</dim>
					<dim>384</dim>
					<dim>1</dim>
					<dim>1</dim>
				</port>
			</input>
			<output>
				<port id="2" precision="FP32" names="conv4_4/dwise/bn">
					<dim>1</dim>
					<dim>384</dim>
					<dim>28</dim>
					<dim>28</dim>
				</port>
			</output>
		</layer>
		<layer id="120" name="relu4_4/dwise" type="ReLU" version="opset1">
			<rt_info>
				<attribute name="fused_names" version="0" value="relu4_4/dwise"/>
			</rt_info>
			<input>
				<port id="0">
					<dim>1</dim>
					<dim>384</dim>
					<dim>28</dim>
					<dim>28</dim>
				</port>
			</input>
			<output>
				<port id="1" precision="FP32" names="conv4_4/dwise/bn">
					<dim>1</dim>
					<dim>384</dim>
					<dim>28</dim>
					<dim>28</dim>
				</port>
			</output>
		</layer>
		<layer id="121" name="conv4_4/linear/bn/mean/Fused_Mul__copy3931240" type="Const" version="opset1">
			<data offset="416784" size="98304" shape="64,384,1,1" element_type="f32"/>
			<rt_info>
				<attribute name="fused_names" version="0" value="conv4_4/linear/bn/mean/Fused_Mul__copy"/>
			</rt_info>
			<output>
				<port id="0" precision="FP32">
					<dim>64</dim>
					<dim>384</dim>
					<dim>1</dim>
					<dim>1</dim>
				</port>
			</output>
		</layer>
		<layer id="122" name="conv4_4/linear" type="Convolution" version="opset1">
			<data auto_pad="explicit" strides="1,1" dilations="1,1" pads_begin="0,0" pads_end="0,0"/>
			<rt_info>
				<attribute name="fused_names" version="0" value="conv4_4/linear"/>
			</rt_info>
			<input>
				<port id="0">
					<dim>1</dim>
					<dim>384</dim>
					<dim>28</dim>
					<dim>28</dim>
				</port>
				<port id="1">
					<dim>64</dim>
					<dim>384</dim>
					<dim>1</dim>
					<dim>1</dim>
				</port>
			</input>
			<output>
				<port id="2" precision="FP32">
					<dim>1</dim>
					<dim>64</dim>
					<dim>28</dim>
					<dim>28</dim>
				</port>
			</output>
		</layer>
		<layer id="123" name="data_add_11688116933951306" type="Const" version="opset1">
			<data offset="515088" size="256" shape="1,64,1,1" element_type="f32"/>
			<rt_info>
				<attribute name="fused_names" version="0" value="data_add_1168811693"/>
			</rt_info>
			<output>
				<port id="0" precision="FP32">
					<dim>1</dim>
					<dim>64</dim>
					<dim>1</dim>
					<dim>1</dim>
				</port>
			</output>
		</layer>
		<layer id="124" name="conv4_4/linear/bn/variance/Fused_Add_" type="Add" version="opset1">
			<data auto_broadcast="numpy"/>
			<rt_info>
				<attribute name="fused_names" version="0" value="conv4_4/linear/bn/variance/Fused_Add_"/>
			</rt_info>
			<input>
				<port id="0">
					<dim>1</dim>
					<dim>64</dim>
					<dim>28</dim>
					<dim>28</dim>
				</port>
				<port id="1">
					<dim>1</dim>
					<dim>64</dim>
					<dim>1</dim>
					<dim>1</dim>
				</port>
			</input>
			<output>
				<port id="2" precision="FP32" names="conv4_4/linear/bn">
					<dim>1</dim>
					<dim>64</dim>
					<dim>28</dim>
					<dim>28</dim>
				</port>
			</output>
		</layer>
		<layer id="125" name="block_4_4" type="Add" version="opset1">
			<data auto_broadcast="numpy"/>
			<rt_info>
				<attribute name="fused_names" version="0" value="block_4_4"/>
			</rt_info>
			<input>
				<port id="0">
					<dim>1</dim>
					<dim>64</dim>
					<dim>28</dim>
					<dim>28</dim>
				</port>
				<port id="1">
					<dim>1</dim>
					<dim>64</dim>
					<dim>28</dim>
					<dim>28</dim>
				</port>
			</input>
			<output>
				<port id="2" precision="FP32" names="block_4_4">
					<dim>1</dim>
					<dim>64</dim>
					<dim>28</dim>
					<dim>28</dim>
				</port>
			</output>
		</layer>
		<layer id="126" name="conv4_5/expand/bn/mean/Fused_Mul__copy3981474" type="Const" version="opset1">
			<data offset="515344" size="98304" shape="384,64,1,1" element_type="f32"/>
			<rt_info>
				<attribute name="fused_names" version="0" value="conv4_5/expand/bn/mean/Fused_Mul__copy"/>
			</rt_info>
			<output>
				<port id="0" precision="FP32">
					<dim>384</dim>
					<dim>64</dim>
					<dim>1</dim>
					<dim>1</dim>
				</port>
			</output>
		</layer>
		<layer id="127" name="conv4_5/expand" type="Convolution" version="opset1">
			<data auto_pad="explicit" strides="1,1" dilations="1,1" pads_begin="0,0" pads_end="0,0"/>
			<rt_info>
				<attribute name="fused_names" version="0" value="conv4_5/expand"/>
			</rt_info>
			<input>
				<port id="0">
					<dim>1</dim>
					<dim>64</dim>
					<dim>28</dim>
					<dim>28</dim>
				</port>
				<port id="1">
					<dim>384</dim>
					<dim>64</dim>
					<dim>1</dim>
					<dim>1</dim>
				</port>
			</input>
			<output>
				<port id="2" precision="FP32">
					<dim>1</dim>
					<dim>384</dim>
					<dim>28</dim>
					<dim>28</dim>
				</port>
			</output>
		</layer>
		<layer id="128" name="data_add_11696117014001354" type="Const" version="opset1">
			<data offset="613648" size="1536" shape="1,384,1,1" element_type="f32"/>
			<rt_info>
				<attribute name="fused_names" version="0" value="data_add_1169611701"/>
			</rt_info>
			<output>
				<port id="0" precision="FP32">
					<dim>1</dim>
					<dim>384</dim>
					<dim>1</dim>
					<dim>1</dim>
				</port>
			</output>
		</layer>
		<layer id="129" name="conv4_5/expand/bn/variance/Fused_Add_" type="Add" version="opset1">
			<data auto_broadcast="numpy"/>
			<rt_info>
				<attribute name="fused_names" version="0" value="conv4_5/expand/bn/variance/Fused_Add_"/>
			</rt_info>
			<input>
				<port id="0">
					<dim>1</dim>
					<dim>384</dim>
					<dim>28</dim>
					<dim>28</dim>
				</port>
				<port id="1">
					<dim>1</dim>
					<dim>384</dim>
					<dim>1</dim>
					<dim>1</dim>
				</port>
			</input>
			<output>
				<port id="2" precision="FP32" names="conv4_5/expand/bn">
					<dim>1</dim>
					<dim>384</dim>
					<dim>28</dim>
					<dim>28</dim>
				</port>
			</output>
		</layer>
		<layer id="130" name="relu4_5/expand" type="ReLU" version="opset1">
			<rt_info>
				<attribute name="fused_names" version="0" value="relu4_5/expand"/>
			</rt_info>
			<input>
				<port id="0">
					<dim>1</dim>
					<dim>384</dim>
					<dim>28</dim>
					<dim>28</dim>
				</port>
			</input>
			<output>
				<port id="1" precision="FP32" names="conv4_5/expand/bn">
					<dim>1</dim>
					<dim>384</dim>
					<dim>28</dim>
					<dim>28</dim>
				</port>
			</output>
		</layer>
		<layer id="131" name="conv4_5/dwise/bn/mean/Fused_Mul__copy403" type="Const" version="opset1">
			<data offset="615184" size="13824" shape="384,1,1,3,3" element_type="f32"/>
			<rt_info>
				<attribute name="fused_names" version="0" value="conv4_5/dwise/bn/mean/Fused_Mul__copy"/>
			</rt_info>
			<output>
				<port id="0" precision="FP32">
					<dim>384</dim>
					<dim>1</dim>
					<dim>1</dim>
					<dim>3</dim>
					<dim>3</dim>
				</port>
			</output>
		</layer>
		<layer id="132" name="conv4_5/dwise" type="GroupConvolution" version="opset1">
			<data auto_pad="explicit" strides="1,1" dilations="1,1" pads_begin="1,1" pads_end="1,1"/>
			<rt_info>
				<attribute name="fused_names" version="0" value="conv4_5/dwise"/>
			</rt_info>
			<input>
				<port id="0">
					<dim>1</dim>
					<dim>384</dim>
					<dim>28</dim>
					<dim>28</dim>
				</port>
				<port id="1">
					<dim>384</dim>
					<dim>1</dim>
					<dim>1</dim>
					<dim>3</dim>
					<dim>3</dim>
				</port>
			</input>
			<output>
				<port id="2" precision="FP32">
					<dim>1</dim>
					<dim>384</dim>
					<dim>28</dim>
					<dim>28</dim>
				</port>
			</output>
		</layer>
		<layer id="133" name="data_add_11704117094051297" type="Const" version="opset1">
			<data offset="629008" size="1536" shape="1,384,1,1" element_type="f32"/>
			<rt_info>
				<attribute name="fused_names" version="0" value="data_add_1170411709"/>
			</rt_info>
			<output>
				<port id="0" precision="FP32">
					<dim>1</dim>
					<dim>384</dim>
					<dim>1</dim>
					<dim>1</dim>
				</port>
			</output>
		</layer>
		<layer id="134" name="conv4_5/dwise/bn/variance/Fused_Add_" type="Add" version="opset1">
			<data auto_broadcast="numpy"/>
			<rt_info>
				<attribute name="fused_names" version="0" value="conv4_5/dwise/bn/variance/Fused_Add_"/>
			</rt_info>
			<input>
				<port id="0">
					<dim>1</dim>
					<dim>384</dim>
					<dim>28</dim>
					<dim>28</dim>
				</port>
				<port id="1">
					<dim>1</dim>
					<dim>384</dim>
					<dim>1</dim>
					<dim>1</dim>
				</port>
			</input>
			<output>
				<port id="2" precision="FP32" names="conv4_5/dwise/bn">
					<dim>1</dim>
					<dim>384</dim>
					<dim>28</dim>
					<dim>28</dim>
				</port>
			</output>
		</layer>
		<layer id="135" name="relu4_5/dwise" type="ReLU" version="opset1">
			<rt_info>
				<attribute name="fused_names" version="0" value="relu4_5/dwise"/>
			</rt_info>
			<input>
				<port id="0">
					<dim>1</dim>
					<dim>384</dim>
					<dim>28</dim>
					<dim>28</dim>
				</port>
			</input>
			<output>
				<port id="1" precision="FP32" names="conv4_5/dwise/bn">
					<dim>1</dim>
					<dim>384</dim>
					<dim>28</dim>
					<dim>28</dim>
				</port>
			</output>
		</layer>
		<layer id="136" name="conv4_5/linear/bn/mean/Fused_Mul__copy4081186" type="Const" version="opset1">
			<data offset="630544" size="98304" shape="64,384,1,1" element_type="f32"/>
			<rt_info>
				<attribute name="fused_names" version="0" value="conv4_5/linear/bn/mean/Fused_Mul__copy"/>
			</rt_info>
			<output>
				<port id="0" precision="FP32">
					<dim>64</dim>
					<dim>384</dim>
					<dim>1</dim>
					<dim>1</dim>
				</port>
			</output>
		</layer>
		<layer id="137" name="conv4_5/linear" type="Convolution" version="opset1">
			<data auto_pad="explicit" strides="1,1" dilations="1,1" pads_begin="0,0" pads_end="0,0"/>
			<rt_info>
				<attribute name="fused_names" version="0" value="conv4_5/linear"/>
			</rt_info>
			<input>
				<port id="0">
					<dim>1</dim>
					<dim>384</dim>
					<dim>28</dim>
					<dim>28</dim>
				</port>
				<port id="1">
					<dim>64</dim>
					<dim>384</dim>
					<dim>1</dim>
					<dim>1</dim>
				</port>
			</input>
			<output>
				<port id="2" precision="FP32">
					<dim>1</dim>
					<dim>64</dim>
					<dim>28</dim>
					<dim>28</dim>
				</port>
			</output>
		</layer>
		<layer id="138" name="data_add_11712117174101276" type="Const" version="opset1">
			<data offset="728848" size="256" shape="1,64,1,1" element_type="f32"/>
			<rt_info>
				<attribute name="fused_names" version="0" value="data_add_1171211717"/>
			</rt_info>
			<output>
				<port id="0" precision="FP32">
					<dim>1</dim>
					<dim>64</dim>
					<dim>1</dim>
					<dim>1</dim>
				</port>
			</output>
		</layer>
		<layer id="139" name="conv4_5/linear/bn/variance/Fused_Add_" type="Add" version="opset1">
			<data auto_broadcast="numpy"/>
			<rt_info>
				<attribute name="fused_names" version="0" value="conv4_5/linear/bn/variance/Fused_Add_"/>
			</rt_info>
			<input>
				<port id="0">
					<dim>1</dim>
					<dim>64</dim>
					<dim>28</dim>
					<dim>28</dim>
				</port>
				<port id="1">
					<dim>1</dim>
					<dim>64</dim>
					<dim>1</dim>
					<dim>1</dim>
				</port>
			</input>
			<output>
				<port id="2" precision="FP32" names="conv4_5/linear/bn">
					<dim>1</dim>
					<dim>64</dim>
					<dim>28</dim>
					<dim>28</dim>
				</port>
			</output>
		</layer>
		<layer id="140" name="block_4_5" type="Add" version="opset1">
			<data auto_broadcast="numpy"/>
			<rt_info>
				<attribute name="fused_names" version="0" value="block_4_5"/>
			</rt_info>
			<input>
				<port id="0">
					<dim>1</dim>
					<dim>64</dim>
					<dim>28</dim>
					<dim>28</dim>
				</port>
				<port id="1">
					<dim>1</dim>
					<dim>64</dim>
					<dim>28</dim>
					<dim>28</dim>
				</port>
			</input>
			<output>
				<port id="2" precision="FP32" names="block_4_5">
					<dim>1</dim>
					<dim>64</dim>
					<dim>28</dim>
					<dim>28</dim>
				</port>
			</output>
		</layer>
		<layer id="141" name="conv4_6/expand/bn/mean/Fused_Mul__copy4131252" type="Const" version="opset1">
			<data offset="729104" size="98304" shape="384,64,1,1" element_type="f32"/>
			<rt_info>
				<attribute name="fused_names" version="0" value="conv4_6/expand/bn/mean/Fused_Mul__copy"/>
			</rt_info>
			<output>
				<port id="0" precision="FP32">
					<dim>384</dim>
					<dim>64</dim>
					<dim>1</dim>
					<dim>1</dim>
				</port>
			</output>
		</layer>
		<layer id="142" name="conv4_6/expand" type="Convolution" version="opset1">
			<data auto_pad="explicit" strides="1,1" dilations="1,1" pads_begin="0,0" pads_end="0,0"/>
			<rt_info>
				<attribute name="fused_names" version="0" value="conv4_6/expand"/>
			</rt_info>
			<input>
				<port id="0">
					<dim>1</dim>
					<dim>64</dim>
					<dim>28</dim>
					<dim>28</dim>
				</port>
				<port id="1">
					<dim>384</dim>
					<dim>64</dim>
					<dim>1</dim>
					<dim>1</dim>
				</port>
			</input>
			<output>
				<port id="2" precision="FP32">
					<dim>1</dim>
					<dim>384</dim>
					<dim>28</dim>
					<dim>28</dim>
				</port>
			</output>
		</layer>
		<layer id="143" name="data_add_11720117254151444" type="Const" version="opset1">
			<data offset="827408" size="1536" shape="1,384,1,1" element_type="f32"/>
			<rt_info>
				<attribute name="fused_names" version="0" value="data_add_1172011725"/>
			</rt_info>
			<output>
				<port id="0" precision="FP32">
					<dim>1</dim>
					<dim>384</dim>
					<dim>1</dim>
					<dim>1</dim>
				</port>
			</output>
		</layer>
		<layer id="144" name="conv4_6/expand/bn/variance/Fused_Add_" type="Add" version="opset1">
			<data auto_broadcast="numpy"/>
			<rt_info>
				<attribute name="fused_names" version="0" value="conv4_6/expand/bn/variance/Fused_Add_"/>
			</rt_info>
			<input>
				<port id="0">
					<dim>1</dim>
					<dim>384</dim>
					<dim>28</dim>
					<dim>28</dim>
				</port>
				<port id="1">
					<dim>1</dim>
					<dim>384</dim>
					<dim>1</dim>
					<dim>1</dim>
				</port>
			</input>
			<output>
				<port id="2" precision="FP32" names="conv4_6/expand/bn">
					<dim>1</dim>
					<dim>384</dim>
					<dim>28</dim>
					<dim>28</dim>
				</port>
			</output>
		</layer>
		<layer id="145" name="relu4_6/expand" type="ReLU" version="opset1">
			<rt_info>
				<attribute name="fused_names" version="0" value="relu4_6/expand"/>
			</rt_info>
			<input>
				<port id="0">
					<dim>1</dim>
					<dim>384</dim>
					<dim>28</dim>
					<dim>28</dim>
				</port>
			</input>
			<output>
				<port id="1" precision="FP32" names="conv4_6/expand/bn">
					<dim>1</dim>
					<dim>384</dim>
					<dim>28</dim>
					<dim>28</dim>
				</port>
			</output>
		</layer>
		<layer id="146" name="conv4_6/dwise/bn/mean/Fused_Mul__copy418" type="Const" version="opset1">
			<data offset="828944" size="13824" shape="384,1,1,3,3" element_type="f32"/>
			<rt_info>
				<attribute name="fused_names" version="0" value="conv4_6/dwise/bn/mean/Fused_Mul__copy"/>
			</rt_info>
			<output>
				<port id="0" precision="FP32">
					<dim>384</dim>
					<dim>1</dim>
					<dim>1</dim>
					<dim>3</dim>
					<dim>3</dim>
				</port>
			</output>
		</layer>
		<layer id="147" name="conv4_6/dwise" type="GroupConvolution" version="opset1">
			<data auto_pad="explicit" strides="1,1" dilations="1,1" pads_begin="1,1" pads_end="1,1"/>
			<rt_info>
				<attribute name="fused_names" version="0" value="conv4_6/dwise"/>
			</rt_info>
			<input>
				<port id="0">
					<dim>1</dim>
					<dim>384</dim>
					<dim>28</dim>
					<dim>28</dim>
				</port>
				<port id="1">
					<dim>384</dim>
					<dim>1</dim>
					<dim>1</dim>
					<dim>3</dim>
					<dim>3</dim>
				</port>
			</input>
			<output>
				<port id="2" precision="FP32">
					<dim>1</dim>
					<dim>384</dim>
					<dim>28</dim>
					<dim>28</dim>
				</port>
			</output>
		</layer>
		<layer id="148" name="data_add_11728117334201342" type="Const" version="opset1">
			<data offset="842768" size="1536" shape="1,384,1,1" element_type="f32"/>
			<rt_info>
				<attribute name="fused_names" version="0" value="data_add_1172811733"/>
			</rt_info>
			<output>
				<port id="0" precision="FP32">
					<dim>1</dim>
					<dim>384</dim>
					<dim>1</dim>
					<dim>1</dim>
				</port>
			</output>
		</layer>
		<layer id="149" name="conv4_6/dwise/bn/variance/Fused_Add_" type="Add" version="opset1">
			<data auto_broadcast="numpy"/>
			<rt_info>
				<attribute name="fused_names" version="0" value="conv4_6/dwise/bn/variance/Fused_Add_"/>
			</rt_info>
			<input>
				<port id="0">
					<dim>1</dim>
					<dim>384</dim>
					<dim>28</dim>
					<dim>28</dim>
				</port>
				<port id="1">
					<dim>1</dim>
					<dim>384</dim>
					<dim>1</dim>
					<dim>1</dim>
				</port>
			</input>
			<output>
				<port id="2" precision="FP32" names="conv4_6/dwise/bn">
					<dim>1</dim>
					<dim>384</dim>
					<dim>28</dim>
					<dim>28</dim>
				</port>
			</output>
		</layer>
		<layer id="150" name="relu4_6/dwise" type="ReLU" version="opset1">
			<rt_info>
				<attribute name="fused_names" version="0" value="relu4_6/dwise"/>
			</rt_info>
			<input>
				<port id="0">
					<dim>1</dim>
					<dim>384</dim>
					<dim>28</dim>
					<dim>28</dim>
				</port>
			</input>
			<output>
				<port id="1" precision="FP32" names="conv4_6/dwise/bn">
					<dim>1</dim>
					<dim>384</dim>
					<dim>28</dim>
					<dim>28</dim>
				</port>
			</output>
		</layer>
		<layer id="151" name="conv4_6/linear/bn/mean/Fused_Mul__copy4231447" type="Const" version="opset1">
			<data offset="844304" size="98304" shape="64,384,1,1" element_type="f32"/>
			<rt_info>
				<attribute name="fused_names" version="0" value="conv4_6/linear/bn/mean/Fused_Mul__copy"/>
			</rt_info>
			<output>
				<port id="0" precision="FP32">
					<dim>64</dim>
					<dim>384</dim>
					<dim>1</dim>
					<dim>1</dim>
				</port>
			</output>
		</layer>
		<layer id="152" name="conv4_6/linear" type="Convolution" version="opset1">
			<data auto_pad="explicit" strides="1,1" dilations="1,1" pads_begin="0,0" pads_end="0,0"/>
			<rt_info>
				<attribute name="fused_names" version="0" value="conv4_6/linear"/>
			</rt_info>
			<input>
				<port id="0">
					<dim>1</dim>
					<dim>384</dim>
					<dim>28</dim>
					<dim>28</dim>
				</port>
				<port id="1">
					<dim>64</dim>
					<dim>384</dim>
					<dim>1</dim>
					<dim>1</dim>
				</port>
			</input>
			<output>
				<port id="2" precision="FP32">
					<dim>1</dim>
					<dim>64</dim>
					<dim>28</dim>
					<dim>28</dim>
				</port>
			</output>
		</layer>
		<layer id="153" name="data_add_11736117414251483" type="Const" version="opset1">
			<data offset="942608" size="256" shape="1,64,1,1" element_type="f32"/>
			<rt_info>
				<attribute name="fused_names" version="0" value="data_add_1173611741"/>
			</rt_info>
			<output>
				<port id="0" precision="FP32">
					<dim>1</dim>
					<dim>64</dim>
					<dim>1</dim>
					<dim>1</dim>
				</port>
			</output>
		</layer>
		<layer id="154" name="conv4_6/linear/bn/variance/Fused_Add_" type="Add" version="opset1">
			<data auto_broadcast="numpy"/>
			<rt_info>
				<attribute name="fused_names" version="0" value="conv4_6/linear/bn/variance/Fused_Add_"/>
			</rt_info>
			<input>
				<port id="0">
					<dim>1</dim>
					<dim>64</dim>
					<dim>28</dim>
					<dim>28</dim>
				</port>
				<port id="1">
					<dim>1</dim>
					<dim>64</dim>
					<dim>1</dim>
					<dim>1</dim>
				</port>
			</input>
			<output>
				<port id="2" precision="FP32" names="conv4_6/linear/bn">
					<dim>1</dim>
					<dim>64</dim>
					<dim>28</dim>
					<dim>28</dim>
				</port>
			</output>
		</layer>
		<layer id="155" name="block_4_6" type="Add" version="opset1">
			<data auto_broadcast="numpy"/>
			<rt_info>
				<attribute name="fused_names" version="0" value="block_4_6"/>
			</rt_info>
			<input>
				<port id="0">
					<dim>1</dim>
					<dim>64</dim>
					<dim>28</dim>
					<dim>28</dim>
				</port>
				<port id="1">
					<dim>1</dim>
					<dim>64</dim>
					<dim>28</dim>
					<dim>28</dim>
				</port>
			</input>
			<output>
				<port id="2" precision="FP32" names="block_4_6">
					<dim>1</dim>
					<dim>64</dim>
					<dim>28</dim>
					<dim>28</dim>
				</port>
			</output>
		</layer>
		<layer id="156" name="conv4_7/expand/bn/mean/Fused_Mul__copy4281330" type="Const" version="opset1">
			<data offset="942864" size="98304" shape="384,64,1,1" element_type="f32"/>
			<rt_info>
				<attribute name="fused_names" version="0" value="conv4_7/expand/bn/mean/Fused_Mul__copy"/>
			</rt_info>
			<output>
				<port id="0" precision="FP32">
					<dim>384</dim>
					<dim>64</dim>
					<dim>1</dim>
					<dim>1</dim>
				</port>
			</output>
		</layer>
		<layer id="157" name="conv4_7/expand" type="Convolution" version="opset1">
			<data auto_pad="explicit" strides="1,1" dilations="1,1" pads_begin="0,0" pads_end="0,0"/>
			<rt_info>
				<attribute name="fused_names" version="0" value="conv4_7/expand"/>
			</rt_info>
			<input>
				<port id="0">
					<dim>1</dim>
					<dim>64</dim>
					<dim>28</dim>
					<dim>28</dim>
				</port>
				<port id="1">
					<dim>384</dim>
					<dim>64</dim>
					<dim>1</dim>
					<dim>1</dim>
				</port>
			</input>
			<output>
				<port id="2" precision="FP32">
					<dim>1</dim>
					<dim>384</dim>
					<dim>28</dim>
					<dim>28</dim>
				</port>
			</output>
		</layer>
		<layer id="158" name="data_add_11744117494301390" type="Const" version="opset1">
			<data offset="1041168" size="1536" shape="1,384,1,1" element_type="f32"/>
			<rt_info>
				<attribute name="fused_names" version="0" value="data_add_1174411749"/>
			</rt_info>
			<output>
				<port id="0" precision="FP32">
					<dim>1</dim>
					<dim>384</dim>
					<dim>1</dim>
					<dim>1</dim>
				</port>
			</output>
		</layer>
		<layer id="159" name="conv4_7/expand/bn/variance/Fused_Add_" type="Add" version="opset1">
			<data auto_broadcast="numpy"/>
			<rt_info>
				<attribute name="fused_names" version="0" value="conv4_7/expand/bn/variance/Fused_Add_"/>
			</rt_info>
			<input>
				<port id="0">
					<dim>1</dim>
					<dim>384</dim>
					<dim>28</dim>
					<dim>28</dim>
				</port>
				<port id="1">
					<dim>1</dim>
					<dim>384</dim>
					<dim>1</dim>
					<dim>1</dim>
				</port>
			</input>
			<output>
				<port id="2" precision="FP32" names="conv4_7/expand/bn">
					<dim>1</dim>
					<dim>384</dim>
					<dim>28</dim>
					<dim>28</dim>
				</port>
			</output>
		</layer>
		<layer id="160" name="relu4_7/expand" type="ReLU" version="opset1">
			<rt_info>
				<attribute name="fused_names" version="0" value="relu4_7/expand"/>
			</rt_info>
			<input>
				<port id="0">
					<dim>1</dim>
					<dim>384</dim>
					<dim>28</dim>
					<dim>28</dim>
				</port>
			</input>
			<output>
				<port id="1" precision="FP32" names="conv4_7/expand/bn">
					<dim>1</dim>
					<dim>384</dim>
					<dim>28</dim>
					<dim>28</dim>
				</port>
			</output>
		</layer>
		<layer id="161" name="conv4_7/dwise/bn/mean/Fused_Mul__copy433" type="Const" version="opset1">
			<data offset="1042704" size="13824" shape="384,1,1,3,3" element_type="f32"/>
			<rt_info>
				<attribute name="fused_names" version="0" value="conv4_7/dwise/bn/mean/Fused_Mul__copy"/>
			</rt_info>
			<output>
				<port id="0" precision="FP32">
					<dim>384</dim>
					<dim>1</dim>
					<dim>1</dim>
					<dim>3</dim>
					<dim>3</dim>
				</port>
			</output>
		</layer>
		<layer id="162" name="conv4_7/dwise" type="GroupConvolution" version="opset1">
			<data auto_pad="explicit" strides="2,2" dilations="1,1" pads_begin="1,1" pads_end="1,1"/>
			<rt_info>
				<attribute name="fused_names" version="0" value="conv4_7/dwise"/>
			</rt_info>
			<input>
				<port id="0">
					<dim>1</dim>
					<dim>384</dim>
					<dim>28</dim>
					<dim>28</dim>
				</port>
				<port id="1">
					<dim>384</dim>
					<dim>1</dim>
					<dim>1</dim>
					<dim>3</dim>
					<dim>3</dim>
				</port>
			</input>
			<output>
				<port id="2" precision="FP32">
					<dim>1</dim>
					<dim>384</dim>
					<dim>14</dim>
					<dim>14</dim>
				</port>
			</output>
		</layer>
		<layer id="163" name="data_add_11752117574351267" type="Const" version="opset1">
			<data offset="1056528" size="1536" shape="1,384,1,1" element_type="f32"/>
			<rt_info>
				<attribute name="fused_names" version="0" value="data_add_1175211757"/>
			</rt_info>
			<output>
				<port id="0" precision="FP32">
					<dim>1</dim>
					<dim>384</dim>
					<dim>1</dim>
					<dim>1</dim>
				</port>
			</output>
		</layer>
		<layer id="164" name="conv4_7/dwise/bn/variance/Fused_Add_" type="Add" version="opset1">
			<data auto_broadcast="numpy"/>
			<rt_info>
				<attribute name="fused_names" version="0" value="conv4_7/dwise/bn/variance/Fused_Add_"/>
			</rt_info>
			<input>
				<port id="0">
					<dim>1</dim>
					<dim>384</dim>
					<dim>14</dim>
					<dim>14</dim>
				</port>
				<port id="1">
					<dim>1</dim>
					<dim>384</dim>
					<dim>1</dim>
					<dim>1</dim>
				</port>
			</input>
			<output>
				<port id="2" precision="FP32" names="conv4_7/dwise/bn">
					<dim>1</dim>
					<dim>384</dim>
					<dim>14</dim>
					<dim>14</dim>
				</port>
			</output>
		</layer>
		<layer id="165" name="relu4_7/dwise" type="ReLU" version="opset1">
			<rt_info>
				<attribute name="fused_names" version="0" value="relu4_7/dwise"/>
			</rt_info>
			<input>
				<port id="0">
					<dim>1</dim>
					<dim>384</dim>
					<dim>14</dim>
					<dim>14</dim>
				</port>
			</input>
			<output>
				<port id="1" precision="FP32" names="conv4_7/dwise/bn">
					<dim>1</dim>
					<dim>384</dim>
					<dim>14</dim>
					<dim>14</dim>
				</port>
			</output>
		</layer>
		<layer id="166" name="conv4_7/linear/bn/mean/Fused_Mul__copy4381327" type="Const" version="opset1">
			<data offset="1058064" size="147456" shape="96,384,1,1" element_type="f32"/>
			<rt_info>
				<attribute name="fused_names" version="0" value="conv4_7/linear/bn/mean/Fused_Mul__copy"/>
			</rt_info>
			<output>
				<port id="0" precision="FP32">
					<dim>96</dim>
					<dim>384</dim>
					<dim>1</dim>
					<dim>1</dim>
				</port>
			</output>
		</layer>
		<layer id="167" name="conv4_7/linear" type="Convolution" version="opset1">
			<data auto_pad="explicit" strides="1,1" dilations="1,1" pads_begin="0,0" pads_end="0,0"/>
			<rt_info>
				<attribute name="fused_names" version="0" value="conv4_7/linear"/>
			</rt_info>
			<input>
				<port id="0">
					<dim>1</dim>
					<dim>384</dim>
					<dim>14</dim>
					<dim>14</dim>
				</port>
				<port id="1">
					<dim>96</dim>
					<dim>384</dim>
					<dim>1</dim>
					<dim>1</dim>
				</port>
			</input>
			<output>
				<port id="2" precision="FP32">
					<dim>1</dim>
					<dim>96</dim>
					<dim>14</dim>
					<dim>14</dim>
				</port>
			</output>
		</layer>
		<layer id="168" name="data_add_11760117654401432" type="Const" version="opset1">
			<data offset="1205520" size="384" shape="1,96,1,1" element_type="f32"/>
			<rt_info>
				<attribute name="fused_names" version="0" value="data_add_1176011765"/>
			</rt_info>
			<output>
				<port id="0" precision="FP32">
					<dim>1</dim>
					<dim>96</dim>
					<dim>1</dim>
					<dim>1</dim>
				</port>
			</output>
		</layer>
		<layer id="169" name="conv4_7/linear/bn/variance/Fused_Add_" type="Add" version="opset1">
			<data auto_broadcast="numpy"/>
			<rt_info>
				<attribute name="fused_names" version="0" value="conv4_7/linear/bn/variance/Fused_Add_"/>
			</rt_info>
			<input>
				<port id="0">
					<dim>1</dim>
					<dim>96</dim>
					<dim>14</dim>
					<dim>14</dim>
				</port>
				<port id="1">
					<dim>1</dim>
					<dim>96</dim>
					<dim>1</dim>
					<dim>1</dim>
				</port>
			</input>
			<output>
				<port id="2" precision="FP32" names="conv4_7/linear/bn">
					<dim>1</dim>
					<dim>96</dim>
					<dim>14</dim>
					<dim>14</dim>
				</port>
			</output>
		</layer>
		<layer id="170" name="conv5_1/expand/bn/mean/Fused_Mul__copy4421219" type="Const" version="opset1">
			<data offset="1205904" size="221184" shape="576,96,1,1" element_type="f32"/>
			<rt_info>
				<attribute name="fused_names" version="0" value="conv5_1/expand/bn/mean/Fused_Mul__copy"/>
			</rt_info>
			<output>
				<port id="0" precision="FP32">
					<dim>576</dim>
					<dim>96</dim>
					<dim>1</dim>
					<dim>1</dim>
				</port>
			</output>
		</layer>
		<layer id="171" name="conv5_1/expand" type="Convolution" version="opset1">
			<data auto_pad="explicit" strides="1,1" dilations="1,1" pads_begin="0,0" pads_end="0,0"/>
			<rt_info>
				<attribute name="fused_names" version="0" value="conv5_1/expand"/>
			</rt_info>
			<input>
				<port id="0">
					<dim>1</dim>
					<dim>96</dim>
					<dim>14</dim>
					<dim>14</dim>
				</port>
				<port id="1">
					<dim>576</dim>
					<dim>96</dim>
					<dim>1</dim>
					<dim>1</dim>
				</port>
			</input>
			<output>
				<port id="2" precision="FP32">
					<dim>1</dim>
					<dim>576</dim>
					<dim>14</dim>
					<dim>14</dim>
				</port>
			</output>
		</layer>
		<layer id="172" name="data_add_11768117734441492" type="Const" version="opset1">
			<data offset="1427088" size="2304" shape="1,576,1,1" element_type="f32"/>
			<rt_info>
				<attribute name="fused_names" version="0" value="data_add_1176811773"/>
			</rt_info>
			<output>
				<port id="0" precision="FP32">
					<dim>1</dim>
					<dim>576</dim>
					<dim>1</dim>
					<dim>1</dim>
				</port>
			</output>
		</layer>
		<layer id="173" name="conv5_1/expand/bn/variance/Fused_Add_" type="Add" version="opset1">
			<data auto_broadcast="numpy"/>
			<rt_info>
				<attribute name="fused_names" version="0" value="conv5_1/expand/bn/variance/Fused_Add_"/>
			</rt_info>
			<input>
				<port id="0">
					<dim>1</dim>
					<dim>576</dim>
					<dim>14</dim>
					<dim>14</dim>
				</port>
				<port id="1">
					<dim>1</dim>
					<dim>576</dim>
					<dim>1</dim>
					<dim>1</dim>
				</port>
			</input>
			<output>
				<port id="2" precision="FP32" names="conv5_1/expand/bn">
					<dim>1</dim>
					<dim>576</dim>
					<dim>14</dim>
					<dim>14</dim>
				</port>
			</output>
		</layer>
		<layer id="174" name="relu5_1/expand" type="ReLU" version="opset1">
			<rt_info>
				<attribute name="fused_names" version="0" value="relu5_1/expand"/>
			</rt_info>
			<input>
				<port id="0">
					<dim>1</dim>
					<dim>576</dim>
					<dim>14</dim>
					<dim>14</dim>
				</port>
			</input>
			<output>
				<port id="1" precision="FP32" names="conv5_1/expand/bn">
					<dim>1</dim>
					<dim>576</dim>
					<dim>14</dim>
					<dim>14</dim>
				</port>
			</output>
		</layer>
		<layer id="175" name="conv5_1/dwise/bn/mean/Fused_Mul__copy447" type="Const" version="opset1">
			<data offset="1429392" size="20736" shape="576,1,1,3,3" element_type="f32"/>
			<rt_info>
				<attribute name="fused_names" version="0" value="conv5_1/dwise/bn/mean/Fused_Mul__copy"/>
			</rt_info>
			<output>
				<port id="0" precision="FP32">
					<dim>576</dim>
					<dim>1</dim>
					<dim>1</dim>
					<dim>3</dim>
					<dim>3</dim>
				</port>
			</output>
		</layer>
		<layer id="176" name="conv5_1/dwise" type="GroupConvolution" version="opset1">
			<data auto_pad="explicit" strides="1,1" dilations="1,1" pads_begin="1,1" pads_end="1,1"/>
			<rt_info>
				<attribute name="fused_names" version="0" value="conv5_1/dwise"/>
			</rt_info>
			<input>
				<port id="0">
					<dim>1</dim>
					<dim>576</dim>
					<dim>14</dim>
					<dim>14</dim>
				</port>
				<port id="1">
					<dim>576</dim>
					<dim>1</dim>
					<dim>1</dim>
					<dim>3</dim>
					<dim>3</dim>
				</port>
			</input>
			<output>
				<port id="2" precision="FP32">
					<dim>1</dim>
					<dim>576</dim>
					<dim>14</dim>
					<dim>14</dim>
				</port>
			</output>
		</layer>
		<layer id="177" name="data_add_11776117814491204" type="Const" version="opset1">
			<data offset="1450128" size="2304" shape="1,576,1,1" element_type="f32"/>
			<rt_info>
				<attribute name="fused_names" version="0" value="data_add_1177611781"/>
			</rt_info>
			<output>
				<port id="0" precision="FP32">
					<dim>1</dim>
					<dim>576</dim>
					<dim>1</dim>
					<dim>1</dim>
				</port>
			</output>
		</layer>
		<layer id="178" name="conv5_1/dwise/bn/variance/Fused_Add_" type="Add" version="opset1">
			<data auto_broadcast="numpy"/>
			<rt_info>
				<attribute name="fused_names" version="0" value="conv5_1/dwise/bn/variance/Fused_Add_"/>
			</rt_info>
			<input>
				<port id="0">
					<dim>1</dim>
					<dim>576</dim>
					<dim>14</dim>
					<dim>14</dim>
				</port>
				<port id="1">
					<dim>1</dim>
					<dim>576</dim>
					<dim>1</dim>
					<dim>1</dim>
				</port>
			</input>
			<output>
				<port id="2" precision="FP32" names="conv5_1/dwise/bn">
					<dim>1</dim>
					<dim>576</dim>
					<dim>14</dim>
					<dim>14</dim>
				</port>
			</output>
		</layer>
		<layer id="179" name="relu5_1/dwise" type="ReLU" version="opset1">
			<rt_info>
				<attribute name="fused_names" version="0" value="relu5_1/dwise"/>
			</rt_info>
			<input>
				<port id="0">
					<dim>1</dim>
					<dim>576</dim>
					<dim>14</dim>
					<dim>14</dim>
				</port>
			</input>
			<output>
				<port id="1" precision="FP32" names="conv5_1/dwise/bn">
					<dim>1</dim>
					<dim>576</dim>
					<dim>14</dim>
					<dim>14</dim>
				</port>
			</output>
		</layer>
		<layer id="180" name="conv5_1/linear/bn/mean/Fused_Mul__copy4521171" type="Const" version="opset1">
			<data offset="1452432" size="221184" shape="96,576,1,1" element_type="f32"/>
			<rt_info>
				<attribute name="fused_names" version="0" value="conv5_1/linear/bn/mean/Fused_Mul__copy"/>
			</rt_info>
			<output>
				<port id="0" precision="FP32">
					<dim>96</dim>
					<dim>576</dim>
					<dim>1</dim>
					<dim>1</dim>
				</port>
			</output>
		</layer>
		<layer id="181" name="conv5_1/linear" type="Convolution" version="opset1">
			<data auto_pad="explicit" strides="1,1" dilations="1,1" pads_begin="0,0" pads_end="0,0"/>
			<rt_info>
				<attribute name="fused_names" version="0" value="conv5_1/linear"/>
			</rt_info>
			<input>
				<port id="0">
					<dim>1</dim>
					<dim>576</dim>
					<dim>14</dim>
					<dim>14</dim>
				</port>
				<port id="1">
					<dim>96</dim>
					<dim>576</dim>
					<dim>1</dim>
					<dim>1</dim>
				</port>
			</input>
			<output>
				<port id="2" precision="FP32">
					<dim>1</dim>
					<dim>96</dim>
					<dim>14</dim>
					<dim>14</dim>
				</port>
			</output>
		</layer>
		<layer id="182" name="data_add_11784117894541291" type="Const" version="opset1">
			<data offset="1673616" size="384" shape="1,96,1,1" element_type="f32"/>
			<rt_info>
				<attribute name="fused_names" version="0" value="data_add_1178411789"/>
			</rt_info>
			<output>
				<port id="0" precision="FP32">
					<dim>1</dim>
					<dim>96</dim>
					<dim>1</dim>
					<dim>1</dim>
				</port>
			</output>
		</layer>
		<layer id="183" name="conv5_1/linear/bn/variance/Fused_Add_" type="Add" version="opset1">
			<data auto_broadcast="numpy"/>
			<rt_info>
				<attribute name="fused_names" version="0" value="conv5_1/linear/bn/variance/Fused_Add_"/>
			</rt_info>
			<input>
				<port id="0">
					<dim>1</dim>
					<dim>96</dim>
					<dim>14</dim>
					<dim>14</dim>
				</port>
				<port id="1">
					<dim>1</dim>
					<dim>96</dim>
					<dim>1</dim>
					<dim>1</dim>
				</port>
			</input>
			<output>
				<port id="2" precision="FP32" names="conv5_1/linear/bn">
					<dim>1</dim>
					<dim>96</dim>
					<dim>14</dim>
					<dim>14</dim>
				</port>
			</output>
		</layer>
		<layer id="184" name="block_5_1" type="Add" version="opset1">
			<data auto_broadcast="numpy"/>
			<rt_info>
				<attribute name="fused_names" version="0" value="block_5_1"/>
			</rt_info>
			<input>
				<port id="0">
					<dim>1</dim>
					<dim>96</dim>
					<dim>14</dim>
					<dim>14</dim>
				</port>
				<port id="1">
					<dim>1</dim>
					<dim>96</dim>
					<dim>14</dim>
					<dim>14</dim>
				</port>
			</input>
			<output>
				<port id="2" precision="FP32" names="block_5_1">
					<dim>1</dim>
					<dim>96</dim>
					<dim>14</dim>
					<dim>14</dim>
				</port>
			</output>
		</layer>
		<layer id="185" name="conv5_2/expand/bn/mean/Fused_Mul__copy4571477" type="Const" version="opset1">
			<data offset="1674000" size="221184" shape="576,96,1,1" element_type="f32"/>
			<rt_info>
				<attribute name="fused_names" version="0" value="conv5_2/expand/bn/mean/Fused_Mul__copy"/>
			</rt_info>
			<output>
				<port id="0" precision="FP32">
					<dim>576</dim>
					<dim>96</dim>
					<dim>1</dim>
					<dim>1</dim>
				</port>
			</output>
		</layer>
		<layer id="186" name="conv5_2/expand" type="Convolution" version="opset1">
			<data auto_pad="explicit" strides="1,1" dilations="1,1" pads_begin="0,0" pads_end="0,0"/>
			<rt_info>
				<attribute name="fused_names" version="0" value="conv5_2/expand"/>
			</rt_info>
			<input>
				<port id="0">
					<dim>1</dim>
					<dim>96</dim>
					<dim>14</dim>
					<dim>14</dim>
				</port>
				<port id="1">
					<dim>576</dim>
					<dim>96</dim>
					<dim>1</dim>
					<dim>1</dim>
				</port>
			</input>
			<output>
				<port id="2" precision="FP32">
					<dim>1</dim>
					<dim>576</dim>
					<dim>14</dim>
					<dim>14</dim>
				</port>
			</output>
		</layer>
		<layer id="187" name="data_add_11792117974591384" type="Const" version="opset1">
			<data offset="1895184" size="2304" shape="1,576,1,1" element_type="f32"/>
			<rt_info>
				<attribute name="fused_names" version="0" value="data_add_1179211797"/>
			</rt_info>
			<output>
				<port id="0" precision="FP32">
					<dim>1</dim>
					<dim>576</dim>
					<dim>1</dim>
					<dim>1</dim>
				</port>
			</output>
		</layer>
		<layer id="188" name="conv5_2/expand/bn/variance/Fused_Add_" type="Add" version="opset1">
			<data auto_broadcast="numpy"/>
			<rt_info>
				<attribute name="fused_names" version="0" value="conv5_2/expand/bn/variance/Fused_Add_"/>
			</rt_info>
			<input>
				<port id="0">
					<dim>1</dim>
					<dim>576</dim>
					<dim>14</dim>
					<dim>14</dim>
				</port>
				<port id="1">
					<dim>1</dim>
					<dim>576</dim>
					<dim>1</dim>
					<dim>1</dim>
				</port>
			</input>
			<output>
				<port id="2" precision="FP32" names="conv5_2/expand/bn">
					<dim>1</dim>
					<dim>576</dim>
					<dim>14</dim>
					<dim>14</dim>
				</port>
			</output>
		</layer>
		<layer id="189" name="relu5_2/expand" type="ReLU" version="opset1">
			<rt_info>
				<attribute name="fused_names" version="0" value="relu5_2/expand"/>
			</rt_info>
			<input>
				<port id="0">
					<dim>1</dim>
					<dim>576</dim>
					<dim>14</dim>
					<dim>14</dim>
				</port>
			</input>
			<output>
				<port id="1" precision="FP32" names="conv5_2/expand/bn">
					<dim>1</dim>
					<dim>576</dim>
					<dim>14</dim>
					<dim>14</dim>
				</port>
			</output>
		</layer>
		<layer id="190" name="conv5_2/dwise/bn/mean/Fused_Mul__copy462" type="Const" version="opset1">
			<data offset="1897488" size="20736" shape="576,1,1,3,3" element_type="f32"/>
			<rt_info>
				<attribute name="fused_names" version="0" value="conv5_2/dwise/bn/mean/Fused_Mul__copy"/>
			</rt_info>
			<output>
				<port id="0" precision="FP32">
					<dim>576</dim>
					<dim>1</dim>
					<dim>1</dim>
					<dim>3</dim>
					<dim>3</dim>
				</port>
			</output>
		</layer>
		<layer id="191" name="conv5_2/dwise" type="GroupConvolution" version="opset1">
			<data auto_pad="explicit" strides="1,1" dilations="1,1" pads_begin="1,1" pads_end="1,1"/>
			<rt_info>
				<attribute name="fused_names" version="0" value="conv5_2/dwise"/>
			</rt_info>
			<input>
				<port id="0">
					<dim>1</dim>
					<dim>576</dim>
					<dim>14</dim>
					<dim>14</dim>
				</port>
				<port id="1">
					<dim>576</dim>
					<dim>1</dim>
					<dim>1</dim>
					<dim>3</dim>
					<dim>3</dim>
				</port>
			</input>
			<output>
				<port id="2" precision="FP32">
					<dim>1</dim>
					<dim>576</dim>
					<dim>14</dim>
					<dim>14</dim>
				</port>
			</output>
		</layer>
		<layer id="192" name="data_add_11800118054641270" type="Const" version="opset1">
			<data offset="1918224" size="2304" shape="1,576,1,1" element_type="f32"/>
			<rt_info>
				<attribute name="fused_names" version="0" value="data_add_1180011805"/>
			</rt_info>
			<output>
				<port id="0" precision="FP32">
					<dim>1</dim>
					<dim>576</dim>
					<dim>1</dim>
					<dim>1</dim>
				</port>
			</output>
		</layer>
		<layer id="193" name="conv5_2/dwise/bn/variance/Fused_Add_" type="Add" version="opset1">
			<data auto_broadcast="numpy"/>
			<rt_info>
				<attribute name="fused_names" version="0" value="conv5_2/dwise/bn/variance/Fused_Add_"/>
			</rt_info>
			<input>
				<port id="0">
					<dim>1</dim>
					<dim>576</dim>
					<dim>14</dim>
					<dim>14</dim>
				</port>
				<port id="1">
					<dim>1</dim>
					<dim>576</dim>
					<dim>1</dim>
					<dim>1</dim>
				</port>
			</input>
			<output>
				<port id="2" precision="FP32" names="conv5_2/dwise/bn">
					<dim>1</dim>
					<dim>576</dim>
					<dim>14</dim>
					<dim>14</dim>
				</port>
			</output>
		</layer>
		<layer id="194" name="relu5_2/dwise" type="ReLU" version="opset1">
			<rt_info>
				<attribute name="fused_names" version="0" value="relu5_2/dwise"/>
			</rt_info>
			<input>
				<port id="0">
					<dim>1</dim>
					<dim>576</dim>
					<dim>14</dim>
					<dim>14</dim>
				</port>
			</input>
			<output>
				<port id="1" precision="FP32" names="conv5_2/dwise/bn">
					<dim>1</dim>
					<dim>576</dim>
					<dim>14</dim>
					<dim>14</dim>
				</port>
			</output>
		</layer>
		<layer id="195" name="conv5_2/linear/bn/mean/Fused_Mul__copy4671333" type="Const" version="opset1">
			<data offset="1920528" size="221184" shape="96,576,1,1" element_type="f32"/>
			<rt_info>
				<attribute name="fused_names" version="0" value="conv5_2/linear/bn/mean/Fused_Mul__copy"/>
			</rt_info>
			<output>
				<port id="0" precision="FP32">
					<dim>96</dim>
					<dim>576</dim>
					<dim>1</dim>
					<dim>1</dim>
				</port>
			</output>
		</layer>
		<layer id="196" name="conv5_2/linear" type="Convolution" version="opset1">
			<data auto_pad="explicit" strides="1,1" dilations="1,1" pads_begin="0,0" pads_end="0,0"/>
			<rt_info>
				<attribute name="fused_names" version="0" value="conv5_2/linear"/>
			</rt_info>
			<input>
				<port id="0">
					<dim>1</dim>
					<dim>576</dim>
					<dim>14</dim>
					<dim>14</dim>
				</port>
				<port id="1">
					<dim>96</dim>
					<dim>576</dim>
					<dim>1</dim>
					<dim>1</dim>
				</port>
			</input>
			<output>
				<port id="2" precision="FP32">
					<dim>1</dim>
					<dim>96</dim>
					<dim>14</dim>
					<dim>14</dim>
				</port>
			</output>
		</layer>
		<layer id="197" name="data_add_11808118134691495" type="Const" version="opset1">
			<data offset="2141712" size="384" shape="1,96,1,1" element_type="f32"/>
			<rt_info>
				<attribute name="fused_names" version="0" value="data_add_1180811813"/>
			</rt_info>
			<output>
				<port id="0" precision="FP32">
					<dim>1</dim>
					<dim>96</dim>
					<dim>1</dim>
					<dim>1</dim>
				</port>
			</output>
		</layer>
		<layer id="198" name="conv5_2/linear/bn/variance/Fused_Add_" type="Add" version="opset1">
			<data auto_broadcast="numpy"/>
			<rt_info>
				<attribute name="fused_names" version="0" value="conv5_2/linear/bn/variance/Fused_Add_"/>
			</rt_info>
			<input>
				<port id="0">
					<dim>1</dim>
					<dim>96</dim>
					<dim>14</dim>
					<dim>14</dim>
				</port>
				<port id="1">
					<dim>1</dim>
					<dim>96</dim>
					<dim>1</dim>
					<dim>1</dim>
				</port>
			</input>
			<output>
				<port id="2" precision="FP32" names="conv5_2/linear/bn">
					<dim>1</dim>
					<dim>96</dim>
					<dim>14</dim>
					<dim>14</dim>
				</port>
			</output>
		</layer>
		<layer id="199" name="block_5_2" type="Add" version="opset1">
			<data auto_broadcast="numpy"/>
			<rt_info>
				<attribute name="fused_names" version="0" value="block_5_2"/>
			</rt_info>
			<input>
				<port id="0">
					<dim>1</dim>
					<dim>96</dim>
					<dim>14</dim>
					<dim>14</dim>
				</port>
				<port id="1">
					<dim>1</dim>
					<dim>96</dim>
					<dim>14</dim>
					<dim>14</dim>
				</port>
			</input>
			<output>
				<port id="2" precision="FP32" names="block_5_2">
					<dim>1</dim>
					<dim>96</dim>
					<dim>14</dim>
					<dim>14</dim>
				</port>
			</output>
		</layer>
		<layer id="200" name="conv5_3/expand/bn/mean/Fused_Mul__copy4721378" type="Const" version="opset1">
			<data offset="2142096" size="221184" shape="576,96,1,1" element_type="f32"/>
			<rt_info>
				<attribute name="fused_names" version="0" value="conv5_3/expand/bn/mean/Fused_Mul__copy"/>
			</rt_info>
			<output>
				<port id="0" precision="FP32">
					<dim>576</dim>
					<dim>96</dim>
					<dim>1</dim>
					<dim>1</dim>
				</port>
			</output>
		</layer>
		<layer id="201" name="conv5_3/expand" type="Convolution" version="opset1">
			<data auto_pad="explicit" strides="1,1" dilations="1,1" pads_begin="0,0" pads_end="0,0"/>
			<rt_info>
				<attribute name="fused_names" version="0" value="conv5_3/expand"/>
			</rt_info>
			<input>
				<port id="0">
					<dim>1</dim>
					<dim>96</dim>
					<dim>14</dim>
					<dim>14</dim>
				</port>
				<port id="1">
					<dim>576</dim>
					<dim>96</dim>
					<dim>1</dim>
					<dim>1</dim>
				</port>
			</input>
			<output>
				<port id="2" precision="FP32">
					<dim>1</dim>
					<dim>576</dim>
					<dim>14</dim>
					<dim>14</dim>
				</port>
			</output>
		</layer>
		<layer id="202" name="data_add_11816118214741315" type="Const" version="opset1">
			<data offset="2363280" size="2304" shape="1,576,1,1" element_type="f32"/>
			<rt_info>
				<attribute name="fused_names" version="0" value="data_add_1181611821"/>
			</rt_info>
			<output>
				<port id="0" precision="FP32">
					<dim>1</dim>
					<dim>576</dim>
					<dim>1</dim>
					<dim>1</dim>
				</port>
			</output>
		</layer>
		<layer id="203" name="conv5_3/expand/bn/variance/Fused_Add_" type="Add" version="opset1">
			<data auto_broadcast="numpy"/>
			<rt_info>
				<attribute name="fused_names" version="0" value="conv5_3/expand/bn/variance/Fused_Add_"/>
			</rt_info>
			<input>
				<port id="0">
					<dim>1</dim>
					<dim>576</dim>
					<dim>14</dim>
					<dim>14</dim>
				</port>
				<port id="1">
					<dim>1</dim>
					<dim>576</dim>
					<dim>1</dim>
					<dim>1</dim>
				</port>
			</input>
			<output>
				<port id="2" precision="FP32" names="conv5_3/expand/bn">
					<dim>1</dim>
					<dim>576</dim>
					<dim>14</dim>
					<dim>14</dim>
				</port>
			</output>
		</layer>
		<layer id="204" name="relu5_3/expand" type="ReLU" version="opset1">
			<rt_info>
				<attribute name="fused_names" version="0" value="relu5_3/expand"/>
			</rt_info>
			<input>
				<port id="0">
					<dim>1</dim>
					<dim>576</dim>
					<dim>14</dim>
					<dim>14</dim>
				</port>
			</input>
			<output>
				<port id="1" precision="FP32" names="conv5_3/expand/bn">
					<dim>1</dim>
					<dim>576</dim>
					<dim>14</dim>
					<dim>14</dim>
				</port>
			</output>
		</layer>
		<layer id="205" name="conv5_3/dwise/bn/mean/Fused_Mul__copy477" type="Const" version="opset1">
			<data offset="2365584" size="20736" shape="576,1,1,3,3" element_type="f32"/>
			<rt_info>
				<attribute name="fused_names" version="0" value="conv5_3/dwise/bn/mean/Fused_Mul__copy"/>
			</rt_info>
			<output>
				<port id="0" precision="FP32">
					<dim>576</dim>
					<dim>1</dim>
					<dim>1</dim>
					<dim>3</dim>
					<dim>3</dim>
				</port>
			</output>
		</layer>
		<layer id="206" name="conv5_3/dwise" type="GroupConvolution" version="opset1">
			<data auto_pad="explicit" strides="2,2" dilations="1,1" pads_begin="1,1" pads_end="1,1"/>
			<rt_info>
				<attribute name="fused_names" version="0" value="conv5_3/dwise"/>
			</rt_info>
			<input>
				<port id="0">
					<dim>1</dim>
					<dim>576</dim>
					<dim>14</dim>
					<dim>14</dim>
				</port>
				<port id="1">
					<dim>576</dim>
					<dim>1</dim>
					<dim>1</dim>
					<dim>3</dim>
					<dim>3</dim>
				</port>
			</input>
			<output>
				<port id="2" precision="FP32">
					<dim>1</dim>
					<dim>576</dim>
					<dim>7</dim>
					<dim>7</dim>
				</port>
			</output>
		</layer>
		<layer id="207" name="data_add_11824118294791207" type="Const" version="opset1">
			<data offset="2386320" size="2304" shape="1,576,1,1" element_type="f32"/>
			<rt_info>
				<attribute name="fused_names" version="0" value="data_add_1182411829"/>
			</rt_info>
			<output>
				<port id="0" precision="FP32">
					<dim>1</dim>
					<dim>576</dim>
					<dim>1</dim>
					<dim>1</dim>
				</port>
			</output>
		</layer>
		<layer id="208" name="conv5_3/dwise/bn/variance/Fused_Add_" type="Add" version="opset1">
			<data auto_broadcast="numpy"/>
			<rt_info>
				<attribute name="fused_names" version="0" value="conv5_3/dwise/bn/variance/Fused_Add_"/>
			</rt_info>
			<input>
				<port id="0">
					<dim>1</dim>
					<dim>576</dim>
					<dim>7</dim>
					<dim>7</dim>
				</port>
				<port id="1">
					<dim>1</dim>
					<dim>576</dim>
					<dim>1</dim>
					<dim>1</dim>
				</port>
			</input>
			<output>
				<port id="2" precision="FP32" names="conv5_3/dwise/bn">
					<dim>1</dim>
					<dim>576</dim>
					<dim>7</dim>
					<dim>7</dim>
				</port>
			</output>
		</layer>
		<layer id="209" name="relu5_3/dwise" type="ReLU" version="opset1">
			<rt_info>
				<attribute name="fused_names" version="0" value="relu5_3/dwise"/>
			</rt_info>
			<input>
				<port id="0">
					<dim>1</dim>
					<dim>576</dim>
					<dim>7</dim>
					<dim>7</dim>
				</port>
			</input>
			<output>
				<port id="1" precision="FP32" names="conv5_3/dwise/bn">
					<dim>1</dim>
					<dim>576</dim>
					<dim>7</dim>
					<dim>7</dim>
				</port>
			</output>
		</layer>
		<layer id="210" name="conv5_3/linear/bn/mean/Fused_Mul__copy4821462" type="Const" version="opset1">
			<data offset="2388624" size="368640" shape="160,576,1,1" element_type="f32"/>
			<rt_info>
				<attribute name="fused_names" version="0" value="conv5_3/linear/bn/mean/Fused_Mul__copy"/>
			</rt_info>
			<output>
				<port id="0" precision="FP32">
					<dim>160</dim>
					<dim>576</dim>
					<dim>1</dim>
					<dim>1</dim>
				</port>
			</output>
		</layer>
		<layer id="211" name="conv5_3/linear" type="Convolution" version="opset1">
			<data auto_pad="explicit" strides="1,1" dilations="1,1" pads_begin="0,0" pads_end="0,0"/>
			<rt_info>
				<attribute name="fused_names" version="0" value="conv5_3/linear"/>
			</rt_info>
			<input>
				<port id="0">
					<dim>1</dim>
					<dim>576</dim>
					<dim>7</dim>
					<dim>7</dim>
				</port>
				<port id="1">
					<dim>160</dim>
					<dim>576</dim>
					<dim>1</dim>
					<dim>1</dim>
				</port>
			</input>
			<output>
				<port id="2" precision="FP32">
					<dim>1</dim>
					<dim>160</dim>
					<dim>7</dim>
					<dim>7</dim>
				</port>
			</output>
		</layer>
		<layer id="212" name="data_add_11832118374841255" type="Const" version="opset1">
			<data offset="2757264" size="640" shape="1,160,1,1" element_type="f32"/>
			<rt_info>
				<attribute name="fused_names" version="0" value="data_add_1183211837"/>
			</rt_info>
			<output>
				<port id="0" precision="FP32">
					<dim>1</dim>
					<dim>160</dim>
					<dim>1</dim>
					<dim>1</dim>
				</port>
			</output>
		</layer>
		<layer id="213" name="conv5_3/linear/bn/variance/Fused_Add_" type="Add" version="opset1">
			<data auto_broadcast="numpy"/>
			<rt_info>
				<attribute name="fused_names" version="0" value="conv5_3/linear/bn/variance/Fused_Add_"/>
			</rt_info>
			<input>
				<port id="0">
					<dim>1</dim>
					<dim>160</dim>
					<dim>7</dim>
					<dim>7</dim>
				</port>
				<port id="1">
					<dim>1</dim>
					<dim>160</dim>
					<dim>1</dim>
					<dim>1</dim>
				</port>
			</input>
			<output>
				<port id="2" precision="FP32" names="conv5_3/linear/bn">
					<dim>1</dim>
					<dim>160</dim>
					<dim>7</dim>
					<dim>7</dim>
				</port>
			</output>
		</layer>
		<layer id="214" name="conv6_1/expand/bn/mean/Fused_Mul__copy4861309" type="Const" version="opset1">
			<data offset="2757904" size="614400" shape="960,160,1,1" element_type="f32"/>
			<rt_info>
				<attribute name="fused_names" version="0" value="conv6_1/expand/bn/mean/Fused_Mul__copy"/>
			</rt_info>
			<output>
				<port id="0" precision="FP32">
					<dim>960</dim>
					<dim>160</dim>
					<dim>1</dim>
					<dim>1</dim>
				</port>
			</output>
		</layer>
		<layer id="215" name="conv6_1/expand" type="Convolution" version="opset1">
			<data auto_pad="explicit" strides="1,1" dilations="1,1" pads_begin="0,0" pads_end="0,0"/>
			<rt_info>
				<attribute name="fused_names" version="0" value="conv6_1/expand"/>
			</rt_info>
			<input>
				<port id="0">
					<dim>1</dim>
					<dim>160</dim>
					<dim>7</dim>
					<dim>7</dim>
				</port>
				<port id="1">
					<dim>960</dim>
					<dim>160</dim>
					<dim>1</dim>
					<dim>1</dim>
				</port>
			</input>
			<output>
				<port id="2" precision="FP32">
					<dim>1</dim>
					<dim>960</dim>
					<dim>7</dim>
					<dim>7</dim>
				</port>
			</output>
		</layer>
		<layer id="216" name="data_add_11840118454881165" type="Const" version="opset1">
			<data offset="3372304" size="3840" shape="1,960,1,1" element_type="f32"/>
			<rt_info>
				<attribute name="fused_names" version="0" value="data_add_1184011845"/>
			</rt_info>
			<output>
				<port id="0" precision="FP32">
					<dim>1</dim>
					<dim>960</dim>
					<dim>1</dim>
					<dim>1</dim>
				</port>
			</output>
		</layer>
		<layer id="217" name="conv6_1/expand/bn/variance/Fused_Add_" type="Add" version="opset1">
			<data auto_broadcast="numpy"/>
			<rt_info>
				<attribute name="fused_names" version="0" value="conv6_1/expand/bn/variance/Fused_Add_"/>
			</rt_info>
			<input>
				<port id="0">
					<dim>1</dim>
					<dim>960</dim>
					<dim>7</dim>
					<dim>7</dim>
				</port>
				<port id="1">
					<dim>1</dim>
					<dim>960</dim>
					<dim>1</dim>
					<dim>1</dim>
				</port>
			</input>
			<output>
				<port id="2" precision="FP32" names="conv6_1/expand/bn">
					<dim>1</dim>
					<dim>960</dim>
					<dim>7</dim>
					<dim>7</dim>
				</port>
			</output>
		</layer>
		<layer id="218" name="relu6_1/expand" type="ReLU" version="opset1">
			<rt_info>
				<attribute name="fused_names" version="0" value="relu6_1/expand"/>
			</rt_info>
			<input>
				<port id="0">
					<dim>1</dim>
					<dim>960</dim>
					<dim>7</dim>
					<dim>7</dim>
				</port>
			</input>
			<output>
				<port id="1" precision="FP32" names="conv6_1/expand/bn">
					<dim>1</dim>
					<dim>960</dim>
					<dim>7</dim>
					<dim>7</dim>
				</port>
			</output>
		</layer>
		<layer id="219" name="conv6_1/dwise/bn/mean/Fused_Mul__copy491" type="Const" version="opset1">
			<data offset="3376144" size="34560" shape="960,1,1,3,3" element_type="f32"/>
			<rt_info>
				<attribute name="fused_names" version="0" value="conv6_1/dwise/bn/mean/Fused_Mul__copy"/>
			</rt_info>
			<output>
				<port id="0" precision="FP32">
					<dim>960</dim>
					<dim>1</dim>
					<dim>1</dim>
					<dim>3</dim>
					<dim>3</dim>
				</port>
			</output>
		</layer>
		<layer id="220" name="conv6_1/dwise" type="GroupConvolution" version="opset1">
			<data auto_pad="explicit" strides="1,1" dilations="1,1" pads_begin="1,1" pads_end="1,1"/>
			<rt_info>
				<attribute name="fused_names" version="0" value="conv6_1/dwise"/>
			</rt_info>
			<input>
				<port id="0">
					<dim>1</dim>
					<dim>960</dim>
					<dim>7</dim>
					<dim>7</dim>
				</port>
				<port id="1">
					<dim>960</dim>
					<dim>1</dim>
					<dim>1</dim>
					<dim>3</dim>
					<dim>3</dim>
				</port>
			</input>
			<output>
				<port id="2" precision="FP32">
					<dim>1</dim>
					<dim>960</dim>
					<dim>7</dim>
					<dim>7</dim>
				</port>
			</output>
		</layer>
		<layer id="221" name="data_add_11848118534931282" type="Const" version="opset1">
			<data offset="3410704" size="3840" shape="1,960,1,1" element_type="f32"/>
			<rt_info>
				<attribute name="fused_names" version="0" value="data_add_1184811853"/>
			</rt_info>
			<output>
				<port id="0" precision="FP32">
					<dim>1</dim>
					<dim>960</dim>
					<dim>1</dim>
					<dim>1</dim>
				</port>
			</output>
		</layer>
		<layer id="222" name="conv6_1/dwise/bn/variance/Fused_Add_" type="Add" version="opset1">
			<data auto_broadcast="numpy"/>
			<rt_info>
				<attribute name="fused_names" version="0" value="conv6_1/dwise/bn/variance/Fused_Add_"/>
			</rt_info>
			<input>
				<port id="0">
					<dim>1</dim>
					<dim>960</dim>
					<dim>7</dim>
					<dim>7</dim>
				</port>
				<port id="1">
					<dim>1</dim>
					<dim>960</dim>
					<dim>1</dim>
					<dim>1</dim>
				</port>
			</input>
			<output>
				<port id="2" precision="FP32" names="conv6_1/dwise/bn">
					<dim>1</dim>
					<dim>960</dim>
					<dim>7</dim>
					<dim>7</dim>
				</port>
			</output>
		</layer>
		<layer id="223" name="relu6_1/dwise" type="ReLU" version="opset1">
			<rt_info>
				<attribute name="fused_names" version="0" value="relu6_1/dwise"/>
			</rt_info>
			<input>
				<port id="0">
					<dim>1</dim>
					<dim>960</dim>
					<dim>7</dim>
					<dim>7</dim>
				</port>
			</input>
			<output>
				<port id="1" precision="FP32" names="conv6_1/dwise/bn">
					<dim>1</dim>
					<dim>960</dim>
					<dim>7</dim>
					<dim>7</dim>
				</port>
			</output>
		</layer>
		<layer id="224" name="conv6_1/linear/bn/mean/Fused_Mul__copy4961381" type="Const" version="opset1">
			<data offset="3414544" size="614400" shape="160,960,1,1" element_type="f32"/>
			<rt_info>
				<attribute name="fused_names" version="0" value="conv6_1/linear/bn/mean/Fused_Mul__copy"/>
			</rt_info>
			<output>
				<port id="0" precision="FP32">
					<dim>160</dim>
					<dim>960</dim>
					<dim>1</dim>
					<dim>1</dim>
				</port>
			</output>
		</layer>
		<layer id="225" name="conv6_1/linear" type="Convolution" version="opset1">
			<data auto_pad="explicit" strides="1,1" dilations="1,1" pads_begin="0,0" pads_end="0,0"/>
			<rt_info>
				<attribute name="fused_names" version="0" value="conv6_1/linear"/>
			</rt_info>
			<input>
				<port id="0">
					<dim>1</dim>
					<dim>960</dim>
					<dim>7</dim>
					<dim>7</dim>
				</port>
				<port id="1">
					<dim>160</dim>
					<dim>960</dim>
					<dim>1</dim>
					<dim>1</dim>
				</port>
			</input>
			<output>
				<port id="2" precision="FP32">
					<dim>1</dim>
					<dim>160</dim>
					<dim>7</dim>
					<dim>7</dim>
				</port>
			</output>
		</layer>
		<layer id="226" name="data_add_11856118614981423" type="Const" version="opset1">
			<data offset="4028944" size="640" shape="1,160,1,1" element_type="f32"/>
			<rt_info>
				<attribute name="fused_names" version="0" value="data_add_1185611861"/>
			</rt_info>
			<output>
				<port id="0" precision="FP32">
					<dim>1</dim>
					<dim>160</dim>
					<dim>1</dim>
					<dim>1</dim>
				</port>
			</output>
		</layer>
		<layer id="227" name="conv6_1/linear/bn/variance/Fused_Add_" type="Add" version="opset1">
			<data auto_broadcast="numpy"/>
			<rt_info>
				<attribute name="fused_names" version="0" value="conv6_1/linear/bn/variance/Fused_Add_"/>
			</rt_info>
			<input>
				<port id="0">
					<dim>1</dim>
					<dim>160</dim>
					<dim>7</dim>
					<dim>7</dim>
				</port>
				<port id="1">
					<dim>1</dim>
					<dim>160</dim>
					<dim>1</dim>
					<dim>1</dim>
				</port>
			</input>
			<output>
				<port id="2" precision="FP32" names="conv6_1/linear/bn">
					<dim>1</dim>
					<dim>160</dim>
					<dim>7</dim>
					<dim>7</dim>
				</port>
			</output>
		</layer>
		<layer id="228" name="block_6_1" type="Add" version="opset1">
			<data auto_broadcast="numpy"/>
			<rt_info>
				<attribute name="fused_names" version="0" value="block_6_1"/>
			</rt_info>
			<input>
				<port id="0">
					<dim>1</dim>
					<dim>160</dim>
					<dim>7</dim>
					<dim>7</dim>
				</port>
				<port id="1">
					<dim>1</dim>
					<dim>160</dim>
					<dim>7</dim>
					<dim>7</dim>
				</port>
			</input>
			<output>
				<port id="2" precision="FP32" names="block_6_1">
					<dim>1</dim>
					<dim>160</dim>
					<dim>7</dim>
					<dim>7</dim>
				</port>
			</output>
		</layer>
		<layer id="229" name="conv6_2/expand/bn/mean/Fused_Mul__copy5011393" type="Const" version="opset1">
			<data offset="4029584" size="614400" shape="960,160,1,1" element_type="f32"/>
			<rt_info>
				<attribute name="fused_names" version="0" value="conv6_2/expand/bn/mean/Fused_Mul__copy"/>
			</rt_info>
			<output>
				<port id="0" precision="FP32">
					<dim>960</dim>
					<dim>160</dim>
					<dim>1</dim>
					<dim>1</dim>
				</port>
			</output>
		</layer>
		<layer id="230" name="conv6_2/expand" type="Convolution" version="opset1">
			<data auto_pad="explicit" strides="1,1" dilations="1,1" pads_begin="0,0" pads_end="0,0"/>
			<rt_info>
				<attribute name="fused_names" version="0" value="conv6_2/expand"/>
			</rt_info>
			<input>
				<port id="0">
					<dim>1</dim>
					<dim>160</dim>
					<dim>7</dim>
					<dim>7</dim>
				</port>
				<port id="1">
					<dim>960</dim>
					<dim>160</dim>
					<dim>1</dim>
					<dim>1</dim>
				</port>
			</input>
			<output>
				<port id="2" precision="FP32">
					<dim>1</dim>
					<dim>960</dim>
					<dim>7</dim>
					<dim>7</dim>
				</port>
			</output>
		</layer>
		<layer id="231" name="data_add_11864118695031372" type="Const" version="opset1">
			<data offset="4643984" size="3840" shape="1,960,1,1" element_type="f32"/>
			<rt_info>
				<attribute name="fused_names" version="0" value="data_add_1186411869"/>
			</rt_info>
			<output>
				<port id="0" precision="FP32">
					<dim>1</dim>
					<dim>960</dim>
					<dim>1</dim>
					<dim>1</dim>
				</port>
			</output>
		</layer>
		<layer id="232" name="conv6_2/expand/bn/variance/Fused_Add_" type="Add" version="opset1">
			<data auto_broadcast="numpy"/>
			<rt_info>
				<attribute name="fused_names" version="0" value="conv6_2/expand/bn/variance/Fused_Add_"/>
			</rt_info>
			<input>
				<port id="0">
					<dim>1</dim>
					<dim>960</dim>
					<dim>7</dim>
					<dim>7</dim>
				</port>
				<port id="1">
					<dim>1</dim>
					<dim>960</dim>
					<dim>1</dim>
					<dim>1</dim>
				</port>
			</input>
			<output>
				<port id="2" precision="FP32" names="conv6_2/expand/bn">
					<dim>1</dim>
					<dim>960</dim>
					<dim>7</dim>
					<dim>7</dim>
				</port>
			</output>
		</layer>
		<layer id="233" name="relu6_2/expand" type="ReLU" version="opset1">
			<rt_info>
				<attribute name="fused_names" version="0" value="relu6_2/expand"/>
			</rt_info>
			<input>
				<port id="0">
					<dim>1</dim>
					<dim>960</dim>
					<dim>7</dim>
					<dim>7</dim>
				</port>
			</input>
			<output>
				<port id="1" precision="FP32" names="conv6_2/expand/bn">
					<dim>1</dim>
					<dim>960</dim>
					<dim>7</dim>
					<dim>7</dim>
				</port>
			</output>
		</layer>
		<layer id="234" name="conv6_2/dwise/bn/mean/Fused_Mul__copy506" type="Const" version="opset1">
			<data offset="4647824" size="34560" shape="960,1,1,3,3" element_type="f32"/>
			<rt_info>
				<attribute name="fused_names" version="0" value="conv6_2/dwise/bn/mean/Fused_Mul__copy"/>
			</rt_info>
			<output>
				<port id="0" precision="FP32">
					<dim>960</dim>
					<dim>1</dim>
					<dim>1</dim>
					<dim>3</dim>
					<dim>3</dim>
				</port>
			</output>
		</layer>
		<layer id="235" name="conv6_2/dwise" type="GroupConvolution" version="opset1">
			<data auto_pad="explicit" strides="1,1" dilations="1,1" pads_begin="1,1" pads_end="1,1"/>
			<rt_info>
				<attribute name="fused_names" version="0" value="conv6_2/dwise"/>
			</rt_info>
			<input>
				<port id="0">
					<dim>1</dim>
					<dim>960</dim>
					<dim>7</dim>
					<dim>7</dim>
				</port>
				<port id="1">
					<dim>960</dim>
					<dim>1</dim>
					<dim>1</dim>
					<dim>3</dim>
					<dim>3</dim>
				</port>
			</input>
			<output>
				<port id="2" precision="FP32">
					<dim>1</dim>
					<dim>960</dim>
					<dim>7</dim>
					<dim>7</dim>
				</port>
			</output>
		</layer>
		<layer id="236" name="data_add_11872118775081273" type="Const" version="opset1">
			<data offset="4682384" size="3840" shape="1,960,1,1" element_type="f32"/>
			<rt_info>
				<attribute name="fused_names" version="0" value="data_add_1187211877"/>
			</rt_info>
			<output>
				<port id="0" precision="FP32">
					<dim>1</dim>
					<dim>960</dim>
					<dim>1</dim>
					<dim>1</dim>
				</port>
			</output>
		</layer>
		<layer id="237" name="conv6_2/dwise/bn/variance/Fused_Add_" type="Add" version="opset1">
			<data auto_broadcast="numpy"/>
			<rt_info>
				<attribute name="fused_names" version="0" value="conv6_2/dwise/bn/variance/Fused_Add_"/>
			</rt_info>
			<input>
				<port id="0">
					<dim>1</dim>
					<dim>960</dim>
					<dim>7</dim>
					<dim>7</dim>
				</port>
				<port id="1">
					<dim>1</dim>
					<dim>960</dim>
					<dim>1</dim>
					<dim>1</dim>
				</port>
			</input>
			<output>
				<port id="2" precision="FP32" names="conv6_2/dwise/bn">
					<dim>1</dim>
					<dim>960</dim>
					<dim>7</dim>
					<dim>7</dim>
				</port>
			</output>
		</layer>
		<layer id="238" name="relu6_2/dwise" type="ReLU" version="opset1">
			<rt_info>
				<attribute name="fused_names" version="0" value="relu6_2/dwise"/>
			</rt_info>
			<input>
				<port id="0">
					<dim>1</dim>
					<dim>960</dim>
					<dim>7</dim>
					<dim>7</dim>
				</port>
			</input>
			<output>
				<port id="1" precision="FP32" names="conv6_2/dwise/bn">
					<dim>1</dim>
					<dim>960</dim>
					<dim>7</dim>
					<dim>7</dim>
				</port>
			</output>
		</layer>
		<layer id="239" name="conv6_2/linear/bn/mean/Fused_Mul__copy5111486" type="Const" version="opset1">
			<data offset="4686224" size="614400" shape="160,960,1,1" element_type="f32"/>
			<rt_info>
				<attribute name="fused_names" version="0" value="conv6_2/linear/bn/mean/Fused_Mul__copy"/>
			</rt_info>
			<output>
				<port id="0" precision="FP32">
					<dim>160</dim>
					<dim>960</dim>
					<dim>1</dim>
					<dim>1</dim>
				</port>
			</output>
		</layer>
		<layer id="240" name="conv6_2/linear" type="Convolution" version="opset1">
			<data auto_pad="explicit" strides="1,1" dilations="1,1" pads_begin="0,0" pads_end="0,0"/>
			<rt_info>
				<attribute name="fused_names" version="0" value="conv6_2/linear"/>
			</rt_info>
			<input>
				<port id="0">
					<dim>1</dim>
					<dim>960</dim>
					<dim>7</dim>
					<dim>7</dim>
				</port>
				<port id="1">
					<dim>160</dim>
					<dim>960</dim>
					<dim>1</dim>
					<dim>1</dim>
				</port>
			</input>
			<output>
				<port id="2" precision="FP32">
					<dim>1</dim>
					<dim>160</dim>
					<dim>7</dim>
					<dim>7</dim>
				</port>
			</output>
		</layer>
		<layer id="241" name="data_add_11880118855131465" type="Const" version="opset1">
			<data offset="5300624" size="640" shape="1,160,1,1" element_type="f32"/>
			<rt_info>
				<attribute name="fused_names" version="0" value="data_add_1188011885"/>
			</rt_info>
			<output>
				<port id="0" precision="FP32">
					<dim>1</dim>
					<dim>160</dim>
					<dim>1</dim>
					<dim>1</dim>
				</port>
			</output>
		</layer>
		<layer id="242" name="conv6_2/linear/bn/variance/Fused_Add_" type="Add" version="opset1">
			<data auto_broadcast="numpy"/>
			<rt_info>
				<attribute name="fused_names" version="0" value="conv6_2/linear/bn/variance/Fused_Add_"/>
			</rt_info>
			<input>
				<port id="0">
					<dim>1</dim>
					<dim>160</dim>
					<dim>7</dim>
					<dim>7</dim>
				</port>
				<port id="1">
					<dim>1</dim>
					<dim>160</dim>
					<dim>1</dim>
					<dim>1</dim>
				</port>
			</input>
			<output>
				<port id="2" precision="FP32" names="conv6_2/linear/bn">
					<dim>1</dim>
					<dim>160</dim>
					<dim>7</dim>
					<dim>7</dim>
				</port>
			</output>
		</layer>
		<layer id="243" name="block_6_2" type="Add" version="opset1">
			<data auto_broadcast="numpy"/>
			<rt_info>
				<attribute name="fused_names" version="0" value="block_6_2"/>
			</rt_info>
			<input>
				<port id="0">
					<dim>1</dim>
					<dim>160</dim>
					<dim>7</dim>
					<dim>7</dim>
				</port>
				<port id="1">
					<dim>1</dim>
					<dim>160</dim>
					<dim>7</dim>
					<dim>7</dim>
				</port>
			</input>
			<output>
				<port id="2" precision="FP32" names="block_6_2">
					<dim>1</dim>
					<dim>160</dim>
					<dim>7</dim>
					<dim>7</dim>
				</port>
			</output>
		</layer>
		<layer id="244" name="conv6_3/expand/bn/mean/Fused_Mul__copy5161456" type="Const" version="opset1">
			<data offset="5301264" size="614400" shape="960,160,1,1" element_type="f32"/>
			<rt_info>
				<attribute name="fused_names" version="0" value="conv6_3/expand/bn/mean/Fused_Mul__copy"/>
			</rt_info>
			<output>
				<port id="0" precision="FP32">
					<dim>960</dim>
					<dim>160</dim>
					<dim>1</dim>
					<dim>1</dim>
				</port>
			</output>
		</layer>
		<layer id="245" name="conv6_3/expand" type="Convolution" version="opset1">
			<data auto_pad="explicit" strides="1,1" dilations="1,1" pads_begin="0,0" pads_end="0,0"/>
			<rt_info>
				<attribute name="fused_names" version="0" value="conv6_3/expand"/>
			</rt_info>
			<input>
				<port id="0">
					<dim>1</dim>
					<dim>160</dim>
					<dim>7</dim>
					<dim>7</dim>
				</port>
				<port id="1">
					<dim>960</dim>
					<dim>160</dim>
					<dim>1</dim>
					<dim>1</dim>
				</port>
			</input>
			<output>
				<port id="2" precision="FP32">
					<dim>1</dim>
					<dim>960</dim>
					<dim>7</dim>
					<dim>7</dim>
				</port>
			</output>
		</layer>
		<layer id="246" name="data_add_11888118935181468" type="Const" version="opset1">
			<data offset="5915664" size="3840" shape="1,960,1,1" element_type="f32"/>
			<rt_info>
				<attribute name="fused_names" version="0" value="data_add_1188811893"/>
			</rt_info>
			<output>
				<port id="0" precision="FP32">
					<dim>1</dim>
					<dim>960</dim>
					<dim>1</dim>
					<dim>1</dim>
				</port>
			</output>
		</layer>
		<layer id="247" name="conv6_3/expand/bn/variance/Fused_Add_" type="Add" version="opset1">
			<data auto_broadcast="numpy"/>
			<rt_info>
				<attribute name="fused_names" version="0" value="conv6_3/expand/bn/variance/Fused_Add_"/>
			</rt_info>
			<input>
				<port id="0">
					<dim>1</dim>
					<dim>960</dim>
					<dim>7</dim>
					<dim>7</dim>
				</port>
				<port id="1">
					<dim>1</dim>
					<dim>960</dim>
					<dim>1</dim>
					<dim>1</dim>
				</port>
			</input>
			<output>
				<port id="2" precision="FP32" names="conv6_3/expand/bn">
					<dim>1</dim>
					<dim>960</dim>
					<dim>7</dim>
					<dim>7</dim>
				</port>
			</output>
		</layer>
		<layer id="248" name="relu6_3/expand" type="ReLU" version="opset1">
			<rt_info>
				<attribute name="fused_names" version="0" value="relu6_3/expand"/>
			</rt_info>
			<input>
				<port id="0">
					<dim>1</dim>
					<dim>960</dim>
					<dim>7</dim>
					<dim>7</dim>
				</port>
			</input>
			<output>
				<port id="1" precision="FP32" names="conv6_3/expand/bn">
					<dim>1</dim>
					<dim>960</dim>
					<dim>7</dim>
					<dim>7</dim>
				</port>
			</output>
		</layer>
		<layer id="249" name="conv6_3/dwise/bn/mean/Fused_Mul__copy521" type="Const" version="opset1">
			<data offset="5919504" size="34560" shape="960,1,1,3,3" element_type="f32"/>
			<rt_info>
				<attribute name="fused_names" version="0" value="conv6_3/dwise/bn/mean/Fused_Mul__copy"/>
			</rt_info>
			<output>
				<port id="0" precision="FP32">
					<dim>960</dim>
					<dim>1</dim>
					<dim>1</dim>
					<dim>3</dim>
					<dim>3</dim>
				</port>
			</output>
		</layer>
		<layer id="250" name="conv6_3/dwise" type="GroupConvolution" version="opset1">
			<data auto_pad="explicit" strides="1,1" dilations="1,1" pads_begin="1,1" pads_end="1,1"/>
			<rt_info>
				<attribute name="fused_names" version="0" value="conv6_3/dwise"/>
			</rt_info>
			<input>
				<port id="0">
					<dim>1</dim>
					<dim>960</dim>
					<dim>7</dim>
					<dim>7</dim>
				</port>
				<port id="1">
					<dim>960</dim>
					<dim>1</dim>
					<dim>1</dim>
					<dim>3</dim>
					<dim>3</dim>
				</port>
			</input>
			<output>
				<port id="2" precision="FP32">
					<dim>1</dim>
					<dim>960</dim>
					<dim>7</dim>
					<dim>7</dim>
				</port>
			</output>
		</layer>
		<layer id="251" name="data_add_11896119015231264" type="Const" version="opset1">
			<data offset="5954064" size="3840" shape="1,960,1,1" element_type="f32"/>
			<rt_info>
				<attribute name="fused_names" version="0" value="data_add_1189611901"/>
			</rt_info>
			<output>
				<port id="0" precision="FP32">
					<dim>1</dim>
					<dim>960</dim>
					<dim>1</dim>
					<dim>1</dim>
				</port>
			</output>
		</layer>
		<layer id="252" name="conv6_3/dwise/bn/variance/Fused_Add_" type="Add" version="opset1">
			<data auto_broadcast="numpy"/>
			<rt_info>
				<attribute name="fused_names" version="0" value="conv6_3/dwise/bn/variance/Fused_Add_"/>
			</rt_info>
			<input>
				<port id="0">
					<dim>1</dim>
					<dim>960</dim>
					<dim>7</dim>
					<dim>7</dim>
				</port>
				<port id="1">
					<dim>1</dim>
					<dim>960</dim>
					<dim>1</dim>
					<dim>1</dim>
				</port>
			</input>
			<output>
				<port id="2" precision="FP32" names="conv6_3/dwise/bn">
					<dim>1</dim>
					<dim>960</dim>
					<dim>7</dim>
					<dim>7</dim>
				</port>
			</output>
		</layer>
		<layer id="253" name="relu6_3/dwise" type="ReLU" version="opset1">
			<rt_info>
				<attribute name="fused_names" version="0" value="relu6_3/dwise"/>
			</rt_info>
			<input>
				<port id="0">
					<dim>1</dim>
					<dim>960</dim>
					<dim>7</dim>
					<dim>7</dim>
				</port>
			</input>
			<output>
				<port id="1" precision="FP32" names="conv6_3/dwise/bn">
					<dim>1</dim>
					<dim>960</dim>
					<dim>7</dim>
					<dim>7</dim>
				</port>
			</output>
		</layer>
		<layer id="254" name="conv6_3/linear/bn/mean/Fused_Mul__copy5261285" type="Const" version="opset1">
			<data offset="5957904" size="1228800" shape="320,960,1,1" element_type="f32"/>
			<rt_info>
				<attribute name="fused_names" version="0" value="conv6_3/linear/bn/mean/Fused_Mul__copy"/>
			</rt_info>
			<output>
				<port id="0" precision="FP32">
					<dim>320</dim>
					<dim>960</dim>
					<dim>1</dim>
					<dim>1</dim>
				</port>
			</output>
		</layer>
		<layer id="255" name="conv6_3/linear" type="Convolution" version="opset1">
			<data auto_pad="explicit" strides="1,1" dilations="1,1" pads_begin="0,0" pads_end="0,0"/>
			<rt_info>
				<attribute name="fused_names" version="0" value="conv6_3/linear"/>
			</rt_info>
			<input>
				<port id="0">
					<dim>1</dim>
					<dim>960</dim>
					<dim>7</dim>
					<dim>7</dim>
				</port>
				<port id="1">
					<dim>320</dim>
					<dim>960</dim>
					<dim>1</dim>
					<dim>1</dim>
				</port>
			</input>
			<output>
				<port id="2" precision="FP32">
					<dim>1</dim>
					<dim>320</dim>
					<dim>7</dim>
					<dim>7</dim>
				</port>
			</output>
		</layer>
		<layer id="256" name="data_add_11904119095281363" type="Const" version="opset1">
			<data offset="7186704" size="1280" shape="1,320,1,1" element_type="f32"/>
			<rt_info>
				<attribute name="fused_names" version="0" value="data_add_1190411909"/>
			</rt_info>
			<output>
				<port id="0" precision="FP32">
					<dim>1</dim>
					<dim>320</dim>
					<dim>1</dim>
					<dim>1</dim>
				</port>
			</output>
		</layer>
		<layer id="257" name="conv6_3/linear/bn/variance/Fused_Add_" type="Add" version="opset1">
			<data auto_broadcast="numpy"/>
			<rt_info>
				<attribute name="fused_names" version="0" value="conv6_3/linear/bn/variance/Fused_Add_"/>
			</rt_info>
			<input>
				<port id="0">
					<dim>1</dim>
					<dim>320</dim>
					<dim>7</dim>
					<dim>7</dim>
				</port>
				<port id="1">
					<dim>1</dim>
					<dim>320</dim>
					<dim>1</dim>
					<dim>1</dim>
				</port>
			</input>
			<output>
				<port id="2" precision="FP32" names="conv6_3/linear/bn">
					<dim>1</dim>
					<dim>320</dim>
					<dim>7</dim>
					<dim>7</dim>
				</port>
			</output>
		</layer>
		<layer id="258" name="conv6_4/bn/mean/Fused_Mul__copy5301192" type="Const" version="opset1">
			<data offset="7187984" size="1638400" shape="1280,320,1,1" element_type="f32"/>
			<rt_info>
				<attribute name="fused_names" version="0" value="conv6_4/bn/mean/Fused_Mul__copy"/>
			</rt_info>
			<output>
				<port id="0" precision="FP32">
					<dim>1280</dim>
					<dim>320</dim>
					<dim>1</dim>
					<dim>1</dim>
				</port>
			</output>
		</layer>
		<layer id="259" name="conv6_4" type="Convolution" version="opset1">
			<data auto_pad="explicit" strides="1,1" dilations="1,1" pads_begin="0,0" pads_end="0,0"/>
			<rt_info>
				<attribute name="fused_names" version="0" value="conv6_4"/>
			</rt_info>
			<input>
				<port id="0">
					<dim>1</dim>
					<dim>320</dim>
					<dim>7</dim>
					<dim>7</dim>
				</port>
				<port id="1">
					<dim>1280</dim>
					<dim>320</dim>
					<dim>1</dim>
					<dim>1</dim>
				</port>
			</input>
			<output>
				<port id="2" precision="FP32">
					<dim>1</dim>
					<dim>1280</dim>
					<dim>7</dim>
					<dim>7</dim>
				</port>
			</output>
		</layer>
		<layer id="260" name="data_add_11912119175321243" type="Const" version="opset1">
			<data offset="8826384" size="5120" shape="1,1280,1,1" element_type="f32"/>
			<rt_info>
				<attribute name="fused_names" version="0" value="data_add_1191211917"/>
			</rt_info>
			<output>
				<port id="0" precision="FP32">
					<dim>1</dim>
					<dim>1280</dim>
					<dim>1</dim>
					<dim>1</dim>
				</port>
			</output>
		</layer>
		<layer id="261" name="conv6_4/bn/variance/Fused_Add_" type="Add" version="opset1">
			<data auto_broadcast="numpy"/>
			<rt_info>
				<attribute name="fused_names" version="0" value="conv6_4/bn/variance/Fused_Add_"/>
			</rt_info>
			<input>
				<port id="0">
					<dim>1</dim>
					<dim>1280</dim>
					<dim>7</dim>
					<dim>7</dim>
				</port>
				<port id="1">
					<dim>1</dim>
					<dim>1280</dim>
					<dim>1</dim>
					<dim>1</dim>
				</port>
			</input>
			<output>
				<port id="2" precision="FP32" names="conv6_4/bn">
					<dim>1</dim>
					<dim>1280</dim>
					<dim>7</dim>
					<dim>7</dim>
				</port>
			</output>
		</layer>
		<layer id="262" name="relu6_4" type="ReLU" version="opset1">
			<rt_info>
				<attribute name="fused_names" version="0" value="relu6_4"/>
			</rt_info>
			<input>
				<port id="0">
					<dim>1</dim>
					<dim>1280</dim>
					<dim>7</dim>
					<dim>7</dim>
				</port>
			</input>
			<output>
				<port id="1" precision="FP32" names="conv6_4/bn">
					<dim>1</dim>
					<dim>1280</dim>
					<dim>7</dim>
					<dim>7</dim>
				</port>
			</output>
		</layer>
		<layer id="263" name="pool6/global_pooling_reduce_axis5351345" type="Const" version="opset1">
			<data offset="8831504" size="16" shape="2" element_type="i64"/>
			<output>
				<port id="0" precision="I64">
					<dim>2</dim>
				</port>
			</output>
		</layer>
		<layer id="264" name="pool6/reduce" type="ReduceMean" version="opset1">
			<data keep_dims="true"/>
			<rt_info>
				<attribute name="fused_names" version="0" value="pool6/global_pooling_reduce_axis, pool6/reduce"/>
			</rt_info>
			<input>
				<port id="0">
					<dim>1</dim>
					<dim>1280</dim>
					<dim>7</dim>
					<dim>7</dim>
				</port>
				<port id="1">
					<dim>2</dim>
				</port>
			</input>
			<output>
				<port id="2" precision="FP32" names="pool6">
					<dim>1</dim>
					<dim>1280</dim>
					<dim>1</dim>
					<dim>1</dim>
				</port>
			</output>
		</layer>
		<layer id="265" name="2685371411" type="Const" version="opset1">
			<data offset="8831520" size="5120000" shape="1000,1280,1,1" element_type="f32"/>
			<rt_info>
				<attribute name="fused_names" version="0" value="268"/>
			</rt_info>
			<output>
				<port id="0" precision="FP32">
					<dim>1000</dim>
					<dim>1280</dim>
					<dim>1</dim>
					<dim>1</dim>
				</port>
			</output>
		</layer>
		<layer id="266" name="fc7/WithoutBiases" type="Convolution" version="opset1">
			<data auto_pad="explicit" strides="1,1" dilations="1,1" pads_begin="0,0" pads_end="0,0"/>
			<rt_info>
				<attribute name="fused_names" version="0" value="fc7/WithoutBiases"/>
			</rt_info>
			<input>
				<port id="0">
					<dim>1</dim>
					<dim>1280</dim>
					<dim>1</dim>
					<dim>1</dim>
				</port>
				<port id="1">
					<dim>1000</dim>
					<dim>1280</dim>
					<dim>1</dim>
					<dim>1</dim>
				</port>
			</input>
			<output>
				<port id="2" precision="FP32">
					<dim>1</dim>
					<dim>1000</dim>
					<dim>1</dim>
					<dim>1</dim>
				</port>
			</output>
		</layer>
		<layer id="267" name="fc7/Dims64805391174" type="Const" version="opset1">
			<data offset="13951520" size="4000" shape="1,1000,1,1" element_type="f32"/>
			<rt_info>
				<attribute name="fused_names" version="0" value="fc7/Dims6480"/>
			</rt_info>
			<output>
				<port id="0" precision="FP32">
					<dim>1</dim>
					<dim>1000</dim>
					<dim>1</dim>
					<dim>1</dim>
				</port>
			</output>
		</layer>
		<layer id="268" name="fc7" type="Add" version="opset1">
			<data auto_broadcast="numpy"/>
			<rt_info>
				<attribute name="fused_names" version="0" value="fc7"/>
			</rt_info>
			<input>
				<port id="0">
					<dim>1</dim>
					<dim>1000</dim>
					<dim>1</dim>
					<dim>1</dim>
				</port>
				<port id="1">
					<dim>1</dim>
					<dim>1000</dim>
					<dim>1</dim>
					<dim>1</dim>
				</port>
			</input>
			<output>
				<port id="2" precision="FP32" names="fc7">
					<dim>1</dim>
					<dim>1000</dim>
					<dim>1</dim>
					<dim>1</dim>
				</port>
			</output>
		</layer>
		<layer id="269" name="prob" type="SoftMax" version="opset8">
			<data axis="1"/>
			<rt_info>
				<attribute name="fused_names" version="0" value="prob"/>
			</rt_info>
			<input>
				<port id="0">
					<dim>1</dim>
					<dim>1000</dim>
					<dim>1</dim>
					<dim>1</dim>
				</port>
			</input>
			<output>
				<port id="1" precision="FP32" names="prob">
					<dim>1</dim>
					<dim>1000</dim>
					<dim>1</dim>
					<dim>1</dim>
				</port>
			</output>
		</layer>
		<layer id="270" name="prob/sink_port_0" type="Result" version="opset1">
			<rt_info>
				<attribute name="fused_names" version="0" value="prob/sink_port_0"/>
			</rt_info>
			<input>
				<port id="0">
					<dim>1</dim>
					<dim>1000</dim>
					<dim>1</dim>
					<dim>1</dim>
				</port>
			</input>
		</layer>
	</layers>
	<edges>
		<edge from-layer="0" from-port="0" to-layer="2" to-port="0"/>
		<edge from-layer="1" from-port="0" to-layer="2" to-port="1"/>
		<edge from-layer="2" from-port="2" to-layer="4" to-port="0"/>
		<edge from-layer="3" from-port="0" to-layer="4" to-port="1"/>
		<edge from-layer="4" from-port="2" to-layer="6" to-port="0"/>
		<edge from-layer="5" from-port="0" to-layer="6" to-port="1"/>
		<edge from-layer="6" from-port="2" to-layer="8" to-port="0"/>
		<edge from-layer="7" from-port="0" to-layer="8" to-port="1"/>
		<edge from-layer="8" from-port="2" to-layer="9" to-port="0"/>
		<edge from-layer="9" from-port="1" to-layer="11" to-port="0"/>
		<edge from-layer="10" from-port="0" to-layer="11" to-port="1"/>
		<edge from-layer="11" from-port="2" to-layer="13" to-port="0"/>
		<edge from-layer="12" from-port="0" to-layer="13" to-port="1"/>
		<edge from-layer="13" from-port="2" to-layer="14" to-port="0"/>
		<edge from-layer="14" from-port="1" to-layer="16" to-port="0"/>
		<edge from-layer="15" from-port="0" to-layer="16" to-port="1"/>
		<edge from-layer="16" from-port="2" to-layer="18" to-port="0"/>
		<edge from-layer="17" from-port="0" to-layer="18" to-port="1"/>
		<edge from-layer="18" from-port="2" to-layer="19" to-port="0"/>
		<edge from-layer="19" from-port="1" to-layer="21" to-port="0"/>
		<edge from-layer="20" from-port="0" to-layer="21" to-port="1"/>
		<edge from-layer="21" from-port="2" to-layer="23" to-port="0"/>
		<edge from-layer="22" from-port="0" to-layer="23" to-port="1"/>
		<edge from-layer="23" from-port="2" to-layer="25" to-port="0"/>
		<edge from-layer="24" from-port="0" to-layer="25" to-port="1"/>
		<edge from-layer="25" from-port="2" to-layer="27" to-port="0"/>
		<edge from-layer="26" from-port="0" to-layer="27" to-port="1"/>
		<edge from-layer="27" from-port="2" to-layer="28" to-port="0"/>
		<edge from-layer="28" from-port="1" to-layer="30" to-port="0"/>
		<edge from-layer="29" from-port="0" to-layer="30" to-port="1"/>
		<edge from-layer="30" from-port="2" to-layer="32" to-port="0"/>
		<edge from-layer="31" from-port="0" to-layer="32" to-port="1"/>
		<edge from-layer="32" from-port="2" to-layer="33" to-port="0"/>
		<edge from-layer="33" from-port="1" to-layer="35" to-port="0"/>
		<edge from-layer="34" from-port="0" to-layer="35" to-port="1"/>
		<edge from-layer="35" from-port="2" to-layer="37" to-port="0"/>
		<edge from-layer="36" from-port="0" to-layer="37" to-port="1"/>
		<edge from-layer="37" from-port="2" to-layer="39" to-port="0"/>
		<edge from-layer="38" from-port="0" to-layer="39" to-port="1"/>
		<edge from-layer="39" from-port="2" to-layer="41" to-port="0"/>
		<edge from-layer="40" from-port="0" to-layer="41" to-port="1"/>
		<edge from-layer="41" from-port="2" to-layer="42" to-port="0"/>
		<edge from-layer="42" from-port="1" to-layer="44" to-port="0"/>
		<edge from-layer="43" from-port="0" to-layer="44" to-port="1"/>
		<edge from-layer="44" from-port="2" to-layer="46" to-port="0"/>
		<edge from-layer="45" from-port="0" to-layer="46" to-port="1"/>
		<edge from-layer="46" from-port="2" to-layer="47" to-port="0"/>
		<edge from-layer="47" from-port="1" to-layer="49" to-port="0"/>
		<edge from-layer="48" from-port="0" to-layer="49" to-port="1"/>
		<edge from-layer="49" from-port="2" to-layer="51" to-port="0"/>
		<edge from-layer="50" from-port="0" to-layer="51" to-port="1"/>
		<edge from-layer="37" from-port="2" to-layer="52" to-port="0"/>
		<edge from-layer="51" from-port="2" to-layer="52" to-port="1"/>
		<edge from-layer="52" from-port="2" to-layer="54" to-port="0"/>
		<edge from-layer="53" from-port="0" to-layer="54" to-port="1"/>
		<edge from-layer="54" from-port="2" to-layer="56" to-port="0"/>
		<edge from-layer="55" from-port="0" to-layer="56" to-port="1"/>
		<edge from-layer="56" from-port="2" to-layer="57" to-port="0"/>
		<edge from-layer="57" from-port="1" to-layer="59" to-port="0"/>
		<edge from-layer="58" from-port="0" to-layer="59" to-port="1"/>
		<edge from-layer="59" from-port="2" to-layer="61" to-port="0"/>
		<edge from-layer="60" from-port="0" to-layer="61" to-port="1"/>
		<edge from-layer="61" from-port="2" to-layer="62" to-port="0"/>
		<edge from-layer="62" from-port="1" to-layer="64" to-port="0"/>
		<edge from-layer="63" from-port="0" to-layer="64" to-port="1"/>
		<edge from-layer="64" from-port="2" to-layer="66" to-port="0"/>
		<edge from-layer="65" from-port="0" to-layer="66" to-port="1"/>
		<edge from-layer="66" from-port="2" to-layer="68" to-port="0"/>
		<edge from-layer="67" from-port="0" to-layer="68" to-port="1"/>
		<edge from-layer="68" from-port="2" to-layer="70" to-port="0"/>
		<edge from-layer="69" from-port="0" to-layer="70" to-port="1"/>
		<edge from-layer="70" from-port="2" to-layer="71" to-port="0"/>
		<edge from-layer="71" from-port="1" to-layer="73" to-port="0"/>
		<edge from-layer="72" from-port="0" to-layer="73" to-port="1"/>
		<edge from-layer="73" from-port="2" to-layer="75" to-port="0"/>
		<edge from-layer="74" from-port="0" to-layer="75" to-port="1"/>
		<edge from-layer="75" from-port="2" to-layer="76" to-port="0"/>
		<edge from-layer="76" from-port="1" to-layer="78" to-port="0"/>
		<edge from-layer="77" from-port="0" to-layer="78" to-port="1"/>
		<edge from-layer="78" from-port="2" to-layer="80" to-port="0"/>
		<edge from-layer="79" from-port="0" to-layer="80" to-port="1"/>
		<edge from-layer="66" from-port="2" to-layer="81" to-port="0"/>
		<edge from-layer="80" from-port="2" to-layer="81" to-port="1"/>
		<edge from-layer="81" from-port="2" to-layer="83" to-port="0"/>
		<edge from-layer="82" from-port="0" to-layer="83" to-port="1"/>
		<edge from-layer="83" from-port="2" to-layer="85" to-port="0"/>
		<edge from-layer="84" from-port="0" to-layer="85" to-port="1"/>
		<edge from-layer="85" from-port="2" to-layer="86" to-port="0"/>
		<edge from-layer="86" from-port="1" to-layer="88" to-port="0"/>
		<edge from-layer="87" from-port="0" to-layer="88" to-port="1"/>
		<edge from-layer="88" from-port="2" to-layer="90" to-port="0"/>
		<edge from-layer="89" from-port="0" to-layer="90" to-port="1"/>
		<edge from-layer="90" from-port="2" to-layer="91" to-port="0"/>
		<edge from-layer="91" from-port="1" to-layer="93" to-port="0"/>
		<edge from-layer="92" from-port="0" to-layer="93" to-port="1"/>
		<edge from-layer="93" from-port="2" to-layer="95" to-port="0"/>
		<edge from-layer="94" from-port="0" to-layer="95" to-port="1"/>
		<edge from-layer="81" from-port="2" to-layer="96" to-port="0"/>
		<edge from-layer="95" from-port="2" to-layer="96" to-port="1"/>
		<edge from-layer="96" from-port="2" to-layer="98" to-port="0"/>
		<edge from-layer="97" from-port="0" to-layer="98" to-port="1"/>
		<edge from-layer="98" from-port="2" to-layer="100" to-port="0"/>
		<edge from-layer="99" from-port="0" to-layer="100" to-port="1"/>
		<edge from-layer="100" from-port="2" to-layer="101" to-port="0"/>
		<edge from-layer="101" from-port="1" to-layer="103" to-port="0"/>
		<edge from-layer="102" from-port="0" to-layer="103" to-port="1"/>
		<edge from-layer="103" from-port="2" to-layer="105" to-port="0"/>
		<edge from-layer="104" from-port="0" to-layer="105" to-port="1"/>
		<edge from-layer="105" from-port="2" to-layer="106" to-port="0"/>
		<edge from-layer="106" from-port="1" to-layer="108" to-port="0"/>
		<edge from-layer="107" from-port="0" to-layer="108" to-port="1"/>
		<edge from-layer="108" from-port="2" to-layer="110" to-port="0"/>
		<edge from-layer="109" from-port="0" to-layer="110" to-port="1"/>
		<edge from-layer="110" from-port="2" to-layer="112" to-port="0"/>
		<edge from-layer="111" from-port="0" to-layer="112" to-port="1"/>
		<edge from-layer="112" from-port="2" to-layer="114" to-port="0"/>
		<edge from-layer="113" from-port="0" to-layer="114" to-port="1"/>
		<edge from-layer="114" from-port="2" to-layer="115" to-port="0"/>
		<edge from-layer="115" from-port="1" to-layer="117" to-port="0"/>
		<edge from-layer="116" from-port="0" to-layer="117" to-port="1"/>
		<edge from-layer="117" from-port="2" to-layer="119" to-port="0"/>
		<edge from-layer="118" from-port="0" to-layer="119" to-port="1"/>
		<edge from-layer="119" from-port="2" to-layer="120" to-port="0"/>
		<edge from-layer="120" from-port="1" to-layer="122" to-port="0"/>
		<edge from-layer="121" from-port="0" to-layer="122" to-port="1"/>
		<edge from-layer="122" from-port="2" to-layer="124" to-port="0"/>
		<edge from-layer="123" from-port="0" to-layer="124" to-port="1"/>
		<edge from-layer="110" from-port="2" to-layer="125" to-port="0"/>
		<edge from-layer="124" from-port="2" to-layer="125" to-port="1"/>
		<edge from-layer="125" from-port="2" to-layer="127" to-port="0"/>
		<edge from-layer="126" from-port="0" to-layer="127" to-port="1"/>
		<edge from-layer="127" from-port="2" to-layer="129" to-port="0"/>
		<edge from-layer="128" from-port="0" to-layer="129" to-port="1"/>
		<edge from-layer="129" from-port="2" to-layer="130" to-port="0"/>
		<edge from-layer="130" from-port="1" to-layer="132" to-port="0"/>
		<edge from-layer="131" from-port="0" to-layer="132" to-port="1"/>
		<edge from-layer="132" from-port="2" to-layer="134" to-port="0"/>
		<edge from-layer="133" from-port="0" to-layer="134" to-port="1"/>
		<edge from-layer="134" from-port="2" to-layer="135" to-port="0"/>
		<edge from-layer="135" from-port="1" to-layer="137" to-port="0"/>
		<edge from-layer="136" from-port="0" to-layer="137" to-port="1"/>
		<edge from-layer="137" from-port="2" to-layer="139" to-port="0"/>
		<edge from-layer="138" from-port="0" to-layer="139" to-port="1"/>
		<edge from-layer="125" from-port="2" to-layer="140" to-port="0"/>
		<edge from-layer="139" from-port="2" to-layer="140" to-port="1"/>
		<edge from-layer="140" from-port="2" to-layer="142" to-port="0"/>
		<edge from-layer="141" from-port="0" to-layer="142" to-port="1"/>
		<edge from-layer="142" from-port="2" to-layer="144" to-port="0"/>
		<edge from-layer="143" from-port="0" to-layer="144" to-port="1"/>
		<edge from-layer="144" from-port="2" to-layer="145" to-port="0"/>
		<edge from-layer="145" from-port="1" to-layer="147" to-port="0"/>
		<edge from-layer="146" from-port="0" to-layer="147" to-port="1"/>
		<edge from-layer="147" from-port="2" to-layer="149" to-port="0"/>
		<edge from-layer="148" from-port="0" to-layer="149" to-port="1"/>
		<edge from-layer="149" from-port="2" to-layer="150" to-port="0"/>
		<edge from-layer="150" from-port="1" to-layer="152" to-port="0"/>
		<edge from-layer="151" from-port="0" to-layer="152" to-port="1"/>
		<edge from-layer="152" from-port="2" to-layer="154" to-port="0"/>
		<edge from-layer="153" from-port="0" to-layer="154" to-port="1"/>
		<edge from-layer="140" from-port="2" to-layer="155" to-port="0"/>
		<edge from-layer="154" from-port="2" to-layer="155" to-port="1"/>
		<edge from-layer="155" from-port="2" to-layer="157" to-port="0"/>
		<edge from-layer="156" from-port="0" to-layer="157" to-port="1"/>
		<edge from-layer="157" from-port="2" to-layer="159" to-port="0"/>
		<edge from-layer="158" from-port="0" to-layer="159" to-port="1"/>
		<edge from-layer="159" from-port="2" to-layer="160" to-port="0"/>
		<edge from-layer="160" from-port="1" to-layer="162" to-port="0"/>
		<edge from-layer="161" from-port="0" to-layer="162" to-port="1"/>
		<edge from-layer="162" from-port="2" to-layer="164" to-port="0"/>
		<edge from-layer="163" from-port="0" to-layer="164" to-port="1"/>
		<edge from-layer="164" from-port="2" to-layer="165" to-port="0"/>
		<edge from-layer="165" from-port="1" to-layer="167" to-port="0"/>
		<edge from-layer="166" from-port="0" to-layer="167" to-port="1"/>
		<edge from-layer="167" from-port="2" to-layer="169" to-port="0"/>
		<edge from-layer="168" from-port="0" to-layer="169" to-port="1"/>
		<edge from-layer="169" from-port="2" to-layer="171" to-port="0"/>
		<edge from-layer="170" from-port="0" to-layer="171" to-port="1"/>
		<edge from-layer="171" from-port="2" to-layer="173" to-port="0"/>
		<edge from-layer="172" from-port="0" to-layer="173" to-port="1"/>
		<edge from-layer="173" from-port="2" to-layer="174" to-port="0"/>
		<edge from-layer="174" from-port="1" to-layer="176" to-port="0"/>
		<edge from-layer="175" from-port="0" to-layer="176" to-port="1"/>
		<edge from-layer="176" from-port="2" to-layer="178" to-port="0"/>
		<edge from-layer="177" from-port="0" to-layer="178" to-port="1"/>
		<edge from-layer="178" from-port="2" to-layer="179" to-port="0"/>
		<edge from-layer="179" from-port="1" to-layer="181" to-port="0"/>
		<edge from-layer="180" from-port="0" to-layer="181" to-port="1"/>
		<edge from-layer="181" from-port="2" to-layer="183" to-port="0"/>
		<edge from-layer="182" from-port="0" to-layer="183" to-port="1"/>
		<edge from-layer="169" from-port="2" to-layer="184" to-port="0"/>
		<edge from-layer="183" from-port="2" to-layer="184" to-port="1"/>
		<edge from-layer="184" from-port="2" to-layer="186" to-port="0"/>
		<edge from-layer="185" from-port="0" to-layer="186" to-port="1"/>
		<edge from-layer="186" from-port="2" to-layer="188" to-port="0"/>
		<edge from-layer="187" from-port="0" to-layer="188" to-port="1"/>
		<edge from-layer="188" from-port="2" to-layer="189" to-port="0"/>
		<edge from-layer="189" from-port="1" to-layer="191" to-port="0"/>
		<edge from-layer="190" from-port="0" to-layer="191" to-port="1"/>
		<edge from-layer="191" from-port="2" to-layer="193" to-port="0"/>
		<edge from-layer="192" from-port="0" to-layer="193" to-port="1"/>
		<edge from-layer="193" from-port="2" to-layer="194" to-port="0"/>
		<edge from-layer="194" from-port="1" to-layer="196" to-port="0"/>
		<edge from-layer="195" from-port="0" to-layer="196" to-port="1"/>
		<edge from-layer="196" from-port="2" to-layer="198" to-port="0"/>
		<edge from-layer="197" from-port="0" to-layer="198" to-port="1"/>
		<edge from-layer="184" from-port="2" to-layer="199" to-port="0"/>
		<edge from-layer="198" from-port="2" to-layer="199" to-port="1"/>
		<edge from-layer="199" from-port="2" to-layer="201" to-port="0"/>
		<edge from-layer="200" from-port="0" to-layer="201" to-port="1"/>
		<edge from-layer="201" from-port="2" to-layer="203" to-port="0"/>
		<edge from-layer="202" from-port="0" to-layer="203" to-port="1"/>
		<edge from-layer="203" from-port="2" to-layer="204" to-port="0"/>
		<edge from-layer="204" from-port="1" to-layer="206" to-port="0"/>
		<edge from-layer="205" from-port="0" to-layer="206" to-port="1"/>
		<edge from-layer="206" from-port="2" to-layer="208" to-port="0"/>
		<edge from-layer="207" from-port="0" to-layer="208" to-port="1"/>
		<edge from-layer="208" from-port="2" to-layer="209" to-port="0"/>
		<edge from-layer="209" from-port="1" to-layer="211" to-port="0"/>
		<edge from-layer="210" from-port="0" to-layer="211" to-port="1"/>
		<edge from-layer="211" from-port="2" to-layer="213" to-port="0"/>
		<edge from-layer="212" from-port="0" to-layer="213" to-port="1"/>
		<edge from-layer="213" from-port="2" to-layer="215" to-port="0"/>
		<edge from-layer="214" from-port="0" to-layer="215" to-port="1"/>
		<edge from-layer="215" from-port="2" to-layer="217" to-port="0"/>
		<edge from-layer="216" from-port="0" to-layer="217" to-port="1"/>
		<edge from-layer="217" from-port="2" to-layer="218" to-port="0"/>
		<edge from-layer="218" from-port="1" to-layer="220" to-port="0"/>
		<edge from-layer="219" from-port="0" to-layer="220" to-port="1"/>
		<edge from-layer="220" from-port="2" to-layer="222" to-port="0"/>
		<edge from-layer="221" from-port="0" to-layer="222" to-port="1"/>
		<edge from-layer="222" from-port="2" to-layer="223" to-port="0"/>
		<edge from-layer="223" from-port="1" to-layer="225" to-port="0"/>
		<edge from-layer="224" from-port="0" to-layer="225" to-port="1"/>
		<edge from-layer="225" from-port="2" to-layer="227" to-port="0"/>
		<edge from-layer="226" from-port="0" to-layer="227" to-port="1"/>
		<edge from-layer="213" from-port="2" to-layer="228" to-port="0"/>
		<edge from-layer="227" from-port="2" to-layer="228" to-port="1"/>
		<edge from-layer="228" from-port="2" to-layer="230" to-port="0"/>
		<edge from-layer="229" from-port="0" to-layer="230" to-port="1"/>
		<edge from-layer="230" from-port="2" to-layer="232" to-port="0"/>
		<edge from-layer="231" from-port="0" to-layer="232" to-port="1"/>
		<edge from-layer="232" from-port="2" to-layer="233" to-port="0"/>
		<edge from-layer="233" from-port="1" to-layer="235" to-port="0"/>
		<edge from-layer="234" from-port="0" to-layer="235" to-port="1"/>
		<edge from-layer="235" from-port="2" to-layer="237" to-port="0"/>
		<edge from-layer="236" from-port="0" to-layer="237" to-port="1"/>
		<edge from-layer="237" from-port="2" to-layer="238" to-port="0"/>
		<edge from-layer="238" from-port="1" to-layer="240" to-port="0"/>
		<edge from-layer="239" from-port="0" to-layer="240" to-port="1"/>
		<edge from-layer="240" from-port="2" to-layer="242" to-port="0"/>
		<edge from-layer="241" from-port="0" to-layer="242" to-port="1"/>
		<edge from-layer="228" from-port="2" to-layer="243" to-port="0"/>
		<edge from-layer="242" from-port="2" to-layer="243" to-port="1"/>
		<edge from-layer="243" from-port="2" to-layer="245" to-port="0"/>
		<edge from-layer="244" from-port="0" to-layer="245" to-port="1"/>
		<edge from-layer="245" from-port="2" to-layer="247" to-port="0"/>
		<edge from-layer="246" from-port="0" to-layer="247" to-port="1"/>
		<edge from-layer="247" from-port="2" to-layer="248" to-port="0"/>
		<edge from-layer="248" from-port="1" to-layer="250" to-port="0"/>
		<edge from-layer="249" from-port="0" to-layer="250" to-port="1"/>
		<edge from-layer="250" from-port="2" to-layer="252" to-port="0"/>
		<edge from-layer="251" from-port="0" to-layer="252" to-port="1"/>
		<edge from-layer="252" from-port="2" to-layer="253" to-port="0"/>
		<edge from-layer="253" from-port="1" to-layer="255" to-port="0"/>
		<edge from-layer="254" from-port="0" to-layer="255" to-port="1"/>
		<edge from-layer="255" from-port="2" to-layer="257" to-port="0"/>
		<edge from-layer="256" from-port="0" to-layer="257" to-port="1"/>
		<edge from-layer="257" from-port="2" to-layer="259" to-port="0"/>
		<edge from-layer="258" from-port="0" to-layer="259" to-port="1"/>
		<edge from-layer="259" from-port="2" to-layer="261" to-port="0"/>
		<edge from-layer="260" from-port="0" to-layer="261" to-port="1"/>
		<edge from-layer="261" from-port="2" to-layer="262" to-port="0"/>
		<edge from-layer="262" from-port="1" to-layer="264" to-port="0"/>
		<edge from-layer="263" from-port="0" to-layer="264" to-port="1"/>
		<edge from-layer="264" from-port="2" to-layer="266" to-port="0"/>
		<edge from-layer="265" from-port="0" to-layer="266" to-port="1"/>
		<edge from-layer="266" from-port="2" to-layer="268" to-port="0"/>
		<edge from-layer="267" from-port="0" to-layer="268" to-port="1"/>
		<edge from-layer="268" from-port="2" to-layer="269" to-port="0"/>
		<edge from-layer="269" from-port="1" to-layer="270" to-port="0"/>
	</edges>
	<meta_data>
		<MO_version value="custom_HEAD_c472ccfab21801f81788cad0aa5aed3aab9b9e23"/>
		<cli_parameters>
			<caffe_parser_path value="DIR"/>
			<compress_fp16 value="False"/>
			<data_type value="FP32"/>
			<disable_nhwc_to_nchw value="False"/>
			<disable_omitting_optional value="False"/>
			<disable_resnet_optimization value="False"/>
			<disable_weights_compression value="False"/>
			<enable_concat_optimization value="False"/>
			<enable_flattening_nested_params value="False"/>
			<enable_ssd_gluoncv value="False"/>
			<extensions value="DIR"/>
			<framework value="caffe"/>
			<freeze_placeholder_with_value value="{}"/>
			<generate_deprecated_IR_V7 value="False"/>
			<input value="data"/>
			<input_model value="DIR/mobilenet-v2.caffemodel"/>
			<input_model_is_text value="False"/>
			<input_proto value="DIR/mobilenet-v2.prototxt"/>
			<input_shape value="[1,3,224,224]"/>
			<k value="DIR/CustomLayersMapping.xml"/>
			<keep_shape_ops value="True"/>
			<layout value="data(NCHW)"/>
			<layout_values value="{'data': {'source_layout': 'NCHW', 'target_layout': None, 'is_input': True}}"/>
			<legacy_ir_generation value="False"/>
			<legacy_mxnet_model value="False"/>
			<log_level value="ERROR"/>
			<mean_scale_values value="{'data': {'mean': array([103.94, 116.78, 123.68]), 'scale': array([58.82352941])}}"/>
			<mean_values value="data[103.94,116.78,123.68]"/>
			<model_name value="mobilenet-v2"/>
			<output value="['prob']"/>
			<output_dir value="DIR"/>
			<packed_user_shapes value="defaultdict(&lt;class 'list'&gt;, {'data': [{'shape': (1, 3, 224, 224), 'port': None, 'added': True}]})"/>
			<placeholder_data_types value="{}"/>
			<placeholder_shapes value="{'data': (1, 3, 224, 224)}"/>
			<progress value="False"/>
			<remove_memory value="False"/>
			<remove_output_softmax value="False"/>
			<reverse_input_channels value="False"/>
			<save_params_from_nd value="False"/>
			<scale_values value="data[58.8235294117647]"/>
			<silent value="False"/>
			<source_layout value="()"/>
			<static_shape value="False"/>
			<stream_output value="False"/>
			<target_layout value="()"/>
			<transform value=""/>
			<use_legacy_frontend value="False"/>
			<use_new_frontend value="False"/>
			<unset unset_cli_parameters="batch, counts, disable_fusing, disable_gfusing, finegrain_fusing, input_checkpoint, input_meta_graph, input_symbol, mean_file, mean_file_offsets, move_to_preprocess, nd_prefix_name, pretrained_model_name, saved_model_dir, saved_model_tags, scale, tensorboard_logdir, tensorflow_custom_layer_libraries, tensorflow_custom_operations_config_update, tensorflow_object_detection_api_pipeline_config, tensorflow_use_custom_operations_config, transformations_config"/>
		</cli_parameters>
	</meta_data>
	<quantization_parameters>
		<config/>
		<version value="{}"/>
		<cli_params value="{}"/>
	</quantization_parameters>
</net>
