<?xml version="1.0" ?>
<net name="torch-jit-export" version="11">
	<layers>
		<layer id="419" name="input" type="Parameter" version="opset1">
			<data shape="1,3,224,224" element_type="f32"/>
			<output>
				<port id="0" precision="FP32" names="input">
					<dim>1</dim>
					<dim>3</dim>
					<dim>224</dim>
					<dim>224</dim>
					<rt_info/>
				</port>
			</output>
		</layer>
		<layer id="0" name="7587609894" type="Const" version="opset1">
			<data offset="0" size="2304" shape="1,576,1,1" element_type="f32"/>
			<output>
				<port id="0" precision="FP32">
					<dim>1</dim>
					<dim>576</dim>
					<dim>1</dim>
					<dim>1</dim>
				</port>
			</output>
		</layer>
		<layer id="1" name="173517399183" type="Const" version="opset1">
			<data offset="2304" size="4" shape="" element_type="f32"/>
			<output>
				<port id="0" precision="FP32"/>
			</output>
		</layer>
		<layer id="2" name="173617409720" type="Const" version="opset1">
			<data offset="2304" size="4" shape="" element_type="f32"/>
			<output>
				<port id="0" precision="FP32"/>
			</output>
		</layer>
		<layer id="3" name="173717418316" type="Const" version="opset1">
			<data offset="2304" size="4" shape="" element_type="f32"/>
			<output>
				<port id="0" precision="FP32"/>
			</output>
		</layer>
		<layer id="4" name="173817429189" type="Const" version="opset1">
			<data offset="2304" size="4" shape="" element_type="f32"/>
			<output>
				<port id="0" precision="FP32"/>
			</output>
		</layer>
		<layer id="5" name="131513198136" type="Const" version="opset1">
			<data offset="2304" size="4" shape="" element_type="f32"/>
			<output>
				<port id="0" precision="FP32"/>
			</output>
		</layer>
		<layer id="6" name="131613209792" type="Const" version="opset1">
			<data offset="2304" size="4" shape="" element_type="f32"/>
			<output>
				<port id="0" precision="FP32"/>
			</output>
		</layer>
		<layer id="7" name="131713218670" type="Const" version="opset1">
			<data offset="2304" size="4" shape="" element_type="f32"/>
			<output>
				<port id="0" precision="FP32"/>
			</output>
		</layer>
		<layer id="8" name="131813228379" type="Const" version="opset1">
			<data offset="2304" size="4" shape="" element_type="f32"/>
			<output>
				<port id="0" precision="FP32"/>
			</output>
		</layer>
		<layer id="9" name="7547568892" type="Const" version="opset1">
			<data offset="2308" size="384" shape="1,96,1,1" element_type="f32"/>
			<output>
				<port id="0" precision="FP32">
					<dim>1</dim>
					<dim>96</dim>
					<dim>1</dim>
					<dim>1</dim>
				</port>
			</output>
		</layer>
		<layer id="10" name="221522199615" type="Const" version="opset1">
			<data offset="2304" size="4" shape="" element_type="f32"/>
			<output>
				<port id="0" precision="FP32"/>
			</output>
		</layer>
		<layer id="11" name="221622209141" type="Const" version="opset1">
			<data offset="2304" size="4" shape="" element_type="f32"/>
			<output>
				<port id="0" precision="FP32"/>
			</output>
		</layer>
		<layer id="12" name="221722218586" type="Const" version="opset1">
			<data offset="2304" size="4" shape="" element_type="f32"/>
			<output>
				<port id="0" precision="FP32"/>
			</output>
		</layer>
		<layer id="13" name="221822228121" type="Const" version="opset1">
			<data offset="2304" size="4" shape="" element_type="f32"/>
			<output>
				<port id="0" precision="FP32"/>
			</output>
		</layer>
		<layer id="14" name="125512598664" type="Const" version="opset1">
			<data offset="2304" size="4" shape="" element_type="f32"/>
			<output>
				<port id="0" precision="FP32"/>
			</output>
		</layer>
		<layer id="15" name="125612608688" type="Const" version="opset1">
			<data offset="2304" size="4" shape="" element_type="f32"/>
			<output>
				<port id="0" precision="FP32"/>
			</output>
		</layer>
		<layer id="16" name="125712618031" type="Const" version="opset1">
			<data offset="2304" size="4" shape="" element_type="f32"/>
			<output>
				<port id="0" precision="FP32"/>
			</output>
		</layer>
		<layer id="17" name="125812629402" type="Const" version="opset1">
			<data offset="2304" size="4" shape="" element_type="f32"/>
			<output>
				<port id="0" precision="FP32"/>
			</output>
		</layer>
		<layer id="18" name="Constant_37403868655" type="Const" version="opset1">
			<data offset="2692" size="4" shape="" element_type="f32"/>
			<output>
				<port id="0" precision="FP32"/>
			</output>
		</layer>
		<layer id="19" name="Constant_37413878877" type="Const" version="opset1">
			<data offset="2696" size="4" shape="" element_type="f32"/>
			<output>
				<port id="0" precision="FP32"/>
			</output>
		</layer>
		<layer id="20" name="7507528319" type="Const" version="opset1">
			<data offset="0" size="2304" shape="1,576,1,1" element_type="f32"/>
			<output>
				<port id="0" precision="FP32">
					<dim>1</dim>
					<dim>576</dim>
					<dim>1</dim>
					<dim>1</dim>
				</port>
			</output>
		</layer>
		<layer id="21" name="116511698622" type="Const" version="opset1">
			<data offset="2304" size="4" shape="" element_type="f32"/>
			<output>
				<port id="0" precision="FP32"/>
			</output>
		</layer>
		<layer id="22" name="116611707938" type="Const" version="opset1">
			<data offset="2304" size="4" shape="" element_type="f32"/>
			<output>
				<port id="0" precision="FP32"/>
			</output>
		</layer>
		<layer id="23" name="116711719621" type="Const" version="opset1">
			<data offset="2304" size="4" shape="" element_type="f32"/>
			<output>
				<port id="0" precision="FP32"/>
			</output>
		</layer>
		<layer id="24" name="116811728427" type="Const" version="opset1">
			<data offset="2304" size="4" shape="" element_type="f32"/>
			<output>
				<port id="0" precision="FP32"/>
			</output>
		</layer>
		<layer id="25" name="7467488376" type="Const" version="opset1">
			<data offset="2700" size="576" shape="1,144,1,1" element_type="f32"/>
			<output>
				<port id="0" precision="FP32">
					<dim>1</dim>
					<dim>144</dim>
					<dim>1</dim>
					<dim>1</dim>
				</port>
			</output>
		</layer>
		<layer id="26" name="165516598787" type="Const" version="opset1">
			<data offset="2304" size="4" shape="" element_type="f32"/>
			<output>
				<port id="0" precision="FP32"/>
			</output>
		</layer>
		<layer id="27" name="165616608700" type="Const" version="opset1">
			<data offset="2304" size="4" shape="" element_type="f32"/>
			<output>
				<port id="0" precision="FP32"/>
			</output>
		</layer>
		<layer id="28" name="165716618454" type="Const" version="opset1">
			<data offset="2304" size="4" shape="" element_type="f32"/>
			<output>
				<port id="0" precision="FP32"/>
			</output>
		</layer>
		<layer id="29" name="165816629123" type="Const" version="opset1">
			<data offset="2304" size="4" shape="" element_type="f32"/>
			<output>
				<port id="0" precision="FP32"/>
			</output>
		</layer>
		<layer id="30" name="Range_36183799051" type="Const" version="opset1">
			<data offset="3276" size="16" shape="2" element_type="i64"/>
			<output>
				<port id="0" precision="I64">
					<dim>2</dim>
				</port>
			</output>
		</layer>
		<layer id="31" name="122512299642" type="Const" version="opset1">
			<data offset="2304" size="4" shape="" element_type="f32"/>
			<output>
				<port id="0" precision="FP32"/>
			</output>
		</layer>
		<layer id="32" name="122612308565" type="Const" version="opset1">
			<data offset="2304" size="4" shape="" element_type="f32"/>
			<output>
				<port id="0" precision="FP32"/>
			</output>
		</layer>
		<layer id="33" name="122712318790" type="Const" version="opset1">
			<data offset="2304" size="4" shape="" element_type="f32"/>
			<output>
				<port id="0" precision="FP32"/>
			</output>
		</layer>
		<layer id="34" name="122812329444" type="Const" version="opset1">
			<data offset="2304" size="4" shape="" element_type="f32"/>
			<output>
				<port id="0" precision="FP32"/>
			</output>
		</layer>
		<layer id="35" name="7427449813" type="Const" version="opset1">
			<data offset="0" size="2304" shape="1,576,1,1" element_type="f32"/>
			<output>
				<port id="0" precision="FP32">
					<dim>1</dim>
					<dim>576</dim>
					<dim>1</dim>
					<dim>1</dim>
				</port>
			</output>
		</layer>
		<layer id="36" name="110511099216" type="Const" version="opset1">
			<data offset="2304" size="4" shape="" element_type="f32"/>
			<output>
				<port id="0" precision="FP32"/>
			</output>
		</layer>
		<layer id="37" name="110611109228" type="Const" version="opset1">
			<data offset="2304" size="4" shape="" element_type="f32"/>
			<output>
				<port id="0" precision="FP32"/>
			</output>
		</layer>
		<layer id="38" name="110711119081" type="Const" version="opset1">
			<data offset="2304" size="4" shape="" element_type="f32"/>
			<output>
				<port id="0" precision="FP32"/>
			</output>
		</layer>
		<layer id="39" name="110811128415" type="Const" version="opset1">
			<data offset="2304" size="4" shape="" element_type="f32"/>
			<output>
				<port id="0" precision="FP32"/>
			</output>
		</layer>
		<layer id="40" name="7387408118" type="Const" version="opset1">
			<data offset="0" size="2304" shape="1,576,1,1" element_type="f32"/>
			<output>
				<port id="0" precision="FP32">
					<dim>1</dim>
					<dim>576</dim>
					<dim>1</dim>
					<dim>1</dim>
				</port>
			</output>
		</layer>
		<layer id="41" name="130513099318" type="Const" version="opset1">
			<data offset="2304" size="4" shape="" element_type="f32"/>
			<output>
				<port id="0" precision="FP32"/>
			</output>
		</layer>
		<layer id="42" name="130613108640" type="Const" version="opset1">
			<data offset="2304" size="4" shape="" element_type="f32"/>
			<output>
				<port id="0" precision="FP32"/>
			</output>
		</layer>
		<layer id="43" name="130713119567" type="Const" version="opset1">
			<data offset="2304" size="4" shape="" element_type="f32"/>
			<output>
				<port id="0" precision="FP32"/>
			</output>
		</layer>
		<layer id="44" name="130813129696" type="Const" version="opset1">
			<data offset="2304" size="4" shape="" element_type="f32"/>
			<output>
				<port id="0" precision="FP32"/>
			</output>
		</layer>
		<layer id="45" name="5733738556" type="Const" version="opset1">
			<data offset="3292" size="221184" shape="576,96,1,1" element_type="f32"/>
			<output>
				<port id="0" precision="FP32" names="573">
					<dim>576</dim>
					<dim>96</dim>
					<dim>1</dim>
					<dim>1</dim>
				</port>
			</output>
		</layer>
		<layer id="46" name="Conv_178/WithoutBiases/fq_weights_1" type="FakeQuantize" version="opset1">
			<data levels="0" auto_broadcast="numpy"/>
			<input>
				<port id="0">
					<dim>576</dim>
					<dim>96</dim>
					<dim>1</dim>
					<dim>1</dim>
				</port>
				<port id="1"/>
				<port id="2"/>
				<port id="3"/>
				<port id="4"/>
			</input>
			<output>
				<port id="5" precision="FP32">
					<dim>576</dim>
					<dim>96</dim>
					<dim>1</dim>
					<dim>1</dim>
				</port>
			</output>
		</layer>
		<layer id="47" name="132513298997" type="Const" version="opset1">
			<data offset="2304" size="4" shape="" element_type="f32"/>
			<output>
				<port id="0" precision="FP32"/>
			</output>
		</layer>
		<layer id="48" name="132613309645" type="Const" version="opset1">
			<data offset="2304" size="4" shape="" element_type="f32"/>
			<output>
				<port id="0" precision="FP32"/>
			</output>
		</layer>
		<layer id="49" name="132713317998" type="Const" version="opset1">
			<data offset="2304" size="4" shape="" element_type="f32"/>
			<output>
				<port id="0" precision="FP32"/>
			</output>
		</layer>
		<layer id="50" name="132813328991" type="Const" version="opset1">
			<data offset="2304" size="4" shape="" element_type="f32"/>
			<output>
				<port id="0" precision="FP32"/>
			</output>
		</layer>
		<layer id="51" name="214521499039" type="Const" version="opset1">
			<data offset="2304" size="4" shape="" element_type="f32"/>
			<output>
				<port id="0" precision="FP32"/>
			</output>
		</layer>
		<layer id="52" name="214621508580" type="Const" version="opset1">
			<data offset="2304" size="4" shape="" element_type="f32"/>
			<output>
				<port id="0" precision="FP32"/>
			</output>
		</layer>
		<layer id="53" name="214721518826" type="Const" version="opset1">
			<data offset="2304" size="4" shape="" element_type="f32"/>
			<output>
				<port id="0" precision="FP32"/>
			</output>
		</layer>
		<layer id="54" name="214821529129" type="Const" version="opset1">
			<data offset="2304" size="4" shape="" element_type="f32"/>
			<output>
				<port id="0" precision="FP32"/>
			</output>
		</layer>
		<layer id="55" name="7347368406" type="Const" version="opset1">
			<data offset="2308" size="384" shape="1,96,1,1" element_type="f32"/>
			<output>
				<port id="0" precision="FP32">
					<dim>1</dim>
					<dim>96</dim>
					<dim>1</dim>
					<dim>1</dim>
				</port>
			</output>
		</layer>
		<layer id="56" name="219521998538" type="Const" version="opset1">
			<data offset="2304" size="4" shape="" element_type="f32"/>
			<output>
				<port id="0" precision="FP32"/>
			</output>
		</layer>
		<layer id="57" name="219622009687" type="Const" version="opset1">
			<data offset="2304" size="4" shape="" element_type="f32"/>
			<output>
				<port id="0" precision="FP32"/>
			</output>
		</layer>
		<layer id="58" name="219722019309" type="Const" version="opset1">
			<data offset="2304" size="4" shape="" element_type="f32"/>
			<output>
				<port id="0" precision="FP32"/>
			</output>
		</layer>
		<layer id="59" name="219822028064" type="Const" version="opset1">
			<data offset="2304" size="4" shape="" element_type="f32"/>
			<output>
				<port id="0" precision="FP32"/>
			</output>
		</layer>
		<layer id="60" name="161516198217" type="Const" version="opset1">
			<data offset="2304" size="4" shape="" element_type="f32"/>
			<output>
				<port id="0" precision="FP32"/>
			</output>
		</layer>
		<layer id="61" name="161616208304" type="Const" version="opset1">
			<data offset="2304" size="4" shape="" element_type="f32"/>
			<output>
				<port id="0" precision="FP32"/>
			</output>
		</layer>
		<layer id="62" name="161716218349" type="Const" version="opset1">
			<data offset="2304" size="4" shape="" element_type="f32"/>
			<output>
				<port id="0" precision="FP32"/>
			</output>
		</layer>
		<layer id="63" name="161816229585" type="Const" version="opset1">
			<data offset="2304" size="4" shape="" element_type="f32"/>
			<output>
				<port id="0" precision="FP32"/>
			</output>
		</layer>
		<layer id="64" name="Constant_33783668346" type="Const" version="opset1">
			<data offset="2692" size="4" shape="" element_type="f32"/>
			<output>
				<port id="0" precision="FP32"/>
			</output>
		</layer>
		<layer id="65" name="Constant_33793678592" type="Const" version="opset1">
			<data offset="2696" size="4" shape="" element_type="f32"/>
			<output>
				<port id="0" precision="FP32"/>
			</output>
		</layer>
		<layer id="66" name="7307329819" type="Const" version="opset1">
			<data offset="0" size="2304" shape="1,576,1,1" element_type="f32"/>
			<output>
				<port id="0" precision="FP32">
					<dim>1</dim>
					<dim>576</dim>
					<dim>1</dim>
					<dim>1</dim>
				</port>
			</output>
		</layer>
		<layer id="67" name="194519499012" type="Const" version="opset1">
			<data offset="2304" size="4" shape="" element_type="f32"/>
			<output>
				<port id="0" precision="FP32"/>
			</output>
		</layer>
		<layer id="68" name="194619509375" type="Const" version="opset1">
			<data offset="2304" size="4" shape="" element_type="f32"/>
			<output>
				<port id="0" precision="FP32"/>
			</output>
		</layer>
		<layer id="69" name="194719518445" type="Const" version="opset1">
			<data offset="2304" size="4" shape="" element_type="f32"/>
			<output>
				<port id="0" precision="FP32"/>
			</output>
		</layer>
		<layer id="70" name="194819528172" type="Const" version="opset1">
			<data offset="2304" size="4" shape="" element_type="f32"/>
			<output>
				<port id="0" precision="FP32"/>
			</output>
		</layer>
		<layer id="71" name="7267288967" type="Const" version="opset1">
			<data offset="2700" size="576" shape="1,144,1,1" element_type="f32"/>
			<output>
				<port id="0" precision="FP32">
					<dim>1</dim>
					<dim>144</dim>
					<dim>1</dim>
					<dim>1</dim>
				</port>
			</output>
		</layer>
		<layer id="72" name="182518299396" type="Const" version="opset1">
			<data offset="2304" size="4" shape="" element_type="f32"/>
			<output>
				<port id="0" precision="FP32"/>
			</output>
		</layer>
		<layer id="73" name="182618308109" type="Const" version="opset1">
			<data offset="2304" size="4" shape="" element_type="f32"/>
			<output>
				<port id="0" precision="FP32"/>
			</output>
		</layer>
		<layer id="74" name="182718319783" type="Const" version="opset1">
			<data offset="2304" size="4" shape="" element_type="f32"/>
			<output>
				<port id="0" precision="FP32"/>
			</output>
		</layer>
		<layer id="75" name="182818329651" type="Const" version="opset1">
			<data offset="2304" size="4" shape="" element_type="f32"/>
			<output>
				<port id="0" precision="FP32"/>
			</output>
		</layer>
		<layer id="76" name="Range_32563597974" type="Const" version="opset1">
			<data offset="3276" size="16" shape="2" element_type="i64"/>
			<output>
				<port id="0" precision="I64">
					<dim>2</dim>
				</port>
			</output>
		</layer>
		<layer id="77" name="216521699723" type="Const" version="opset1">
			<data offset="2304" size="4" shape="" element_type="f32"/>
			<output>
				<port id="0" precision="FP32"/>
			</output>
		</layer>
		<layer id="78" name="216621708088" type="Const" version="opset1">
			<data offset="2304" size="4" shape="" element_type="f32"/>
			<output>
				<port id="0" precision="FP32"/>
			</output>
		</layer>
		<layer id="79" name="216721718082" type="Const" version="opset1">
			<data offset="2304" size="4" shape="" element_type="f32"/>
			<output>
				<port id="0" precision="FP32"/>
			</output>
		</layer>
		<layer id="80" name="216821728382" type="Const" version="opset1">
			<data offset="2304" size="4" shape="" element_type="f32"/>
			<output>
				<port id="0" precision="FP32"/>
			</output>
		</layer>
		<layer id="81" name="7227249507" type="Const" version="opset1">
			<data offset="0" size="2304" shape="1,576,1,1" element_type="f32"/>
			<output>
				<port id="0" precision="FP32">
					<dim>1</dim>
					<dim>576</dim>
					<dim>1</dim>
					<dim>1</dim>
				</port>
			</output>
		</layer>
		<layer id="82" name="156515699735" type="Const" version="opset1">
			<data offset="2304" size="4" shape="" element_type="f32"/>
			<output>
				<port id="0" precision="FP32"/>
			</output>
		</layer>
		<layer id="83" name="156615708931" type="Const" version="opset1">
			<data offset="2304" size="4" shape="" element_type="f32"/>
			<output>
				<port id="0" precision="FP32"/>
			</output>
		</layer>
		<layer id="84" name="156715718283" type="Const" version="opset1">
			<data offset="2304" size="4" shape="" element_type="f32"/>
			<output>
				<port id="0" precision="FP32"/>
			</output>
		</layer>
		<layer id="85" name="156815729864" type="Const" version="opset1">
			<data offset="2304" size="4" shape="" element_type="f32"/>
			<output>
				<port id="0" precision="FP32"/>
			</output>
		</layer>
		<layer id="86" name="7187209762" type="Const" version="opset1">
			<data offset="0" size="2304" shape="1,576,1,1" element_type="f32"/>
			<output>
				<port id="0" precision="FP32">
					<dim>1</dim>
					<dim>576</dim>
					<dim>1</dim>
					<dim>1</dim>
				</port>
			</output>
		</layer>
		<layer id="87" name="168516898547" type="Const" version="opset1">
			<data offset="2304" size="4" shape="" element_type="f32"/>
			<output>
				<port id="0" precision="FP32"/>
			</output>
		</layer>
		<layer id="88" name="168616908313" type="Const" version="opset1">
			<data offset="2304" size="4" shape="" element_type="f32"/>
			<output>
				<port id="0" precision="FP32"/>
			</output>
		</layer>
		<layer id="89" name="168716918211" type="Const" version="opset1">
			<data offset="2304" size="4" shape="" element_type="f32"/>
			<output>
				<port id="0" precision="FP32"/>
			</output>
		</layer>
		<layer id="90" name="168816929327" type="Const" version="opset1">
			<data offset="2304" size="4" shape="" element_type="f32"/>
			<output>
				<port id="0" precision="FP32"/>
			</output>
		</layer>
		<layer id="91" name="5643538289" type="Const" version="opset1">
			<data offset="224476" size="221184" shape="576,96,1,1" element_type="f32"/>
			<output>
				<port id="0" precision="FP32" names="564">
					<dim>576</dim>
					<dim>96</dim>
					<dim>1</dim>
					<dim>1</dim>
				</port>
			</output>
		</layer>
		<layer id="92" name="Conv_156/WithoutBiases/fq_weights_1" type="FakeQuantize" version="opset1">
			<data levels="0" auto_broadcast="numpy"/>
			<input>
				<port id="0">
					<dim>576</dim>
					<dim>96</dim>
					<dim>1</dim>
					<dim>1</dim>
				</port>
				<port id="1"/>
				<port id="2"/>
				<port id="3"/>
				<port id="4"/>
			</input>
			<output>
				<port id="5" precision="FP32">
					<dim>576</dim>
					<dim>96</dim>
					<dim>1</dim>
					<dim>1</dim>
				</port>
			</output>
		</layer>
		<layer id="93" name="215521599807" type="Const" version="opset1">
			<data offset="2304" size="4" shape="" element_type="f32"/>
			<output>
				<port id="0" precision="FP32"/>
			</output>
		</layer>
		<layer id="94" name="215621608871" type="Const" version="opset1">
			<data offset="2304" size="4" shape="" element_type="f32"/>
			<output>
				<port id="0" precision="FP32"/>
			</output>
		</layer>
		<layer id="95" name="215721618724" type="Const" version="opset1">
			<data offset="2304" size="4" shape="" element_type="f32"/>
			<output>
				<port id="0" precision="FP32"/>
			</output>
		</layer>
		<layer id="96" name="215821628295" type="Const" version="opset1">
			<data offset="2304" size="4" shape="" element_type="f32"/>
			<output>
				<port id="0" precision="FP32"/>
			</output>
		</layer>
		<layer id="97" name="7147169834" type="Const" version="opset1">
			<data offset="2308" size="384" shape="1,96,1,1" element_type="f32"/>
			<output>
				<port id="0" precision="FP32">
					<dim>1</dim>
					<dim>96</dim>
					<dim>1</dim>
					<dim>1</dim>
				</port>
			</output>
		</layer>
		<layer id="98" name="150515098019" type="Const" version="opset1">
			<data offset="2304" size="4" shape="" element_type="f32"/>
			<output>
				<port id="0" precision="FP32"/>
			</output>
		</layer>
		<layer id="99" name="150615108052" type="Const" version="opset1">
			<data offset="2304" size="4" shape="" element_type="f32"/>
			<output>
				<port id="0" precision="FP32"/>
			</output>
		</layer>
		<layer id="100" name="150715119699" type="Const" version="opset1">
			<data offset="2304" size="4" shape="" element_type="f32"/>
			<output>
				<port id="0" precision="FP32"/>
			</output>
		</layer>
		<layer id="101" name="150815128361" type="Const" version="opset1">
			<data offset="2304" size="4" shape="" element_type="f32"/>
			<output>
				<port id="0" precision="FP32"/>
			</output>
		</layer>
		<layer id="102" name="230523099552" type="Const" version="opset1">
			<data offset="2304" size="4" shape="" element_type="f32"/>
			<output>
				<port id="0" precision="FP32"/>
			</output>
		</layer>
		<layer id="103" name="230623109198" type="Const" version="opset1">
			<data offset="2304" size="4" shape="" element_type="f32"/>
			<output>
				<port id="0" precision="FP32"/>
			</output>
		</layer>
		<layer id="104" name="230723119708" type="Const" version="opset1">
			<data offset="2304" size="4" shape="" element_type="f32"/>
			<output>
				<port id="0" precision="FP32"/>
			</output>
		</layer>
		<layer id="105" name="230823128400" type="Const" version="opset1">
			<data offset="2304" size="4" shape="" element_type="f32"/>
			<output>
				<port id="0" precision="FP32"/>
			</output>
		</layer>
		<layer id="106" name="Constant_30173478544" type="Const" version="opset1">
			<data offset="2692" size="4" shape="" element_type="f32"/>
			<output>
				<port id="0" precision="FP32"/>
			</output>
		</layer>
		<layer id="107" name="Constant_30183489246" type="Const" version="opset1">
			<data offset="2696" size="4" shape="" element_type="f32"/>
			<output>
				<port id="0" precision="FP32"/>
			</output>
		</layer>
		<layer id="108" name="7107129702" type="Const" version="opset1">
			<data offset="445660" size="1152" shape="1,288,1,1" element_type="f32"/>
			<output>
				<port id="0" precision="FP32">
					<dim>1</dim>
					<dim>288</dim>
					<dim>1</dim>
					<dim>1</dim>
				</port>
			</output>
		</layer>
		<layer id="109" name="138513899162" type="Const" version="opset1">
			<data offset="2304" size="4" shape="" element_type="f32"/>
			<output>
				<port id="0" precision="FP32"/>
			</output>
		</layer>
		<layer id="110" name="138613908979" type="Const" version="opset1">
			<data offset="2304" size="4" shape="" element_type="f32"/>
			<output>
				<port id="0" precision="FP32"/>
			</output>
		</layer>
		<layer id="111" name="138713918682" type="Const" version="opset1">
			<data offset="2304" size="4" shape="" element_type="f32"/>
			<output>
				<port id="0" precision="FP32"/>
			</output>
		</layer>
		<layer id="112" name="138813927962" type="Const" version="opset1">
			<data offset="2304" size="4" shape="" element_type="f32"/>
			<output>
				<port id="0" precision="FP32"/>
			</output>
		</layer>
		<layer id="113" name="7067088028" type="Const" version="opset1">
			<data offset="446812" size="288" shape="1,72,1,1" element_type="f32"/>
			<output>
				<port id="0" precision="FP32">
					<dim>1</dim>
					<dim>72</dim>
					<dim>1</dim>
					<dim>1</dim>
				</port>
			</output>
		</layer>
		<layer id="114" name="170517098169" type="Const" version="opset1">
			<data offset="2304" size="4" shape="" element_type="f32"/>
			<output>
				<port id="0" precision="FP32"/>
			</output>
		</layer>
		<layer id="115" name="170617108442" type="Const" version="opset1">
			<data offset="2304" size="4" shape="" element_type="f32"/>
			<output>
				<port id="0" precision="FP32"/>
			</output>
		</layer>
		<layer id="116" name="170717119756" type="Const" version="opset1">
			<data offset="2304" size="4" shape="" element_type="f32"/>
			<output>
				<port id="0" precision="FP32"/>
			</output>
		</layer>
		<layer id="117" name="170817128292" type="Const" version="opset1">
			<data offset="2304" size="4" shape="" element_type="f32"/>
			<output>
				<port id="0" precision="FP32"/>
			</output>
		</layer>
		<layer id="118" name="Range_28953408241" type="Const" version="opset1">
			<data offset="3276" size="16" shape="2" element_type="i64"/>
			<output>
				<port id="0" precision="I64">
					<dim>2</dim>
				</port>
			</output>
		</layer>
		<layer id="119" name="160516099786" type="Const" version="opset1">
			<data offset="2304" size="4" shape="" element_type="f32"/>
			<output>
				<port id="0" precision="FP32"/>
			</output>
		</layer>
		<layer id="120" name="160616108127" type="Const" version="opset1">
			<data offset="2304" size="4" shape="" element_type="f32"/>
			<output>
				<port id="0" precision="FP32"/>
			</output>
		</layer>
		<layer id="121" name="160716118142" type="Const" version="opset1">
			<data offset="2304" size="4" shape="" element_type="f32"/>
			<output>
				<port id="0" precision="FP32"/>
			</output>
		</layer>
		<layer id="122" name="160816128475" type="Const" version="opset1">
			<data offset="2304" size="4" shape="" element_type="f32"/>
			<output>
				<port id="0" precision="FP32"/>
			</output>
		</layer>
		<layer id="123" name="7027049591" type="Const" version="opset1">
			<data offset="445660" size="1152" shape="1,288,1,1" element_type="f32"/>
			<output>
				<port id="0" precision="FP32">
					<dim>1</dim>
					<dim>288</dim>
					<dim>1</dim>
					<dim>1</dim>
				</port>
			</output>
		</layer>
		<layer id="124" name="146514698424" type="Const" version="opset1">
			<data offset="2304" size="4" shape="" element_type="f32"/>
			<output>
				<port id="0" precision="FP32"/>
			</output>
		</layer>
		<layer id="125" name="146614708952" type="Const" version="opset1">
			<data offset="2304" size="4" shape="" element_type="f32"/>
			<output>
				<port id="0" precision="FP32"/>
			</output>
		</layer>
		<layer id="126" name="146714719294" type="Const" version="opset1">
			<data offset="2304" size="4" shape="" element_type="f32"/>
			<output>
				<port id="0" precision="FP32"/>
			</output>
		</layer>
		<layer id="127" name="146814729501" type="Const" version="opset1">
			<data offset="2304" size="4" shape="" element_type="f32"/>
			<output>
				<port id="0" precision="FP32"/>
			</output>
		</layer>
		<layer id="128" name="6987009222" type="Const" version="opset1">
			<data offset="445660" size="1152" shape="1,288,1,1" element_type="f32"/>
			<output>
				<port id="0" precision="FP32">
					<dim>1</dim>
					<dim>288</dim>
					<dim>1</dim>
					<dim>1</dim>
				</port>
			</output>
		</layer>
		<layer id="129" name="175517598490" type="Const" version="opset1">
			<data offset="2304" size="4" shape="" element_type="f32"/>
			<output>
				<port id="0" precision="FP32"/>
			</output>
		</layer>
		<layer id="130" name="175617608943" type="Const" version="opset1">
			<data offset="2304" size="4" shape="" element_type="f32"/>
			<output>
				<port id="0" precision="FP32"/>
			</output>
		</layer>
		<layer id="131" name="175717618778" type="Const" version="opset1">
			<data offset="2304" size="4" shape="" element_type="f32"/>
			<output>
				<port id="0" precision="FP32"/>
			</output>
		</layer>
		<layer id="132" name="175817629669" type="Const" version="opset1">
			<data offset="2304" size="4" shape="" element_type="f32"/>
			<output>
				<port id="0" precision="FP32"/>
			</output>
		</layer>
		<layer id="133" name="232523299204" type="Const" version="opset1">
			<data offset="2304" size="4" shape="" element_type="f32"/>
			<output>
				<port id="0" precision="FP32"/>
			</output>
		</layer>
		<layer id="134" name="232623309576" type="Const" version="opset1">
			<data offset="2304" size="4" shape="" element_type="f32"/>
			<output>
				<port id="0" precision="FP32"/>
			</output>
		</layer>
		<layer id="135" name="232723319741" type="Const" version="opset1">
			<data offset="2304" size="4" shape="" element_type="f32"/>
			<output>
				<port id="0" precision="FP32"/>
			</output>
		</layer>
		<layer id="136" name="232823329369" type="Const" version="opset1">
			<data offset="2304" size="4" shape="" element_type="f32"/>
			<output>
				<port id="0" precision="FP32"/>
			</output>
		</layer>
		<layer id="137" name="6946969810" type="Const" version="opset1">
			<data offset="447100" size="192" shape="1,48,1,1" element_type="f32"/>
			<output>
				<port id="0" precision="FP32">
					<dim>1</dim>
					<dim>48</dim>
					<dim>1</dim>
					<dim>1</dim>
				</port>
			</output>
		</layer>
		<layer id="138" name="198519899438" type="Const" version="opset1">
			<data offset="2304" size="4" shape="" element_type="f32"/>
			<output>
				<port id="0" precision="FP32"/>
			</output>
		</layer>
		<layer id="139" name="198619909270" type="Const" version="opset1">
			<data offset="2304" size="4" shape="" element_type="f32"/>
			<output>
				<port id="0" precision="FP32"/>
			</output>
		</layer>
		<layer id="140" name="198719919555" type="Const" version="opset1">
			<data offset="2304" size="4" shape="" element_type="f32"/>
			<output>
				<port id="0" precision="FP32"/>
			</output>
		</layer>
		<layer id="141" name="198819929171" type="Const" version="opset1">
			<data offset="2304" size="4" shape="" element_type="f32"/>
			<output>
				<port id="0" precision="FP32"/>
			</output>
		</layer>
		<layer id="142" name="136513699114" type="Const" version="opset1">
			<data offset="2304" size="4" shape="" element_type="f32"/>
			<output>
				<port id="0" precision="FP32"/>
			</output>
		</layer>
		<layer id="143" name="136613709468" type="Const" version="opset1">
			<data offset="2304" size="4" shape="" element_type="f32"/>
			<output>
				<port id="0" precision="FP32"/>
			</output>
		</layer>
		<layer id="144" name="136713718451" type="Const" version="opset1">
			<data offset="2304" size="4" shape="" element_type="f32"/>
			<output>
				<port id="0" precision="FP32"/>
			</output>
		</layer>
		<layer id="145" name="136813728355" type="Const" version="opset1">
			<data offset="2304" size="4" shape="" element_type="f32"/>
			<output>
				<port id="0" precision="FP32"/>
			</output>
		</layer>
		<layer id="146" name="Constant_26553279492" type="Const" version="opset1">
			<data offset="2692" size="4" shape="" element_type="f32"/>
			<output>
				<port id="0" precision="FP32"/>
			</output>
		</layer>
		<layer id="147" name="Constant_26563288073" type="Const" version="opset1">
			<data offset="2696" size="4" shape="" element_type="f32"/>
			<output>
				<port id="0" precision="FP32"/>
			</output>
		</layer>
		<layer id="148" name="6906928148" type="Const" version="opset1">
			<data offset="2700" size="576" shape="1,144,1,1" element_type="f32"/>
			<output>
				<port id="0" precision="FP32">
					<dim>1</dim>
					<dim>144</dim>
					<dim>1</dim>
					<dim>1</dim>
				</port>
			</output>
		</layer>
		<layer id="149" name="204520498838" type="Const" version="opset1">
			<data offset="2304" size="4" shape="" element_type="f32"/>
			<output>
				<port id="0" precision="FP32"/>
			</output>
		</layer>
		<layer id="150" name="204620508850" type="Const" version="opset1">
			<data offset="2304" size="4" shape="" element_type="f32"/>
			<output>
				<port id="0" precision="FP32"/>
			</output>
		</layer>
		<layer id="151" name="204720519213" type="Const" version="opset1">
			<data offset="2304" size="4" shape="" element_type="f32"/>
			<output>
				<port id="0" precision="FP32"/>
			</output>
		</layer>
		<layer id="152" name="204820528643" type="Const" version="opset1">
			<data offset="2304" size="4" shape="" element_type="f32"/>
			<output>
				<port id="0" precision="FP32"/>
			</output>
		</layer>
		<layer id="153" name="6866889282" type="Const" version="opset1">
			<data offset="447292" size="160" shape="1,40,1,1" element_type="f32"/>
			<output>
				<port id="0" precision="FP32">
					<dim>1</dim>
					<dim>40</dim>
					<dim>1</dim>
					<dim>1</dim>
				</port>
			</output>
		</layer>
		<layer id="154" name="134513499219" type="Const" version="opset1">
			<data offset="2304" size="4" shape="" element_type="f32"/>
			<output>
				<port id="0" precision="FP32"/>
			</output>
		</layer>
		<layer id="155" name="134613509009" type="Const" version="opset1">
			<data offset="2304" size="4" shape="" element_type="f32"/>
			<output>
				<port id="0" precision="FP32"/>
			</output>
		</layer>
		<layer id="156" name="134713519135" type="Const" version="opset1">
			<data offset="2304" size="4" shape="" element_type="f32"/>
			<output>
				<port id="0" precision="FP32"/>
			</output>
		</layer>
		<layer id="157" name="134813528133" type="Const" version="opset1">
			<data offset="2304" size="4" shape="" element_type="f32"/>
			<output>
				<port id="0" precision="FP32"/>
			</output>
		</layer>
		<layer id="158" name="Range_25333208841" type="Const" version="opset1">
			<data offset="3276" size="16" shape="2" element_type="i64"/>
			<output>
				<port id="0" precision="I64">
					<dim>2</dim>
				</port>
			</output>
		</layer>
		<layer id="159" name="229522998691" type="Const" version="opset1">
			<data offset="2304" size="4" shape="" element_type="f32"/>
			<output>
				<port id="0" precision="FP32"/>
			</output>
		</layer>
		<layer id="160" name="229623009774" type="Const" version="opset1">
			<data offset="2304" size="4" shape="" element_type="f32"/>
			<output>
				<port id="0" precision="FP32"/>
			</output>
		</layer>
		<layer id="161" name="229723018748" type="Const" version="opset1">
			<data offset="2304" size="4" shape="" element_type="f32"/>
			<output>
				<port id="0" precision="FP32"/>
			</output>
		</layer>
		<layer id="162" name="229823029540" type="Const" version="opset1">
			<data offset="2304" size="4" shape="" element_type="f32"/>
			<output>
				<port id="0" precision="FP32"/>
			</output>
		</layer>
		<layer id="163" name="6826847965" type="Const" version="opset1">
			<data offset="2700" size="576" shape="1,144,1,1" element_type="f32"/>
			<output>
				<port id="0" precision="FP32">
					<dim>1</dim>
					<dim>144</dim>
					<dim>1</dim>
					<dim>1</dim>
				</port>
			</output>
		</layer>
		<layer id="164" name="227522798610" type="Const" version="opset1">
			<data offset="2304" size="4" shape="" element_type="f32"/>
			<output>
				<port id="0" precision="FP32"/>
			</output>
		</layer>
		<layer id="165" name="227622809624" type="Const" version="opset1">
			<data offset="2304" size="4" shape="" element_type="f32"/>
			<output>
				<port id="0" precision="FP32"/>
			</output>
		</layer>
		<layer id="166" name="227722818529" type="Const" version="opset1">
			<data offset="2304" size="4" shape="" element_type="f32"/>
			<output>
				<port id="0" precision="FP32"/>
			</output>
		</layer>
		<layer id="167" name="227822827986" type="Const" version="opset1">
			<data offset="2304" size="4" shape="" element_type="f32"/>
			<output>
				<port id="0" precision="FP32"/>
			</output>
		</layer>
		<layer id="168" name="6786809045" type="Const" version="opset1">
			<data offset="2700" size="576" shape="1,144,1,1" element_type="f32"/>
			<output>
				<port id="0" precision="FP32">
					<dim>1</dim>
					<dim>144</dim>
					<dim>1</dim>
					<dim>1</dim>
				</port>
			</output>
		</layer>
		<layer id="169" name="226522699435" type="Const" version="opset1">
			<data offset="2304" size="4" shape="" element_type="f32"/>
			<output>
				<port id="0" precision="FP32"/>
			</output>
		</layer>
		<layer id="170" name="226622709303" type="Const" version="opset1">
			<data offset="2304" size="4" shape="" element_type="f32"/>
			<output>
				<port id="0" precision="FP32"/>
			</output>
		</layer>
		<layer id="171" name="226722719168" type="Const" version="opset1">
			<data offset="2304" size="4" shape="" element_type="f32"/>
			<output>
				<port id="0" precision="FP32"/>
			</output>
		</layer>
		<layer id="172" name="226822728358" type="Const" version="opset1">
			<data offset="2304" size="4" shape="" element_type="f32"/>
			<output>
				<port id="0" precision="FP32"/>
			</output>
		</layer>
		<layer id="173" name="5463149234" type="Const" version="opset1">
			<data offset="447452" size="27648" shape="144,48,1,1" element_type="f32"/>
			<output>
				<port id="0" precision="FP32" names="546">
					<dim>144</dim>
					<dim>48</dim>
					<dim>1</dim>
					<dim>1</dim>
				</port>
			</output>
		</layer>
		<layer id="174" name="Conv_113/WithoutBiases/fq_weights_1" type="FakeQuantize" version="opset1">
			<data levels="0" auto_broadcast="numpy"/>
			<input>
				<port id="0">
					<dim>144</dim>
					<dim>48</dim>
					<dim>1</dim>
					<dim>1</dim>
				</port>
				<port id="1"/>
				<port id="2"/>
				<port id="3"/>
				<port id="4"/>
			</input>
			<output>
				<port id="5" precision="FP32">
					<dim>144</dim>
					<dim>48</dim>
					<dim>1</dim>
					<dim>1</dim>
				</port>
			</output>
		</layer>
		<layer id="175" name="233523399363" type="Const" version="opset1">
			<data offset="2304" size="4" shape="" element_type="f32"/>
			<output>
				<port id="0" precision="FP32"/>
			</output>
		</layer>
		<layer id="176" name="233623409264" type="Const" version="opset1">
			<data offset="2304" size="4" shape="" element_type="f32"/>
			<output>
				<port id="0" precision="FP32"/>
			</output>
		</layer>
		<layer id="177" name="233723418091" type="Const" version="opset1">
			<data offset="2304" size="4" shape="" element_type="f32"/>
			<output>
				<port id="0" precision="FP32"/>
			</output>
		</layer>
		<layer id="178" name="233823429558" type="Const" version="opset1">
			<data offset="2304" size="4" shape="" element_type="f32"/>
			<output>
				<port id="0" precision="FP32"/>
			</output>
		</layer>
		<layer id="179" name="6746768793" type="Const" version="opset1">
			<data offset="447100" size="192" shape="1,48,1,1" element_type="f32"/>
			<output>
				<port id="0" precision="FP32">
					<dim>1</dim>
					<dim>48</dim>
					<dim>1</dim>
					<dim>1</dim>
				</port>
			</output>
		</layer>
		<layer id="180" name="208520897956" type="Const" version="opset1">
			<data offset="2304" size="4" shape="" element_type="f32"/>
			<output>
				<port id="0" precision="FP32"/>
			</output>
		</layer>
		<layer id="181" name="208620909156" type="Const" version="opset1">
			<data offset="2304" size="4" shape="" element_type="f32"/>
			<output>
				<port id="0" precision="FP32"/>
			</output>
		</layer>
		<layer id="182" name="208720919210" type="Const" version="opset1">
			<data offset="2304" size="4" shape="" element_type="f32"/>
			<output>
				<port id="0" precision="FP32"/>
			</output>
		</layer>
		<layer id="183" name="208820928463" type="Const" version="opset1">
			<data offset="2304" size="4" shape="" element_type="f32"/>
			<output>
				<port id="0" precision="FP32"/>
			</output>
		</layer>
		<layer id="184" name="243524398184" type="Const" version="opset1">
			<data offset="2304" size="4" shape="" element_type="f32"/>
			<output>
				<port id="0" precision="FP32"/>
			</output>
		</layer>
		<layer id="185" name="243624409090" type="Const" version="opset1">
			<data offset="2304" size="4" shape="" element_type="f32"/>
			<output>
				<port id="0" precision="FP32"/>
			</output>
		</layer>
		<layer id="186" name="243724418511" type="Const" version="opset1">
			<data offset="2304" size="4" shape="" element_type="f32"/>
			<output>
				<port id="0" precision="FP32"/>
			</output>
		</layer>
		<layer id="187" name="243824427959" type="Const" version="opset1">
			<data offset="2304" size="4" shape="" element_type="f32"/>
			<output>
				<port id="0" precision="FP32"/>
			</output>
		</layer>
		<layer id="188" name="Constant_22943089132" type="Const" version="opset1">
			<data offset="2692" size="4" shape="" element_type="f32"/>
			<output>
				<port id="0" precision="FP32"/>
			</output>
		</layer>
		<layer id="189" name="Constant_22953098178" type="Const" version="opset1">
			<data offset="2696" size="4" shape="" element_type="f32"/>
			<output>
				<port id="0" precision="FP32"/>
			</output>
		</layer>
		<layer id="190" name="6706729528" type="Const" version="opset1">
			<data offset="475100" size="480" shape="1,120,1,1" element_type="f32"/>
			<output>
				<port id="0" precision="FP32">
					<dim>1</dim>
					<dim>120</dim>
					<dim>1</dim>
					<dim>1</dim>
				</port>
			</output>
		</layer>
		<layer id="191" name="154515499546" type="Const" version="opset1">
			<data offset="2304" size="4" shape="" element_type="f32"/>
			<output>
				<port id="0" precision="FP32"/>
			</output>
		</layer>
		<layer id="192" name="154615508433" type="Const" version="opset1">
			<data offset="2304" size="4" shape="" element_type="f32"/>
			<output>
				<port id="0" precision="FP32"/>
			</output>
		</layer>
		<layer id="193" name="154715518634" type="Const" version="opset1">
			<data offset="2304" size="4" shape="" element_type="f32"/>
			<output>
				<port id="0" precision="FP32"/>
			</output>
		</layer>
		<layer id="194" name="154815529306" type="Const" version="opset1">
			<data offset="2304" size="4" shape="" element_type="f32"/>
			<output>
				<port id="0" precision="FP32"/>
			</output>
		</layer>
		<layer id="195" name="6666688487" type="Const" version="opset1">
			<data offset="475580" size="128" shape="1,32,1,1" element_type="f32"/>
			<output>
				<port id="0" precision="FP32">
					<dim>1</dim>
					<dim>32</dim>
					<dim>1</dim>
					<dim>1</dim>
				</port>
			</output>
		</layer>
		<layer id="196" name="217521799447" type="Const" version="opset1">
			<data offset="2304" size="4" shape="" element_type="f32"/>
			<output>
				<port id="0" precision="FP32"/>
			</output>
		</layer>
		<layer id="197" name="217621809639" type="Const" version="opset1">
			<data offset="2304" size="4" shape="" element_type="f32"/>
			<output>
				<port id="0" precision="FP32"/>
			</output>
		</layer>
		<layer id="198" name="217721818763" type="Const" version="opset1">
			<data offset="2304" size="4" shape="" element_type="f32"/>
			<output>
				<port id="0" precision="FP32"/>
			</output>
		</layer>
		<layer id="199" name="217821828352" type="Const" version="opset1">
			<data offset="2304" size="4" shape="" element_type="f32"/>
			<output>
				<port id="0" precision="FP32"/>
			</output>
		</layer>
		<layer id="200" name="Range_21723017947" type="Const" version="opset1">
			<data offset="3276" size="16" shape="2" element_type="i64"/>
			<output>
				<port id="0" precision="I64">
					<dim>2</dim>
				</port>
			</output>
		</layer>
		<layer id="201" name="169516998553" type="Const" version="opset1">
			<data offset="2304" size="4" shape="" element_type="f32"/>
			<output>
				<port id="0" precision="FP32"/>
			</output>
		</layer>
		<layer id="202" name="169617008469" type="Const" version="opset1">
			<data offset="2304" size="4" shape="" element_type="f32"/>
			<output>
				<port id="0" precision="FP32"/>
			</output>
		</layer>
		<layer id="203" name="169717019453" type="Const" version="opset1">
			<data offset="2304" size="4" shape="" element_type="f32"/>
			<output>
				<port id="0" precision="FP32"/>
			</output>
		</layer>
		<layer id="204" name="169817029048" type="Const" version="opset1">
			<data offset="2304" size="4" shape="" element_type="f32"/>
			<output>
				<port id="0" precision="FP32"/>
			</output>
		</layer>
		<layer id="205" name="6626648310" type="Const" version="opset1">
			<data offset="475100" size="480" shape="1,120,1,1" element_type="f32"/>
			<output>
				<port id="0" precision="FP32">
					<dim>1</dim>
					<dim>120</dim>
					<dim>1</dim>
					<dim>1</dim>
				</port>
			</output>
		</layer>
		<layer id="206" name="184518499450" type="Const" version="opset1">
			<data offset="2304" size="4" shape="" element_type="f32"/>
			<output>
				<port id="0" precision="FP32"/>
			</output>
		</layer>
		<layer id="207" name="184618508745" type="Const" version="opset1">
			<data offset="2304" size="4" shape="" element_type="f32"/>
			<output>
				<port id="0" precision="FP32"/>
			</output>
		</layer>
		<layer id="208" name="184718519870" type="Const" version="opset1">
			<data offset="2304" size="4" shape="" element_type="f32"/>
			<output>
				<port id="0" precision="FP32"/>
			</output>
		</layer>
		<layer id="209" name="184818529495" type="Const" version="opset1">
			<data offset="2304" size="4" shape="" element_type="f32"/>
			<output>
				<port id="0" precision="FP32"/>
			</output>
		</layer>
		<layer id="210" name="6586608739" type="Const" version="opset1">
			<data offset="475100" size="480" shape="1,120,1,1" element_type="f32"/>
			<output>
				<port id="0" precision="FP32">
					<dim>1</dim>
					<dim>120</dim>
					<dim>1</dim>
					<dim>1</dim>
				</port>
			</output>
		</layer>
		<layer id="211" name="144514498274" type="Const" version="opset1">
			<data offset="2304" size="4" shape="" element_type="f32"/>
			<output>
				<port id="0" precision="FP32"/>
			</output>
		</layer>
		<layer id="212" name="144614508268" type="Const" version="opset1">
			<data offset="2304" size="4" shape="" element_type="f32"/>
			<output>
				<port id="0" precision="FP32"/>
			</output>
		</layer>
		<layer id="213" name="144714518484" type="Const" version="opset1">
			<data offset="2304" size="4" shape="" element_type="f32"/>
			<output>
				<port id="0" precision="FP32"/>
			</output>
		</layer>
		<layer id="214" name="144814528235" type="Const" version="opset1">
			<data offset="2304" size="4" shape="" element_type="f32"/>
			<output>
				<port id="0" precision="FP32"/>
			</output>
		</layer>
		<layer id="215" name="118511898496" type="Const" version="opset1">
			<data offset="2304" size="4" shape="" element_type="f32"/>
			<output>
				<port id="0" precision="FP32"/>
			</output>
		</layer>
		<layer id="216" name="118611909744" type="Const" version="opset1">
			<data offset="2304" size="4" shape="" element_type="f32"/>
			<output>
				<port id="0" precision="FP32"/>
			</output>
		</layer>
		<layer id="217" name="118711919321" type="Const" version="opset1">
			<data offset="2304" size="4" shape="" element_type="f32"/>
			<output>
				<port id="0" precision="FP32"/>
			</output>
		</layer>
		<layer id="218" name="118811929393" type="Const" version="opset1">
			<data offset="2304" size="4" shape="" element_type="f32"/>
			<output>
				<port id="0" precision="FP32"/>
			</output>
		</layer>
		<layer id="219" name="6546568202" type="Const" version="opset1">
			<data offset="447292" size="160" shape="1,40,1,1" element_type="f32"/>
			<output>
				<port id="0" precision="FP32">
					<dim>1</dim>
					<dim>40</dim>
					<dim>1</dim>
					<dim>1</dim>
				</port>
			</output>
		</layer>
		<layer id="220" name="102510299666" type="Const" version="opset1">
			<data offset="2304" size="4" shape="" element_type="f32"/>
			<output>
				<port id="0" precision="FP32"/>
			</output>
		</layer>
		<layer id="221" name="102610308889" type="Const" version="opset1">
			<data offset="2304" size="4" shape="" element_type="f32"/>
			<output>
				<port id="0" precision="FP32"/>
			</output>
		</layer>
		<layer id="222" name="102710319777" type="Const" version="opset1">
			<data offset="2304" size="4" shape="" element_type="f32"/>
			<output>
				<port id="0" precision="FP32"/>
			</output>
		</layer>
		<layer id="223" name="102810328094" type="Const" version="opset1">
			<data offset="2304" size="4" shape="" element_type="f32"/>
			<output>
				<port id="0" precision="FP32"/>
			</output>
		</layer>
		<layer id="224" name="114511498421" type="Const" version="opset1">
			<data offset="2304" size="4" shape="" element_type="f32"/>
			<output>
				<port id="0" precision="FP32"/>
			</output>
		</layer>
		<layer id="225" name="114611509543" type="Const" version="opset1">
			<data offset="2304" size="4" shape="" element_type="f32"/>
			<output>
				<port id="0" precision="FP32"/>
			</output>
		</layer>
		<layer id="226" name="114711518472" type="Const" version="opset1">
			<data offset="2304" size="4" shape="" element_type="f32"/>
			<output>
				<port id="0" precision="FP32"/>
			</output>
		</layer>
		<layer id="227" name="114811529684" type="Const" version="opset1">
			<data offset="2304" size="4" shape="" element_type="f32"/>
			<output>
				<port id="0" precision="FP32"/>
			</output>
		</layer>
		<layer id="228" name="Constant_19322888106" type="Const" version="opset1">
			<data offset="2692" size="4" shape="" element_type="f32"/>
			<output>
				<port id="0" precision="FP32"/>
			</output>
		</layer>
		<layer id="229" name="Constant_19332898988" type="Const" version="opset1">
			<data offset="2696" size="4" shape="" element_type="f32"/>
			<output>
				<port id="0" precision="FP32"/>
			</output>
		</layer>
		<layer id="230" name="6506527980" type="Const" version="opset1">
			<data offset="475708" size="960" shape="1,240,1,1" element_type="f32"/>
			<output>
				<port id="0" precision="FP32">
					<dim>1</dim>
					<dim>240</dim>
					<dim>1</dim>
					<dim>1</dim>
				</port>
			</output>
		</layer>
		<layer id="231" name="112511298685" type="Const" version="opset1">
			<data offset="2304" size="4" shape="" element_type="f32"/>
			<output>
				<port id="0" precision="FP32"/>
			</output>
		</layer>
		<layer id="232" name="112611309315" type="Const" version="opset1">
			<data offset="2304" size="4" shape="" element_type="f32"/>
			<output>
				<port id="0" precision="FP32"/>
			</output>
		</layer>
		<layer id="233" name="112711318067" type="Const" version="opset1">
			<data offset="2304" size="4" shape="" element_type="f32"/>
			<output>
				<port id="0" precision="FP32"/>
			</output>
		</layer>
		<layer id="234" name="112811328040" type="Const" version="opset1">
			<data offset="2304" size="4" shape="" element_type="f32"/>
			<output>
				<port id="0" precision="FP32"/>
			</output>
		</layer>
		<layer id="235" name="6466488811" type="Const" version="opset1">
			<data offset="476668" size="256" shape="1,64,1,1" element_type="f32"/>
			<output>
				<port id="0" precision="FP32">
					<dim>1</dim>
					<dim>64</dim>
					<dim>1</dim>
					<dim>1</dim>
				</port>
			</output>
		</layer>
		<layer id="236" name="180518098769" type="Const" version="opset1">
			<data offset="2304" size="4" shape="" element_type="f32"/>
			<output>
				<port id="0" precision="FP32"/>
			</output>
		</layer>
		<layer id="237" name="180618108298" type="Const" version="opset1">
			<data offset="2304" size="4" shape="" element_type="f32"/>
			<output>
				<port id="0" precision="FP32"/>
			</output>
		</layer>
		<layer id="238" name="180718118904" type="Const" version="opset1">
			<data offset="2304" size="4" shape="" element_type="f32"/>
			<output>
				<port id="0" precision="FP32"/>
			</output>
		</layer>
		<layer id="239" name="180818128760" type="Const" version="opset1">
			<data offset="2304" size="4" shape="" element_type="f32"/>
			<output>
				<port id="0" precision="FP32"/>
			</output>
		</layer>
		<layer id="240" name="Range_18102818772" type="Const" version="opset1">
			<data offset="3276" size="16" shape="2" element_type="i64"/>
			<output>
				<port id="0" precision="I64">
					<dim>2</dim>
				</port>
			</output>
		</layer>
		<layer id="241" name="179517998043" type="Const" version="opset1">
			<data offset="2304" size="4" shape="" element_type="f32"/>
			<output>
				<port id="0" precision="FP32"/>
			</output>
		</layer>
		<layer id="242" name="179618008262" type="Const" version="opset1">
			<data offset="2304" size="4" shape="" element_type="f32"/>
			<output>
				<port id="0" precision="FP32"/>
			</output>
		</layer>
		<layer id="243" name="179718019855" type="Const" version="opset1">
			<data offset="2304" size="4" shape="" element_type="f32"/>
			<output>
				<port id="0" precision="FP32"/>
			</output>
		</layer>
		<layer id="244" name="179818029180" type="Const" version="opset1">
			<data offset="2304" size="4" shape="" element_type="f32"/>
			<output>
				<port id="0" precision="FP32"/>
			</output>
		</layer>
		<layer id="245" name="6426449885" type="Const" version="opset1">
			<data offset="475708" size="960" shape="1,240,1,1" element_type="f32"/>
			<output>
				<port id="0" precision="FP32">
					<dim>1</dim>
					<dim>240</dim>
					<dim>1</dim>
					<dim>1</dim>
				</port>
			</output>
		</layer>
		<layer id="246" name="206520698502" type="Const" version="opset1">
			<data offset="2304" size="4" shape="" element_type="f32"/>
			<output>
				<port id="0" precision="FP32"/>
			</output>
		</layer>
		<layer id="247" name="206620709165" type="Const" version="opset1">
			<data offset="2304" size="4" shape="" element_type="f32"/>
			<output>
				<port id="0" precision="FP32"/>
			</output>
		</layer>
		<layer id="248" name="206720718817" type="Const" version="opset1">
			<data offset="2304" size="4" shape="" element_type="f32"/>
			<output>
				<port id="0" precision="FP32"/>
			</output>
		</layer>
		<layer id="249" name="206820728301" type="Const" version="opset1">
			<data offset="2304" size="4" shape="" element_type="f32"/>
			<output>
				<port id="0" precision="FP32"/>
			</output>
		</layer>
		<layer id="250" name="6386409432" type="Const" version="opset1">
			<data offset="475708" size="960" shape="1,240,1,1" element_type="f32"/>
			<output>
				<port id="0" precision="FP32">
					<dim>1</dim>
					<dim>240</dim>
					<dim>1</dim>
					<dim>1</dim>
				</port>
			</output>
		</layer>
		<layer id="251" name="178517899147" type="Const" version="opset1">
			<data offset="2304" size="4" shape="" element_type="f32"/>
			<output>
				<port id="0" precision="FP32"/>
			</output>
		</layer>
		<layer id="252" name="178617909489" type="Const" version="opset1">
			<data offset="2304" size="4" shape="" element_type="f32"/>
			<output>
				<port id="0" precision="FP32"/>
			</output>
		</layer>
		<layer id="253" name="178717919249" type="Const" version="opset1">
			<data offset="2304" size="4" shape="" element_type="f32"/>
			<output>
				<port id="0" precision="FP32"/>
			</output>
		</layer>
		<layer id="254" name="178817929411" type="Const" version="opset1">
			<data offset="2304" size="4" shape="" element_type="f32"/>
			<output>
				<port id="0" precision="FP32"/>
			</output>
		</layer>
		<layer id="255" name="5282758874" type="Const" version="opset1">
			<data offset="476924" size="38400" shape="240,40,1,1" element_type="f32"/>
			<output>
				<port id="0" precision="FP32" names="528">
					<dim>240</dim>
					<dim>40</dim>
					<dim>1</dim>
					<dim>1</dim>
				</port>
			</output>
		</layer>
		<layer id="256" name="Conv_70/WithoutBiases/fq_weights_1" type="FakeQuantize" version="opset1">
			<data levels="0" auto_broadcast="numpy"/>
			<input>
				<port id="0">
					<dim>240</dim>
					<dim>40</dim>
					<dim>1</dim>
					<dim>1</dim>
				</port>
				<port id="1"/>
				<port id="2"/>
				<port id="3"/>
				<port id="4"/>
			</input>
			<output>
				<port id="5" precision="FP32">
					<dim>240</dim>
					<dim>40</dim>
					<dim>1</dim>
					<dim>1</dim>
				</port>
			</output>
		</layer>
		<layer id="257" name="119511999018" type="Const" version="opset1">
			<data offset="2304" size="4" shape="" element_type="f32"/>
			<output>
				<port id="0" precision="FP32"/>
			</output>
		</layer>
		<layer id="258" name="119612008649" type="Const" version="opset1">
			<data offset="2304" size="4" shape="" element_type="f32"/>
			<output>
				<port id="0" precision="FP32"/>
			</output>
		</layer>
		<layer id="259" name="119712019150" type="Const" version="opset1">
			<data offset="2304" size="4" shape="" element_type="f32"/>
			<output>
				<port id="0" precision="FP32"/>
			</output>
		</layer>
		<layer id="260" name="119812029516" type="Const" version="opset1">
			<data offset="2304" size="4" shape="" element_type="f32"/>
			<output>
				<port id="0" precision="FP32"/>
			</output>
		</layer>
		<layer id="261" name="152515298277" type="Const" version="opset1">
			<data offset="2304" size="4" shape="" element_type="f32"/>
			<output>
				<port id="0" precision="FP32"/>
			</output>
		</layer>
		<layer id="262" name="152615309717" type="Const" version="opset1">
			<data offset="2304" size="4" shape="" element_type="f32"/>
			<output>
				<port id="0" precision="FP32"/>
			</output>
		</layer>
		<layer id="263" name="152715319483" type="Const" version="opset1">
			<data offset="2304" size="4" shape="" element_type="f32"/>
			<output>
				<port id="0" precision="FP32"/>
			</output>
		</layer>
		<layer id="264" name="152815329891" type="Const" version="opset1">
			<data offset="2304" size="4" shape="" element_type="f32"/>
			<output>
				<port id="0" precision="FP32"/>
			</output>
		</layer>
		<layer id="265" name="6346368814" type="Const" version="opset1">
			<data offset="447292" size="160" shape="1,40,1,1" element_type="f32"/>
			<output>
				<port id="0" precision="FP32">
					<dim>1</dim>
					<dim>40</dim>
					<dim>1</dim>
					<dim>1</dim>
				</port>
			</output>
		</layer>
		<layer id="266" name="120512099387" type="Const" version="opset1">
			<data offset="2304" size="4" shape="" element_type="f32"/>
			<output>
				<port id="0" precision="FP32"/>
			</output>
		</layer>
		<layer id="267" name="120612108613" type="Const" version="opset1">
			<data offset="2304" size="4" shape="" element_type="f32"/>
			<output>
				<port id="0" precision="FP32"/>
			</output>
		</layer>
		<layer id="268" name="120712118145" type="Const" version="opset1">
			<data offset="2304" size="4" shape="" element_type="f32"/>
			<output>
				<port id="0" precision="FP32"/>
			</output>
		</layer>
		<layer id="269" name="120812129798" type="Const" version="opset1">
			<data offset="2304" size="4" shape="" element_type="f32"/>
			<output>
				<port id="0" precision="FP32"/>
			</output>
		</layer>
		<layer id="270" name="200520098343" type="Const" version="opset1">
			<data offset="2304" size="4" shape="" element_type="f32"/>
			<output>
				<port id="0" precision="FP32"/>
			</output>
		</layer>
		<layer id="271" name="200620109618" type="Const" version="opset1">
			<data offset="2304" size="4" shape="" element_type="f32"/>
			<output>
				<port id="0" precision="FP32"/>
			</output>
		</layer>
		<layer id="272" name="200720119126" type="Const" version="opset1">
			<data offset="2304" size="4" shape="" element_type="f32"/>
			<output>
				<port id="0" precision="FP32"/>
			</output>
		</layer>
		<layer id="273" name="200820128103" type="Const" version="opset1">
			<data offset="2304" size="4" shape="" element_type="f32"/>
			<output>
				<port id="0" precision="FP32"/>
			</output>
		</layer>
		<layer id="274" name="Constant_15702689693" type="Const" version="opset1">
			<data offset="2692" size="4" shape="" element_type="f32"/>
			<output>
				<port id="0" precision="FP32"/>
			</output>
		</layer>
		<layer id="275" name="Constant_15712698430" type="Const" version="opset1">
			<data offset="2696" size="4" shape="" element_type="f32"/>
			<output>
				<port id="0" precision="FP32"/>
			</output>
		</layer>
		<layer id="276" name="6306329660" type="Const" version="opset1">
			<data offset="475708" size="960" shape="1,240,1,1" element_type="f32"/>
			<output>
				<port id="0" precision="FP32">
					<dim>1</dim>
					<dim>240</dim>
					<dim>1</dim>
					<dim>1</dim>
				</port>
			</output>
		</layer>
		<layer id="277" name="202520298598" type="Const" version="opset1">
			<data offset="2304" size="4" shape="" element_type="f32"/>
			<output>
				<port id="0" precision="FP32"/>
			</output>
		</layer>
		<layer id="278" name="202620309531" type="Const" version="opset1">
			<data offset="2304" size="4" shape="" element_type="f32"/>
			<output>
				<port id="0" precision="FP32"/>
			</output>
		</layer>
		<layer id="279" name="202720319357" type="Const" version="opset1">
			<data offset="2304" size="4" shape="" element_type="f32"/>
			<output>
				<port id="0" precision="FP32"/>
			</output>
		</layer>
		<layer id="280" name="202820329633" type="Const" version="opset1">
			<data offset="2304" size="4" shape="" element_type="f32"/>
			<output>
				<port id="0" precision="FP32"/>
			</output>
		</layer>
		<layer id="281" name="6266288070" type="Const" version="opset1">
			<data offset="476668" size="256" shape="1,64,1,1" element_type="f32"/>
			<output>
				<port id="0" precision="FP32">
					<dim>1</dim>
					<dim>64</dim>
					<dim>1</dim>
					<dim>1</dim>
				</port>
			</output>
		</layer>
		<layer id="282" name="158515898715" type="Const" version="opset1">
			<data offset="2304" size="4" shape="" element_type="f32"/>
			<output>
				<port id="0" precision="FP32"/>
			</output>
		</layer>
		<layer id="283" name="158615909063" type="Const" version="opset1">
			<data offset="2304" size="4" shape="" element_type="f32"/>
			<output>
				<port id="0" precision="FP32"/>
			</output>
		</layer>
		<layer id="284" name="158715918097" type="Const" version="opset1">
			<data offset="2304" size="4" shape="" element_type="f32"/>
			<output>
				<port id="0" precision="FP32"/>
			</output>
		</layer>
		<layer id="285" name="158815928229" type="Const" version="opset1">
			<data offset="2304" size="4" shape="" element_type="f32"/>
			<output>
				<port id="0" precision="FP32"/>
			</output>
		</layer>
		<layer id="286" name="Range_14482618727" type="Const" version="opset1">
			<data offset="3276" size="16" shape="2" element_type="i64"/>
			<output>
				<port id="0" precision="I64">
					<dim>2</dim>
				</port>
			</output>
		</layer>
		<layer id="287" name="133513398694" type="Const" version="opset1">
			<data offset="2304" size="4" shape="" element_type="f32"/>
			<output>
				<port id="0" precision="FP32"/>
			</output>
		</layer>
		<layer id="288" name="133613409831" type="Const" version="opset1">
			<data offset="2304" size="4" shape="" element_type="f32"/>
			<output>
				<port id="0" precision="FP32"/>
			</output>
		</layer>
		<layer id="289" name="133713419765" type="Const" version="opset1">
			<data offset="2304" size="4" shape="" element_type="f32"/>
			<output>
				<port id="0" precision="FP32"/>
			</output>
		</layer>
		<layer id="290" name="133813429600" type="Const" version="opset1">
			<data offset="2304" size="4" shape="" element_type="f32"/>
			<output>
				<port id="0" precision="FP32"/>
			</output>
		</layer>
		<layer id="291" name="6226248757" type="Const" version="opset1">
			<data offset="475708" size="960" shape="1,240,1,1" element_type="f32"/>
			<output>
				<port id="0" precision="FP32">
					<dim>1</dim>
					<dim>240</dim>
					<dim>1</dim>
					<dim>1</dim>
				</port>
			</output>
		</layer>
		<layer id="292" name="148514898886" type="Const" version="opset1">
			<data offset="2304" size="4" shape="" element_type="f32"/>
			<output>
				<port id="0" precision="FP32"/>
			</output>
		</layer>
		<layer id="293" name="148614908883" type="Const" version="opset1">
			<data offset="2304" size="4" shape="" element_type="f32"/>
			<output>
				<port id="0" precision="FP32"/>
			</output>
		</layer>
		<layer id="294" name="148714918925" type="Const" version="opset1">
			<data offset="2304" size="4" shape="" element_type="f32"/>
			<output>
				<port id="0" precision="FP32"/>
			</output>
		</layer>
		<layer id="295" name="148814928673" type="Const" version="opset1">
			<data offset="2304" size="4" shape="" element_type="f32"/>
			<output>
				<port id="0" precision="FP32"/>
			</output>
		</layer>
		<layer id="296" name="6186209828" type="Const" version="opset1">
			<data offset="475708" size="960" shape="1,240,1,1" element_type="f32"/>
			<output>
				<port id="0" precision="FP32">
					<dim>1</dim>
					<dim>240</dim>
					<dim>1</dim>
					<dim>1</dim>
				</port>
			</output>
		</layer>
		<layer id="297" name="141514198703" type="Const" version="opset1">
			<data offset="2304" size="4" shape="" element_type="f32"/>
			<output>
				<port id="0" precision="FP32"/>
			</output>
		</layer>
		<layer id="298" name="141614209093" type="Const" version="opset1">
			<data offset="2304" size="4" shape="" element_type="f32"/>
			<output>
				<port id="0" precision="FP32"/>
			</output>
		</layer>
		<layer id="299" name="141714219711" type="Const" version="opset1">
			<data offset="2304" size="4" shape="" element_type="f32"/>
			<output>
				<port id="0" precision="FP32"/>
			</output>
		</layer>
		<layer id="300" name="141814228847" type="Const" version="opset1">
			<data offset="2304" size="4" shape="" element_type="f32"/>
			<output>
				<port id="0" precision="FP32"/>
			</output>
		</layer>
		<layer id="301" name="5192559573" type="Const" version="opset1">
			<data offset="515324" size="38400" shape="240,40,1,1" element_type="f32"/>
			<output>
				<port id="0" precision="FP32" names="519">
					<dim>240</dim>
					<dim>40</dim>
					<dim>1</dim>
					<dim>1</dim>
				</port>
			</output>
		</layer>
		<layer id="302" name="Conv_48/WithoutBiases/fq_weights_1" type="FakeQuantize" version="opset1">
			<data levels="0" auto_broadcast="numpy"/>
			<input>
				<port id="0">
					<dim>240</dim>
					<dim>40</dim>
					<dim>1</dim>
					<dim>1</dim>
				</port>
				<port id="1"/>
				<port id="2"/>
				<port id="3"/>
				<port id="4"/>
			</input>
			<output>
				<port id="5" precision="FP32">
					<dim>240</dim>
					<dim>40</dim>
					<dim>1</dim>
					<dim>1</dim>
				</port>
			</output>
		</layer>
		<layer id="303" name="153515399822" type="Const" version="opset1">
			<data offset="2304" size="4" shape="" element_type="f32"/>
			<output>
				<port id="0" precision="FP32"/>
			</output>
		</layer>
		<layer id="304" name="153615409075" type="Const" version="opset1">
			<data offset="2304" size="4" shape="" element_type="f32"/>
			<output>
				<port id="0" precision="FP32"/>
			</output>
		</layer>
		<layer id="305" name="153715419441" type="Const" version="opset1">
			<data offset="2304" size="4" shape="" element_type="f32"/>
			<output>
				<port id="0" precision="FP32"/>
			</output>
		</layer>
		<layer id="306" name="153815429663" type="Const" version="opset1">
			<data offset="2304" size="4" shape="" element_type="f32"/>
			<output>
				<port id="0" precision="FP32"/>
			</output>
		</layer>
		<layer id="307" name="6146169348" type="Const" version="opset1">
			<data offset="447292" size="160" shape="1,40,1,1" element_type="f32"/>
			<output>
				<port id="0" precision="FP32">
					<dim>1</dim>
					<dim>40</dim>
					<dim>1</dim>
					<dim>1</dim>
				</port>
			</output>
		</layer>
		<layer id="308" name="196519699474" type="Const" version="opset1">
			<data offset="2304" size="4" shape="" element_type="f32"/>
			<output>
				<port id="0" precision="FP32"/>
			</output>
		</layer>
		<layer id="309" name="196619709534" type="Const" version="opset1">
			<data offset="2304" size="4" shape="" element_type="f32"/>
			<output>
				<port id="0" precision="FP32"/>
			</output>
		</layer>
		<layer id="310" name="196719718025" type="Const" version="opset1">
			<data offset="2304" size="4" shape="" element_type="f32"/>
			<output>
				<port id="0" precision="FP32"/>
			</output>
		</layer>
		<layer id="311" name="196819729000" type="Const" version="opset1">
			<data offset="2304" size="4" shape="" element_type="f32"/>
			<output>
				<port id="0" precision="FP32"/>
			</output>
		</layer>
		<layer id="312" name="192519299138" type="Const" version="opset1">
			<data offset="2304" size="4" shape="" element_type="f32"/>
			<output>
				<port id="0" precision="FP32"/>
			</output>
		</layer>
		<layer id="313" name="192619308937" type="Const" version="opset1">
			<data offset="2304" size="4" shape="" element_type="f32"/>
			<output>
				<port id="0" precision="FP32"/>
			</output>
		</layer>
		<layer id="314" name="192719319231" type="Const" version="opset1">
			<data offset="2304" size="4" shape="" element_type="f32"/>
			<output>
				<port id="0" precision="FP32"/>
			</output>
		</layer>
		<layer id="315" name="192819329243" type="Const" version="opset1">
			<data offset="2304" size="4" shape="" element_type="f32"/>
			<output>
				<port id="0" precision="FP32"/>
			</output>
		</layer>
		<layer id="316" name="Constant_12092499069" type="Const" version="opset1">
			<data offset="2692" size="4" shape="" element_type="f32"/>
			<output>
				<port id="0" precision="FP32"/>
			</output>
		</layer>
		<layer id="317" name="Constant_12102509237" type="Const" version="opset1">
			<data offset="2696" size="4" shape="" element_type="f32"/>
			<output>
				<port id="0" precision="FP32"/>
			</output>
		</layer>
		<layer id="318" name="6106127968" type="Const" version="opset1">
			<data offset="2308" size="384" shape="1,96,1,1" element_type="f32"/>
			<output>
				<port id="0" precision="FP32">
					<dim>1</dim>
					<dim>96</dim>
					<dim>1</dim>
					<dim>1</dim>
				</port>
			</output>
		</layer>
		<layer id="319" name="238523898535" type="Const" version="opset1">
			<data offset="2304" size="4" shape="" element_type="f32"/>
			<output>
				<port id="0" precision="FP32"/>
			</output>
		</layer>
		<layer id="320" name="238623908562" type="Const" version="opset1">
			<data offset="2304" size="4" shape="" element_type="f32"/>
			<output>
				<port id="0" precision="FP32"/>
			</output>
		</layer>
		<layer id="321" name="238723918526" type="Const" version="opset1">
			<data offset="2304" size="4" shape="" element_type="f32"/>
			<output>
				<port id="0" precision="FP32"/>
			</output>
		</layer>
		<layer id="322" name="238823928844" type="Const" version="opset1">
			<data offset="2304" size="4" shape="" element_type="f32"/>
			<output>
				<port id="0" precision="FP32"/>
			</output>
		</layer>
		<layer id="323" name="6066088568" type="Const" version="opset1">
			<data offset="553724" size="96" shape="1,24,1,1" element_type="f32"/>
			<output>
				<port id="0" precision="FP32">
					<dim>1</dim>
					<dim>24</dim>
					<dim>1</dim>
					<dim>1</dim>
				</port>
			</output>
		</layer>
		<layer id="324" name="104510499849" type="Const" version="opset1">
			<data offset="2304" size="4" shape="" element_type="f32"/>
			<output>
				<port id="0" precision="FP32"/>
			</output>
		</layer>
		<layer id="325" name="104610509060" type="Const" version="opset1">
			<data offset="2304" size="4" shape="" element_type="f32"/>
			<output>
				<port id="0" precision="FP32"/>
			</output>
		</layer>
		<layer id="326" name="104710519873" type="Const" version="opset1">
			<data offset="2304" size="4" shape="" element_type="f32"/>
			<output>
				<port id="0" precision="FP32"/>
			</output>
		</layer>
		<layer id="327" name="104810528271" type="Const" version="opset1">
			<data offset="2304" size="4" shape="" element_type="f32"/>
			<output>
				<port id="0" precision="FP32"/>
			</output>
		</layer>
		<layer id="328" name="Range_10872429192" type="Const" version="opset1">
			<data offset="3276" size="16" shape="2" element_type="i64"/>
			<output>
				<port id="0" precision="I64">
					<dim>2</dim>
				</port>
			</output>
		</layer>
		<layer id="329" name="172517298736" type="Const" version="opset1">
			<data offset="2304" size="4" shape="" element_type="f32"/>
			<output>
				<port id="0" precision="FP32"/>
			</output>
		</layer>
		<layer id="330" name="172617308706" type="Const" version="opset1">
			<data offset="2304" size="4" shape="" element_type="f32"/>
			<output>
				<port id="0" precision="FP32"/>
			</output>
		</layer>
		<layer id="331" name="172717318280" type="Const" version="opset1">
			<data offset="2304" size="4" shape="" element_type="f32"/>
			<output>
				<port id="0" precision="FP32"/>
			</output>
		</layer>
		<layer id="332" name="172817329732" type="Const" version="opset1">
			<data offset="2304" size="4" shape="" element_type="f32"/>
			<output>
				<port id="0" precision="FP32"/>
			</output>
		</layer>
		<layer id="333" name="6026048595" type="Const" version="opset1">
			<data offset="2308" size="384" shape="1,96,1,1" element_type="f32"/>
			<output>
				<port id="0" precision="FP32">
					<dim>1</dim>
					<dim>96</dim>
					<dim>1</dim>
					<dim>1</dim>
				</port>
			</output>
		</layer>
		<layer id="334" name="212521298439" type="Const" version="opset1">
			<data offset="2304" size="4" shape="" element_type="f32"/>
			<output>
				<port id="0" precision="FP32"/>
			</output>
		</layer>
		<layer id="335" name="212621309111" type="Const" version="opset1">
			<data offset="2304" size="4" shape="" element_type="f32"/>
			<output>
				<port id="0" precision="FP32"/>
			</output>
		</layer>
		<layer id="336" name="212721318124" type="Const" version="opset1">
			<data offset="2304" size="4" shape="" element_type="f32"/>
			<output>
				<port id="0" precision="FP32"/>
			</output>
		</layer>
		<layer id="337" name="212821329330" type="Const" version="opset1">
			<data offset="2304" size="4" shape="" element_type="f32"/>
			<output>
				<port id="0" precision="FP32"/>
			</output>
		</layer>
		<layer id="338" name="5986008046" type="Const" version="opset1">
			<data offset="2308" size="384" shape="1,96,1,1" element_type="f32"/>
			<output>
				<port id="0" precision="FP32">
					<dim>1</dim>
					<dim>96</dim>
					<dim>1</dim>
					<dim>1</dim>
				</port>
			</output>
		</layer>
		<layer id="339" name="108510899549" type="Const" version="opset1">
			<data offset="2304" size="4" shape="" element_type="f32"/>
			<output>
				<port id="0" precision="FP32"/>
			</output>
		</layer>
		<layer id="340" name="108610908205" type="Const" version="opset1">
			<data offset="2304" size="4" shape="" element_type="f32"/>
			<output>
				<port id="0" precision="FP32"/>
			</output>
		</layer>
		<layer id="341" name="108710918802" type="Const" version="opset1">
			<data offset="2304" size="4" shape="" element_type="f32"/>
			<output>
				<port id="0" precision="FP32"/>
			</output>
		</layer>
		<layer id="342" name="108810929054" type="Const" version="opset1">
			<data offset="2304" size="4" shape="" element_type="f32"/>
			<output>
				<port id="0" precision="FP32"/>
			</output>
		</layer>
		<layer id="343" name="123512399351" type="Const" version="opset1">
			<data offset="2304" size="4" shape="" element_type="f32"/>
			<output>
				<port id="0" precision="FP32"/>
			</output>
		</layer>
		<layer id="344" name="123612409519" type="Const" version="opset1">
			<data offset="2304" size="4" shape="" element_type="f32"/>
			<output>
				<port id="0" precision="FP32"/>
			</output>
		</layer>
		<layer id="345" name="123712418130" type="Const" version="opset1">
			<data offset="2304" size="4" shape="" element_type="f32"/>
			<output>
				<port id="0" precision="FP32"/>
			</output>
		</layer>
		<layer id="346" name="123812429522" type="Const" version="opset1">
			<data offset="2304" size="4" shape="" element_type="f32"/>
			<output>
				<port id="0" precision="FP32"/>
			</output>
		</layer>
		<layer id="347" name="5945968805" type="Const" version="opset1">
			<data offset="553724" size="96" shape="1,24,1,1" element_type="f32"/>
			<output>
				<port id="0" precision="FP32">
					<dim>1</dim>
					<dim>24</dim>
					<dim>1</dim>
					<dim>1</dim>
				</port>
			</output>
		</layer>
		<layer id="348" name="186518698436" type="Const" version="opset1">
			<data offset="2304" size="4" shape="" element_type="f32"/>
			<output>
				<port id="0" precision="FP32"/>
			</output>
		</layer>
		<layer id="349" name="186618709570" type="Const" version="opset1">
			<data offset="2304" size="4" shape="" element_type="f32"/>
			<output>
				<port id="0" precision="FP32"/>
			</output>
		</layer>
		<layer id="350" name="186718718256" type="Const" version="opset1">
			<data offset="2304" size="4" shape="" element_type="f32"/>
			<output>
				<port id="0" precision="FP32"/>
			</output>
		</layer>
		<layer id="351" name="186818729429" type="Const" version="opset1">
			<data offset="2304" size="4" shape="" element_type="f32"/>
			<output>
				<port id="0" precision="FP32"/>
			</output>
		</layer>
		<layer id="352" name="5905928832" type="Const" version="opset1">
			<data offset="553820" size="352" shape="1,88,1,1" element_type="f32"/>
			<output>
				<port id="0" precision="FP32">
					<dim>1</dim>
					<dim>88</dim>
					<dim>1</dim>
					<dim>1</dim>
				</port>
			</output>
		</layer>
		<layer id="353" name="236523698637" type="Const" version="opset1">
			<data offset="2304" size="4" shape="" element_type="f32"/>
			<output>
				<port id="0" precision="FP32"/>
			</output>
		</layer>
		<layer id="354" name="236623708616" type="Const" version="opset1">
			<data offset="2304" size="4" shape="" element_type="f32"/>
			<output>
				<port id="0" precision="FP32"/>
			</output>
		</layer>
		<layer id="355" name="236723718253" type="Const" version="opset1">
			<data offset="2304" size="4" shape="" element_type="f32"/>
			<output>
				<port id="0" precision="FP32"/>
			</output>
		</layer>
		<layer id="356" name="236823729066" type="Const" version="opset1">
			<data offset="2304" size="4" shape="" element_type="f32"/>
			<output>
				<port id="0" precision="FP32"/>
			</output>
		</layer>
		<layer id="357" name="5865889858" type="Const" version="opset1">
			<data offset="553820" size="352" shape="1,88,1,1" element_type="f32"/>
			<output>
				<port id="0" precision="FP32">
					<dim>1</dim>
					<dim>88</dim>
					<dim>1</dim>
					<dim>1</dim>
				</port>
			</output>
		</layer>
		<layer id="358" name="107510798946" type="Const" version="opset1">
			<data offset="2304" size="4" shape="" element_type="f32"/>
			<output>
				<port id="0" precision="FP32"/>
			</output>
		</layer>
		<layer id="359" name="107610808034" type="Const" version="opset1">
			<data offset="2304" size="4" shape="" element_type="f32"/>
			<output>
				<port id="0" precision="FP32"/>
			</output>
		</layer>
		<layer id="360" name="107710819459" type="Const" version="opset1">
			<data offset="2304" size="4" shape="" element_type="f32"/>
			<output>
				<port id="0" precision="FP32"/>
			</output>
		</layer>
		<layer id="361" name="107810828646" type="Const" version="opset1">
			<data offset="2304" size="4" shape="" element_type="f32"/>
			<output>
				<port id="0" precision="FP32"/>
			</output>
		</layer>
		<layer id="362" name="5012278571" type="Const" version="opset1">
			<data offset="554172" size="8448" shape="88,24,1,1" element_type="f32"/>
			<output>
				<port id="0" precision="FP32" names="501">
					<dim>88</dim>
					<dim>24</dim>
					<dim>1</dim>
					<dim>1</dim>
				</port>
			</output>
		</layer>
		<layer id="363" name="Conv_21/WithoutBiases/fq_weights_1" type="FakeQuantize" version="opset1">
			<data levels="0" auto_broadcast="numpy"/>
			<input>
				<port id="0">
					<dim>88</dim>
					<dim>24</dim>
					<dim>1</dim>
					<dim>1</dim>
				</port>
				<port id="1"/>
				<port id="2"/>
				<port id="3"/>
				<port id="4"/>
			</input>
			<output>
				<port id="5" precision="FP32">
					<dim>88</dim>
					<dim>24</dim>
					<dim>1</dim>
					<dim>1</dim>
				</port>
			</output>
		</layer>
		<layer id="364" name="124512498958" type="Const" version="opset1">
			<data offset="2304" size="4" shape="" element_type="f32"/>
			<output>
				<port id="0" precision="FP32"/>
			</output>
		</layer>
		<layer id="365" name="124612509405" type="Const" version="opset1">
			<data offset="2304" size="4" shape="" element_type="f32"/>
			<output>
				<port id="0" precision="FP32"/>
			</output>
		</layer>
		<layer id="366" name="124712518493" type="Const" version="opset1">
			<data offset="2304" size="4" shape="" element_type="f32"/>
			<output>
				<port id="0" precision="FP32"/>
			</output>
		</layer>
		<layer id="367" name="124812528391" type="Const" version="opset1">
			<data offset="2304" size="4" shape="" element_type="f32"/>
			<output>
				<port id="0" precision="FP32"/>
			</output>
		</layer>
		<layer id="368" name="5825849795" type="Const" version="opset1">
			<data offset="553724" size="96" shape="1,24,1,1" element_type="f32"/>
			<output>
				<port id="0" precision="FP32">
					<dim>1</dim>
					<dim>24</dim>
					<dim>1</dim>
					<dim>1</dim>
				</port>
			</output>
		</layer>
		<layer id="369" name="240524099678" type="Const" version="opset1">
			<data offset="2304" size="4" shape="" element_type="f32"/>
			<output>
				<port id="0" precision="FP32"/>
			</output>
		</layer>
		<layer id="370" name="240624108238" type="Const" version="opset1">
			<data offset="2304" size="4" shape="" element_type="f32"/>
			<output>
				<port id="0" precision="FP32"/>
			</output>
		</layer>
		<layer id="371" name="240724117944" type="Const" version="opset1">
			<data offset="2304" size="4" shape="" element_type="f32"/>
			<output>
				<port id="0" precision="FP32"/>
			</output>
		</layer>
		<layer id="372" name="240824129333" type="Const" version="opset1">
			<data offset="2304" size="4" shape="" element_type="f32"/>
			<output>
				<port id="0" precision="FP32"/>
			</output>
		</layer>
		<layer id="373" name="5785809654" type="Const" version="opset1">
			<data offset="446812" size="288" shape="1,72,1,1" element_type="f32"/>
			<output>
				<port id="0" precision="FP32">
					<dim>1</dim>
					<dim>72</dim>
					<dim>1</dim>
					<dim>1</dim>
				</port>
			</output>
		</layer>
		<layer id="374" name="142514299504" type="Const" version="opset1">
			<data offset="2304" size="4" shape="" element_type="f32"/>
			<output>
				<port id="0" precision="FP32"/>
			</output>
		</layer>
		<layer id="375" name="142614308628" type="Const" version="opset1">
			<data offset="2304" size="4" shape="" element_type="f32"/>
			<output>
				<port id="0" precision="FP32"/>
			</output>
		</layer>
		<layer id="376" name="142714319390" type="Const" version="opset1">
			<data offset="2304" size="4" shape="" element_type="f32"/>
			<output>
				<port id="0" precision="FP32"/>
			</output>
		</layer>
		<layer id="377" name="142814329759" type="Const" version="opset1">
			<data offset="2304" size="4" shape="" element_type="f32"/>
			<output>
				<port id="0" precision="FP32"/>
			</output>
		</layer>
		<layer id="378" name="5745768151" type="Const" version="opset1">
			<data offset="446812" size="288" shape="1,72,1,1" element_type="f32"/>
			<output>
				<port id="0" precision="FP32">
					<dim>1</dim>
					<dim>72</dim>
					<dim>1</dim>
					<dim>1</dim>
				</port>
			</output>
		</layer>
		<layer id="379" name="223522398775" type="Const" version="opset1">
			<data offset="2304" size="4" shape="" element_type="f32"/>
			<output>
				<port id="0" precision="FP32"/>
			</output>
		</layer>
		<layer id="380" name="223622409030" type="Const" version="opset1">
			<data offset="2304" size="4" shape="" element_type="f32"/>
			<output>
				<port id="0" precision="FP32"/>
			</output>
		</layer>
		<layer id="381" name="223722419456" type="Const" version="opset1">
			<data offset="2304" size="4" shape="" element_type="f32"/>
			<output>
				<port id="0" precision="FP32"/>
			</output>
		</layer>
		<layer id="382" name="223822428385" type="Const" version="opset1">
			<data offset="2304" size="4" shape="" element_type="f32"/>
			<output>
				<port id="0" precision="FP32"/>
			</output>
		</layer>
		<layer id="383" name="5705728901" type="Const" version="opset1">
			<data offset="562620" size="64" shape="1,16,1,1" element_type="f32"/>
			<output>
				<port id="0" precision="FP32">
					<dim>1</dim>
					<dim>16</dim>
					<dim>1</dim>
					<dim>1</dim>
				</port>
			</output>
		</layer>
		<layer id="384" name="210521099726" type="Const" version="opset1">
			<data offset="2304" size="4" shape="" element_type="f32"/>
			<output>
				<port id="0" precision="FP32"/>
			</output>
		</layer>
		<layer id="385" name="210621108523" type="Const" version="opset1">
			<data offset="2304" size="4" shape="" element_type="f32"/>
			<output>
				<port id="0" precision="FP32"/>
			</output>
		</layer>
		<layer id="386" name="210721118331" type="Const" version="opset1">
			<data offset="2304" size="4" shape="" element_type="f32"/>
			<output>
				<port id="0" precision="FP32"/>
			</output>
		</layer>
		<layer id="387" name="210821129345" type="Const" version="opset1">
			<data offset="2304" size="4" shape="" element_type="f32"/>
			<output>
				<port id="0" precision="FP32"/>
			</output>
		</layer>
		<layer id="388" name="190519099300" type="Const" version="opset1">
			<data offset="2304" size="4" shape="" element_type="f32"/>
			<output>
				<port id="0" precision="FP32"/>
			</output>
		</layer>
		<layer id="389" name="190619108466" type="Const" version="opset1">
			<data offset="2304" size="4" shape="" element_type="f32"/>
			<output>
				<port id="0" precision="FP32"/>
			</output>
		</layer>
		<layer id="390" name="190719119072" type="Const" version="opset1">
			<data offset="2304" size="4" shape="" element_type="f32"/>
			<output>
				<port id="0" precision="FP32"/>
			</output>
		</layer>
		<layer id="391" name="190819129006" type="Const" version="opset1">
			<data offset="2304" size="4" shape="" element_type="f32"/>
			<output>
				<port id="0" precision="FP32"/>
			</output>
		</layer>
		<layer id="392" name="Constant_4092138061" type="Const" version="opset1">
			<data offset="2692" size="4" shape="" element_type="f32"/>
			<output>
				<port id="0" precision="FP32"/>
			</output>
		</layer>
		<layer id="393" name="Constant_4102149384" type="Const" version="opset1">
			<data offset="2696" size="4" shape="" element_type="f32"/>
			<output>
				<port id="0" precision="FP32"/>
			</output>
		</layer>
		<layer id="394" name="5665689027" type="Const" version="opset1">
			<data offset="562620" size="64" shape="1,16,1,1" element_type="f32"/>
			<output>
				<port id="0" precision="FP32">
					<dim>1</dim>
					<dim>16</dim>
					<dim>1</dim>
					<dim>1</dim>
				</port>
			</output>
		</layer>
		<layer id="395" name="127512799561" type="Const" version="opset1">
			<data offset="2304" size="4" shape="" element_type="f32"/>
			<output>
				<port id="0" precision="FP32"/>
			</output>
		</layer>
		<layer id="396" name="127612808418" type="Const" version="opset1">
			<data offset="2304" size="4" shape="" element_type="f32"/>
			<output>
				<port id="0" precision="FP32"/>
			</output>
		</layer>
		<layer id="397" name="127712819840" type="Const" version="opset1">
			<data offset="2304" size="4" shape="" element_type="f32"/>
			<output>
				<port id="0" precision="FP32"/>
			</output>
		</layer>
		<layer id="398" name="127812828328" type="Const" version="opset1">
			<data offset="2304" size="4" shape="" element_type="f32"/>
			<output>
				<port id="0" precision="FP32"/>
			</output>
		</layer>
		<layer id="399" name="5625648208" type="Const" version="opset1">
			<data offset="562684" size="32" shape="1,8,1,1" element_type="f32"/>
			<output>
				<port id="0" precision="FP32">
					<dim>1</dim>
					<dim>8</dim>
					<dim>1</dim>
					<dim>1</dim>
				</port>
			</output>
		</layer>
		<layer id="400" name="163516398754" type="Const" version="opset1">
			<data offset="2304" size="4" shape="" element_type="f32"/>
			<output>
				<port id="0" precision="FP32"/>
			</output>
		</layer>
		<layer id="401" name="163616409597" type="Const" version="opset1">
			<data offset="2304" size="4" shape="" element_type="f32"/>
			<output>
				<port id="0" precision="FP32"/>
			</output>
		</layer>
		<layer id="402" name="163716419477" type="Const" version="opset1">
			<data offset="2304" size="4" shape="" element_type="f32"/>
			<output>
				<port id="0" precision="FP32"/>
			</output>
		</layer>
		<layer id="403" name="163816428970" type="Const" version="opset1">
			<data offset="2304" size="4" shape="" element_type="f32"/>
			<output>
				<port id="0" precision="FP32"/>
			</output>
		</layer>
		<layer id="404" name="Range_2872067971" type="Const" version="opset1">
			<data offset="3276" size="16" shape="2" element_type="i64"/>
			<output>
				<port id="0" precision="I64">
					<dim>2</dim>
				</port>
			</output>
		</layer>
		<layer id="405" name="242524298820" type="Const" version="opset1">
			<data offset="2304" size="4" shape="" element_type="f32"/>
			<output>
				<port id="0" precision="FP32"/>
			</output>
		</layer>
		<layer id="406" name="242624308751" type="Const" version="opset1">
			<data offset="2304" size="4" shape="" element_type="f32"/>
			<output>
				<port id="0" precision="FP32"/>
			</output>
		</layer>
		<layer id="407" name="242724318448" type="Const" version="opset1">
			<data offset="2304" size="4" shape="" element_type="f32"/>
			<output>
				<port id="0" precision="FP32"/>
			</output>
		</layer>
		<layer id="408" name="242824329096" type="Const" version="opset1">
			<data offset="2304" size="4" shape="" element_type="f32"/>
			<output>
				<port id="0" precision="FP32"/>
			</output>
		</layer>
		<layer id="409" name="5585609174" type="Const" version="opset1">
			<data offset="562620" size="64" shape="1,16,1,1" element_type="f32"/>
			<output>
				<port id="0" precision="FP32">
					<dim>1</dim>
					<dim>16</dim>
					<dim>1</dim>
					<dim>1</dim>
				</port>
			</output>
		</layer>
		<layer id="410" name="188518898007" type="Const" version="opset1">
			<data offset="2304" size="4" shape="" element_type="f32"/>
			<output>
				<port id="0" precision="FP32"/>
			</output>
		</layer>
		<layer id="411" name="188618909780" type="Const" version="opset1">
			<data offset="2304" size="4" shape="" element_type="f32"/>
			<output>
				<port id="0" precision="FP32"/>
			</output>
		</layer>
		<layer id="412" name="188718918157" type="Const" version="opset1">
			<data offset="2304" size="4" shape="" element_type="f32"/>
			<output>
				<port id="0" precision="FP32"/>
			</output>
		</layer>
		<layer id="413" name="188818929378" type="Const" version="opset1">
			<data offset="2304" size="4" shape="" element_type="f32"/>
			<output>
				<port id="0" precision="FP32"/>
			</output>
		</layer>
		<layer id="414" name="5545569675" type="Const" version="opset1">
			<data offset="562620" size="64" shape="1,16,1,1" element_type="f32"/>
			<output>
				<port id="0" precision="FP32">
					<dim>1</dim>
					<dim>16</dim>
					<dim>1</dim>
					<dim>1</dim>
				</port>
			</output>
		</layer>
		<layer id="415" name="234523498388" type="Const" version="opset1">
			<data offset="2304" size="4" shape="" element_type="f32"/>
			<output>
				<port id="0" precision="FP32"/>
			</output>
		</layer>
		<layer id="416" name="234623509861" type="Const" version="opset1">
			<data offset="2304" size="4" shape="" element_type="f32"/>
			<output>
				<port id="0" precision="FP32"/>
			</output>
		</layer>
		<layer id="417" name="234723519120" type="Const" version="opset1">
			<data offset="2304" size="4" shape="" element_type="f32"/>
			<output>
				<port id="0" precision="FP32"/>
			</output>
		</layer>
		<layer id="418" name="234823529681" type="Const" version="opset1">
			<data offset="2304" size="4" shape="" element_type="f32"/>
			<output>
				<port id="0" precision="FP32"/>
			</output>
		</layer>
		<layer id="420" name="Conv_0/WithoutBiases/fq_input_0" type="FakeQuantize" version="opset1">
			<data levels="0" auto_broadcast="numpy"/>
			<input>
				<port id="0">
					<dim>1</dim>
					<dim>3</dim>
					<dim>224</dim>
					<dim>224</dim>
				</port>
				<port id="1"/>
				<port id="2"/>
				<port id="3"/>
				<port id="4"/>
			</input>
			<output>
				<port id="5" precision="FP32">
					<dim>1</dim>
					<dim>3</dim>
					<dim>224</dim>
					<dim>224</dim>
				</port>
			</output>
		</layer>
		<layer id="421" name="235523598076" type="Const" version="opset1">
			<data offset="2304" size="4" shape="" element_type="f32"/>
			<output>
				<port id="0" precision="FP32"/>
			</output>
		</layer>
		<layer id="422" name="235623608721" type="Const" version="opset1">
			<data offset="2304" size="4" shape="" element_type="f32"/>
			<output>
				<port id="0" precision="FP32"/>
			</output>
		</layer>
		<layer id="423" name="235723619897" type="Const" version="opset1">
			<data offset="2304" size="4" shape="" element_type="f32"/>
			<output>
				<port id="0" precision="FP32"/>
			</output>
		</layer>
		<layer id="424" name="235823629498" type="Const" version="opset1">
			<data offset="2304" size="4" shape="" element_type="f32"/>
			<output>
				<port id="0" precision="FP32"/>
			</output>
		</layer>
		<layer id="425" name="4832009273" type="Const" version="opset1">
			<data offset="562716" size="1728" shape="16,3,3,3" element_type="f32"/>
			<output>
				<port id="0" precision="FP32" names="483">
					<dim>16</dim>
					<dim>3</dim>
					<dim>3</dim>
					<dim>3</dim>
				</port>
			</output>
		</layer>
		<layer id="426" name="Conv_0/WithoutBiases/fq_weights_1" type="FakeQuantize" version="opset1">
			<data levels="0" auto_broadcast="numpy"/>
			<input>
				<port id="0">
					<dim>16</dim>
					<dim>3</dim>
					<dim>3</dim>
					<dim>3</dim>
				</port>
				<port id="1"/>
				<port id="2"/>
				<port id="3"/>
				<port id="4"/>
			</input>
			<output>
				<port id="5" precision="FP32">
					<dim>16</dim>
					<dim>3</dim>
					<dim>3</dim>
					<dim>3</dim>
				</port>
			</output>
		</layer>
		<layer id="427" name="Conv_0/WithoutBiases" type="Convolution" version="opset1">
			<data auto_pad="explicit" strides="2,2" dilations="1,1" pads_begin="1,1" pads_end="1,1"/>
			<input>
				<port id="0">
					<dim>1</dim>
					<dim>3</dim>
					<dim>224</dim>
					<dim>224</dim>
				</port>
				<port id="1">
					<dim>16</dim>
					<dim>3</dim>
					<dim>3</dim>
					<dim>3</dim>
				</port>
			</input>
			<output>
				<port id="2" precision="FP32" names="482">
					<dim>1</dim>
					<dim>16</dim>
					<dim>112</dim>
					<dim>112</dim>
				</port>
			</output>
		</layer>
		<layer id="428" name="Conv_0/WithoutBiases/add_" type="Add" version="opset1">
			<data auto_broadcast="numpy"/>
			<input>
				<port id="0">
					<dim>1</dim>
					<dim>16</dim>
					<dim>112</dim>
					<dim>112</dim>
				</port>
				<port id="1">
					<dim>1</dim>
					<dim>16</dim>
					<dim>1</dim>
					<dim>1</dim>
				</port>
			</input>
			<output>
				<port id="2" precision="FP32">
					<dim>1</dim>
					<dim>16</dim>
					<dim>112</dim>
					<dim>112</dim>
				</port>
			</output>
		</layer>
		<layer id="429" name="Mul_6" type="HSwish" version="opset4">
			<input>
				<port id="0">
					<dim>1</dim>
					<dim>16</dim>
					<dim>112</dim>
					<dim>112</dim>
				</port>
			</input>
			<output>
				<port id="1" precision="FP32" names="248">
					<dim>1</dim>
					<dim>16</dim>
					<dim>112</dim>
					<dim>112</dim>
				</port>
			</output>
		</layer>
		<layer id="430" name="Conv_7/WithoutBiases/fq_input_0" type="FakeQuantize" version="opset1">
			<data levels="0" auto_broadcast="numpy"/>
			<input>
				<port id="0">
					<dim>1</dim>
					<dim>16</dim>
					<dim>112</dim>
					<dim>112</dim>
				</port>
				<port id="1"/>
				<port id="2"/>
				<port id="3"/>
				<port id="4"/>
			</input>
			<output>
				<port id="5" precision="FP32">
					<dim>1</dim>
					<dim>16</dim>
					<dim>112</dim>
					<dim>112</dim>
				</port>
			</output>
		</layer>
		<layer id="431" name="Conv_7/WithoutBiases/weights_shape64449291" type="Const" version="opset1">
			<data offset="564444" size="40" shape="5" element_type="i64"/>
			<output>
				<port id="0" precision="I64">
					<dim>5</dim>
				</port>
			</output>
		</layer>
		<layer id="432" name="189518999672" type="Const" version="opset1">
			<data offset="2304" size="4" shape="" element_type="f32"/>
			<output>
				<port id="0" precision="FP32"/>
			</output>
		</layer>
		<layer id="433" name="189619008367" type="Const" version="opset1">
			<data offset="2304" size="4" shape="" element_type="f32"/>
			<output>
				<port id="0" precision="FP32"/>
			</output>
		</layer>
		<layer id="434" name="189719019537" type="Const" version="opset1">
			<data offset="2304" size="4" shape="" element_type="f32"/>
			<output>
				<port id="0" precision="FP32"/>
			</output>
		</layer>
		<layer id="435" name="189819029042" type="Const" version="opset1">
			<data offset="2304" size="4" shape="" element_type="f32"/>
			<output>
				<port id="0" precision="FP32"/>
			</output>
		</layer>
		<layer id="436" name="Reshape_1662038286" type="Const" version="opset1">
			<data offset="564484" size="576" shape="16,1,3,3" element_type="f32"/>
			<output>
				<port id="0" precision="FP32">
					<dim>16</dim>
					<dim>1</dim>
					<dim>3</dim>
					<dim>3</dim>
				</port>
			</output>
		</layer>
		<layer id="437" name="Conv_7/WithoutBiases/fq_weights_1" type="FakeQuantize" version="opset1">
			<data levels="0" auto_broadcast="numpy"/>
			<input>
				<port id="0">
					<dim>16</dim>
					<dim>1</dim>
					<dim>3</dim>
					<dim>3</dim>
				</port>
				<port id="1"/>
				<port id="2"/>
				<port id="3"/>
				<port id="4"/>
			</input>
			<output>
				<port id="5" precision="FP32">
					<dim>16</dim>
					<dim>1</dim>
					<dim>3</dim>
					<dim>3</dim>
				</port>
			</output>
		</layer>
		<layer id="438" name="6443" type="Reshape" version="opset1">
			<data special_zero="true"/>
			<input>
				<port id="0">
					<dim>16</dim>
					<dim>1</dim>
					<dim>3</dim>
					<dim>3</dim>
				</port>
				<port id="1">
					<dim>5</dim>
				</port>
			</input>
			<output>
				<port id="2" precision="FP32">
					<dim>16</dim>
					<dim>1</dim>
					<dim>1</dim>
					<dim>3</dim>
					<dim>3</dim>
				</port>
			</output>
		</layer>
		<layer id="439" name="Conv_7/WithoutBiases" type="GroupConvolution" version="opset1">
			<data auto_pad="explicit" strides="2,2" dilations="1,1" pads_begin="1,1" pads_end="1,1"/>
			<input>
				<port id="0">
					<dim>1</dim>
					<dim>16</dim>
					<dim>112</dim>
					<dim>112</dim>
				</port>
				<port id="1">
					<dim>16</dim>
					<dim>1</dim>
					<dim>1</dim>
					<dim>3</dim>
					<dim>3</dim>
				</port>
			</input>
			<output>
				<port id="2" precision="FP32" names="485">
					<dim>1</dim>
					<dim>16</dim>
					<dim>56</dim>
					<dim>56</dim>
				</port>
			</output>
		</layer>
		<layer id="440" name="Conv_7/WithoutBiases/add_" type="Add" version="opset1">
			<data auto_broadcast="numpy"/>
			<input>
				<port id="0">
					<dim>1</dim>
					<dim>16</dim>
					<dim>56</dim>
					<dim>56</dim>
				</port>
				<port id="1">
					<dim>1</dim>
					<dim>16</dim>
					<dim>1</dim>
					<dim>1</dim>
				</port>
			</input>
			<output>
				<port id="2" precision="FP32">
					<dim>1</dim>
					<dim>16</dim>
					<dim>56</dim>
					<dim>56</dim>
				</port>
			</output>
		</layer>
		<layer id="441" name="Relu_8" type="ReLU" version="opset1">
			<input>
				<port id="0">
					<dim>1</dim>
					<dim>16</dim>
					<dim>56</dim>
					<dim>56</dim>
				</port>
			</input>
			<output>
				<port id="1" precision="FP32" names="251">
					<dim>1</dim>
					<dim>16</dim>
					<dim>56</dim>
					<dim>56</dim>
				</port>
			</output>
		</layer>
		<layer id="442" name="GlobalAveragePool_9/fq_input_0" type="FakeQuantize" version="opset1">
			<data levels="0" auto_broadcast="numpy"/>
			<input>
				<port id="0">
					<dim>1</dim>
					<dim>16</dim>
					<dim>56</dim>
					<dim>56</dim>
				</port>
				<port id="1"/>
				<port id="2"/>
				<port id="3"/>
				<port id="4"/>
			</input>
			<output>
				<port id="5" precision="FP32">
					<dim>1</dim>
					<dim>16</dim>
					<dim>56</dim>
					<dim>56</dim>
				</port>
			</output>
		</layer>
		<layer id="443" name="GlobalAveragePool_9" type="ReduceMean" version="opset1">
			<data keep_dims="true"/>
			<input>
				<port id="0">
					<dim>1</dim>
					<dim>16</dim>
					<dim>56</dim>
					<dim>56</dim>
				</port>
				<port id="1">
					<dim>2</dim>
				</port>
			</input>
			<output>
				<port id="2" precision="FP32" names="252">
					<dim>1</dim>
					<dim>16</dim>
					<dim>1</dim>
					<dim>1</dim>
				</port>
			</output>
		</layer>
		<layer id="444" name="Conv_10/WithoutBiases/fq_input_0" type="FakeQuantize" version="opset1">
			<data levels="0" auto_broadcast="numpy"/>
			<input>
				<port id="0">
					<dim>1</dim>
					<dim>16</dim>
					<dim>1</dim>
					<dim>1</dim>
				</port>
				<port id="1"/>
				<port id="2"/>
				<port id="3"/>
				<port id="4"/>
			</input>
			<output>
				<port id="5" precision="FP32">
					<dim>1</dim>
					<dim>16</dim>
					<dim>1</dim>
					<dim>1</dim>
				</port>
			</output>
		</layer>
		<layer id="445" name="164516498220" type="Const" version="opset1">
			<data offset="2304" size="4" shape="" element_type="f32"/>
			<output>
				<port id="0" precision="FP32"/>
			</output>
		</layer>
		<layer id="446" name="164616508115" type="Const" version="opset1">
			<data offset="2304" size="4" shape="" element_type="f32"/>
			<output>
				<port id="0" precision="FP32"/>
			</output>
		</layer>
		<layer id="447" name="164716518247" type="Const" version="opset1">
			<data offset="2304" size="4" shape="" element_type="f32"/>
			<output>
				<port id="0" precision="FP32"/>
			</output>
		</layer>
		<layer id="448" name="164816528607" type="Const" version="opset1">
			<data offset="2304" size="4" shape="" element_type="f32"/>
			<output>
				<port id="0" precision="FP32"/>
			</output>
		</layer>
		<layer id="449" name="0.1.block.1.fc1.weight2088799" type="Const" version="opset1">
			<data offset="565060" size="512" shape="8,16,1,1" element_type="f32"/>
			<output>
				<port id="0" precision="FP32" names="0.1.block.1.fc1.weight">
					<dim>8</dim>
					<dim>16</dim>
					<dim>1</dim>
					<dim>1</dim>
				</port>
			</output>
		</layer>
		<layer id="450" name="Conv_10/WithoutBiases/fq_weights_1" type="FakeQuantize" version="opset1">
			<data levels="0" auto_broadcast="numpy"/>
			<input>
				<port id="0">
					<dim>8</dim>
					<dim>16</dim>
					<dim>1</dim>
					<dim>1</dim>
				</port>
				<port id="1"/>
				<port id="2"/>
				<port id="3"/>
				<port id="4"/>
			</input>
			<output>
				<port id="5" precision="FP32">
					<dim>8</dim>
					<dim>16</dim>
					<dim>1</dim>
					<dim>1</dim>
				</port>
			</output>
		</layer>
		<layer id="451" name="Conv_10/WithoutBiases" type="Convolution" version="opset1">
			<data auto_pad="explicit" strides="1,1" dilations="1,1" pads_begin="0,0" pads_end="0,0"/>
			<input>
				<port id="0">
					<dim>1</dim>
					<dim>16</dim>
					<dim>1</dim>
					<dim>1</dim>
				</port>
				<port id="1">
					<dim>8</dim>
					<dim>16</dim>
					<dim>1</dim>
					<dim>1</dim>
				</port>
			</input>
			<output>
				<port id="2" precision="FP32" names="253">
					<dim>1</dim>
					<dim>8</dim>
					<dim>1</dim>
					<dim>1</dim>
				</port>
			</output>
		</layer>
		<layer id="452" name="Conv_10/WithoutBiases/add_" type="Add" version="opset1">
			<data auto_broadcast="numpy"/>
			<input>
				<port id="0">
					<dim>1</dim>
					<dim>8</dim>
					<dim>1</dim>
					<dim>1</dim>
				</port>
				<port id="1">
					<dim>1</dim>
					<dim>8</dim>
					<dim>1</dim>
					<dim>1</dim>
				</port>
			</input>
			<output>
				<port id="2" precision="FP32">
					<dim>1</dim>
					<dim>8</dim>
					<dim>1</dim>
					<dim>1</dim>
				</port>
			</output>
		</layer>
		<layer id="453" name="Relu_11" type="ReLU" version="opset1">
			<input>
				<port id="0">
					<dim>1</dim>
					<dim>8</dim>
					<dim>1</dim>
					<dim>1</dim>
				</port>
			</input>
			<output>
				<port id="1" precision="FP32" names="254">
					<dim>1</dim>
					<dim>8</dim>
					<dim>1</dim>
					<dim>1</dim>
				</port>
			</output>
		</layer>
		<layer id="454" name="Conv_12/WithoutBiases/fq_input_0" type="FakeQuantize" version="opset1">
			<data levels="0" auto_broadcast="numpy"/>
			<input>
				<port id="0">
					<dim>1</dim>
					<dim>8</dim>
					<dim>1</dim>
					<dim>1</dim>
				</port>
				<port id="1"/>
				<port id="2"/>
				<port id="3"/>
				<port id="4"/>
			</input>
			<output>
				<port id="5" precision="FP32">
					<dim>1</dim>
					<dim>8</dim>
					<dim>1</dim>
					<dim>1</dim>
				</port>
			</output>
		</layer>
		<layer id="455" name="128512898037" type="Const" version="opset1">
			<data offset="2304" size="4" shape="" element_type="f32"/>
			<output>
				<port id="0" precision="FP32"/>
			</output>
		</layer>
		<layer id="456" name="128612909636" type="Const" version="opset1">
			<data offset="2304" size="4" shape="" element_type="f32"/>
			<output>
				<port id="0" precision="FP32"/>
			</output>
		</layer>
		<layer id="457" name="128712918334" type="Const" version="opset1">
			<data offset="2304" size="4" shape="" element_type="f32"/>
			<output>
				<port id="0" precision="FP32"/>
			</output>
		</layer>
		<layer id="458" name="128812928049" type="Const" version="opset1">
			<data offset="2304" size="4" shape="" element_type="f32"/>
			<output>
				<port id="0" precision="FP32"/>
			</output>
		</layer>
		<layer id="459" name="0.1.block.1.fc2.weight2119705" type="Const" version="opset1">
			<data offset="565572" size="512" shape="16,8,1,1" element_type="f32"/>
			<output>
				<port id="0" precision="FP32" names="0.1.block.1.fc2.weight">
					<dim>16</dim>
					<dim>8</dim>
					<dim>1</dim>
					<dim>1</dim>
				</port>
			</output>
		</layer>
		<layer id="460" name="Conv_12/WithoutBiases/fq_weights_1" type="FakeQuantize" version="opset1">
			<data levels="0" auto_broadcast="numpy"/>
			<input>
				<port id="0">
					<dim>16</dim>
					<dim>8</dim>
					<dim>1</dim>
					<dim>1</dim>
				</port>
				<port id="1"/>
				<port id="2"/>
				<port id="3"/>
				<port id="4"/>
			</input>
			<output>
				<port id="5" precision="FP32">
					<dim>16</dim>
					<dim>8</dim>
					<dim>1</dim>
					<dim>1</dim>
				</port>
			</output>
		</layer>
		<layer id="461" name="Conv_12/WithoutBiases" type="Convolution" version="opset1">
			<data auto_pad="explicit" strides="1,1" dilations="1,1" pads_begin="0,0" pads_end="0,0"/>
			<input>
				<port id="0">
					<dim>1</dim>
					<dim>8</dim>
					<dim>1</dim>
					<dim>1</dim>
				</port>
				<port id="1">
					<dim>16</dim>
					<dim>8</dim>
					<dim>1</dim>
					<dim>1</dim>
				</port>
			</input>
			<output>
				<port id="2" precision="FP32" names="255">
					<dim>1</dim>
					<dim>16</dim>
					<dim>1</dim>
					<dim>1</dim>
				</port>
			</output>
		</layer>
		<layer id="462" name="Conv_12/WithoutBiases/add_" type="Add" version="opset1">
			<data auto_broadcast="numpy"/>
			<input>
				<port id="0">
					<dim>1</dim>
					<dim>16</dim>
					<dim>1</dim>
					<dim>1</dim>
				</port>
				<port id="1">
					<dim>1</dim>
					<dim>16</dim>
					<dim>1</dim>
					<dim>1</dim>
				</port>
			</input>
			<output>
				<port id="2" precision="FP32">
					<dim>1</dim>
					<dim>16</dim>
					<dim>1</dim>
					<dim>1</dim>
				</port>
			</output>
		</layer>
		<layer id="463" name="HardSigmoid_13" type="HardSigmoid" version="opset1">
			<input>
				<port id="0">
					<dim>1</dim>
					<dim>16</dim>
					<dim>1</dim>
					<dim>1</dim>
				</port>
				<port id="1"/>
				<port id="2"/>
			</input>
			<output>
				<port id="3" precision="FP32" names="256">
					<dim>1</dim>
					<dim>16</dim>
					<dim>1</dim>
					<dim>1</dim>
				</port>
			</output>
		</layer>
		<layer id="464" name="Mul_14/fq_input_0" type="FakeQuantize" version="opset1">
			<data levels="0" auto_broadcast="numpy"/>
			<input>
				<port id="0">
					<dim>1</dim>
					<dim>16</dim>
					<dim>1</dim>
					<dim>1</dim>
				</port>
				<port id="1"/>
				<port id="2"/>
				<port id="3"/>
				<port id="4"/>
			</input>
			<output>
				<port id="5" precision="FP32">
					<dim>1</dim>
					<dim>16</dim>
					<dim>1</dim>
					<dim>1</dim>
				</port>
			</output>
		</layer>
		<layer id="465" name="Mul_14" type="Multiply" version="opset1">
			<data auto_broadcast="numpy"/>
			<input>
				<port id="0">
					<dim>1</dim>
					<dim>16</dim>
					<dim>1</dim>
					<dim>1</dim>
				</port>
				<port id="1">
					<dim>1</dim>
					<dim>16</dim>
					<dim>56</dim>
					<dim>56</dim>
				</port>
			</input>
			<output>
				<port id="2" precision="FP32" names="257">
					<dim>1</dim>
					<dim>16</dim>
					<dim>56</dim>
					<dim>56</dim>
				</port>
			</output>
		</layer>
		<layer id="466" name="Conv_15/WithoutBiases/fq_input_0" type="FakeQuantize" version="opset1">
			<data levels="0" auto_broadcast="numpy"/>
			<input>
				<port id="0">
					<dim>1</dim>
					<dim>16</dim>
					<dim>56</dim>
					<dim>56</dim>
				</port>
				<port id="1"/>
				<port id="2"/>
				<port id="3"/>
				<port id="4"/>
			</input>
			<output>
				<port id="5" precision="FP32">
					<dim>1</dim>
					<dim>16</dim>
					<dim>56</dim>
					<dim>56</dim>
				</port>
			</output>
		</layer>
		<layer id="467" name="211521199420" type="Const" version="opset1">
			<data offset="2304" size="4" shape="" element_type="f32"/>
			<output>
				<port id="0" precision="FP32"/>
			</output>
		</layer>
		<layer id="468" name="211621208577" type="Const" version="opset1">
			<data offset="2304" size="4" shape="" element_type="f32"/>
			<output>
				<port id="0" precision="FP32"/>
			</output>
		</layer>
		<layer id="469" name="211721219354" type="Const" version="opset1">
			<data offset="2304" size="4" shape="" element_type="f32"/>
			<output>
				<port id="0" precision="FP32"/>
			</output>
		</layer>
		<layer id="470" name="211821227992" type="Const" version="opset1">
			<data offset="2304" size="4" shape="" element_type="f32"/>
			<output>
				<port id="0" precision="FP32"/>
			</output>
		</layer>
		<layer id="471" name="4892179753" type="Const" version="opset1">
			<data offset="566084" size="1024" shape="16,16,1,1" element_type="f32"/>
			<output>
				<port id="0" precision="FP32" names="489">
					<dim>16</dim>
					<dim>16</dim>
					<dim>1</dim>
					<dim>1</dim>
				</port>
			</output>
		</layer>
		<layer id="472" name="Conv_15/WithoutBiases/fq_weights_1" type="FakeQuantize" version="opset1">
			<data levels="0" auto_broadcast="numpy"/>
			<input>
				<port id="0">
					<dim>16</dim>
					<dim>16</dim>
					<dim>1</dim>
					<dim>1</dim>
				</port>
				<port id="1"/>
				<port id="2"/>
				<port id="3"/>
				<port id="4"/>
			</input>
			<output>
				<port id="5" precision="FP32">
					<dim>16</dim>
					<dim>16</dim>
					<dim>1</dim>
					<dim>1</dim>
				</port>
			</output>
		</layer>
		<layer id="473" name="Conv_15/WithoutBiases" type="Convolution" version="opset1">
			<data auto_pad="explicit" strides="1,1" dilations="1,1" pads_begin="0,0" pads_end="0,0"/>
			<input>
				<port id="0">
					<dim>1</dim>
					<dim>16</dim>
					<dim>56</dim>
					<dim>56</dim>
				</port>
				<port id="1">
					<dim>16</dim>
					<dim>16</dim>
					<dim>1</dim>
					<dim>1</dim>
				</port>
			</input>
			<output>
				<port id="2" precision="FP32" names="488">
					<dim>1</dim>
					<dim>16</dim>
					<dim>56</dim>
					<dim>56</dim>
				</port>
			</output>
		</layer>
		<layer id="474" name="Conv_15/WithoutBiases/add_" type="Add" version="opset1">
			<data auto_broadcast="numpy"/>
			<input>
				<port id="0">
					<dim>1</dim>
					<dim>16</dim>
					<dim>56</dim>
					<dim>56</dim>
				</port>
				<port id="1">
					<dim>1</dim>
					<dim>16</dim>
					<dim>1</dim>
					<dim>1</dim>
				</port>
			</input>
			<output>
				<port id="2" precision="FP32">
					<dim>1</dim>
					<dim>16</dim>
					<dim>56</dim>
					<dim>56</dim>
				</port>
			</output>
		</layer>
		<layer id="475" name="Conv_16/WithoutBiases/fq_input_0" type="FakeQuantize" version="opset1">
			<data levels="0" auto_broadcast="numpy"/>
			<input>
				<port id="0">
					<dim>1</dim>
					<dim>16</dim>
					<dim>56</dim>
					<dim>56</dim>
				</port>
				<port id="1"/>
				<port id="2"/>
				<port id="3"/>
				<port id="4"/>
			</input>
			<output>
				<port id="5" precision="FP32">
					<dim>1</dim>
					<dim>16</dim>
					<dim>56</dim>
					<dim>56</dim>
				</port>
			</output>
		</layer>
		<layer id="476" name="224522499258" type="Const" version="opset1">
			<data offset="2304" size="4" shape="" element_type="f32"/>
			<output>
				<port id="0" precision="FP32"/>
			</output>
		</layer>
		<layer id="477" name="224622509648" type="Const" version="opset1">
			<data offset="2304" size="4" shape="" element_type="f32"/>
			<output>
				<port id="0" precision="FP32"/>
			</output>
		</layer>
		<layer id="478" name="224722518013" type="Const" version="opset1">
			<data offset="2304" size="4" shape="" element_type="f32"/>
			<output>
				<port id="0" precision="FP32"/>
			</output>
		</layer>
		<layer id="479" name="224822529117" type="Const" version="opset1">
			<data offset="2304" size="4" shape="" element_type="f32"/>
			<output>
				<port id="0" precision="FP32"/>
			</output>
		</layer>
		<layer id="480" name="4922198403" type="Const" version="opset1">
			<data offset="567108" size="4608" shape="72,16,1,1" element_type="f32"/>
			<output>
				<port id="0" precision="FP32" names="492">
					<dim>72</dim>
					<dim>16</dim>
					<dim>1</dim>
					<dim>1</dim>
				</port>
			</output>
		</layer>
		<layer id="481" name="Conv_16/WithoutBiases/fq_weights_1" type="FakeQuantize" version="opset1">
			<data levels="0" auto_broadcast="numpy"/>
			<input>
				<port id="0">
					<dim>72</dim>
					<dim>16</dim>
					<dim>1</dim>
					<dim>1</dim>
				</port>
				<port id="1"/>
				<port id="2"/>
				<port id="3"/>
				<port id="4"/>
			</input>
			<output>
				<port id="5" precision="FP32">
					<dim>72</dim>
					<dim>16</dim>
					<dim>1</dim>
					<dim>1</dim>
				</port>
			</output>
		</layer>
		<layer id="482" name="Conv_16/WithoutBiases" type="Convolution" version="opset1">
			<data auto_pad="explicit" strides="1,1" dilations="1,1" pads_begin="0,0" pads_end="0,0"/>
			<input>
				<port id="0">
					<dim>1</dim>
					<dim>16</dim>
					<dim>56</dim>
					<dim>56</dim>
				</port>
				<port id="1">
					<dim>72</dim>
					<dim>16</dim>
					<dim>1</dim>
					<dim>1</dim>
				</port>
			</input>
			<output>
				<port id="2" precision="FP32" names="491">
					<dim>1</dim>
					<dim>72</dim>
					<dim>56</dim>
					<dim>56</dim>
				</port>
			</output>
		</layer>
		<layer id="483" name="Conv_16/WithoutBiases/add_" type="Add" version="opset1">
			<data auto_broadcast="numpy"/>
			<input>
				<port id="0">
					<dim>1</dim>
					<dim>72</dim>
					<dim>56</dim>
					<dim>56</dim>
				</port>
				<port id="1">
					<dim>1</dim>
					<dim>72</dim>
					<dim>1</dim>
					<dim>1</dim>
				</port>
			</input>
			<output>
				<port id="2" precision="FP32">
					<dim>1</dim>
					<dim>72</dim>
					<dim>56</dim>
					<dim>56</dim>
				</port>
			</output>
		</layer>
		<layer id="484" name="Relu_17" type="ReLU" version="opset1">
			<input>
				<port id="0">
					<dim>1</dim>
					<dim>72</dim>
					<dim>56</dim>
					<dim>56</dim>
				</port>
			</input>
			<output>
				<port id="1" precision="FP32" names="262">
					<dim>1</dim>
					<dim>72</dim>
					<dim>56</dim>
					<dim>56</dim>
				</port>
			</output>
		</layer>
		<layer id="485" name="Conv_18/WithoutBiases/fq_input_0" type="FakeQuantize" version="opset1">
			<data levels="0" auto_broadcast="numpy"/>
			<input>
				<port id="0">
					<dim>1</dim>
					<dim>72</dim>
					<dim>56</dim>
					<dim>56</dim>
				</port>
				<port id="1"/>
				<port id="2"/>
				<port id="3"/>
				<port id="4"/>
			</input>
			<output>
				<port id="5" precision="FP32">
					<dim>1</dim>
					<dim>72</dim>
					<dim>56</dim>
					<dim>56</dim>
				</port>
			</output>
		</layer>
		<layer id="486" name="Conv_18/WithoutBiases/weights_shape64588718" type="Const" version="opset1">
			<data offset="571716" size="40" shape="5" element_type="i64"/>
			<output>
				<port id="0" precision="I64">
					<dim>5</dim>
				</port>
			</output>
		</layer>
		<layer id="487" name="143514398625" type="Const" version="opset1">
			<data offset="2304" size="4" shape="" element_type="f32"/>
			<output>
				<port id="0" precision="FP32"/>
			</output>
		</layer>
		<layer id="488" name="143614408325" type="Const" version="opset1">
			<data offset="2304" size="4" shape="" element_type="f32"/>
			<output>
				<port id="0" precision="FP32"/>
			</output>
		</layer>
		<layer id="489" name="143714419276" type="Const" version="opset1">
			<data offset="2304" size="4" shape="" element_type="f32"/>
			<output>
				<port id="0" precision="FP32"/>
			</output>
		</layer>
		<layer id="490" name="143814429657" type="Const" version="opset1">
			<data offset="2304" size="4" shape="" element_type="f32"/>
			<output>
				<port id="0" precision="FP32"/>
			</output>
		</layer>
		<layer id="491" name="Reshape_5172228478" type="Const" version="opset1">
			<data offset="571756" size="2592" shape="72,1,3,3" element_type="f32"/>
			<output>
				<port id="0" precision="FP32">
					<dim>72</dim>
					<dim>1</dim>
					<dim>3</dim>
					<dim>3</dim>
				</port>
			</output>
		</layer>
		<layer id="492" name="Conv_18/WithoutBiases/fq_weights_1" type="FakeQuantize" version="opset1">
			<data levels="0" auto_broadcast="numpy"/>
			<input>
				<port id="0">
					<dim>72</dim>
					<dim>1</dim>
					<dim>3</dim>
					<dim>3</dim>
				</port>
				<port id="1"/>
				<port id="2"/>
				<port id="3"/>
				<port id="4"/>
			</input>
			<output>
				<port id="5" precision="FP32">
					<dim>72</dim>
					<dim>1</dim>
					<dim>3</dim>
					<dim>3</dim>
				</port>
			</output>
		</layer>
		<layer id="493" name="6457" type="Reshape" version="opset1">
			<data special_zero="true"/>
			<input>
				<port id="0">
					<dim>72</dim>
					<dim>1</dim>
					<dim>3</dim>
					<dim>3</dim>
				</port>
				<port id="1">
					<dim>5</dim>
				</port>
			</input>
			<output>
				<port id="2" precision="FP32">
					<dim>72</dim>
					<dim>1</dim>
					<dim>1</dim>
					<dim>3</dim>
					<dim>3</dim>
				</port>
			</output>
		</layer>
		<layer id="494" name="Conv_18/WithoutBiases" type="GroupConvolution" version="opset1">
			<data auto_pad="explicit" strides="2,2" dilations="1,1" pads_begin="1,1" pads_end="1,1"/>
			<input>
				<port id="0">
					<dim>1</dim>
					<dim>72</dim>
					<dim>56</dim>
					<dim>56</dim>
				</port>
				<port id="1">
					<dim>72</dim>
					<dim>1</dim>
					<dim>1</dim>
					<dim>3</dim>
					<dim>3</dim>
				</port>
			</input>
			<output>
				<port id="2" precision="FP32" names="494">
					<dim>1</dim>
					<dim>72</dim>
					<dim>28</dim>
					<dim>28</dim>
				</port>
			</output>
		</layer>
		<layer id="495" name="Conv_18/WithoutBiases/add_" type="Add" version="opset1">
			<data auto_broadcast="numpy"/>
			<input>
				<port id="0">
					<dim>1</dim>
					<dim>72</dim>
					<dim>28</dim>
					<dim>28</dim>
				</port>
				<port id="1">
					<dim>1</dim>
					<dim>72</dim>
					<dim>1</dim>
					<dim>1</dim>
				</port>
			</input>
			<output>
				<port id="2" precision="FP32">
					<dim>1</dim>
					<dim>72</dim>
					<dim>28</dim>
					<dim>28</dim>
				</port>
			</output>
		</layer>
		<layer id="496" name="Relu_19" type="ReLU" version="opset1">
			<input>
				<port id="0">
					<dim>1</dim>
					<dim>72</dim>
					<dim>28</dim>
					<dim>28</dim>
				</port>
			</input>
			<output>
				<port id="1" precision="FP32" names="265">
					<dim>1</dim>
					<dim>72</dim>
					<dim>28</dim>
					<dim>28</dim>
				</port>
			</output>
		</layer>
		<layer id="497" name="Conv_20/WithoutBiases/fq_input_0" type="FakeQuantize" version="opset1">
			<data levels="0" auto_broadcast="numpy"/>
			<input>
				<port id="0">
					<dim>1</dim>
					<dim>72</dim>
					<dim>28</dim>
					<dim>28</dim>
				</port>
				<port id="1"/>
				<port id="2"/>
				<port id="3"/>
				<port id="4"/>
			</input>
			<output>
				<port id="5" precision="FP32">
					<dim>1</dim>
					<dim>72</dim>
					<dim>28</dim>
					<dim>28</dim>
				</port>
			</output>
		</layer>
		<layer id="498" name="241524199261" type="Const" version="opset1">
			<data offset="2304" size="4" shape="" element_type="f32"/>
			<output>
				<port id="0" precision="FP32"/>
			</output>
		</layer>
		<layer id="499" name="241624208661" type="Const" version="opset1">
			<data offset="2304" size="4" shape="" element_type="f32"/>
			<output>
				<port id="0" precision="FP32"/>
			</output>
		</layer>
		<layer id="500" name="241724218196" type="Const" version="opset1">
			<data offset="2304" size="4" shape="" element_type="f32"/>
			<output>
				<port id="0" precision="FP32"/>
			</output>
		</layer>
		<layer id="501" name="241824228058" type="Const" version="opset1">
			<data offset="2304" size="4" shape="" element_type="f32"/>
			<output>
				<port id="0" precision="FP32"/>
			</output>
		</layer>
		<layer id="502" name="4982258100" type="Const" version="opset1">
			<data offset="574348" size="6912" shape="24,72,1,1" element_type="f32"/>
			<output>
				<port id="0" precision="FP32" names="498">
					<dim>24</dim>
					<dim>72</dim>
					<dim>1</dim>
					<dim>1</dim>
				</port>
			</output>
		</layer>
		<layer id="503" name="Conv_20/WithoutBiases/fq_weights_1" type="FakeQuantize" version="opset1">
			<data levels="0" auto_broadcast="numpy"/>
			<input>
				<port id="0">
					<dim>24</dim>
					<dim>72</dim>
					<dim>1</dim>
					<dim>1</dim>
				</port>
				<port id="1"/>
				<port id="2"/>
				<port id="3"/>
				<port id="4"/>
			</input>
			<output>
				<port id="5" precision="FP32">
					<dim>24</dim>
					<dim>72</dim>
					<dim>1</dim>
					<dim>1</dim>
				</port>
			</output>
		</layer>
		<layer id="504" name="Conv_20/WithoutBiases" type="Convolution" version="opset1">
			<data auto_pad="explicit" strides="1,1" dilations="1,1" pads_begin="0,0" pads_end="0,0"/>
			<input>
				<port id="0">
					<dim>1</dim>
					<dim>72</dim>
					<dim>28</dim>
					<dim>28</dim>
				</port>
				<port id="1">
					<dim>24</dim>
					<dim>72</dim>
					<dim>1</dim>
					<dim>1</dim>
				</port>
			</input>
			<output>
				<port id="2" precision="FP32" names="497">
					<dim>1</dim>
					<dim>24</dim>
					<dim>28</dim>
					<dim>28</dim>
				</port>
			</output>
		</layer>
		<layer id="505" name="Conv_20/WithoutBiases/add_" type="Add" version="opset1">
			<data auto_broadcast="numpy"/>
			<input>
				<port id="0">
					<dim>1</dim>
					<dim>24</dim>
					<dim>28</dim>
					<dim>28</dim>
				</port>
				<port id="1">
					<dim>1</dim>
					<dim>24</dim>
					<dim>1</dim>
					<dim>1</dim>
				</port>
			</input>
			<output>
				<port id="2" precision="FP32">
					<dim>1</dim>
					<dim>24</dim>
					<dim>28</dim>
					<dim>28</dim>
				</port>
			</output>
		</layer>
		<layer id="506" name="Add_26/fq_input_1" type="FakeQuantize" version="opset1">
			<data levels="0" auto_broadcast="numpy"/>
			<input>
				<port id="0">
					<dim>1</dim>
					<dim>24</dim>
					<dim>28</dim>
					<dim>28</dim>
				</port>
				<port id="1"/>
				<port id="2"/>
				<port id="3"/>
				<port id="4"/>
			</input>
			<output>
				<port id="5" precision="FP32">
					<dim>1</dim>
					<dim>24</dim>
					<dim>28</dim>
					<dim>28</dim>
				</port>
			</output>
		</layer>
		<layer id="507" name="Conv_21/WithoutBiases" type="Convolution" version="opset1">
			<data auto_pad="explicit" strides="1,1" dilations="1,1" pads_begin="0,0" pads_end="0,0"/>
			<input>
				<port id="0">
					<dim>1</dim>
					<dim>24</dim>
					<dim>28</dim>
					<dim>28</dim>
				</port>
				<port id="1">
					<dim>88</dim>
					<dim>24</dim>
					<dim>1</dim>
					<dim>1</dim>
				</port>
			</input>
			<output>
				<port id="2" precision="FP32" names="500">
					<dim>1</dim>
					<dim>88</dim>
					<dim>28</dim>
					<dim>28</dim>
				</port>
			</output>
		</layer>
		<layer id="508" name="Conv_21/WithoutBiases/add_" type="Add" version="opset1">
			<data auto_broadcast="numpy"/>
			<input>
				<port id="0">
					<dim>1</dim>
					<dim>88</dim>
					<dim>28</dim>
					<dim>28</dim>
				</port>
				<port id="1">
					<dim>1</dim>
					<dim>88</dim>
					<dim>1</dim>
					<dim>1</dim>
				</port>
			</input>
			<output>
				<port id="2" precision="FP32">
					<dim>1</dim>
					<dim>88</dim>
					<dim>28</dim>
					<dim>28</dim>
				</port>
			</output>
		</layer>
		<layer id="509" name="Relu_22" type="ReLU" version="opset1">
			<input>
				<port id="0">
					<dim>1</dim>
					<dim>88</dim>
					<dim>28</dim>
					<dim>28</dim>
				</port>
			</input>
			<output>
				<port id="1" precision="FP32" names="270">
					<dim>1</dim>
					<dim>88</dim>
					<dim>28</dim>
					<dim>28</dim>
				</port>
			</output>
		</layer>
		<layer id="510" name="Conv_23/WithoutBiases/fq_input_0" type="FakeQuantize" version="opset1">
			<data levels="0" auto_broadcast="numpy"/>
			<input>
				<port id="0">
					<dim>1</dim>
					<dim>88</dim>
					<dim>28</dim>
					<dim>28</dim>
				</port>
				<port id="1"/>
				<port id="2"/>
				<port id="3"/>
				<port id="4"/>
			</input>
			<output>
				<port id="5" precision="FP32">
					<dim>1</dim>
					<dim>88</dim>
					<dim>28</dim>
					<dim>28</dim>
				</port>
			</output>
		</layer>
		<layer id="511" name="Conv_23/WithoutBiases/weights_shape64728949" type="Const" version="opset1">
			<data offset="581260" size="40" shape="5" element_type="i64"/>
			<output>
				<port id="0" precision="I64">
					<dim>5</dim>
				</port>
			</output>
		</layer>
		<layer id="512" name="237523799771" type="Const" version="opset1">
			<data offset="2304" size="4" shape="" element_type="f32"/>
			<output>
				<port id="0" precision="FP32"/>
			</output>
		</layer>
		<layer id="513" name="237623808175" type="Const" version="opset1">
			<data offset="2304" size="4" shape="" element_type="f32"/>
			<output>
				<port id="0" precision="FP32"/>
			</output>
		</layer>
		<layer id="514" name="237723818766" type="Const" version="opset1">
			<data offset="2304" size="4" shape="" element_type="f32"/>
			<output>
				<port id="0" precision="FP32"/>
			</output>
		</layer>
		<layer id="515" name="237823828697" type="Const" version="opset1">
			<data offset="2304" size="4" shape="" element_type="f32"/>
			<output>
				<port id="0" precision="FP32"/>
			</output>
		</layer>
		<layer id="516" name="Reshape_7362308919" type="Const" version="opset1">
			<data offset="581300" size="3168" shape="88,1,3,3" element_type="f32"/>
			<output>
				<port id="0" precision="FP32">
					<dim>88</dim>
					<dim>1</dim>
					<dim>3</dim>
					<dim>3</dim>
				</port>
			</output>
		</layer>
		<layer id="517" name="Conv_23/WithoutBiases/fq_weights_1" type="FakeQuantize" version="opset1">
			<data levels="0" auto_broadcast="numpy"/>
			<input>
				<port id="0">
					<dim>88</dim>
					<dim>1</dim>
					<dim>3</dim>
					<dim>3</dim>
				</port>
				<port id="1"/>
				<port id="2"/>
				<port id="3"/>
				<port id="4"/>
			</input>
			<output>
				<port id="5" precision="FP32">
					<dim>88</dim>
					<dim>1</dim>
					<dim>3</dim>
					<dim>3</dim>
				</port>
			</output>
		</layer>
		<layer id="518" name="6471" type="Reshape" version="opset1">
			<data special_zero="true"/>
			<input>
				<port id="0">
					<dim>88</dim>
					<dim>1</dim>
					<dim>3</dim>
					<dim>3</dim>
				</port>
				<port id="1">
					<dim>5</dim>
				</port>
			</input>
			<output>
				<port id="2" precision="FP32">
					<dim>88</dim>
					<dim>1</dim>
					<dim>1</dim>
					<dim>3</dim>
					<dim>3</dim>
				</port>
			</output>
		</layer>
		<layer id="519" name="Conv_23/WithoutBiases" type="GroupConvolution" version="opset1">
			<data auto_pad="explicit" strides="1,1" dilations="1,1" pads_begin="1,1" pads_end="1,1"/>
			<input>
				<port id="0">
					<dim>1</dim>
					<dim>88</dim>
					<dim>28</dim>
					<dim>28</dim>
				</port>
				<port id="1">
					<dim>88</dim>
					<dim>1</dim>
					<dim>1</dim>
					<dim>3</dim>
					<dim>3</dim>
				</port>
			</input>
			<output>
				<port id="2" precision="FP32" names="503">
					<dim>1</dim>
					<dim>88</dim>
					<dim>28</dim>
					<dim>28</dim>
				</port>
			</output>
		</layer>
		<layer id="520" name="Conv_23/WithoutBiases/add_" type="Add" version="opset1">
			<data auto_broadcast="numpy"/>
			<input>
				<port id="0">
					<dim>1</dim>
					<dim>88</dim>
					<dim>28</dim>
					<dim>28</dim>
				</port>
				<port id="1">
					<dim>1</dim>
					<dim>88</dim>
					<dim>1</dim>
					<dim>1</dim>
				</port>
			</input>
			<output>
				<port id="2" precision="FP32">
					<dim>1</dim>
					<dim>88</dim>
					<dim>28</dim>
					<dim>28</dim>
				</port>
			</output>
		</layer>
		<layer id="521" name="Relu_24" type="ReLU" version="opset1">
			<input>
				<port id="0">
					<dim>1</dim>
					<dim>88</dim>
					<dim>28</dim>
					<dim>28</dim>
				</port>
			</input>
			<output>
				<port id="1" precision="FP32" names="273">
					<dim>1</dim>
					<dim>88</dim>
					<dim>28</dim>
					<dim>28</dim>
				</port>
			</output>
		</layer>
		<layer id="522" name="Conv_25/WithoutBiases/fq_input_0" type="FakeQuantize" version="opset1">
			<data levels="0" auto_broadcast="numpy"/>
			<input>
				<port id="0">
					<dim>1</dim>
					<dim>88</dim>
					<dim>28</dim>
					<dim>28</dim>
				</port>
				<port id="1"/>
				<port id="2"/>
				<port id="3"/>
				<port id="4"/>
			</input>
			<output>
				<port id="5" precision="FP32">
					<dim>1</dim>
					<dim>88</dim>
					<dim>28</dim>
					<dim>28</dim>
				</port>
			</output>
		</layer>
		<layer id="523" name="187518798982" type="Const" version="opset1">
			<data offset="2304" size="4" shape="" element_type="f32"/>
			<output>
				<port id="0" precision="FP32"/>
			</output>
		</layer>
		<layer id="524" name="187618809801" type="Const" version="opset1">
			<data offset="2304" size="4" shape="" element_type="f32"/>
			<output>
				<port id="0" precision="FP32"/>
			</output>
		</layer>
		<layer id="525" name="187718819876" type="Const" version="opset1">
			<data offset="2304" size="4" shape="" element_type="f32"/>
			<output>
				<port id="0" precision="FP32"/>
			</output>
		</layer>
		<layer id="526" name="187818827953" type="Const" version="opset1">
			<data offset="2304" size="4" shape="" element_type="f32"/>
			<output>
				<port id="0" precision="FP32"/>
			</output>
		</layer>
		<layer id="527" name="5072338364" type="Const" version="opset1">
			<data offset="584468" size="8448" shape="24,88,1,1" element_type="f32"/>
			<output>
				<port id="0" precision="FP32" names="507">
					<dim>24</dim>
					<dim>88</dim>
					<dim>1</dim>
					<dim>1</dim>
				</port>
			</output>
		</layer>
		<layer id="528" name="Conv_25/WithoutBiases/fq_weights_1" type="FakeQuantize" version="opset1">
			<data levels="0" auto_broadcast="numpy"/>
			<input>
				<port id="0">
					<dim>24</dim>
					<dim>88</dim>
					<dim>1</dim>
					<dim>1</dim>
				</port>
				<port id="1"/>
				<port id="2"/>
				<port id="3"/>
				<port id="4"/>
			</input>
			<output>
				<port id="5" precision="FP32">
					<dim>24</dim>
					<dim>88</dim>
					<dim>1</dim>
					<dim>1</dim>
				</port>
			</output>
		</layer>
		<layer id="529" name="Conv_25/WithoutBiases" type="Convolution" version="opset1">
			<data auto_pad="explicit" strides="1,1" dilations="1,1" pads_begin="0,0" pads_end="0,0"/>
			<input>
				<port id="0">
					<dim>1</dim>
					<dim>88</dim>
					<dim>28</dim>
					<dim>28</dim>
				</port>
				<port id="1">
					<dim>24</dim>
					<dim>88</dim>
					<dim>1</dim>
					<dim>1</dim>
				</port>
			</input>
			<output>
				<port id="2" precision="FP32" names="506">
					<dim>1</dim>
					<dim>24</dim>
					<dim>28</dim>
					<dim>28</dim>
				</port>
			</output>
		</layer>
		<layer id="530" name="Conv_25/WithoutBiases/add_" type="Add" version="opset1">
			<data auto_broadcast="numpy"/>
			<input>
				<port id="0">
					<dim>1</dim>
					<dim>24</dim>
					<dim>28</dim>
					<dim>28</dim>
				</port>
				<port id="1">
					<dim>1</dim>
					<dim>24</dim>
					<dim>1</dim>
					<dim>1</dim>
				</port>
			</input>
			<output>
				<port id="2" precision="FP32">
					<dim>1</dim>
					<dim>24</dim>
					<dim>28</dim>
					<dim>28</dim>
				</port>
			</output>
		</layer>
		<layer id="531" name="Add_26/fq_input_0" type="FakeQuantize" version="opset1">
			<data levels="0" auto_broadcast="numpy"/>
			<input>
				<port id="0">
					<dim>1</dim>
					<dim>24</dim>
					<dim>28</dim>
					<dim>28</dim>
				</port>
				<port id="1"/>
				<port id="2"/>
				<port id="3"/>
				<port id="4"/>
			</input>
			<output>
				<port id="5" precision="FP32">
					<dim>1</dim>
					<dim>24</dim>
					<dim>28</dim>
					<dim>28</dim>
				</port>
			</output>
		</layer>
		<layer id="532" name="Add_26" type="Add" version="opset1">
			<data auto_broadcast="numpy"/>
			<input>
				<port id="0">
					<dim>1</dim>
					<dim>24</dim>
					<dim>28</dim>
					<dim>28</dim>
				</port>
				<port id="1">
					<dim>1</dim>
					<dim>24</dim>
					<dim>28</dim>
					<dim>28</dim>
				</port>
			</input>
			<output>
				<port id="2" precision="FP32" names="276">
					<dim>1</dim>
					<dim>24</dim>
					<dim>28</dim>
					<dim>28</dim>
				</port>
			</output>
		</layer>
		<layer id="533" name="Conv_27/WithoutBiases/fq_input_0" type="FakeQuantize" version="opset1">
			<data levels="0" auto_broadcast="numpy"/>
			<input>
				<port id="0">
					<dim>1</dim>
					<dim>24</dim>
					<dim>28</dim>
					<dim>28</dim>
				</port>
				<port id="1"/>
				<port id="2"/>
				<port id="3"/>
				<port id="4"/>
			</input>
			<output>
				<port id="5" precision="FP32">
					<dim>1</dim>
					<dim>24</dim>
					<dim>28</dim>
					<dim>28</dim>
				</port>
			</output>
		</layer>
		<layer id="534" name="109510998223" type="Const" version="opset1">
			<data offset="2304" size="4" shape="" element_type="f32"/>
			<output>
				<port id="0" precision="FP32"/>
			</output>
		</layer>
		<layer id="535" name="109611008895" type="Const" version="opset1">
			<data offset="2304" size="4" shape="" element_type="f32"/>
			<output>
				<port id="0" precision="FP32"/>
			</output>
		</layer>
		<layer id="536" name="109711019240" type="Const" version="opset1">
			<data offset="2304" size="4" shape="" element_type="f32"/>
			<output>
				<port id="0" precision="FP32"/>
			</output>
		</layer>
		<layer id="537" name="109811029582" type="Const" version="opset1">
			<data offset="2304" size="4" shape="" element_type="f32"/>
			<output>
				<port id="0" precision="FP32"/>
			</output>
		</layer>
		<layer id="538" name="5102368214" type="Const" version="opset1">
			<data offset="592916" size="9216" shape="96,24,1,1" element_type="f32"/>
			<output>
				<port id="0" precision="FP32" names="510">
					<dim>96</dim>
					<dim>24</dim>
					<dim>1</dim>
					<dim>1</dim>
				</port>
			</output>
		</layer>
		<layer id="539" name="Conv_27/WithoutBiases/fq_weights_1" type="FakeQuantize" version="opset1">
			<data levels="0" auto_broadcast="numpy"/>
			<input>
				<port id="0">
					<dim>96</dim>
					<dim>24</dim>
					<dim>1</dim>
					<dim>1</dim>
				</port>
				<port id="1"/>
				<port id="2"/>
				<port id="3"/>
				<port id="4"/>
			</input>
			<output>
				<port id="5" precision="FP32">
					<dim>96</dim>
					<dim>24</dim>
					<dim>1</dim>
					<dim>1</dim>
				</port>
			</output>
		</layer>
		<layer id="540" name="Conv_27/WithoutBiases" type="Convolution" version="opset1">
			<data auto_pad="explicit" strides="1,1" dilations="1,1" pads_begin="0,0" pads_end="0,0"/>
			<input>
				<port id="0">
					<dim>1</dim>
					<dim>24</dim>
					<dim>28</dim>
					<dim>28</dim>
				</port>
				<port id="1">
					<dim>96</dim>
					<dim>24</dim>
					<dim>1</dim>
					<dim>1</dim>
				</port>
			</input>
			<output>
				<port id="2" precision="FP32" names="509">
					<dim>1</dim>
					<dim>96</dim>
					<dim>28</dim>
					<dim>28</dim>
				</port>
			</output>
		</layer>
		<layer id="541" name="Conv_27/WithoutBiases/add_" type="Add" version="opset1">
			<data auto_broadcast="numpy"/>
			<input>
				<port id="0">
					<dim>1</dim>
					<dim>96</dim>
					<dim>28</dim>
					<dim>28</dim>
				</port>
				<port id="1">
					<dim>1</dim>
					<dim>96</dim>
					<dim>1</dim>
					<dim>1</dim>
				</port>
			</input>
			<output>
				<port id="2" precision="FP32">
					<dim>1</dim>
					<dim>96</dim>
					<dim>28</dim>
					<dim>28</dim>
				</port>
			</output>
		</layer>
		<layer id="542" name="Mul_33" type="HSwish" version="opset4">
			<input>
				<port id="0">
					<dim>1</dim>
					<dim>96</dim>
					<dim>28</dim>
					<dim>28</dim>
				</port>
			</input>
			<output>
				<port id="1" precision="FP32" names="284">
					<dim>1</dim>
					<dim>96</dim>
					<dim>28</dim>
					<dim>28</dim>
				</port>
			</output>
		</layer>
		<layer id="543" name="Conv_34/WithoutBiases/fq_input_0" type="FakeQuantize" version="opset1">
			<data levels="0" auto_broadcast="numpy"/>
			<input>
				<port id="0">
					<dim>1</dim>
					<dim>96</dim>
					<dim>28</dim>
					<dim>28</dim>
				</port>
				<port id="1"/>
				<port id="2"/>
				<port id="3"/>
				<port id="4"/>
			</input>
			<output>
				<port id="5" precision="FP32">
					<dim>1</dim>
					<dim>96</dim>
					<dim>28</dim>
					<dim>28</dim>
				</port>
			</output>
		</layer>
		<layer id="544" name="Conv_34/WithoutBiases/weights_shape64869372" type="Const" version="opset1">
			<data offset="602132" size="40" shape="5" element_type="i64"/>
			<output>
				<port id="0" precision="I64">
					<dim>5</dim>
				</port>
			</output>
		</layer>
		<layer id="545" name="213521398985" type="Const" version="opset1">
			<data offset="2304" size="4" shape="" element_type="f32"/>
			<output>
				<port id="0" precision="FP32"/>
			</output>
		</layer>
		<layer id="546" name="213621409594" type="Const" version="opset1">
			<data offset="2304" size="4" shape="" element_type="f32"/>
			<output>
				<port id="0" precision="FP32"/>
			</output>
		</layer>
		<layer id="547" name="213721418139" type="Const" version="opset1">
			<data offset="2304" size="4" shape="" element_type="f32"/>
			<output>
				<port id="0" precision="FP32"/>
			</output>
		</layer>
		<layer id="548" name="213821429690" type="Const" version="opset1">
			<data offset="2304" size="4" shape="" element_type="f32"/>
			<output>
				<port id="0" precision="FP32"/>
			</output>
		</layer>
		<layer id="549" name="Reshape_9612398631" type="Const" version="opset1">
			<data offset="602172" size="9600" shape="96,1,5,5" element_type="f32"/>
			<output>
				<port id="0" precision="FP32">
					<dim>96</dim>
					<dim>1</dim>
					<dim>5</dim>
					<dim>5</dim>
				</port>
			</output>
		</layer>
		<layer id="550" name="Conv_34/WithoutBiases/fq_weights_1" type="FakeQuantize" version="opset1">
			<data levels="0" auto_broadcast="numpy"/>
			<input>
				<port id="0">
					<dim>96</dim>
					<dim>1</dim>
					<dim>5</dim>
					<dim>5</dim>
				</port>
				<port id="1"/>
				<port id="2"/>
				<port id="3"/>
				<port id="4"/>
			</input>
			<output>
				<port id="5" precision="FP32">
					<dim>96</dim>
					<dim>1</dim>
					<dim>5</dim>
					<dim>5</dim>
				</port>
			</output>
		</layer>
		<layer id="551" name="6485" type="Reshape" version="opset1">
			<data special_zero="true"/>
			<input>
				<port id="0">
					<dim>96</dim>
					<dim>1</dim>
					<dim>5</dim>
					<dim>5</dim>
				</port>
				<port id="1">
					<dim>5</dim>
				</port>
			</input>
			<output>
				<port id="2" precision="FP32">
					<dim>96</dim>
					<dim>1</dim>
					<dim>1</dim>
					<dim>5</dim>
					<dim>5</dim>
				</port>
			</output>
		</layer>
		<layer id="552" name="Conv_34/WithoutBiases" type="GroupConvolution" version="opset1">
			<data auto_pad="explicit" strides="2,2" dilations="1,1" pads_begin="2,2" pads_end="2,2"/>
			<input>
				<port id="0">
					<dim>1</dim>
					<dim>96</dim>
					<dim>28</dim>
					<dim>28</dim>
				</port>
				<port id="1">
					<dim>96</dim>
					<dim>1</dim>
					<dim>1</dim>
					<dim>5</dim>
					<dim>5</dim>
				</port>
			</input>
			<output>
				<port id="2" precision="FP32" names="512">
					<dim>1</dim>
					<dim>96</dim>
					<dim>14</dim>
					<dim>14</dim>
				</port>
			</output>
		</layer>
		<layer id="553" name="Conv_34/WithoutBiases/add_" type="Add" version="opset1">
			<data auto_broadcast="numpy"/>
			<input>
				<port id="0">
					<dim>1</dim>
					<dim>96</dim>
					<dim>14</dim>
					<dim>14</dim>
				</port>
				<port id="1">
					<dim>1</dim>
					<dim>96</dim>
					<dim>1</dim>
					<dim>1</dim>
				</port>
			</input>
			<output>
				<port id="2" precision="FP32">
					<dim>1</dim>
					<dim>96</dim>
					<dim>14</dim>
					<dim>14</dim>
				</port>
			</output>
		</layer>
		<layer id="554" name="Mul_40" type="HSwish" version="opset4">
			<input>
				<port id="0">
					<dim>1</dim>
					<dim>96</dim>
					<dim>14</dim>
					<dim>14</dim>
				</port>
			</input>
			<output>
				<port id="1" precision="FP32" names="292">
					<dim>1</dim>
					<dim>96</dim>
					<dim>14</dim>
					<dim>14</dim>
				</port>
			</output>
		</layer>
		<layer id="555" name="GlobalAveragePool_41/fq_input_0" type="FakeQuantize" version="opset1">
			<data levels="0" auto_broadcast="numpy"/>
			<input>
				<port id="0">
					<dim>1</dim>
					<dim>96</dim>
					<dim>14</dim>
					<dim>14</dim>
				</port>
				<port id="1"/>
				<port id="2"/>
				<port id="3"/>
				<port id="4"/>
			</input>
			<output>
				<port id="5" precision="FP32">
					<dim>1</dim>
					<dim>96</dim>
					<dim>14</dim>
					<dim>14</dim>
				</port>
			</output>
		</layer>
		<layer id="556" name="GlobalAveragePool_41" type="ReduceMean" version="opset1">
			<data keep_dims="true"/>
			<input>
				<port id="0">
					<dim>1</dim>
					<dim>96</dim>
					<dim>14</dim>
					<dim>14</dim>
				</port>
				<port id="1">
					<dim>2</dim>
				</port>
			</input>
			<output>
				<port id="2" precision="FP32" names="293">
					<dim>1</dim>
					<dim>96</dim>
					<dim>1</dim>
					<dim>1</dim>
				</port>
			</output>
		</layer>
		<layer id="557" name="Conv_42/WithoutBiases/fq_input_0" type="FakeQuantize" version="opset1">
			<data levels="0" auto_broadcast="numpy"/>
			<input>
				<port id="0">
					<dim>1</dim>
					<dim>96</dim>
					<dim>1</dim>
					<dim>1</dim>
				</port>
				<port id="1"/>
				<port id="2"/>
				<port id="3"/>
				<port id="4"/>
			</input>
			<output>
				<port id="5" precision="FP32">
					<dim>1</dim>
					<dim>96</dim>
					<dim>1</dim>
					<dim>1</dim>
				</port>
			</output>
		</layer>
		<layer id="558" name="105510598829" type="Const" version="opset1">
			<data offset="2304" size="4" shape="" element_type="f32"/>
			<output>
				<port id="0" precision="FP32"/>
			</output>
		</layer>
		<layer id="559" name="105610608337" type="Const" version="opset1">
			<data offset="2304" size="4" shape="" element_type="f32"/>
			<output>
				<port id="0" precision="FP32"/>
			</output>
		</layer>
		<layer id="560" name="105710618460" type="Const" version="opset1">
			<data offset="2304" size="4" shape="" element_type="f32"/>
			<output>
				<port id="0" precision="FP32"/>
			</output>
		</layer>
		<layer id="561" name="105810629288" type="Const" version="opset1">
			<data offset="2304" size="4" shape="" element_type="f32"/>
			<output>
				<port id="0" precision="FP32"/>
			</output>
		</layer>
		<layer id="562" name="0.4.block.2.fc1.weight2448619" type="Const" version="opset1">
			<data offset="611772" size="9216" shape="24,96,1,1" element_type="f32"/>
			<output>
				<port id="0" precision="FP32" names="0.4.block.2.fc1.weight">
					<dim>24</dim>
					<dim>96</dim>
					<dim>1</dim>
					<dim>1</dim>
				</port>
			</output>
		</layer>
		<layer id="563" name="Conv_42/WithoutBiases/fq_weights_1" type="FakeQuantize" version="opset1">
			<data levels="0" auto_broadcast="numpy"/>
			<input>
				<port id="0">
					<dim>24</dim>
					<dim>96</dim>
					<dim>1</dim>
					<dim>1</dim>
				</port>
				<port id="1"/>
				<port id="2"/>
				<port id="3"/>
				<port id="4"/>
			</input>
			<output>
				<port id="5" precision="FP32">
					<dim>24</dim>
					<dim>96</dim>
					<dim>1</dim>
					<dim>1</dim>
				</port>
			</output>
		</layer>
		<layer id="564" name="Conv_42/WithoutBiases" type="Convolution" version="opset1">
			<data auto_pad="explicit" strides="1,1" dilations="1,1" pads_begin="0,0" pads_end="0,0"/>
			<input>
				<port id="0">
					<dim>1</dim>
					<dim>96</dim>
					<dim>1</dim>
					<dim>1</dim>
				</port>
				<port id="1">
					<dim>24</dim>
					<dim>96</dim>
					<dim>1</dim>
					<dim>1</dim>
				</port>
			</input>
			<output>
				<port id="2" precision="FP32" names="294">
					<dim>1</dim>
					<dim>24</dim>
					<dim>1</dim>
					<dim>1</dim>
				</port>
			</output>
		</layer>
		<layer id="565" name="Conv_42/WithoutBiases/add_" type="Add" version="opset1">
			<data auto_broadcast="numpy"/>
			<input>
				<port id="0">
					<dim>1</dim>
					<dim>24</dim>
					<dim>1</dim>
					<dim>1</dim>
				</port>
				<port id="1">
					<dim>1</dim>
					<dim>24</dim>
					<dim>1</dim>
					<dim>1</dim>
				</port>
			</input>
			<output>
				<port id="2" precision="FP32">
					<dim>1</dim>
					<dim>24</dim>
					<dim>1</dim>
					<dim>1</dim>
				</port>
			</output>
		</layer>
		<layer id="566" name="Relu_43" type="ReLU" version="opset1">
			<input>
				<port id="0">
					<dim>1</dim>
					<dim>24</dim>
					<dim>1</dim>
					<dim>1</dim>
				</port>
			</input>
			<output>
				<port id="1" precision="FP32" names="295">
					<dim>1</dim>
					<dim>24</dim>
					<dim>1</dim>
					<dim>1</dim>
				</port>
			</output>
		</layer>
		<layer id="567" name="Conv_44/WithoutBiases/fq_input_0" type="FakeQuantize" version="opset1">
			<data levels="0" auto_broadcast="numpy"/>
			<input>
				<port id="0">
					<dim>1</dim>
					<dim>24</dim>
					<dim>1</dim>
					<dim>1</dim>
				</port>
				<port id="1"/>
				<port id="2"/>
				<port id="3"/>
				<port id="4"/>
			</input>
			<output>
				<port id="5" precision="FP32">
					<dim>1</dim>
					<dim>24</dim>
					<dim>1</dim>
					<dim>1</dim>
				</port>
			</output>
		</layer>
		<layer id="568" name="239523999738" type="Const" version="opset1">
			<data offset="2304" size="4" shape="" element_type="f32"/>
			<output>
				<port id="0" precision="FP32"/>
			</output>
		</layer>
		<layer id="569" name="239624008457" type="Const" version="opset1">
			<data offset="2304" size="4" shape="" element_type="f32"/>
			<output>
				<port id="0" precision="FP32"/>
			</output>
		</layer>
		<layer id="570" name="239724018409" type="Const" version="opset1">
			<data offset="2304" size="4" shape="" element_type="f32"/>
			<output>
				<port id="0" precision="FP32"/>
			</output>
		</layer>
		<layer id="571" name="239824029003" type="Const" version="opset1">
			<data offset="2304" size="4" shape="" element_type="f32"/>
			<output>
				<port id="0" precision="FP32"/>
			</output>
		</layer>
		<layer id="572" name="0.4.block.2.fc2.weight2478856" type="Const" version="opset1">
			<data offset="620988" size="9216" shape="96,24,1,1" element_type="f32"/>
			<output>
				<port id="0" precision="FP32" names="0.4.block.2.fc2.weight">
					<dim>96</dim>
					<dim>24</dim>
					<dim>1</dim>
					<dim>1</dim>
				</port>
			</output>
		</layer>
		<layer id="573" name="Conv_44/WithoutBiases/fq_weights_1" type="FakeQuantize" version="opset1">
			<data levels="0" auto_broadcast="numpy"/>
			<input>
				<port id="0">
					<dim>96</dim>
					<dim>24</dim>
					<dim>1</dim>
					<dim>1</dim>
				</port>
				<port id="1"/>
				<port id="2"/>
				<port id="3"/>
				<port id="4"/>
			</input>
			<output>
				<port id="5" precision="FP32">
					<dim>96</dim>
					<dim>24</dim>
					<dim>1</dim>
					<dim>1</dim>
				</port>
			</output>
		</layer>
		<layer id="574" name="Conv_44/WithoutBiases" type="Convolution" version="opset1">
			<data auto_pad="explicit" strides="1,1" dilations="1,1" pads_begin="0,0" pads_end="0,0"/>
			<input>
				<port id="0">
					<dim>1</dim>
					<dim>24</dim>
					<dim>1</dim>
					<dim>1</dim>
				</port>
				<port id="1">
					<dim>96</dim>
					<dim>24</dim>
					<dim>1</dim>
					<dim>1</dim>
				</port>
			</input>
			<output>
				<port id="2" precision="FP32" names="296">
					<dim>1</dim>
					<dim>96</dim>
…
		<edge from-layer="329" from-port="0" to-layer="555" to-port="1"/>
		<edge from-layer="330" from-port="0" to-layer="555" to-port="2"/>
		<edge from-layer="331" from-port="0" to-layer="555" to-port="3"/>
		<edge from-layer="332" from-port="0" to-layer="555" to-port="4"/>
		<edge from-layer="555" from-port="5" to-layer="556" to-port="0"/>
		<edge from-layer="328" from-port="0" to-layer="556" to-port="1"/>
		<edge from-layer="556" from-port="2" to-layer="557" to-port="0"/>
		<edge from-layer="324" from-port="0" to-layer="557" to-port="1"/>
		<edge from-layer="325" from-port="0" to-layer="557" to-port="2"/>
		<edge from-layer="326" from-port="0" to-layer="557" to-port="3"/>
		<edge from-layer="327" from-port="0" to-layer="557" to-port="4"/>
		<edge from-layer="562" from-port="0" to-layer="563" to-port="0"/>
		<edge from-layer="558" from-port="0" to-layer="563" to-port="1"/>
		<edge from-layer="559" from-port="0" to-layer="563" to-port="2"/>
		<edge from-layer="560" from-port="0" to-layer="563" to-port="3"/>
		<edge from-layer="561" from-port="0" to-layer="563" to-port="4"/>
		<edge from-layer="557" from-port="5" to-layer="564" to-port="0"/>
		<edge from-layer="563" from-port="5" to-layer="564" to-port="1"/>
		<edge from-layer="564" from-port="2" to-layer="565" to-port="0"/>
		<edge from-layer="323" from-port="0" to-layer="565" to-port="1"/>
		<edge from-layer="565" from-port="2" to-layer="566" to-port="0"/>
		<edge from-layer="566" from-port="1" to-layer="567" to-port="0"/>
		<edge from-layer="319" from-port="0" to-layer="567" to-port="1"/>
		<edge from-layer="320" from-port="0" to-layer="567" to-port="2"/>
		<edge from-layer="321" from-port="0" to-layer="567" to-port="3"/>
		<edge from-layer="322" from-port="0" to-layer="567" to-port="4"/>
		<edge from-layer="572" from-port="0" to-layer="573" to-port="0"/>
		<edge from-layer="568" from-port="0" to-layer="573" to-port="1"/>
		<edge from-layer="569" from-port="0" to-layer="573" to-port="2"/>
		<edge from-layer="570" from-port="0" to-layer="573" to-port="3"/>
		<edge from-layer="571" from-port="0" to-layer="573" to-port="4"/>
		<edge from-layer="567" from-port="5" to-layer="574" to-port="0"/>
		<edge from-layer="573" from-port="5" to-layer="574" to-port="1"/>
		<edge from-layer="574" from-port="2" to-layer="575" to-port="0"/>
		<edge from-layer="318" from-port="0" to-layer="575" to-port="1"/>
		<edge from-layer="575" from-port="2" to-layer="576" to-port="0"/>
		<edge from-layer="316" from-port="0" to-layer="576" to-port="1"/>
		<edge from-layer="317" from-port="0" to-layer="576" to-port="2"/>
		<edge from-layer="576" from-port="3" to-layer="577" to-port="0"/>
		<edge from-layer="312" from-port="0" to-layer="577" to-port="1"/>
		<edge from-layer="313" from-port="0" to-layer="577" to-port="2"/>
		<edge from-layer="314" from-port="0" to-layer="577" to-port="3"/>
		<edge from-layer="315" from-port="0" to-layer="577" to-port="4"/>
		<edge from-layer="577" from-port="5" to-layer="578" to-port="0"/>
		<edge from-layer="555" from-port="5" to-layer="578" to-port="1"/>
		<edge from-layer="578" from-port="2" to-layer="579" to-port="0"/>
		<edge from-layer="308" from-port="0" to-layer="579" to-port="1"/>
		<edge from-layer="309" from-port="0" to-layer="579" to-port="2"/>
		<edge from-layer="310" from-port="0" to-layer="579" to-port="3"/>
		<edge from-layer="311" from-port="0" to-layer="579" to-port="4"/>
		<edge from-layer="584" from-port="0" to-layer="585" to-port="0"/>
		<edge from-layer="580" from-port="0" to-layer="585" to-port="1"/>
		<edge from-layer="581" from-port="0" to-layer="585" to-port="2"/>
		<edge from-layer="582" from-port="0" to-layer="585" to-port="3"/>
		<edge from-layer="583" from-port="0" to-layer="585" to-port="4"/>
		<edge from-layer="579" from-port="5" to-layer="586" to-port="0"/>
		<edge from-layer="585" from-port="5" to-layer="586" to-port="1"/>
		<edge from-layer="586" from-port="2" to-layer="587" to-port="0"/>
		<edge from-layer="307" from-port="0" to-layer="587" to-port="1"/>
		<edge from-layer="587" from-port="2" to-layer="588" to-port="0"/>
		<edge from-layer="303" from-port="0" to-layer="588" to-port="1"/>
		<edge from-layer="304" from-port="0" to-layer="588" to-port="2"/>
		<edge from-layer="305" from-port="0" to-layer="588" to-port="3"/>
		<edge from-layer="306" from-port="0" to-layer="588" to-port="4"/>
		<edge from-layer="588" from-port="5" to-layer="589" to-port="0"/>
		<edge from-layer="302" from-port="5" to-layer="589" to-port="1"/>
		<edge from-layer="589" from-port="2" to-layer="590" to-port="0"/>
		<edge from-layer="296" from-port="0" to-layer="590" to-port="1"/>
		<edge from-layer="590" from-port="2" to-layer="591" to-port="0"/>
		<edge from-layer="591" from-port="1" to-layer="592" to-port="0"/>
		<edge from-layer="292" from-port="0" to-layer="592" to-port="1"/>
		<edge from-layer="293" from-port="0" to-layer="592" to-port="2"/>
		<edge from-layer="294" from-port="0" to-layer="592" to-port="3"/>
		<edge from-layer="295" from-port="0" to-layer="592" to-port="4"/>
		<edge from-layer="598" from-port="0" to-layer="599" to-port="0"/>
		<edge from-layer="594" from-port="0" to-layer="599" to-port="1"/>
		<edge from-layer="595" from-port="0" to-layer="599" to-port="2"/>
		<edge from-layer="596" from-port="0" to-layer="599" to-port="3"/>
		<edge from-layer="597" from-port="0" to-layer="599" to-port="4"/>
		<edge from-layer="599" from-port="5" to-layer="600" to-port="0"/>
		<edge from-layer="593" from-port="0" to-layer="600" to-port="1"/>
		<edge from-layer="592" from-port="5" to-layer="601" to-port="0"/>
		<edge from-layer="600" from-port="2" to-layer="601" to-port="1"/>
		<edge from-layer="601" from-port="2" to-layer="602" to-port="0"/>
		<edge from-layer="291" from-port="0" to-layer="602" to-port="1"/>
		<edge from-layer="602" from-port="2" to-layer="603" to-port="0"/>
		<edge from-layer="603" from-port="1" to-layer="604" to-port="0"/>
		<edge from-layer="287" from-port="0" to-layer="604" to-port="1"/>
		<edge from-layer="288" from-port="0" to-layer="604" to-port="2"/>
		<edge from-layer="289" from-port="0" to-layer="604" to-port="3"/>
		<edge from-layer="290" from-port="0" to-layer="604" to-port="4"/>
		<edge from-layer="604" from-port="5" to-layer="605" to-port="0"/>
		<edge from-layer="286" from-port="0" to-layer="605" to-port="1"/>
		<edge from-layer="605" from-port="2" to-layer="606" to-port="0"/>
		<edge from-layer="282" from-port="0" to-layer="606" to-port="1"/>
		<edge from-layer="283" from-port="0" to-layer="606" to-port="2"/>
		<edge from-layer="284" from-port="0" to-layer="606" to-port="3"/>
		<edge from-layer="285" from-port="0" to-layer="606" to-port="4"/>
		<edge from-layer="611" from-port="0" to-layer="612" to-port="0"/>
		<edge from-layer="607" from-port="0" to-layer="612" to-port="1"/>
		<edge from-layer="608" from-port="0" to-layer="612" to-port="2"/>
		<edge from-layer="609" from-port="0" to-layer="612" to-port="3"/>
		<edge from-layer="610" from-port="0" to-layer="612" to-port="4"/>
		<edge from-layer="606" from-port="5" to-layer="613" to-port="0"/>
		<edge from-layer="612" from-port="5" to-layer="613" to-port="1"/>
		<edge from-layer="613" from-port="2" to-layer="614" to-port="0"/>
		<edge from-layer="281" from-port="0" to-layer="614" to-port="1"/>
		<edge from-layer="614" from-port="2" to-layer="615" to-port="0"/>
		<edge from-layer="615" from-port="1" to-layer="616" to-port="0"/>
		<edge from-layer="277" from-port="0" to-layer="616" to-port="1"/>
		<edge from-layer="278" from-port="0" to-layer="616" to-port="2"/>
		<edge from-layer="279" from-port="0" to-layer="616" to-port="3"/>
		<edge from-layer="280" from-port="0" to-layer="616" to-port="4"/>
		<edge from-layer="621" from-port="0" to-layer="622" to-port="0"/>
		<edge from-layer="617" from-port="0" to-layer="622" to-port="1"/>
		<edge from-layer="618" from-port="0" to-layer="622" to-port="2"/>
		<edge from-layer="619" from-port="0" to-layer="622" to-port="3"/>
		<edge from-layer="620" from-port="0" to-layer="622" to-port="4"/>
		<edge from-layer="616" from-port="5" to-layer="623" to-port="0"/>
		<edge from-layer="622" from-port="5" to-layer="623" to-port="1"/>
		<edge from-layer="623" from-port="2" to-layer="624" to-port="0"/>
		<edge from-layer="276" from-port="0" to-layer="624" to-port="1"/>
		<edge from-layer="624" from-port="2" to-layer="625" to-port="0"/>
		<edge from-layer="274" from-port="0" to-layer="625" to-port="1"/>
		<edge from-layer="275" from-port="0" to-layer="625" to-port="2"/>
		<edge from-layer="625" from-port="3" to-layer="626" to-port="0"/>
		<edge from-layer="270" from-port="0" to-layer="626" to-port="1"/>
		<edge from-layer="271" from-port="0" to-layer="626" to-port="2"/>
		<edge from-layer="272" from-port="0" to-layer="626" to-port="3"/>
		<edge from-layer="273" from-port="0" to-layer="626" to-port="4"/>
		<edge from-layer="626" from-port="5" to-layer="627" to-port="0"/>
		<edge from-layer="604" from-port="5" to-layer="627" to-port="1"/>
		<edge from-layer="627" from-port="2" to-layer="628" to-port="0"/>
		<edge from-layer="266" from-port="0" to-layer="628" to-port="1"/>
		<edge from-layer="267" from-port="0" to-layer="628" to-port="2"/>
		<edge from-layer="268" from-port="0" to-layer="628" to-port="3"/>
		<edge from-layer="269" from-port="0" to-layer="628" to-port="4"/>
		<edge from-layer="633" from-port="0" to-layer="634" to-port="0"/>
		<edge from-layer="629" from-port="0" to-layer="634" to-port="1"/>
		<edge from-layer="630" from-port="0" to-layer="634" to-port="2"/>
		<edge from-layer="631" from-port="0" to-layer="634" to-port="3"/>
		<edge from-layer="632" from-port="0" to-layer="634" to-port="4"/>
		<edge from-layer="628" from-port="5" to-layer="635" to-port="0"/>
		<edge from-layer="634" from-port="5" to-layer="635" to-port="1"/>
		<edge from-layer="635" from-port="2" to-layer="636" to-port="0"/>
		<edge from-layer="265" from-port="0" to-layer="636" to-port="1"/>
		<edge from-layer="636" from-port="2" to-layer="637" to-port="0"/>
		<edge from-layer="261" from-port="0" to-layer="637" to-port="1"/>
		<edge from-layer="262" from-port="0" to-layer="637" to-port="2"/>
		<edge from-layer="263" from-port="0" to-layer="637" to-port="3"/>
		<edge from-layer="264" from-port="0" to-layer="637" to-port="4"/>
		<edge from-layer="637" from-port="5" to-layer="638" to-port="0"/>
		<edge from-layer="588" from-port="5" to-layer="638" to-port="1"/>
		<edge from-layer="638" from-port="2" to-layer="639" to-port="0"/>
		<edge from-layer="257" from-port="0" to-layer="639" to-port="1"/>
		<edge from-layer="258" from-port="0" to-layer="639" to-port="2"/>
		<edge from-layer="259" from-port="0" to-layer="639" to-port="3"/>
		<edge from-layer="260" from-port="0" to-layer="639" to-port="4"/>
		<edge from-layer="639" from-port="5" to-layer="640" to-port="0"/>
		<edge from-layer="256" from-port="5" to-layer="640" to-port="1"/>
		<edge from-layer="640" from-port="2" to-layer="641" to-port="0"/>
		<edge from-layer="250" from-port="0" to-layer="641" to-port="1"/>
		<edge from-layer="641" from-port="2" to-layer="642" to-port="0"/>
		<edge from-layer="642" from-port="1" to-layer="643" to-port="0"/>
		<edge from-layer="246" from-port="0" to-layer="643" to-port="1"/>
		<edge from-layer="247" from-port="0" to-layer="643" to-port="2"/>
		<edge from-layer="248" from-port="0" to-layer="643" to-port="3"/>
		<edge from-layer="249" from-port="0" to-layer="643" to-port="4"/>
		<edge from-layer="649" from-port="0" to-layer="650" to-port="0"/>
		<edge from-layer="645" from-port="0" to-layer="650" to-port="1"/>
		<edge from-layer="646" from-port="0" to-layer="650" to-port="2"/>
		<edge from-layer="647" from-port="0" to-layer="650" to-port="3"/>
		<edge from-layer="648" from-port="0" to-layer="650" to-port="4"/>
		<edge from-layer="650" from-port="5" to-layer="651" to-port="0"/>
		<edge from-layer="644" from-port="0" to-layer="651" to-port="1"/>
		<edge from-layer="643" from-port="5" to-layer="652" to-port="0"/>
		<edge from-layer="651" from-port="2" to-layer="652" to-port="1"/>
		<edge from-layer="652" from-port="2" to-layer="653" to-port="0"/>
		<edge from-layer="245" from-port="0" to-layer="653" to-port="1"/>
		<edge from-layer="653" from-port="2" to-layer="654" to-port="0"/>
		<edge from-layer="654" from-port="1" to-layer="655" to-port="0"/>
		<edge from-layer="241" from-port="0" to-layer="655" to-port="1"/>
		<edge from-layer="242" from-port="0" to-layer="655" to-port="2"/>
		<edge from-layer="243" from-port="0" to-layer="655" to-port="3"/>
		<edge from-layer="244" from-port="0" to-layer="655" to-port="4"/>
		<edge from-layer="655" from-port="5" to-layer="656" to-port="0"/>
		<edge from-layer="240" from-port="0" to-layer="656" to-port="1"/>
		<edge from-layer="656" from-port="2" to-layer="657" to-port="0"/>
		<edge from-layer="236" from-port="0" to-layer="657" to-port="1"/>
		<edge from-layer="237" from-port="0" to-layer="657" to-port="2"/>
		<edge from-layer="238" from-port="0" to-layer="657" to-port="3"/>
		<edge from-layer="239" from-port="0" to-layer="657" to-port="4"/>
		<edge from-layer="662" from-port="0" to-layer="663" to-port="0"/>
		<edge from-layer="658" from-port="0" to-layer="663" to-port="1"/>
		<edge from-layer="659" from-port="0" to-layer="663" to-port="2"/>
		<edge from-layer="660" from-port="0" to-layer="663" to-port="3"/>
		<edge from-layer="661" from-port="0" to-layer="663" to-port="4"/>
		<edge from-layer="657" from-port="5" to-layer="664" to-port="0"/>
		<edge from-layer="663" from-port="5" to-layer="664" to-port="1"/>
		<edge from-layer="664" from-port="2" to-layer="665" to-port="0"/>
		<edge from-layer="235" from-port="0" to-layer="665" to-port="1"/>
		<edge from-layer="665" from-port="2" to-layer="666" to-port="0"/>
		<edge from-layer="666" from-port="1" to-layer="667" to-port="0"/>
		<edge from-layer="231" from-port="0" to-layer="667" to-port="1"/>
		<edge from-layer="232" from-port="0" to-layer="667" to-port="2"/>
		<edge from-layer="233" from-port="0" to-layer="667" to-port="3"/>
		<edge from-layer="234" from-port="0" to-layer="667" to-port="4"/>
		<edge from-layer="672" from-port="0" to-layer="673" to-port="0"/>
		<edge from-layer="668" from-port="0" to-layer="673" to-port="1"/>
		<edge from-layer="669" from-port="0" to-layer="673" to-port="2"/>
		<edge from-layer="670" from-port="0" to-layer="673" to-port="3"/>
		<edge from-layer="671" from-port="0" to-layer="673" to-port="4"/>
		<edge from-layer="667" from-port="5" to-layer="674" to-port="0"/>
		<edge from-layer="673" from-port="5" to-layer="674" to-port="1"/>
		<edge from-layer="674" from-port="2" to-layer="675" to-port="0"/>
		<edge from-layer="230" from-port="0" to-layer="675" to-port="1"/>
		<edge from-layer="675" from-port="2" to-layer="676" to-port="0"/>
		<edge from-layer="228" from-port="0" to-layer="676" to-port="1"/>
		<edge from-layer="229" from-port="0" to-layer="676" to-port="2"/>
		<edge from-layer="676" from-port="3" to-layer="677" to-port="0"/>
		<edge from-layer="224" from-port="0" to-layer="677" to-port="1"/>
		<edge from-layer="225" from-port="0" to-layer="677" to-port="2"/>
		<edge from-layer="226" from-port="0" to-layer="677" to-port="3"/>
		<edge from-layer="227" from-port="0" to-layer="677" to-port="4"/>
		<edge from-layer="677" from-port="5" to-layer="678" to-port="0"/>
		<edge from-layer="655" from-port="5" to-layer="678" to-port="1"/>
		<edge from-layer="678" from-port="2" to-layer="679" to-port="0"/>
		<edge from-layer="220" from-port="0" to-layer="679" to-port="1"/>
		<edge from-layer="221" from-port="0" to-layer="679" to-port="2"/>
		<edge from-layer="222" from-port="0" to-layer="679" to-port="3"/>
		<edge from-layer="223" from-port="0" to-layer="679" to-port="4"/>
		<edge from-layer="684" from-port="0" to-layer="685" to-port="0"/>
		<edge from-layer="680" from-port="0" to-layer="685" to-port="1"/>
		<edge from-layer="681" from-port="0" to-layer="685" to-port="2"/>
		<edge from-layer="682" from-port="0" to-layer="685" to-port="3"/>
		<edge from-layer="683" from-port="0" to-layer="685" to-port="4"/>
		<edge from-layer="679" from-port="5" to-layer="686" to-port="0"/>
		<edge from-layer="685" from-port="5" to-layer="686" to-port="1"/>
		<edge from-layer="686" from-port="2" to-layer="687" to-port="0"/>
		<edge from-layer="219" from-port="0" to-layer="687" to-port="1"/>
		<edge from-layer="687" from-port="2" to-layer="688" to-port="0"/>
		<edge from-layer="215" from-port="0" to-layer="688" to-port="1"/>
		<edge from-layer="216" from-port="0" to-layer="688" to-port="2"/>
		<edge from-layer="217" from-port="0" to-layer="688" to-port="3"/>
		<edge from-layer="218" from-port="0" to-layer="688" to-port="4"/>
		<edge from-layer="688" from-port="5" to-layer="689" to-port="0"/>
		<edge from-layer="639" from-port="5" to-layer="689" to-port="1"/>
		<edge from-layer="689" from-port="2" to-layer="690" to-port="0"/>
		<edge from-layer="211" from-port="0" to-layer="690" to-port="1"/>
		<edge from-layer="212" from-port="0" to-layer="690" to-port="2"/>
		<edge from-layer="213" from-port="0" to-layer="690" to-port="3"/>
		<edge from-layer="214" from-port="0" to-layer="690" to-port="4"/>
		<edge from-layer="695" from-port="0" to-layer="696" to-port="0"/>
		<edge from-layer="691" from-port="0" to-layer="696" to-port="1"/>
		<edge from-layer="692" from-port="0" to-layer="696" to-port="2"/>
		<edge from-layer="693" from-port="0" to-layer="696" to-port="3"/>
		<edge from-layer="694" from-port="0" to-layer="696" to-port="4"/>
		<edge from-layer="690" from-port="5" to-layer="697" to-port="0"/>
		<edge from-layer="696" from-port="5" to-layer="697" to-port="1"/>
		<edge from-layer="697" from-port="2" to-layer="698" to-port="0"/>
		<edge from-layer="210" from-port="0" to-layer="698" to-port="1"/>
		<edge from-layer="698" from-port="2" to-layer="699" to-port="0"/>
		<edge from-layer="699" from-port="1" to-layer="700" to-port="0"/>
		<edge from-layer="206" from-port="0" to-layer="700" to-port="1"/>
		<edge from-layer="207" from-port="0" to-layer="700" to-port="2"/>
		<edge from-layer="208" from-port="0" to-layer="700" to-port="3"/>
		<edge from-layer="209" from-port="0" to-layer="700" to-port="4"/>
		<edge from-layer="706" from-port="0" to-layer="707" to-port="0"/>
		<edge from-layer="702" from-port="0" to-layer="707" to-port="1"/>
		<edge from-layer="703" from-port="0" to-layer="707" to-port="2"/>
		<edge from-layer="704" from-port="0" to-layer="707" to-port="3"/>
		<edge from-layer="705" from-port="0" to-layer="707" to-port="4"/>
		<edge from-layer="707" from-port="5" to-layer="708" to-port="0"/>
		<edge from-layer="701" from-port="0" to-layer="708" to-port="1"/>
		<edge from-layer="700" from-port="5" to-layer="709" to-port="0"/>
		<edge from-layer="708" from-port="2" to-layer="709" to-port="1"/>
		<edge from-layer="709" from-port="2" to-layer="710" to-port="0"/>
		<edge from-layer="205" from-port="0" to-layer="710" to-port="1"/>
		<edge from-layer="710" from-port="2" to-layer="711" to-port="0"/>
		<edge from-layer="711" from-port="1" to-layer="712" to-port="0"/>
		<edge from-layer="201" from-port="0" to-layer="712" to-port="1"/>
		<edge from-layer="202" from-port="0" to-layer="712" to-port="2"/>
		<edge from-layer="203" from-port="0" to-layer="712" to-port="3"/>
		<edge from-layer="204" from-port="0" to-layer="712" to-port="4"/>
		<edge from-layer="712" from-port="5" to-layer="713" to-port="0"/>
		<edge from-layer="200" from-port="0" to-layer="713" to-port="1"/>
		<edge from-layer="713" from-port="2" to-layer="714" to-port="0"/>
		<edge from-layer="196" from-port="0" to-layer="714" to-port="1"/>
		<edge from-layer="197" from-port="0" to-layer="714" to-port="2"/>
		<edge from-layer="198" from-port="0" to-layer="714" to-port="3"/>
		<edge from-layer="199" from-port="0" to-layer="714" to-port="4"/>
		<edge from-layer="719" from-port="0" to-layer="720" to-port="0"/>
		<edge from-layer="715" from-port="0" to-layer="720" to-port="1"/>
		<edge from-layer="716" from-port="0" to-layer="720" to-port="2"/>
		<edge from-layer="717" from-port="0" to-layer="720" to-port="3"/>
		<edge from-layer="718" from-port="0" to-layer="720" to-port="4"/>
		<edge from-layer="714" from-port="5" to-layer="721" to-port="0"/>
		<edge from-layer="720" from-port="5" to-layer="721" to-port="1"/>
		<edge from-layer="721" from-port="2" to-layer="722" to-port="0"/>
		<edge from-layer="195" from-port="0" to-layer="722" to-port="1"/>
		<edge from-layer="722" from-port="2" to-layer="723" to-port="0"/>
		<edge from-layer="723" from-port="1" to-layer="724" to-port="0"/>
		<edge from-layer="191" from-port="0" to-layer="724" to-port="1"/>
		<edge from-layer="192" from-port="0" to-layer="724" to-port="2"/>
		<edge from-layer="193" from-port="0" to-layer="724" to-port="3"/>
		<edge from-layer="194" from-port="0" to-layer="724" to-port="4"/>
		<edge from-layer="729" from-port="0" to-layer="730" to-port="0"/>
		<edge from-layer="725" from-port="0" to-layer="730" to-port="1"/>
		<edge from-layer="726" from-port="0" to-layer="730" to-port="2"/>
		<edge from-layer="727" from-port="0" to-layer="730" to-port="3"/>
		<edge from-layer="728" from-port="0" to-layer="730" to-port="4"/>
		<edge from-layer="724" from-port="5" to-layer="731" to-port="0"/>
		<edge from-layer="730" from-port="5" to-layer="731" to-port="1"/>
		<edge from-layer="731" from-port="2" to-layer="732" to-port="0"/>
		<edge from-layer="190" from-port="0" to-layer="732" to-port="1"/>
		<edge from-layer="732" from-port="2" to-layer="733" to-port="0"/>
		<edge from-layer="188" from-port="0" to-layer="733" to-port="1"/>
		<edge from-layer="189" from-port="0" to-layer="733" to-port="2"/>
		<edge from-layer="733" from-port="3" to-layer="734" to-port="0"/>
		<edge from-layer="184" from-port="0" to-layer="734" to-port="1"/>
		<edge from-layer="185" from-port="0" to-layer="734" to-port="2"/>
		<edge from-layer="186" from-port="0" to-layer="734" to-port="3"/>
		<edge from-layer="187" from-port="0" to-layer="734" to-port="4"/>
		<edge from-layer="734" from-port="5" to-layer="735" to-port="0"/>
		<edge from-layer="712" from-port="5" to-layer="735" to-port="1"/>
		<edge from-layer="735" from-port="2" to-layer="736" to-port="0"/>
		<edge from-layer="180" from-port="0" to-layer="736" to-port="1"/>
		<edge from-layer="181" from-port="0" to-layer="736" to-port="2"/>
		<edge from-layer="182" from-port="0" to-layer="736" to-port="3"/>
		<edge from-layer="183" from-port="0" to-layer="736" to-port="4"/>
		<edge from-layer="741" from-port="0" to-layer="742" to-port="0"/>
		<edge from-layer="737" from-port="0" to-layer="742" to-port="1"/>
		<edge from-layer="738" from-port="0" to-layer="742" to-port="2"/>
		<edge from-layer="739" from-port="0" to-layer="742" to-port="3"/>
		<edge from-layer="740" from-port="0" to-layer="742" to-port="4"/>
		<edge from-layer="736" from-port="5" to-layer="743" to-port="0"/>
		<edge from-layer="742" from-port="5" to-layer="743" to-port="1"/>
		<edge from-layer="743" from-port="2" to-layer="744" to-port="0"/>
		<edge from-layer="179" from-port="0" to-layer="744" to-port="1"/>
		<edge from-layer="744" from-port="2" to-layer="745" to-port="0"/>
		<edge from-layer="175" from-port="0" to-layer="745" to-port="1"/>
		<edge from-layer="176" from-port="0" to-layer="745" to-port="2"/>
		<edge from-layer="177" from-port="0" to-layer="745" to-port="3"/>
		<edge from-layer="178" from-port="0" to-layer="745" to-port="4"/>
		<edge from-layer="745" from-port="5" to-layer="746" to-port="0"/>
		<edge from-layer="174" from-port="5" to-layer="746" to-port="1"/>
		<edge from-layer="746" from-port="2" to-layer="747" to-port="0"/>
		<edge from-layer="168" from-port="0" to-layer="747" to-port="1"/>
		<edge from-layer="747" from-port="2" to-layer="748" to-port="0"/>
		<edge from-layer="748" from-port="1" to-layer="749" to-port="0"/>
		<edge from-layer="164" from-port="0" to-layer="749" to-port="1"/>
		<edge from-layer="165" from-port="0" to-layer="749" to-port="2"/>
		<edge from-layer="166" from-port="0" to-layer="749" to-port="3"/>
		<edge from-layer="167" from-port="0" to-layer="749" to-port="4"/>
		<edge from-layer="755" from-port="0" to-layer="756" to-port="0"/>
		<edge from-layer="751" from-port="0" to-layer="756" to-port="1"/>
		<edge from-layer="752" from-port="0" to-layer="756" to-port="2"/>
		<edge from-layer="753" from-port="0" to-layer="756" to-port="3"/>
		<edge from-layer="754" from-port="0" to-layer="756" to-port="4"/>
		<edge from-layer="756" from-port="5" to-layer="757" to-port="0"/>
		<edge from-layer="750" from-port="0" to-layer="757" to-port="1"/>
		<edge from-layer="749" from-port="5" to-layer="758" to-port="0"/>
		<edge from-layer="757" from-port="2" to-layer="758" to-port="1"/>
		<edge from-layer="758" from-port="2" to-layer="759" to-port="0"/>
		<edge from-layer="163" from-port="0" to-layer="759" to-port="1"/>
		<edge from-layer="759" from-port="2" to-layer="760" to-port="0"/>
		<edge from-layer="760" from-port="1" to-layer="761" to-port="0"/>
		<edge from-layer="159" from-port="0" to-layer="761" to-port="1"/>
		<edge from-layer="160" from-port="0" to-layer="761" to-port="2"/>
		<edge from-layer="161" from-port="0" to-layer="761" to-port="3"/>
		<edge from-layer="162" from-port="0" to-layer="761" to-port="4"/>
		<edge from-layer="761" from-port="5" to-layer="762" to-port="0"/>
		<edge from-layer="158" from-port="0" to-layer="762" to-port="1"/>
		<edge from-layer="762" from-port="2" to-layer="763" to-port="0"/>
		<edge from-layer="154" from-port="0" to-layer="763" to-port="1"/>
		<edge from-layer="155" from-port="0" to-layer="763" to-port="2"/>
		<edge from-layer="156" from-port="0" to-layer="763" to-port="3"/>
		<edge from-layer="157" from-port="0" to-layer="763" to-port="4"/>
		<edge from-layer="768" from-port="0" to-layer="769" to-port="0"/>
		<edge from-layer="764" from-port="0" to-layer="769" to-port="1"/>
		<edge from-layer="765" from-port="0" to-layer="769" to-port="2"/>
		<edge from-layer="766" from-port="0" to-layer="769" to-port="3"/>
		<edge from-layer="767" from-port="0" to-layer="769" to-port="4"/>
		<edge from-layer="763" from-port="5" to-layer="770" to-port="0"/>
		<edge from-layer="769" from-port="5" to-layer="770" to-port="1"/>
		<edge from-layer="770" from-port="2" to-layer="771" to-port="0"/>
		<edge from-layer="153" from-port="0" to-layer="771" to-port="1"/>
		<edge from-layer="771" from-port="2" to-layer="772" to-port="0"/>
		<edge from-layer="772" from-port="1" to-layer="773" to-port="0"/>
		<edge from-layer="149" from-port="0" to-layer="773" to-port="1"/>
		<edge from-layer="150" from-port="0" to-layer="773" to-port="2"/>
		<edge from-layer="151" from-port="0" to-layer="773" to-port="3"/>
		<edge from-layer="152" from-port="0" to-layer="773" to-port="4"/>
		<edge from-layer="778" from-port="0" to-layer="779" to-port="0"/>
		<edge from-layer="774" from-port="0" to-layer="779" to-port="1"/>
		<edge from-layer="775" from-port="0" to-layer="779" to-port="2"/>
		<edge from-layer="776" from-port="0" to-layer="779" to-port="3"/>
		<edge from-layer="777" from-port="0" to-layer="779" to-port="4"/>
		<edge from-layer="773" from-port="5" to-layer="780" to-port="0"/>
		<edge from-layer="779" from-port="5" to-layer="780" to-port="1"/>
		<edge from-layer="780" from-port="2" to-layer="781" to-port="0"/>
		<edge from-layer="148" from-port="0" to-layer="781" to-port="1"/>
		<edge from-layer="781" from-port="2" to-layer="782" to-port="0"/>
		<edge from-layer="146" from-port="0" to-layer="782" to-port="1"/>
		<edge from-layer="147" from-port="0" to-layer="782" to-port="2"/>
		<edge from-layer="782" from-port="3" to-layer="783" to-port="0"/>
		<edge from-layer="142" from-port="0" to-layer="783" to-port="1"/>
		<edge from-layer="143" from-port="0" to-layer="783" to-port="2"/>
		<edge from-layer="144" from-port="0" to-layer="783" to-port="3"/>
		<edge from-layer="145" from-port="0" to-layer="783" to-port="4"/>
		<edge from-layer="783" from-port="5" to-layer="784" to-port="0"/>
		<edge from-layer="761" from-port="5" to-layer="784" to-port="1"/>
		<edge from-layer="784" from-port="2" to-layer="785" to-port="0"/>
		<edge from-layer="138" from-port="0" to-layer="785" to-port="1"/>
		<edge from-layer="139" from-port="0" to-layer="785" to-port="2"/>
		<edge from-layer="140" from-port="0" to-layer="785" to-port="3"/>
		<edge from-layer="141" from-port="0" to-layer="785" to-port="4"/>
		<edge from-layer="790" from-port="0" to-layer="791" to-port="0"/>
		<edge from-layer="786" from-port="0" to-layer="791" to-port="1"/>
		<edge from-layer="787" from-port="0" to-layer="791" to-port="2"/>
		<edge from-layer="788" from-port="0" to-layer="791" to-port="3"/>
		<edge from-layer="789" from-port="0" to-layer="791" to-port="4"/>
		<edge from-layer="785" from-port="5" to-layer="792" to-port="0"/>
		<edge from-layer="791" from-port="5" to-layer="792" to-port="1"/>
		<edge from-layer="792" from-port="2" to-layer="793" to-port="0"/>
		<edge from-layer="137" from-port="0" to-layer="793" to-port="1"/>
		<edge from-layer="793" from-port="2" to-layer="794" to-port="0"/>
		<edge from-layer="133" from-port="0" to-layer="794" to-port="1"/>
		<edge from-layer="134" from-port="0" to-layer="794" to-port="2"/>
		<edge from-layer="135" from-port="0" to-layer="794" to-port="3"/>
		<edge from-layer="136" from-port="0" to-layer="794" to-port="4"/>
		<edge from-layer="794" from-port="5" to-layer="795" to-port="0"/>
		<edge from-layer="745" from-port="5" to-layer="795" to-port="1"/>
		<edge from-layer="795" from-port="2" to-layer="796" to-port="0"/>
		<edge from-layer="129" from-port="0" to-layer="796" to-port="1"/>
		<edge from-layer="130" from-port="0" to-layer="796" to-port="2"/>
		<edge from-layer="131" from-port="0" to-layer="796" to-port="3"/>
		<edge from-layer="132" from-port="0" to-layer="796" to-port="4"/>
		<edge from-layer="801" from-port="0" to-layer="802" to-port="0"/>
		<edge from-layer="797" from-port="0" to-layer="802" to-port="1"/>
		<edge from-layer="798" from-port="0" to-layer="802" to-port="2"/>
		<edge from-layer="799" from-port="0" to-layer="802" to-port="3"/>
		<edge from-layer="800" from-port="0" to-layer="802" to-port="4"/>
		<edge from-layer="796" from-port="5" to-layer="803" to-port="0"/>
		<edge from-layer="802" from-port="5" to-layer="803" to-port="1"/>
		<edge from-layer="803" from-port="2" to-layer="804" to-port="0"/>
		<edge from-layer="128" from-port="0" to-layer="804" to-port="1"/>
		<edge from-layer="804" from-port="2" to-layer="805" to-port="0"/>
		<edge from-layer="805" from-port="1" to-layer="806" to-port="0"/>
		<edge from-layer="124" from-port="0" to-layer="806" to-port="1"/>
		<edge from-layer="125" from-port="0" to-layer="806" to-port="2"/>
		<edge from-layer="126" from-port="0" to-layer="806" to-port="3"/>
		<edge from-layer="127" from-port="0" to-layer="806" to-port="4"/>
		<edge from-layer="812" from-port="0" to-layer="813" to-port="0"/>
		<edge from-layer="808" from-port="0" to-layer="813" to-port="1"/>
		<edge from-layer="809" from-port="0" to-layer="813" to-port="2"/>
		<edge from-layer="810" from-port="0" to-layer="813" to-port="3"/>
		<edge from-layer="811" from-port="0" to-layer="813" to-port="4"/>
		<edge from-layer="813" from-port="5" to-layer="814" to-port="0"/>
		<edge from-layer="807" from-port="0" to-layer="814" to-port="1"/>
		<edge from-layer="806" from-port="5" to-layer="815" to-port="0"/>
		<edge from-layer="814" from-port="2" to-layer="815" to-port="1"/>
		<edge from-layer="815" from-port="2" to-layer="816" to-port="0"/>
		<edge from-layer="123" from-port="0" to-layer="816" to-port="1"/>
		<edge from-layer="816" from-port="2" to-layer="817" to-port="0"/>
		<edge from-layer="817" from-port="1" to-layer="818" to-port="0"/>
		<edge from-layer="119" from-port="0" to-layer="818" to-port="1"/>
		<edge from-layer="120" from-port="0" to-layer="818" to-port="2"/>
		<edge from-layer="121" from-port="0" to-layer="818" to-port="3"/>
		<edge from-layer="122" from-port="0" to-layer="818" to-port="4"/>
		<edge from-layer="818" from-port="5" to-layer="819" to-port="0"/>
		<edge from-layer="118" from-port="0" to-layer="819" to-port="1"/>
		<edge from-layer="819" from-port="2" to-layer="820" to-port="0"/>
		<edge from-layer="114" from-port="0" to-layer="820" to-port="1"/>
		<edge from-layer="115" from-port="0" to-layer="820" to-port="2"/>
		<edge from-layer="116" from-port="0" to-layer="820" to-port="3"/>
		<edge from-layer="117" from-port="0" to-layer="820" to-port="4"/>
		<edge from-layer="825" from-port="0" to-layer="826" to-port="0"/>
		<edge from-layer="821" from-port="0" to-layer="826" to-port="1"/>
		<edge from-layer="822" from-port="0" to-layer="826" to-port="2"/>
		<edge from-layer="823" from-port="0" to-layer="826" to-port="3"/>
		<edge from-layer="824" from-port="0" to-layer="826" to-port="4"/>
		<edge from-layer="820" from-port="5" to-layer="827" to-port="0"/>
		<edge from-layer="826" from-port="5" to-layer="827" to-port="1"/>
		<edge from-layer="827" from-port="2" to-layer="828" to-port="0"/>
		<edge from-layer="113" from-port="0" to-layer="828" to-port="1"/>
		<edge from-layer="828" from-port="2" to-layer="829" to-port="0"/>
		<edge from-layer="829" from-port="1" to-layer="830" to-port="0"/>
		<edge from-layer="109" from-port="0" to-layer="830" to-port="1"/>
		<edge from-layer="110" from-port="0" to-layer="830" to-port="2"/>
		<edge from-layer="111" from-port="0" to-layer="830" to-port="3"/>
		<edge from-layer="112" from-port="0" to-layer="830" to-port="4"/>
		<edge from-layer="835" from-port="0" to-layer="836" to-port="0"/>
		<edge from-layer="831" from-port="0" to-layer="836" to-port="1"/>
		<edge from-layer="832" from-port="0" to-layer="836" to-port="2"/>
		<edge from-layer="833" from-port="0" to-layer="836" to-port="3"/>
		<edge from-layer="834" from-port="0" to-layer="836" to-port="4"/>
		<edge from-layer="830" from-port="5" to-layer="837" to-port="0"/>
		<edge from-layer="836" from-port="5" to-layer="837" to-port="1"/>
		<edge from-layer="837" from-port="2" to-layer="838" to-port="0"/>
		<edge from-layer="108" from-port="0" to-layer="838" to-port="1"/>
		<edge from-layer="838" from-port="2" to-layer="839" to-port="0"/>
		<edge from-layer="106" from-port="0" to-layer="839" to-port="1"/>
		<edge from-layer="107" from-port="0" to-layer="839" to-port="2"/>
		<edge from-layer="839" from-port="3" to-layer="840" to-port="0"/>
		<edge from-layer="102" from-port="0" to-layer="840" to-port="1"/>
		<edge from-layer="103" from-port="0" to-layer="840" to-port="2"/>
		<edge from-layer="104" from-port="0" to-layer="840" to-port="3"/>
		<edge from-layer="105" from-port="0" to-layer="840" to-port="4"/>
		<edge from-layer="840" from-port="5" to-layer="841" to-port="0"/>
		<edge from-layer="818" from-port="5" to-layer="841" to-port="1"/>
		<edge from-layer="841" from-port="2" to-layer="842" to-port="0"/>
		<edge from-layer="98" from-port="0" to-layer="842" to-port="1"/>
		<edge from-layer="99" from-port="0" to-layer="842" to-port="2"/>
		<edge from-layer="100" from-port="0" to-layer="842" to-port="3"/>
		<edge from-layer="101" from-port="0" to-layer="842" to-port="4"/>
		<edge from-layer="847" from-port="0" to-layer="848" to-port="0"/>
		<edge from-layer="843" from-port="0" to-layer="848" to-port="1"/>
		<edge from-layer="844" from-port="0" to-layer="848" to-port="2"/>
		<edge from-layer="845" from-port="0" to-layer="848" to-port="3"/>
		<edge from-layer="846" from-port="0" to-layer="848" to-port="4"/>
		<edge from-layer="842" from-port="5" to-layer="849" to-port="0"/>
		<edge from-layer="848" from-port="5" to-layer="849" to-port="1"/>
		<edge from-layer="849" from-port="2" to-layer="850" to-port="0"/>
		<edge from-layer="97" from-port="0" to-layer="850" to-port="1"/>
		<edge from-layer="850" from-port="2" to-layer="851" to-port="0"/>
		<edge from-layer="93" from-port="0" to-layer="851" to-port="1"/>
		<edge from-layer="94" from-port="0" to-layer="851" to-port="2"/>
		<edge from-layer="95" from-port="0" to-layer="851" to-port="3"/>
		<edge from-layer="96" from-port="0" to-layer="851" to-port="4"/>
		<edge from-layer="851" from-port="5" to-layer="852" to-port="0"/>
		<edge from-layer="92" from-port="5" to-layer="852" to-port="1"/>
		<edge from-layer="852" from-port="2" to-layer="853" to-port="0"/>
		<edge from-layer="86" from-port="0" to-layer="853" to-port="1"/>
		<edge from-layer="853" from-port="2" to-layer="854" to-port="0"/>
		<edge from-layer="854" from-port="1" to-layer="855" to-port="0"/>
		<edge from-layer="82" from-port="0" to-layer="855" to-port="1"/>
		<edge from-layer="83" from-port="0" to-layer="855" to-port="2"/>
		<edge from-layer="84" from-port="0" to-layer="855" to-port="3"/>
		<edge from-layer="85" from-port="0" to-layer="855" to-port="4"/>
		<edge from-layer="861" from-port="0" to-layer="862" to-port="0"/>
		<edge from-layer="857" from-port="0" to-layer="862" to-port="1"/>
		<edge from-layer="858" from-port="0" to-layer="862" to-port="2"/>
		<edge from-layer="859" from-port="0" to-layer="862" to-port="3"/>
		<edge from-layer="860" from-port="0" to-layer="862" to-port="4"/>
		<edge from-layer="862" from-port="5" to-layer="863" to-port="0"/>
		<edge from-layer="856" from-port="0" to-layer="863" to-port="1"/>
		<edge from-layer="855" from-port="5" to-layer="864" to-port="0"/>
		<edge from-layer="863" from-port="2" to-layer="864" to-port="1"/>
		<edge from-layer="864" from-port="2" to-layer="865" to-port="0"/>
		<edge from-layer="81" from-port="0" to-layer="865" to-port="1"/>
		<edge from-layer="865" from-port="2" to-layer="866" to-port="0"/>
		<edge from-layer="866" from-port="1" to-layer="867" to-port="0"/>
		<edge from-layer="77" from-port="0" to-layer="867" to-port="1"/>
		<edge from-layer="78" from-port="0" to-layer="867" to-port="2"/>
		<edge from-layer="79" from-port="0" to-layer="867" to-port="3"/>
		<edge from-layer="80" from-port="0" to-layer="867" to-port="4"/>
		<edge from-layer="867" from-port="5" to-layer="868" to-port="0"/>
		<edge from-layer="76" from-port="0" to-layer="868" to-port="1"/>
		<edge from-layer="868" from-port="2" to-layer="869" to-port="0"/>
		<edge from-layer="72" from-port="0" to-layer="869" to-port="1"/>
		<edge from-layer="73" from-port="0" to-layer="869" to-port="2"/>
		<edge from-layer="74" from-port="0" to-layer="869" to-port="3"/>
		<edge from-layer="75" from-port="0" to-layer="869" to-port="4"/>
		<edge from-layer="874" from-port="0" to-layer="875" to-port="0"/>
		<edge from-layer="870" from-port="0" to-layer="875" to-port="1"/>
		<edge from-layer="871" from-port="0" to-layer="875" to-port="2"/>
		<edge from-layer="872" from-port="0" to-layer="875" to-port="3"/>
		<edge from-layer="873" from-port="0" to-layer="875" to-port="4"/>
		<edge from-layer="869" from-port="5" to-layer="876" to-port="0"/>
		<edge from-layer="875" from-port="5" to-layer="876" to-port="1"/>
		<edge from-layer="876" from-port="2" to-layer="877" to-port="0"/>
		<edge from-layer="71" from-port="0" to-layer="877" to-port="1"/>
		<edge from-layer="877" from-port="2" to-layer="878" to-port="0"/>
		<edge from-layer="878" from-port="1" to-layer="879" to-port="0"/>
		<edge from-layer="67" from-port="0" to-layer="879" to-port="1"/>
		<edge from-layer="68" from-port="0" to-layer="879" to-port="2"/>
		<edge from-layer="69" from-port="0" to-layer="879" to-port="3"/>
		<edge from-layer="70" from-port="0" to-layer="879" to-port="4"/>
		<edge from-layer="884" from-port="0" to-layer="885" to-port="0"/>
		<edge from-layer="880" from-port="0" to-layer="885" to-port="1"/>
		<edge from-layer="881" from-port="0" to-layer="885" to-port="2"/>
		<edge from-layer="882" from-port="0" to-layer="885" to-port="3"/>
		<edge from-layer="883" from-port="0" to-layer="885" to-port="4"/>
		<edge from-layer="879" from-port="5" to-layer="886" to-port="0"/>
		<edge from-layer="885" from-port="5" to-layer="886" to-port="1"/>
		<edge from-layer="886" from-port="2" to-layer="887" to-port="0"/>
		<edge from-layer="66" from-port="0" to-layer="887" to-port="1"/>
		<edge from-layer="887" from-port="2" to-layer="888" to-port="0"/>
		<edge from-layer="64" from-port="0" to-layer="888" to-port="1"/>
		<edge from-layer="65" from-port="0" to-layer="888" to-port="2"/>
		<edge from-layer="888" from-port="3" to-layer="889" to-port="0"/>
		<edge from-layer="60" from-port="0" to-layer="889" to-port="1"/>
		<edge from-layer="61" from-port="0" to-layer="889" to-port="2"/>
		<edge from-layer="62" from-port="0" to-layer="889" to-port="3"/>
		<edge from-layer="63" from-port="0" to-layer="889" to-port="4"/>
		<edge from-layer="889" from-port="5" to-layer="890" to-port="0"/>
		<edge from-layer="867" from-port="5" to-layer="890" to-port="1"/>
		<edge from-layer="890" from-port="2" to-layer="891" to-port="0"/>
		<edge from-layer="56" from-port="0" to-layer="891" to-port="1"/>
		<edge from-layer="57" from-port="0" to-layer="891" to-port="2"/>
		<edge from-layer="58" from-port="0" to-layer="891" to-port="3"/>
		<edge from-layer="59" from-port="0" to-layer="891" to-port="4"/>
		<edge from-layer="896" from-port="0" to-layer="897" to-port="0"/>
		<edge from-layer="892" from-port="0" to-layer="897" to-port="1"/>
		<edge from-layer="893" from-port="0" to-layer="897" to-port="2"/>
		<edge from-layer="894" from-port="0" to-layer="897" to-port="3"/>
		<edge from-layer="895" from-port="0" to-layer="897" to-port="4"/>
		<edge from-layer="891" from-port="5" to-layer="898" to-port="0"/>
		<edge from-layer="897" from-port="5" to-layer="898" to-port="1"/>
		<edge from-layer="898" from-port="2" to-layer="899" to-port="0"/>
		<edge from-layer="55" from-port="0" to-layer="899" to-port="1"/>
		<edge from-layer="899" from-port="2" to-layer="900" to-port="0"/>
		<edge from-layer="51" from-port="0" to-layer="900" to-port="1"/>
		<edge from-layer="52" from-port="0" to-layer="900" to-port="2"/>
		<edge from-layer="53" from-port="0" to-layer="900" to-port="3"/>
		<edge from-layer="54" from-port="0" to-layer="900" to-port="4"/>
		<edge from-layer="900" from-port="5" to-layer="901" to-port="0"/>
		<edge from-layer="851" from-port="5" to-layer="901" to-port="1"/>
		<edge from-layer="901" from-port="2" to-layer="902" to-port="0"/>
		<edge from-layer="47" from-port="0" to-layer="902" to-port="1"/>
		<edge from-layer="48" from-port="0" to-layer="902" to-port="2"/>
		<edge from-layer="49" from-port="0" to-layer="902" to-port="3"/>
		<edge from-layer="50" from-port="0" to-layer="902" to-port="4"/>
		<edge from-layer="902" from-port="5" to-layer="903" to-port="0"/>
		<edge from-layer="46" from-port="5" to-layer="903" to-port="1"/>
		<edge from-layer="903" from-port="2" to-layer="904" to-port="0"/>
		<edge from-layer="40" from-port="0" to-layer="904" to-port="1"/>
		<edge from-layer="904" from-port="2" to-layer="905" to-port="0"/>
		<edge from-layer="905" from-port="1" to-layer="906" to-port="0"/>
		<edge from-layer="36" from-port="0" to-layer="906" to-port="1"/>
		<edge from-layer="37" from-port="0" to-layer="906" to-port="2"/>
		<edge from-layer="38" from-port="0" to-layer="906" to-port="3"/>
		<edge from-layer="39" from-port="0" to-layer="906" to-port="4"/>
		<edge from-layer="912" from-port="0" to-layer="913" to-port="0"/>
		<edge from-layer="908" from-port="0" to-layer="913" to-port="1"/>
		<edge from-layer="909" from-port="0" to-layer="913" to-port="2"/>
		<edge from-layer="910" from-port="0" to-layer="913" to-port="3"/>
		<edge from-layer="911" from-port="0" to-layer="913" to-port="4"/>
		<edge from-layer="913" from-port="5" to-layer="914" to-port="0"/>
		<edge from-layer="907" from-port="0" to-layer="914" to-port="1"/>
		<edge from-layer="906" from-port="5" to-layer="915" to-port="0"/>
		<edge from-layer="914" from-port="2" to-layer="915" to-port="1"/>
		<edge from-layer="915" from-port="2" to-layer="916" to-port="0"/>
		<edge from-layer="35" from-port="0" to-layer="916" to-port="1"/>
		<edge from-layer="916" from-port="2" to-layer="917" to-port="0"/>
		<edge from-layer="917" from-port="1" to-layer="918" to-port="0"/>
		<edge from-layer="31" from-port="0" to-layer="918" to-port="1"/>
		<edge from-layer="32" from-port="0" to-layer="918" to-port="2"/>
		<edge from-layer="33" from-port="0" to-layer="918" to-port="3"/>
		<edge from-layer="34" from-port="0" to-layer="918" to-port="4"/>
		<edge from-layer="918" from-port="5" to-layer="919" to-port="0"/>
		<edge from-layer="30" from-port="0" to-layer="919" to-port="1"/>
		<edge from-layer="919" from-port="2" to-layer="920" to-port="0"/>
		<edge from-layer="26" from-port="0" to-layer="920" to-port="1"/>
		<edge from-layer="27" from-port="0" to-layer="920" to-port="2"/>
		<edge from-layer="28" from-port="0" to-layer="920" to-port="3"/>
		<edge from-layer="29" from-port="0" to-layer="920" to-port="4"/>
		<edge from-layer="925" from-port="0" to-layer="926" to-port="0"/>
		<edge from-layer="921" from-port="0" to-layer="926" to-port="1"/>
		<edge from-layer="922" from-port="0" to-layer="926" to-port="2"/>
		<edge from-layer="923" from-port="0" to-layer="926" to-port="3"/>
		<edge from-layer="924" from-port="0" to-layer="926" to-port="4"/>
		<edge from-layer="920" from-port="5" to-layer="927" to-port="0"/>
		<edge from-layer="926" from-port="5" to-layer="927" to-port="1"/>
		<edge from-layer="927" from-port="2" to-layer="928" to-port="0"/>
		<edge from-layer="25" from-port="0" to-layer="928" to-port="1"/>
		<edge from-layer="928" from-port="2" to-layer="929" to-port="0"/>
		<edge from-layer="929" from-port="1" to-layer="930" to-port="0"/>
		<edge from-layer="21" from-port="0" to-layer="930" to-port="1"/>
		<edge from-layer="22" from-port="0" to-layer="930" to-port="2"/>
		<edge from-layer="23" from-port="0" to-layer="930" to-port="3"/>
		<edge from-layer="24" from-port="0" to-layer="930" to-port="4"/>
		<edge from-layer="935" from-port="0" to-layer="936" to-port="0"/>
		<edge from-layer="931" from-port="0" to-layer="936" to-port="1"/>
		<edge from-layer="932" from-port="0" to-layer="936" to-port="2"/>
		<edge from-layer="933" from-port="0" to-layer="936" to-port="3"/>
		<edge from-layer="934" from-port="0" to-layer="936" to-port="4"/>
		<edge from-layer="930" from-port="5" to-layer="937" to-port="0"/>
		<edge from-layer="936" from-port="5" to-layer="937" to-port="1"/>
		<edge from-layer="937" from-port="2" to-layer="938" to-port="0"/>
		<edge from-layer="20" from-port="0" to-layer="938" to-port="1"/>
		<edge from-layer="938" from-port="2" to-layer="939" to-port="0"/>
		<edge from-layer="18" from-port="0" to-layer="939" to-port="1"/>
		<edge from-layer="19" from-port="0" to-layer="939" to-port="2"/>
		<edge from-layer="939" from-port="3" to-layer="940" to-port="0"/>
		<edge from-layer="14" from-port="0" to-layer="940" to-port="1"/>
		<edge from-layer="15" from-port="0" to-layer="940" to-port="2"/>
		<edge from-layer="16" from-port="0" to-layer="940" to-port="3"/>
		<edge from-layer="17" from-port="0" to-layer="940" to-port="4"/>
		<edge from-layer="940" from-port="5" to-layer="941" to-port="0"/>
		<edge from-layer="918" from-port="5" to-layer="941" to-port="1"/>
		<edge from-layer="941" from-port="2" to-layer="942" to-port="0"/>
		<edge from-layer="10" from-port="0" to-layer="942" to-port="1"/>
		<edge from-layer="11" from-port="0" to-layer="942" to-port="2"/>
		<edge from-layer="12" from-port="0" to-layer="942" to-port="3"/>
		<edge from-layer="13" from-port="0" to-layer="942" to-port="4"/>
		<edge from-layer="947" from-port="0" to-layer="948" to-port="0"/>
		<edge from-layer="943" from-port="0" to-layer="948" to-port="1"/>
		<edge from-layer="944" from-port="0" to-layer="948" to-port="2"/>
		<edge from-layer="945" from-port="0" to-layer="948" to-port="3"/>
		<edge from-layer="946" from-port="0" to-layer="948" to-port="4"/>
		<edge from-layer="942" from-port="5" to-layer="949" to-port="0"/>
		<edge from-layer="948" from-port="5" to-layer="949" to-port="1"/>
		<edge from-layer="949" from-port="2" to-layer="950" to-port="0"/>
		<edge from-layer="9" from-port="0" to-layer="950" to-port="1"/>
		<edge from-layer="950" from-port="2" to-layer="951" to-port="0"/>
		<edge from-layer="5" from-port="0" to-layer="951" to-port="1"/>
		<edge from-layer="6" from-port="0" to-layer="951" to-port="2"/>
		<edge from-layer="7" from-port="0" to-layer="951" to-port="3"/>
		<edge from-layer="8" from-port="0" to-layer="951" to-port="4"/>
		<edge from-layer="951" from-port="5" to-layer="952" to-port="0"/>
		<edge from-layer="902" from-port="5" to-layer="952" to-port="1"/>
		<edge from-layer="952" from-port="2" to-layer="953" to-port="0"/>
		<edge from-layer="1" from-port="0" to-layer="953" to-port="1"/>
		<edge from-layer="2" from-port="0" to-layer="953" to-port="2"/>
		<edge from-layer="3" from-port="0" to-layer="953" to-port="3"/>
		<edge from-layer="4" from-port="0" to-layer="953" to-port="4"/>
		<edge from-layer="958" from-port="0" to-layer="959" to-port="0"/>
		<edge from-layer="954" from-port="0" to-layer="959" to-port="1"/>
		<edge from-layer="955" from-port="0" to-layer="959" to-port="2"/>
		<edge from-layer="956" from-port="0" to-layer="959" to-port="3"/>
		<edge from-layer="957" from-port="0" to-layer="959" to-port="4"/>
		<edge from-layer="953" from-port="5" to-layer="960" to-port="0"/>
		<edge from-layer="959" from-port="5" to-layer="960" to-port="1"/>
		<edge from-layer="960" from-port="2" to-layer="961" to-port="0"/>
		<edge from-layer="0" from-port="0" to-layer="961" to-port="1"/>
		<edge from-layer="961" from-port="2" to-layer="962" to-port="0"/>
		<edge from-layer="962" from-port="1" to-layer="963" to-port="0"/>
	</edges>
	<rt_info>
		<MO_version value="custom_master_03583d93cb02d913e914ff461ee14d4d0f0e46cd"/>
		<Runtime_version value="2022.3.0-8879-03583d93cb0"/>
		<conversion_parameters>
			<data_type value="FP32"/>
			<input_model value="DIR/mobilenet_v3_small_example.onnx"/>
			<model_name value="mobilenet_v3_small_example"/>
			<output_dir value="DIR"/>
		</conversion_parameters>
		<legacy_frontend value="False"/>
		<quantization_parameters/>
	</rt_info>
	<quantization_parameters>
		<config/>
		<version value="{}"/>
		<cli_params value="{}"/>
	</quantization_parameters>
</net>
