<?xml version="1.0" ?>
<net name="torch-jit-export" version="11">
	<layers>
		<layer id="248" name="image" type="Parameter" version="opset1">
			<data shape="1,3,864,864" element_type="f32"/>
			<output>
				<port id="0" precision="FP32" names="image">
					<dim>1</dim>
					<dim>3</dim>
					<dim>864</dim>
					<dim>864</dim>
					<rt_info/>
				</port>
			</output>
		</layer>
		<layer id="0" name="192119258787" type="Const" version="opset1">
			<data offset="0" size="4" shape="" element_type="f32"/>
			<output>
				<port id="0" precision="FP32"/>
			</output>
		</layer>
		<layer id="1" name="192219269507" type="Const" version="opset1">
			<data offset="0" size="4" shape="" element_type="f32"/>
			<output>
				<port id="0" precision="FP32"/>
			</output>
		</layer>
		<layer id="2" name="192319279192" type="Const" version="opset1">
			<data offset="0" size="4" shape="" element_type="f32"/>
			<output>
				<port id="0" precision="FP32"/>
			</output>
		</layer>
		<layer id="3" name="192419289666" type="Const" version="opset1">
			<data offset="0" size="4" shape="" element_type="f32"/>
			<output>
				<port id="0" precision="FP32"/>
			</output>
		</layer>
		<layer id="4" name="158115859612" type="Const" version="opset1">
			<data offset="0" size="4" shape="" element_type="f32"/>
			<output>
				<port id="0" precision="FP32"/>
			</output>
		</layer>
		<layer id="5" name="1582158610353" type="Const" version="opset1">
			<data offset="0" size="4" shape="" element_type="f32"/>
			<output>
				<port id="0" precision="FP32"/>
			</output>
		</layer>
		<layer id="6" name="1583158710461" type="Const" version="opset1">
			<data offset="0" size="4" shape="" element_type="f32"/>
			<output>
				<port id="0" precision="FP32"/>
			</output>
		</layer>
		<layer id="7" name="158415889381" type="Const" version="opset1">
			<data offset="0" size="4" shape="" element_type="f32"/>
			<output>
				<port id="0" precision="FP32"/>
			</output>
		</layer>
		<layer id="8" name="266126659738" type="Const" version="opset1">
			<data offset="0" size="4" shape="" element_type="f32"/>
			<output>
				<port id="0" precision="FP32"/>
			</output>
		</layer>
		<layer id="9" name="266226669525" type="Const" version="opset1">
			<data offset="0" size="4" shape="" element_type="f32"/>
			<output>
				<port id="0" precision="FP32"/>
			</output>
		</layer>
		<layer id="10" name="266326678838" type="Const" version="opset1">
			<data offset="0" size="4" shape="" element_type="f32"/>
			<output>
				<port id="0" precision="FP32"/>
			</output>
		</layer>
		<layer id="11" name="266426689588" type="Const" version="opset1">
			<data offset="0" size="4" shape="" element_type="f32"/>
			<output>
				<port id="0" precision="FP32"/>
			</output>
		</layer>
		<layer id="12" name="182118258718" type="Const" version="opset1">
			<data offset="0" size="4" shape="" element_type="f32"/>
			<output>
				<port id="0" precision="FP32"/>
			</output>
		</layer>
		<layer id="13" name="182218269156" type="Const" version="opset1">
			<data offset="0" size="4" shape="" element_type="f32"/>
			<output>
				<port id="0" precision="FP32"/>
			</output>
		</layer>
		<layer id="14" name="182318279090" type="Const" version="opset1">
			<data offset="0" size="4" shape="" element_type="f32"/>
			<output>
				<port id="0" precision="FP32"/>
			</output>
		</layer>
		<layer id="15" name="1824182810395" type="Const" version="opset1">
			<data offset="0" size="4" shape="" element_type="f32"/>
			<output>
				<port id="0" precision="FP32"/>
			</output>
		</layer>
		<layer id="16" name="264126458820" type="Const" version="opset1">
			<data offset="0" size="4" shape="" element_type="f32"/>
			<output>
				<port id="0" precision="FP32"/>
			</output>
		</layer>
		<layer id="17" name="264226469045" type="Const" version="opset1">
			<data offset="0" size="4" shape="" element_type="f32"/>
			<output>
				<port id="0" precision="FP32"/>
			</output>
		</layer>
		<layer id="18" name="2643264710308" type="Const" version="opset1">
			<data offset="0" size="4" shape="" element_type="f32"/>
			<output>
				<port id="0" precision="FP32"/>
			</output>
		</layer>
		<layer id="19" name="264426489492" type="Const" version="opset1">
			<data offset="0" size="4" shape="" element_type="f32"/>
			<output>
				<port id="0" precision="FP32"/>
			</output>
		</layer>
		<layer id="20" name="269126958805" type="Const" version="opset1">
			<data offset="0" size="4" shape="" element_type="f32"/>
			<output>
				<port id="0" precision="FP32"/>
			</output>
		</layer>
		<layer id="21" name="269226969072" type="Const" version="opset1">
			<data offset="0" size="4" shape="" element_type="f32"/>
			<output>
				<port id="0" precision="FP32"/>
			</output>
		</layer>
		<layer id="22" name="269326978910" type="Const" version="opset1">
			<data offset="0" size="4" shape="" element_type="f32"/>
			<output>
				<port id="0" precision="FP32"/>
			</output>
		</layer>
		<layer id="23" name="2694269810197" type="Const" version="opset1">
			<data offset="0" size="4" shape="" element_type="f32"/>
			<output>
				<port id="0" precision="FP32"/>
			</output>
		</layer>
		<layer id="24" name="8365608841" type="Const" version="opset1">
			<data offset="4" size="221184" shape="576,96,1,1" element_type="f32"/>
			<output>
				<port id="0" precision="FP32" names="836">
					<dim>576</dim>
					<dim>96</dim>
					<dim>1</dim>
					<dim>1</dim>
				</port>
			</output>
		</layer>
		<layer id="25" name="Conv_119/WithoutBiases/fq_weights_1" type="FakeQuantize" version="opset1">
			<data levels="0" auto_broadcast="numpy"/>
			<input>
				<port id="0">
					<dim>576</dim>
					<dim>96</dim>
					<dim>1</dim>
					<dim>1</dim>
				</port>
				<port id="1"/>
				<port id="2"/>
				<port id="3"/>
				<port id="4"/>
			</input>
			<output>
				<port id="5" precision="FP32">
					<dim>576</dim>
					<dim>96</dim>
					<dim>1</dim>
					<dim>1</dim>
				</port>
			</output>
		</layer>
		<layer id="26" name="2671267510059" type="Const" version="opset1">
			<data offset="0" size="4" shape="" element_type="f32"/>
			<output>
				<port id="0" precision="FP32"/>
			</output>
		</layer>
		<layer id="27" name="267226768961" type="Const" version="opset1">
			<data offset="0" size="4" shape="" element_type="f32"/>
			<output>
				<port id="0" precision="FP32"/>
			</output>
		</layer>
		<layer id="28" name="267326778886" type="Const" version="opset1">
			<data offset="0" size="4" shape="" element_type="f32"/>
			<output>
				<port id="0" precision="FP32"/>
			</output>
		</layer>
		<layer id="29" name="267426789429" type="Const" version="opset1">
			<data offset="0" size="4" shape="" element_type="f32"/>
			<output>
				<port id="0" precision="FP32"/>
			</output>
		</layer>
		<layer id="30" name="248124859519" type="Const" version="opset1">
			<data offset="0" size="4" shape="" element_type="f32"/>
			<output>
				<port id="0" precision="FP32"/>
			</output>
		</layer>
		<layer id="31" name="2482248610725" type="Const" version="opset1">
			<data offset="0" size="4" shape="" element_type="f32"/>
			<output>
				<port id="0" precision="FP32"/>
			</output>
		</layer>
		<layer id="32" name="2483248710524" type="Const" version="opset1">
			<data offset="0" size="4" shape="" element_type="f32"/>
			<output>
				<port id="0" precision="FP32"/>
			</output>
		</layer>
		<layer id="33" name="248424888751" type="Const" version="opset1">
			<data offset="0" size="4" shape="" element_type="f32"/>
			<output>
				<port id="0" precision="FP32"/>
			</output>
		</layer>
		<layer id="34" name="270127058772" type="Const" version="opset1">
			<data offset="0" size="4" shape="" element_type="f32"/>
			<output>
				<port id="0" precision="FP32"/>
			</output>
		</layer>
		<layer id="35" name="2702270610200" type="Const" version="opset1">
			<data offset="0" size="4" shape="" element_type="f32"/>
			<output>
				<port id="0" precision="FP32"/>
			</output>
		</layer>
		<layer id="36" name="270327079678" type="Const" version="opset1">
			<data offset="0" size="4" shape="" element_type="f32"/>
			<output>
				<port id="0" precision="FP32"/>
			</output>
		</layer>
		<layer id="37" name="270427089930" type="Const" version="opset1">
			<data offset="0" size="4" shape="" element_type="f32"/>
			<output>
				<port id="0" precision="FP32"/>
			</output>
		</layer>
		<layer id="38" name="1521152510068" type="Const" version="opset1">
			<data offset="0" size="4" shape="" element_type="f32"/>
			<output>
				<port id="0" precision="FP32"/>
			</output>
		</layer>
		<layer id="39" name="152215269783" type="Const" version="opset1">
			<data offset="0" size="4" shape="" element_type="f32"/>
			<output>
				<port id="0" precision="FP32"/>
			</output>
		</layer>
		<layer id="40" name="1523152710563" type="Const" version="opset1">
			<data offset="0" size="4" shape="" element_type="f32"/>
			<output>
				<port id="0" precision="FP32"/>
			</output>
		</layer>
		<layer id="41" name="152415289723" type="Const" version="opset1">
			<data offset="0" size="4" shape="" element_type="f32"/>
			<output>
				<port id="0" precision="FP32"/>
			</output>
		</layer>
		<layer id="42" name="227122759375" type="Const" version="opset1">
			<data offset="0" size="4" shape="" element_type="f32"/>
			<output>
				<port id="0" precision="FP32"/>
			</output>
		</layer>
		<layer id="43" name="227222769036" type="Const" version="opset1">
			<data offset="0" size="4" shape="" element_type="f32"/>
			<output>
				<port id="0" precision="FP32"/>
			</output>
		</layer>
		<layer id="44" name="227322778736" type="Const" version="opset1">
			<data offset="0" size="4" shape="" element_type="f32"/>
			<output>
				<port id="0" precision="FP32"/>
			</output>
		</layer>
		<layer id="45" name="2274227810077" type="Const" version="opset1">
			<data offset="0" size="4" shape="" element_type="f32"/>
			<output>
				<port id="0" precision="FP32"/>
			</output>
		</layer>
		<layer id="46" name="82754510341" type="Const" version="opset1">
			<data offset="221188" size="221184" shape="576,96,1,1" element_type="f32"/>
			<output>
				<port id="0" precision="FP32" names="827">
					<dim>576</dim>
					<dim>96</dim>
					<dim>1</dim>
					<dim>1</dim>
				</port>
			</output>
		</layer>
		<layer id="47" name="Conv_109/WithoutBiases/fq_weights_1" type="FakeQuantize" version="opset1">
			<data levels="0" auto_broadcast="numpy"/>
			<input>
				<port id="0">
					<dim>576</dim>
					<dim>96</dim>
					<dim>1</dim>
					<dim>1</dim>
				</port>
				<port id="1"/>
				<port id="2"/>
				<port id="3"/>
				<port id="4"/>
			</input>
			<output>
				<port id="5" precision="FP32">
					<dim>576</dim>
					<dim>96</dim>
					<dim>1</dim>
					<dim>1</dim>
				</port>
			</output>
		</layer>
		<layer id="48" name="2491249510029" type="Const" version="opset1">
			<data offset="0" size="4" shape="" element_type="f32"/>
			<output>
				<port id="0" precision="FP32"/>
			</output>
		</layer>
		<layer id="49" name="249224969609" type="Const" version="opset1">
			<data offset="0" size="4" shape="" element_type="f32"/>
			<output>
				<port id="0" precision="FP32"/>
			</output>
		</layer>
		<layer id="50" name="2493249710512" type="Const" version="opset1">
			<data offset="0" size="4" shape="" element_type="f32"/>
			<output>
				<port id="0" precision="FP32"/>
			</output>
		</layer>
		<layer id="51" name="2494249810224" type="Const" version="opset1">
			<data offset="0" size="4" shape="" element_type="f32"/>
			<output>
				<port id="0" precision="FP32"/>
			</output>
		</layer>
		<layer id="52" name="1961196510254" type="Const" version="opset1">
			<data offset="0" size="4" shape="" element_type="f32"/>
			<output>
				<port id="0" precision="FP32"/>
			</output>
		</layer>
		<layer id="53" name="196219669486" type="Const" version="opset1">
			<data offset="0" size="4" shape="" element_type="f32"/>
			<output>
				<port id="0" precision="FP32"/>
			</output>
		</layer>
		<layer id="54" name="196319679060" type="Const" version="opset1">
			<data offset="0" size="4" shape="" element_type="f32"/>
			<output>
				<port id="0" precision="FP32"/>
			</output>
		</layer>
		<layer id="55" name="196419689420" type="Const" version="opset1">
			<data offset="0" size="4" shape="" element_type="f32"/>
			<output>
				<port id="0" precision="FP32"/>
			</output>
		</layer>
		<layer id="56" name="254125459972" type="Const" version="opset1">
			<data offset="0" size="4" shape="" element_type="f32"/>
			<output>
				<port id="0" precision="FP32"/>
			</output>
		</layer>
		<layer id="57" name="2542254610656" type="Const" version="opset1">
			<data offset="0" size="4" shape="" element_type="f32"/>
			<output>
				<port id="0" precision="FP32"/>
			</output>
		</layer>
		<layer id="58" name="254325479207" type="Const" version="opset1">
			<data offset="0" size="4" shape="" element_type="f32"/>
			<output>
				<port id="0" precision="FP32"/>
			</output>
		</layer>
		<layer id="59" name="2544254810248" type="Const" version="opset1">
			<data offset="0" size="4" shape="" element_type="f32"/>
			<output>
				<port id="0" precision="FP32"/>
			</output>
		</layer>
		<layer id="60" name="164116459846" type="Const" version="opset1">
			<data offset="0" size="4" shape="" element_type="f32"/>
			<output>
				<port id="0" precision="FP32"/>
			</output>
		</layer>
		<layer id="61" name="164216468748" type="Const" version="opset1">
			<data offset="0" size="4" shape="" element_type="f32"/>
			<output>
				<port id="0" precision="FP32"/>
			</output>
		</layer>
		<layer id="62" name="164316479369" type="Const" version="opset1">
			<data offset="0" size="4" shape="" element_type="f32"/>
			<output>
				<port id="0" precision="FP32"/>
			</output>
		</layer>
		<layer id="63" name="164416489873" type="Const" version="opset1">
			<data offset="0" size="4" shape="" element_type="f32"/>
			<output>
				<port id="0" precision="FP32"/>
			</output>
		</layer>
		<layer id="64" name="2581258510509" type="Const" version="opset1">
			<data offset="0" size="4" shape="" element_type="f32"/>
			<output>
				<port id="0" precision="FP32"/>
			</output>
		</layer>
		<layer id="65" name="2582258610119" type="Const" version="opset1">
			<data offset="0" size="4" shape="" element_type="f32"/>
			<output>
				<port id="0" precision="FP32"/>
			</output>
		</layer>
		<layer id="66" name="258325879300" type="Const" version="opset1">
			<data offset="0" size="4" shape="" element_type="f32"/>
			<output>
				<port id="0" precision="FP32"/>
			</output>
		</layer>
		<layer id="67" name="258425889366" type="Const" version="opset1">
			<data offset="0" size="4" shape="" element_type="f32"/>
			<output>
				<port id="0" precision="FP32"/>
			</output>
		</layer>
		<layer id="68" name="2601260510401" type="Const" version="opset1">
			<data offset="0" size="4" shape="" element_type="f32"/>
			<output>
				<port id="0" precision="FP32"/>
			</output>
		</layer>
		<layer id="69" name="2602260610659" type="Const" version="opset1">
			<data offset="0" size="4" shape="" element_type="f32"/>
			<output>
				<port id="0" precision="FP32"/>
			</output>
		</layer>
		<layer id="70" name="260326079798" type="Const" version="opset1">
			<data offset="0" size="4" shape="" element_type="f32"/>
			<output>
				<port id="0" precision="FP32"/>
			</output>
		</layer>
		<layer id="71" name="2604260810371" type="Const" version="opset1">
			<data offset="0" size="4" shape="" element_type="f32"/>
			<output>
				<port id="0" precision="FP32"/>
			</output>
		</layer>
		<layer id="72" name="252125259015" type="Const" version="opset1">
			<data offset="0" size="4" shape="" element_type="f32"/>
			<output>
				<port id="0" precision="FP32"/>
			</output>
		</layer>
		<layer id="73" name="252225269792" type="Const" version="opset1">
			<data offset="0" size="4" shape="" element_type="f32"/>
			<output>
				<port id="0" precision="FP32"/>
			</output>
		</layer>
		<layer id="74" name="2523252710032" type="Const" version="opset1">
			<data offset="0" size="4" shape="" element_type="f32"/>
			<output>
				<port id="0" precision="FP32"/>
			</output>
		</layer>
		<layer id="75" name="252425289027" type="Const" version="opset1">
			<data offset="0" size="4" shape="" element_type="f32"/>
			<output>
				<port id="0" precision="FP32"/>
			</output>
		</layer>
		<layer id="76" name="199119959549" type="Const" version="opset1">
			<data offset="0" size="4" shape="" element_type="f32"/>
			<output>
				<port id="0" precision="FP32"/>
			</output>
		</layer>
		<layer id="77" name="199219969357" type="Const" version="opset1">
			<data offset="0" size="4" shape="" element_type="f32"/>
			<output>
				<port id="0" precision="FP32"/>
			</output>
		</layer>
		<layer id="78" name="1993199710320" type="Const" version="opset1">
			<data offset="0" size="4" shape="" element_type="f32"/>
			<output>
				<port id="0" precision="FP32"/>
			</output>
		</layer>
		<layer id="79" name="199419989495" type="Const" version="opset1">
			<data offset="0" size="4" shape="" element_type="f32"/>
			<output>
				<port id="0" precision="FP32"/>
			</output>
		</layer>
		<layer id="80" name="8095169555" type="Const" version="opset1">
			<data offset="442372" size="98304" shape="384,64,1,1" element_type="f32"/>
			<output>
				<port id="0" precision="FP32" names="809">
					<dim>384</dim>
					<dim>64</dim>
					<dim>1</dim>
					<dim>1</dim>
				</port>
			</output>
		</layer>
		<layer id="81" name="Conv_90/WithoutBiases/fq_weights_1" type="FakeQuantize" version="opset1">
			<data levels="0" auto_broadcast="numpy"/>
			<input>
				<port id="0">
					<dim>384</dim>
					<dim>64</dim>
					<dim>1</dim>
					<dim>1</dim>
				</port>
				<port id="1"/>
				<port id="2"/>
				<port id="3"/>
				<port id="4"/>
			</input>
			<output>
				<port id="5" precision="FP32">
					<dim>384</dim>
					<dim>64</dim>
					<dim>1</dim>
					<dim>1</dim>
				</port>
			</output>
		</layer>
		<layer id="82" name="259125959471" type="Const" version="opset1">
			<data offset="0" size="4" shape="" element_type="f32"/>
			<output>
				<port id="0" precision="FP32"/>
			</output>
		</layer>
		<layer id="83" name="259225969546" type="Const" version="opset1">
			<data offset="0" size="4" shape="" element_type="f32"/>
			<output>
				<port id="0" precision="FP32"/>
			</output>
		</layer>
		<layer id="84" name="2593259710551" type="Const" version="opset1">
			<data offset="0" size="4" shape="" element_type="f32"/>
			<output>
				<port id="0" precision="FP32"/>
			</output>
		</layer>
		<layer id="85" name="259425989777" type="Const" version="opset1">
			<data offset="0" size="4" shape="" element_type="f32"/>
			<output>
				<port id="0" precision="FP32"/>
			</output>
		</layer>
		<layer id="86" name="250125059198" type="Const" version="opset1">
			<data offset="0" size="4" shape="" element_type="f32"/>
			<output>
				<port id="0" precision="FP32"/>
			</output>
		</layer>
		<layer id="87" name="2502250610638" type="Const" version="opset1">
			<data offset="0" size="4" shape="" element_type="f32"/>
			<output>
				<port id="0" precision="FP32"/>
			</output>
		</layer>
		<layer id="88" name="2503250710365" type="Const" version="opset1">
			<data offset="0" size="4" shape="" element_type="f32"/>
			<output>
				<port id="0" precision="FP32"/>
			</output>
		</layer>
		<layer id="89" name="250425089171" type="Const" version="opset1">
			<data offset="0" size="4" shape="" element_type="f32"/>
			<output>
				<port id="0" precision="FP32"/>
			</output>
		</layer>
		<layer id="90" name="186118659759" type="Const" version="opset1">
			<data offset="0" size="4" shape="" element_type="f32"/>
			<output>
				<port id="0" precision="FP32"/>
			</output>
		</layer>
		<layer id="91" name="186218668964" type="Const" version="opset1">
			<data offset="0" size="4" shape="" element_type="f32"/>
			<output>
				<port id="0" precision="FP32"/>
			</output>
		</layer>
		<layer id="92" name="186318679726" type="Const" version="opset1">
			<data offset="0" size="4" shape="" element_type="f32"/>
			<output>
				<port id="0" precision="FP32"/>
			</output>
		</layer>
		<layer id="93" name="1864186810203" type="Const" version="opset1">
			<data offset="0" size="4" shape="" element_type="f32"/>
			<output>
				<port id="0" precision="FP32"/>
			</output>
		</layer>
		<layer id="94" name="172117259942" type="Const" version="opset1">
			<data offset="0" size="4" shape="" element_type="f32"/>
			<output>
				<port id="0" precision="FP32"/>
			</output>
		</layer>
		<layer id="95" name="172217269945" type="Const" version="opset1">
			<data offset="0" size="4" shape="" element_type="f32"/>
			<output>
				<port id="0" precision="FP32"/>
			</output>
		</layer>
		<layer id="96" name="1723172710269" type="Const" version="opset1">
			<data offset="0" size="4" shape="" element_type="f32"/>
			<output>
				<port id="0" precision="FP32"/>
			</output>
		</layer>
		<layer id="97" name="172417289195" type="Const" version="opset1">
			<data offset="0" size="4" shape="" element_type="f32"/>
			<output>
				<port id="0" precision="FP32"/>
			</output>
		</layer>
		<layer id="98" name="2791279510038" type="Const" version="opset1">
			<data offset="0" size="4" shape="" element_type="f32"/>
			<output>
				<port id="0" precision="FP32"/>
			</output>
		</layer>
		<layer id="99" name="2792279610455" type="Const" version="opset1">
			<data offset="0" size="4" shape="" element_type="f32"/>
			<output>
				<port id="0" precision="FP32"/>
			</output>
		</layer>
		<layer id="100" name="279327979573" type="Const" version="opset1">
			<data offset="0" size="4" shape="" element_type="f32"/>
			<output>
				<port id="0" precision="FP32"/>
			</output>
		</layer>
		<layer id="101" name="279427989258" type="Const" version="opset1">
			<data offset="0" size="4" shape="" element_type="f32"/>
			<output>
				<port id="0" precision="FP32"/>
			</output>
		</layer>
		<layer id="102" name="80050110518" type="Const" version="opset1">
			<data offset="540676" size="98304" shape="384,64,1,1" element_type="f32"/>
			<output>
				<port id="0" precision="FP32" names="800">
					<dim>384</dim>
					<dim>64</dim>
					<dim>1</dim>
					<dim>1</dim>
				</port>
			</output>
		</layer>
		<layer id="103" name="Conv_80/WithoutBiases/fq_weights_1" type="FakeQuantize" version="opset1">
			<data levels="0" auto_broadcast="numpy"/>
			<input>
				<port id="0">
					<dim>384</dim>
					<dim>64</dim>
					<dim>1</dim>
					<dim>1</dim>
				</port>
				<port id="1"/>
				<port id="2"/>
				<port id="3"/>
				<port id="4"/>
			</input>
			<output>
				<port id="5" precision="FP32">
					<dim>384</dim>
					<dim>64</dim>
					<dim>1</dim>
					<dim>1</dim>
				</port>
			</output>
		</layer>
		<layer id="104" name="251125159528" type="Const" version="opset1">
			<data offset="0" size="4" shape="" element_type="f32"/>
			<output>
				<port id="0" precision="FP32"/>
			</output>
		</layer>
		<layer id="105" name="251225169468" type="Const" version="opset1">
			<data offset="0" size="4" shape="" element_type="f32"/>
			<output>
				<port id="0" precision="FP32"/>
			</output>
		</layer>
		<layer id="106" name="251325179831" type="Const" version="opset1">
			<data offset="0" size="4" shape="" element_type="f32"/>
			<output>
				<port id="0" precision="FP32"/>
			</output>
		</layer>
		<layer id="107" name="251425189339" type="Const" version="opset1">
			<data offset="0" size="4" shape="" element_type="f32"/>
			<output>
				<port id="0" precision="FP32"/>
			</output>
		</layer>
		<layer id="108" name="1421142510596" type="Const" version="opset1">
			<data offset="0" size="4" shape="" element_type="f32"/>
			<output>
				<port id="0" precision="FP32"/>
			</output>
		</layer>
		<layer id="109" name="142214269105" type="Const" version="opset1">
			<data offset="0" size="4" shape="" element_type="f32"/>
			<output>
				<port id="0" precision="FP32"/>
			</output>
		</layer>
		<layer id="110" name="142314278952" type="Const" version="opset1">
			<data offset="0" size="4" shape="" element_type="f32"/>
			<output>
				<port id="0" precision="FP32"/>
			</output>
		</layer>
		<layer id="111" name="142414288985" type="Const" version="opset1">
			<data offset="0" size="4" shape="" element_type="f32"/>
			<output>
				<port id="0" precision="FP32"/>
			</output>
		</layer>
		<layer id="112" name="1801180510560" type="Const" version="opset1">
			<data offset="0" size="4" shape="" element_type="f32"/>
			<output>
				<port id="0" precision="FP32"/>
			</output>
		</layer>
		<layer id="113" name="180218069249" type="Const" version="opset1">
			<data offset="0" size="4" shape="" element_type="f32"/>
			<output>
				<port id="0" precision="FP32"/>
			</output>
		</layer>
		<layer id="114" name="180318079297" type="Const" version="opset1">
			<data offset="0" size="4" shape="" element_type="f32"/>
			<output>
				<port id="0" precision="FP32"/>
			</output>
		</layer>
		<layer id="115" name="180418089771" type="Const" version="opset1">
			<data offset="0" size="4" shape="" element_type="f32"/>
			<output>
				<port id="0" precision="FP32"/>
			</output>
		</layer>
		<layer id="116" name="2141214510140" type="Const" version="opset1">
			<data offset="0" size="4" shape="" element_type="f32"/>
			<output>
				<port id="0" precision="FP32"/>
			</output>
		</layer>
		<layer id="117" name="2142214610260" type="Const" version="opset1">
			<data offset="0" size="4" shape="" element_type="f32"/>
			<output>
				<port id="0" precision="FP32"/>
			</output>
		</layer>
		<layer id="118" name="2143214710569" type="Const" version="opset1">
			<data offset="0" size="4" shape="" element_type="f32"/>
			<output>
				<port id="0" precision="FP32"/>
			</output>
		</layer>
		<layer id="119" name="2144214810407" type="Const" version="opset1">
			<data offset="0" size="4" shape="" element_type="f32"/>
			<output>
				<port id="0" precision="FP32"/>
			</output>
		</layer>
		<layer id="120" name="1571157510464" type="Const" version="opset1">
			<data offset="0" size="4" shape="" element_type="f32"/>
			<output>
				<port id="0" precision="FP32"/>
			</output>
		</layer>
		<layer id="121" name="1572157610062" type="Const" version="opset1">
			<data offset="0" size="4" shape="" element_type="f32"/>
			<output>
				<port id="0" precision="FP32"/>
			</output>
		</layer>
		<layer id="122" name="157315778907" type="Const" version="opset1">
			<data offset="0" size="4" shape="" element_type="f32"/>
			<output>
				<port id="0" precision="FP32"/>
			</output>
		</layer>
		<layer id="123" name="157415789510" type="Const" version="opset1">
			<data offset="0" size="4" shape="" element_type="f32"/>
			<output>
				<port id="0" precision="FP32"/>
			</output>
		</layer>
		<layer id="124" name="7914869594" type="Const" version="opset1">
			<data offset="638980" size="98304" shape="384,64,1,1" element_type="f32"/>
			<output>
				<port id="0" precision="FP32" names="791">
					<dim>384</dim>
					<dim>64</dim>
					<dim>1</dim>
					<dim>1</dim>
				</port>
			</output>
		</layer>
		<layer id="125" name="Conv_70/WithoutBiases/fq_weights_1" type="FakeQuantize" version="opset1">
			<data levels="0" auto_broadcast="numpy"/>
			<input>
				<port id="0">
					<dim>384</dim>
					<dim>64</dim>
					<dim>1</dim>
					<dim>1</dim>
				</port>
				<port id="1"/>
				<port id="2"/>
				<port id="3"/>
				<port id="4"/>
			</input>
			<output>
				<port id="5" precision="FP32">
					<dim>384</dim>
					<dim>64</dim>
					<dim>1</dim>
					<dim>1</dim>
				</port>
			</output>
		</layer>
		<layer id="126" name="143114359411" type="Const" version="opset1">
			<data offset="0" size="4" shape="" element_type="f32"/>
			<output>
				<port id="0" precision="FP32"/>
			</output>
		</layer>
		<layer id="127" name="1432143610323" type="Const" version="opset1">
			<data offset="0" size="4" shape="" element_type="f32"/>
			<output>
				<port id="0" precision="FP32"/>
			</output>
		</layer>
		<layer id="128" name="1433143710446" type="Const" version="opset1">
			<data offset="0" size="4" shape="" element_type="f32"/>
			<output>
				<port id="0" precision="FP32"/>
			</output>
		</layer>
		<layer id="129" name="1434143810449" type="Const" version="opset1">
			<data offset="0" size="4" shape="" element_type="f32"/>
			<output>
				<port id="0" precision="FP32"/>
			</output>
		</layer>
		<layer id="130" name="234123459426" type="Const" version="opset1">
			<data offset="0" size="4" shape="" element_type="f32"/>
			<output>
				<port id="0" precision="FP32"/>
			</output>
		</layer>
		<layer id="131" name="2342234610347" type="Const" version="opset1">
			<data offset="0" size="4" shape="" element_type="f32"/>
			<output>
				<port id="0" precision="FP32"/>
			</output>
		</layer>
		<layer id="132" name="234323479906" type="Const" version="opset1">
			<data offset="0" size="4" shape="" element_type="f32"/>
			<output>
				<port id="0" precision="FP32"/>
			</output>
		</layer>
		<layer id="133" name="2344234810671" type="Const" version="opset1">
			<data offset="0" size="4" shape="" element_type="f32"/>
			<output>
				<port id="0" precision="FP32"/>
			</output>
		</layer>
		<layer id="134" name="184118459465" type="Const" version="opset1">
			<data offset="0" size="4" shape="" element_type="f32"/>
			<output>
				<port id="0" precision="FP32"/>
			</output>
		</layer>
		<layer id="135" name="184218469729" type="Const" version="opset1">
			<data offset="0" size="4" shape="" element_type="f32"/>
			<output>
				<port id="0" precision="FP32"/>
			</output>
		</layer>
		<layer id="136" name="1843184710380" type="Const" version="opset1">
			<data offset="0" size="4" shape="" element_type="f32"/>
			<output>
				<port id="0" precision="FP32"/>
			</output>
		</layer>
		<layer id="137" name="184418489096" type="Const" version="opset1">
			<data offset="0" size="4" shape="" element_type="f32"/>
			<output>
				<port id="0" precision="FP32"/>
			</output>
		</layer>
		<layer id="138" name="2041204510404" type="Const" version="opset1">
			<data offset="0" size="4" shape="" element_type="f32"/>
			<output>
				<port id="0" precision="FP32"/>
			</output>
		</layer>
		<layer id="139" name="2042204610206" type="Const" version="opset1">
			<data offset="0" size="4" shape="" element_type="f32"/>
			<output>
				<port id="0" precision="FP32"/>
			</output>
		</layer>
		<layer id="140" name="2043204710572" type="Const" version="opset1">
			<data offset="0" size="4" shape="" element_type="f32"/>
			<output>
				<port id="0" precision="FP32"/>
			</output>
		</layer>
		<layer id="141" name="204420489261" type="Const" version="opset1">
			<data offset="0" size="4" shape="" element_type="f32"/>
			<output>
				<port id="0" precision="FP32"/>
			</output>
		</layer>
		<layer id="142" name="140114058823" type="Const" version="opset1">
			<data offset="0" size="4" shape="" element_type="f32"/>
			<output>
				<port id="0" precision="FP32"/>
			</output>
		</layer>
		<layer id="143" name="1402140610605" type="Const" version="opset1">
			<data offset="0" size="4" shape="" element_type="f32"/>
			<output>
				<port id="0" precision="FP32"/>
			</output>
		</layer>
		<layer id="144" name="140314079120" type="Const" version="opset1">
			<data offset="0" size="4" shape="" element_type="f32"/>
			<output>
				<port id="0" precision="FP32"/>
			</output>
		</layer>
		<layer id="145" name="1404140810290" type="Const" version="opset1">
			<data offset="0" size="4" shape="" element_type="f32"/>
			<output>
				<port id="0" precision="FP32"/>
			</output>
		</layer>
		<layer id="146" name="174117459216" type="Const" version="opset1">
			<data offset="0" size="4" shape="" element_type="f32"/>
			<output>
				<port id="0" precision="FP32"/>
			</output>
		</layer>
		<layer id="147" name="174217469687" type="Const" version="opset1">
			<data offset="0" size="4" shape="" element_type="f32"/>
			<output>
				<port id="0" precision="FP32"/>
			</output>
		</layer>
		<layer id="148" name="174317479912" type="Const" version="opset1">
			<data offset="0" size="4" shape="" element_type="f32"/>
			<output>
				<port id="0" precision="FP32"/>
			</output>
		</layer>
		<layer id="149" name="1744174810242" type="Const" version="opset1">
			<data offset="0" size="4" shape="" element_type="f32"/>
			<output>
				<port id="0" precision="FP32"/>
			</output>
		</layer>
		<layer id="150" name="244124459645" type="Const" version="opset1">
			<data offset="0" size="4" shape="" element_type="f32"/>
			<output>
				<port id="0" precision="FP32"/>
			</output>
		</layer>
		<layer id="151" name="2442244610155" type="Const" version="opset1">
			<data offset="0" size="4" shape="" element_type="f32"/>
			<output>
				<port id="0" precision="FP32"/>
			</output>
		</layer>
		<layer id="152" name="244324478697" type="Const" version="opset1">
			<data offset="0" size="4" shape="" element_type="f32"/>
			<output>
				<port id="0" precision="FP32"/>
			</output>
		</layer>
		<layer id="153" name="244424489639" type="Const" version="opset1">
			<data offset="0" size="4" shape="" element_type="f32"/>
			<output>
				<port id="0" precision="FP32"/>
			</output>
		</layer>
		<layer id="154" name="247124759333" type="Const" version="opset1">
			<data offset="0" size="4" shape="" element_type="f32"/>
			<output>
				<port id="0" precision="FP32"/>
			</output>
		</layer>
		<layer id="155" name="247224769363" type="Const" version="opset1">
			<data offset="0" size="4" shape="" element_type="f32"/>
			<output>
				<port id="0" precision="FP32"/>
			</output>
		</layer>
		<layer id="156" name="247324779408" type="Const" version="opset1">
			<data offset="0" size="4" shape="" element_type="f32"/>
			<output>
				<port id="0" precision="FP32"/>
			</output>
		</layer>
		<layer id="157" name="247424789111" type="Const" version="opset1">
			<data offset="0" size="4" shape="" element_type="f32"/>
			<output>
				<port id="0" precision="FP32"/>
			</output>
		</layer>
		<layer id="158" name="7734579933" type="Const" version="opset1">
			<data offset="737284" size="24576" shape="192,32,1,1" element_type="f32"/>
			<output>
				<port id="0" precision="FP32" names="773">
					<dim>192</dim>
					<dim>32</dim>
					<dim>1</dim>
					<dim>1</dim>
				</port>
			</output>
		</layer>
		<layer id="159" name="Conv_51/WithoutBiases/fq_weights_1" type="FakeQuantize" version="opset1">
			<data levels="0" auto_broadcast="numpy"/>
			<input>
				<port id="0">
					<dim>192</dim>
					<dim>32</dim>
					<dim>1</dim>
					<dim>1</dim>
				</port>
				<port id="1"/>
				<port id="2"/>
				<port id="3"/>
				<port id="4"/>
			</input>
			<output>
				<port id="5" precision="FP32">
					<dim>192</dim>
					<dim>32</dim>
					<dim>1</dim>
					<dim>1</dim>
				</port>
			</output>
		</layer>
		<layer id="160" name="1411141510317" type="Const" version="opset1">
			<data offset="0" size="4" shape="" element_type="f32"/>
			<output>
				<port id="0" precision="FP32"/>
			</output>
		</layer>
		<layer id="161" name="1412141610689" type="Const" version="opset1">
			<data offset="0" size="4" shape="" element_type="f32"/>
			<output>
				<port id="0" precision="FP32"/>
			</output>
		</layer>
		<layer id="162" name="1413141710503" type="Const" version="opset1">
			<data offset="0" size="4" shape="" element_type="f32"/>
			<output>
				<port id="0" precision="FP32"/>
			</output>
		</layer>
		<layer id="163" name="1414141810494" type="Const" version="opset1">
			<data offset="0" size="4" shape="" element_type="f32"/>
			<output>
				<port id="0" precision="FP32"/>
			</output>
		</layer>
		<layer id="164" name="236123659735" type="Const" version="opset1">
			<data offset="0" size="4" shape="" element_type="f32"/>
			<output>
				<port id="0" precision="FP32"/>
			</output>
		</layer>
		<layer id="165" name="236223669801" type="Const" version="opset1">
			<data offset="0" size="4" shape="" element_type="f32"/>
			<output>
				<port id="0" precision="FP32"/>
			</output>
		</layer>
		<layer id="166" name="236323678685" type="Const" version="opset1">
			<data offset="0" size="4" shape="" element_type="f32"/>
			<output>
				<port id="0" precision="FP32"/>
			</output>
		</layer>
		<layer id="167" name="236423689702" type="Const" version="opset1">
			<data offset="0" size="4" shape="" element_type="f32"/>
			<output>
				<port id="0" precision="FP32"/>
			</output>
		</layer>
		<layer id="168" name="2561256510089" type="Const" version="opset1">
			<data offset="0" size="4" shape="" element_type="f32"/>
			<output>
				<port id="0" precision="FP32"/>
			</output>
		</layer>
		<layer id="169" name="256225668796" type="Const" version="opset1">
			<data offset="0" size="4" shape="" element_type="f32"/>
			<output>
				<port id="0" precision="FP32"/>
			</output>
		</layer>
		<layer id="170" name="256325679693" type="Const" version="opset1">
			<data offset="0" size="4" shape="" element_type="f32"/>
			<output>
				<port id="0" precision="FP32"/>
			</output>
		</layer>
		<layer id="171" name="256425689336" type="Const" version="opset1">
			<data offset="0" size="4" shape="" element_type="f32"/>
			<output>
				<port id="0" precision="FP32"/>
			</output>
		</layer>
		<layer id="172" name="232123259102" type="Const" version="opset1">
			<data offset="0" size="4" shape="" element_type="f32"/>
			<output>
				<port id="0" precision="FP32"/>
			</output>
		</layer>
		<layer id="173" name="232223268931" type="Const" version="opset1">
			<data offset="0" size="4" shape="" element_type="f32"/>
			<output>
				<port id="0" precision="FP32"/>
			</output>
		</layer>
		<layer id="174" name="2323232710647" type="Const" version="opset1">
			<data offset="0" size="4" shape="" element_type="f32"/>
			<output>
				<port id="0" precision="FP32"/>
			</output>
		</layer>
		<layer id="175" name="232423289732" type="Const" version="opset1">
			<data offset="0" size="4" shape="" element_type="f32"/>
			<output>
				<port id="0" precision="FP32"/>
			</output>
		</layer>
		<layer id="176" name="241124158754" type="Const" version="opset1">
			<data offset="0" size="4" shape="" element_type="f32"/>
			<output>
				<port id="0" precision="FP32"/>
			</output>
		</layer>
		<layer id="177" name="241224169795" type="Const" version="opset1">
			<data offset="0" size="4" shape="" element_type="f32"/>
			<output>
				<port id="0" precision="FP32"/>
			</output>
		</layer>
		<layer id="178" name="241324178883" type="Const" version="opset1">
			<data offset="0" size="4" shape="" element_type="f32"/>
			<output>
				<port id="0" precision="FP32"/>
			</output>
		</layer>
		<layer id="179" name="241424189891" type="Const" version="opset1">
			<data offset="0" size="4" shape="" element_type="f32"/>
			<output>
				<port id="0" precision="FP32"/>
			</output>
		</layer>
		<layer id="180" name="76444210491" type="Const" version="opset1">
			<data offset="761860" size="24576" shape="192,32,1,1" element_type="f32"/>
			<output>
				<port id="0" precision="FP32" names="764">
					<dim>192</dim>
					<dim>32</dim>
					<dim>1</dim>
					<dim>1</dim>
				</port>
			</output>
		</layer>
		<layer id="181" name="Conv_41/WithoutBiases/fq_weights_1" type="FakeQuantize" version="opset1">
			<data levels="0" auto_broadcast="numpy"/>
			<input>
				<port id="0">
					<dim>192</dim>
					<dim>32</dim>
					<dim>1</dim>
					<dim>1</dim>
				</port>
				<port id="1"/>
				<port id="2"/>
				<port id="3"/>
				<port id="4"/>
			</input>
			<output>
				<port id="5" precision="FP32">
					<dim>192</dim>
					<dim>32</dim>
					<dim>1</dim>
					<dim>1</dim>
				</port>
			</output>
		</layer>
		<layer id="182" name="237123759936" type="Const" version="opset1">
			<data offset="0" size="4" shape="" element_type="f32"/>
			<output>
				<port id="0" precision="FP32"/>
			</output>
		</layer>
		<layer id="183" name="2372237610329" type="Const" version="opset1">
			<data offset="0" size="4" shape="" element_type="f32"/>
			<output>
				<port id="0" precision="FP32"/>
			</output>
		</layer>
		<layer id="184" name="237323779390" type="Const" version="opset1">
			<data offset="0" size="4" shape="" element_type="f32"/>
			<output>
				<port id="0" precision="FP32"/>
			</output>
		</layer>
		<layer id="185" name="237423789951" type="Const" version="opset1">
			<data offset="0" size="4" shape="" element_type="f32"/>
			<output>
				<port id="0" precision="FP32"/>
			</output>
		</layer>
		<layer id="186" name="206120659627" type="Const" version="opset1">
			<data offset="0" size="4" shape="" element_type="f32"/>
			<output>
				<port id="0" precision="FP32"/>
			</output>
		</layer>
		<layer id="187" name="2062206610179" type="Const" version="opset1">
			<data offset="0" size="4" shape="" element_type="f32"/>
			<output>
				<port id="0" precision="FP32"/>
			</output>
		</layer>
		<layer id="188" name="2063206710428" type="Const" version="opset1">
			<data offset="0" size="4" shape="" element_type="f32"/>
			<output>
				<port id="0" precision="FP32"/>
			</output>
		</layer>
		<layer id="189" name="206420689129" type="Const" version="opset1">
			<data offset="0" size="4" shape="" element_type="f32"/>
			<output>
				<port id="0" precision="FP32"/>
			</output>
		</layer>
		<layer id="190" name="2241224510602" type="Const" version="opset1">
			<data offset="0" size="4" shape="" element_type="f32"/>
			<output>
				<port id="0" precision="FP32"/>
			</output>
		</layer>
		<layer id="191" name="224222469810" type="Const" version="opset1">
			<data offset="0" size="4" shape="" element_type="f32"/>
			<output>
				<port id="0" precision="FP32"/>
			</output>
		</layer>
		<layer id="192" name="224322479009" type="Const" version="opset1">
			<data offset="0" size="4" shape="" element_type="f32"/>
			<output>
				<port id="0" precision="FP32"/>
			</output>
		</layer>
		<layer id="193" name="224422489441" type="Const" version="opset1">
			<data offset="0" size="4" shape="" element_type="f32"/>
			<output>
				<port id="0" precision="FP32"/>
			</output>
		</layer>
		<layer id="194" name="178117859858" type="Const" version="opset1">
			<data offset="0" size="4" shape="" element_type="f32"/>
			<output>
				<port id="0" precision="FP32"/>
			</output>
		</layer>
		<layer id="195" name="178217869804" type="Const" version="opset1">
			<data offset="0" size="4" shape="" element_type="f32"/>
			<output>
				<port id="0" precision="FP32"/>
			</output>
		</layer>
		<layer id="196" name="178317879222" type="Const" version="opset1">
			<data offset="0" size="4" shape="" element_type="f32"/>
			<output>
				<port id="0" precision="FP32"/>
			</output>
		</layer>
		<layer id="197" name="178417889138" type="Const" version="opset1">
			<data offset="0" size="4" shape="" element_type="f32"/>
			<output>
				<port id="0" precision="FP32"/>
			</output>
		</layer>
		<layer id="198" name="2301230510473" type="Const" version="opset1">
			<data offset="0" size="4" shape="" element_type="f32"/>
			<output>
				<port id="0" precision="FP32"/>
			</output>
		</layer>
		<layer id="199" name="230223069636" type="Const" version="opset1">
			<data offset="0" size="4" shape="" element_type="f32"/>
			<output>
				<port id="0" precision="FP32"/>
			</output>
		</layer>
		<layer id="200" name="230323079969" type="Const" version="opset1">
			<data offset="0" size="4" shape="" element_type="f32"/>
			<output>
				<port id="0" precision="FP32"/>
			</output>
		</layer>
		<layer id="201" name="230423089309" type="Const" version="opset1">
			<data offset="0" size="4" shape="" element_type="f32"/>
			<output>
				<port id="0" precision="FP32"/>
			</output>
		</layer>
		<layer id="202" name="2761276510134" type="Const" version="opset1">
			<data offset="0" size="4" shape="" element_type="f32"/>
			<output>
				<port id="0" precision="FP32"/>
			</output>
		</layer>
		<layer id="203" name="276227669861" type="Const" version="opset1">
			<data offset="0" size="4" shape="" element_type="f32"/>
			<output>
				<port id="0" precision="FP32"/>
			</output>
		</layer>
		<layer id="204" name="276327679402" type="Const" version="opset1">
			<data offset="0" size="4" shape="" element_type="f32"/>
			<output>
				<port id="0" precision="FP32"/>
			</output>
		</layer>
		<layer id="205" name="276427689345" type="Const" version="opset1">
			<data offset="0" size="4" shape="" element_type="f32"/>
			<output>
				<port id="0" precision="FP32"/>
			</output>
		</layer>
		<layer id="206" name="188118859144" type="Const" version="opset1">
			<data offset="0" size="4" shape="" element_type="f32"/>
			<output>
				<port id="0" precision="FP32"/>
			</output>
		</layer>
		<layer id="207" name="188218868811" type="Const" version="opset1">
			<data offset="0" size="4" shape="" element_type="f32"/>
			<output>
				<port id="0" precision="FP32"/>
			</output>
		</layer>
		<layer id="208" name="1883188710065" type="Const" version="opset1">
			<data offset="0" size="4" shape="" element_type="f32"/>
			<output>
				<port id="0" precision="FP32"/>
			</output>
		</layer>
		<layer id="209" name="188418889480" type="Const" version="opset1">
			<data offset="0" size="4" shape="" element_type="f32"/>
			<output>
				<port id="0" precision="FP32"/>
			</output>
		</layer>
		<layer id="210" name="219121958727" type="Const" version="opset1">
			<data offset="0" size="4" shape="" element_type="f32"/>
			<output>
				<port id="0" precision="FP32"/>
			</output>
		</layer>
		<layer id="211" name="2192219610020" type="Const" version="opset1">
			<data offset="0" size="4" shape="" element_type="f32"/>
			<output>
				<port id="0" precision="FP32"/>
			</output>
		</layer>
		<layer id="212" name="219321979162" type="Const" version="opset1">
			<data offset="0" size="4" shape="" element_type="f32"/>
			<output>
				<port id="0" precision="FP32"/>
			</output>
		</layer>
		<layer id="213" name="2194219810713" type="Const" version="opset1">
			<data offset="0" size="4" shape="" element_type="f32"/>
			<output>
				<port id="0" precision="FP32"/>
			</output>
		</layer>
		<layer id="214" name="7464139648" type="Const" version="opset1">
			<data offset="786436" size="13824" shape="144,24,1,1" element_type="f32"/>
			<output>
				<port id="0" precision="FP32" names="746">
					<dim>144</dim>
					<dim>24</dim>
					<dim>1</dim>
					<dim>1</dim>
				</port>
			</output>
		</layer>
		<layer id="215" name="Conv_22/WithoutBiases/fq_weights_1" type="FakeQuantize" version="opset1">
			<data levels="0" auto_broadcast="numpy"/>
			<input>
				<port id="0">
					<dim>144</dim>
					<dim>24</dim>
					<dim>1</dim>
					<dim>1</dim>
				</port>
				<port id="1"/>
				<port id="2"/>
				<port id="3"/>
				<port id="4"/>
			</input>
			<output>
				<port id="5" precision="FP32">
					<dim>144</dim>
					<dim>24</dim>
					<dim>1</dim>
					<dim>1</dim>
				</port>
			</output>
		</layer>
		<layer id="216" name="2311231510398" type="Const" version="opset1">
			<data offset="0" size="4" shape="" element_type="f32"/>
			<output>
				<port id="0" precision="FP32"/>
			</output>
		</layer>
		<layer id="217" name="231223169996" type="Const" version="opset1">
			<data offset="0" size="4" shape="" element_type="f32"/>
			<output>
				<port id="0" precision="FP32"/>
			</output>
		</layer>
		<layer id="218" name="231323179957" type="Const" version="opset1">
			<data offset="0" size="4" shape="" element_type="f32"/>
			<output>
				<port id="0" precision="FP32"/>
			</output>
		</layer>
		<layer id="219" name="2314231810227" type="Const" version="opset1">
			<data offset="0" size="4" shape="" element_type="f32"/>
			<output>
				<port id="0" precision="FP32"/>
			</output>
		</layer>
		<layer id="220" name="242124259147" type="Const" version="opset1">
			<data offset="0" size="4" shape="" element_type="f32"/>
			<output>
				<port id="0" precision="FP32"/>
			</output>
		</layer>
		<layer id="221" name="242224269903" type="Const" version="opset1">
			<data offset="0" size="4" shape="" element_type="f32"/>
			<output>
				<port id="0" precision="FP32"/>
			</output>
		</layer>
		<layer id="222" name="2423242710716" type="Const" version="opset1">
			<data offset="0" size="4" shape="" element_type="f32"/>
			<output>
				<port id="0" precision="FP32"/>
			</output>
		</layer>
		<layer id="223" name="242424289117" type="Const" version="opset1">
			<data offset="0" size="4" shape="" element_type="f32"/>
			<output>
				<port id="0" precision="FP32"/>
			</output>
		</layer>
		<layer id="224" name="190119058979" type="Const" version="opset1">
			<data offset="0" size="4" shape="" element_type="f32"/>
			<output>
				<port id="0" precision="FP32"/>
			</output>
		</layer>
		<layer id="225" name="190219069705" type="Const" version="opset1">
			<data offset="0" size="4" shape="" element_type="f32"/>
			<output>
				<port id="0" precision="FP32"/>
			</output>
		</layer>
		<layer id="226" name="190319078928" type="Const" version="opset1">
			<data offset="0" size="4" shape="" element_type="f32"/>
			<output>
				<port id="0" precision="FP32"/>
			</output>
		</layer>
		<layer id="227" name="190419088868" type="Const" version="opset1">
			<data offset="0" size="4" shape="" element_type="f32"/>
			<output>
				<port id="0" precision="FP32"/>
			</output>
		</layer>
		<layer id="228" name="208120858970" type="Const" version="opset1">
			<data offset="0" size="4" shape="" element_type="f32"/>
			<output>
				<port id="0" precision="FP32"/>
			</output>
		</layer>
		<layer id="229" name="208220869432" type="Const" version="opset1">
			<data offset="0" size="4" shape="" element_type="f32"/>
			<output>
				<port id="0" precision="FP32"/>
			</output>
		</layer>
		<layer id="230" name="208320879237" type="Const" version="opset1">
			<data offset="0" size="4" shape="" element_type="f32"/>
			<output>
				<port id="0" precision="FP32"/>
			</output>
		</layer>
		<layer id="231" name="208420889915" type="Const" version="opset1">
			<data offset="0" size="4" shape="" element_type="f32"/>
			<output>
				<port id="0" precision="FP32"/>
			</output>
		</layer>
		<layer id="232" name="160116059615" type="Const" version="opset1">
			<data offset="0" size="4" shape="" element_type="f32"/>
			<output>
				<port id="0" precision="FP32"/>
			</output>
		</layer>
		<layer id="233" name="160216069600" type="Const" version="opset1">
			<data offset="0" size="4" shape="" element_type="f32"/>
			<output>
				<port id="0" precision="FP32"/>
			</output>
		</layer>
		<layer id="234" name="160316079462" type="Const" version="opset1">
			<data offset="0" size="4" shape="" element_type="f32"/>
			<output>
				<port id="0" precision="FP32"/>
			</output>
		</layer>
		<layer id="235" name="160416089531" type="Const" version="opset1">
			<data offset="0" size="4" shape="" element_type="f32"/>
			<output>
				<port id="0" precision="FP32"/>
			</output>
		</layer>
		<layer id="236" name="168116858688" type="Const" version="opset1">
			<data offset="0" size="4" shape="" element_type="f32"/>
			<output>
				<port id="0" precision="FP32"/>
			</output>
		</layer>
		<layer id="237" name="168216869012" type="Const" version="opset1">
			<data offset="0" size="4" shape="" element_type="f32"/>
			<output>
				<port id="0" precision="FP32"/>
			</output>
		</layer>
		<layer id="238" name="168316878781" type="Const" version="opset1">
			<data offset="0" size="4" shape="" element_type="f32"/>
			<output>
				<port id="0" precision="FP32"/>
			</output>
		</layer>
		<layer id="239" name="1684168810515" type="Const" version="opset1">
			<data offset="0" size="4" shape="" element_type="f32"/>
			<output>
				<port id="0" precision="FP32"/>
			</output>
		</layer>
		<layer id="240" name="222122259435" type="Const" version="opset1">
			<data offset="0" size="4" shape="" element_type="f32"/>
			<output>
				<port id="0" precision="FP32"/>
			</output>
		</layer>
		<layer id="241" name="2222222610386" type="Const" version="opset1">
			<data offset="0" size="4" shape="" element_type="f32"/>
			<output>
				<port id="0" precision="FP32"/>
			</output>
		</layer>
		<layer id="242" name="222322279021" type="Const" version="opset1">
			<data offset="0" size="4" shape="" element_type="f32"/>
			<output>
				<port id="0" precision="FP32"/>
			</output>
		</layer>
		<layer id="243" name="222422289330" type="Const" version="opset1">
			<data offset="0" size="4" shape="" element_type="f32"/>
			<output>
				<port id="0" precision="FP32"/>
			</output>
		</layer>
		<layer id="244" name="238123858676" type="Const" version="opset1">
			<data offset="0" size="4" shape="" element_type="f32"/>
			<output>
				<port id="0" precision="FP32"/>
			</output>
		</layer>
		<layer id="245" name="238223868817" type="Const" version="opset1">
			<data offset="0" size="4" shape="" element_type="f32"/>
			<output>
				<port id="0" precision="FP32"/>
			</output>
		</layer>
		<layer id="246" name="238323878901" type="Const" version="opset1">
			<data offset="0" size="4" shape="" element_type="f32"/>
			<output>
				<port id="0" precision="FP32"/>
			</output>
		</layer>
		<layer id="247" name="238423889909" type="Const" version="opset1">
			<data offset="0" size="4" shape="" element_type="f32"/>
			<output>
				<port id="0" precision="FP32"/>
			</output>
		</layer>
		<layer id="249" name="Conv_0/WithoutBiases/fq_input_0" type="FakeQuantize" version="opset1">
			<data levels="0" auto_broadcast="numpy"/>
			<input>
				<port id="0">
					<dim>1</dim>
					<dim>3</dim>
					<dim>864</dim>
					<dim>864</dim>
				</port>
				<port id="1"/>
				<port id="2"/>
				<port id="3"/>
				<port id="4"/>
			</input>
			<output>
				<port id="5" precision="FP32">
					<dim>1</dim>
					<dim>3</dim>
					<dim>864</dim>
					<dim>864</dim>
				</port>
			</output>
		</layer>
		<layer id="250" name="2391239510506" type="Const" version="opset1">
			<data offset="0" size="4" shape="" element_type="f32"/>
			<output>
				<port id="0" precision="FP32"/>
			</output>
		</layer>
		<layer id="251" name="239223968865" type="Const" version="opset1">
			<data offset="0" size="4" shape="" element_type="f32"/>
			<output>
				<port id="0" precision="FP32"/>
			</output>
		</layer>
		<layer id="252" name="239323979720" type="Const" version="opset1">
			<data offset="0" size="4" shape="" element_type="f32"/>
			<output>
				<port id="0" precision="FP32"/>
			</output>
		</layer>
		<layer id="253" name="2394239810194" type="Const" version="opset1">
			<data offset="0" size="4" shape="" element_type="f32"/>
			<output>
				<port id="0" precision="FP32"/>
			</output>
		</layer>
		<layer id="254" name="72538010377" type="Const" version="opset1">
			<data offset="800260" size="3456" shape="32,3,3,3" element_type="f32"/>
			<output>
				<port id="0" precision="FP32" names="725">
					<dim>32</dim>
					<dim>3</dim>
					<dim>3</dim>
					<dim>3</dim>
				</port>
			</output>
		</layer>
		<layer id="255" name="Conv_0/WithoutBiases/fq_weights_1" type="FakeQuantize" version="opset1">
			<data levels="0" auto_broadcast="numpy"/>
			<input>
				<port id="0">
					<dim>32</dim>
					<dim>3</dim>
					<dim>3</dim>
					<dim>3</dim>
				</port>
				<port id="1"/>
				<port id="2"/>
				<port id="3"/>
				<port id="4"/>
			</input>
			<output>
				<port id="5" precision="FP32">
					<dim>32</dim>
					<dim>3</dim>
					<dim>3</dim>
					<dim>3</dim>
				</port>
			</output>
		</layer>
		<layer id="256" name="Conv_0/WithoutBiases" type="Convolution" version="opset1">
			<data auto_pad="explicit" strides="2,2" dilations="1,1" pads_begin="1,1" pads_end="1,1"/>
			<input>
				<port id="0">
					<dim>1</dim>
					<dim>3</dim>
					<dim>864</dim>
					<dim>864</dim>
				</port>
				<port id="1">
					<dim>32</dim>
					<dim>3</dim>
					<dim>3</dim>
					<dim>3</dim>
				</port>
			</input>
			<output>
				<port id="2" precision="FP32">
					<dim>1</dim>
					<dim>32</dim>
					<dim>432</dim>
					<dim>432</dim>
				</port>
			</output>
		</layer>
		<layer id="257" name="Reshape_2373828745" type="Const" version="opset1">
			<data offset="803716" size="128" shape="1,32,1,1" element_type="f32"/>
			<output>
				<port id="0" precision="FP32">
					<dim>1</dim>
					<dim>32</dim>
					<dim>1</dim>
					<dim>1</dim>
				</port>
			</output>
		</layer>
		<layer id="258" name="Conv_0" type="Add" version="opset1">
			<data auto_broadcast="numpy"/>
			<input>
				<port id="0">
					<dim>1</dim>
					<dim>32</dim>
					<dim>432</dim>
					<dim>432</dim>
				</port>
				<port id="1">
					<dim>1</dim>
					<dim>32</dim>
					<dim>1</dim>
					<dim>1</dim>
				</port>
			</input>
			<output>
				<port id="2" precision="FP32" names="724">
					<dim>1</dim>
					<dim>32</dim>
					<dim>432</dim>
					<dim>432</dim>
				</port>
			</output>
		</layer>
		<layer id="259" name="Clip_3" type="Clamp" version="opset1">
			<data max="6" min="0"/>
			<input>
				<port id="0">
					<dim>1</dim>
					<dim>32</dim>
					<dim>432</dim>
					<dim>432</dim>
				</port>
			</input>
			<output>
				<port id="1" precision="FP32" names="353">
					<dim>1</dim>
					<dim>32</dim>
					<dim>432</dim>
					<dim>432</dim>
				</port>
			</output>
		</layer>
		<layer id="260" name="Conv_4/WithoutBiases/fq_input_0" type="FakeQuantize" version="opset1">
			<data levels="0" auto_broadcast="numpy"/>
			<input>
				<port id="0">
					<dim>1</dim>
					<dim>32</dim>
					<dim>432</dim>
					<dim>432</dim>
				</port>
				<port id="1"/>
				<port id="2"/>
				<port id="3"/>
				<port id="4"/>
			</input>
			<output>
				<port id="5" precision="FP32">
					<dim>1</dim>
					<dim>32</dim>
					<dim>432</dim>
					<dim>432</dim>
				</port>
			</output>
		</layer>
		<layer id="261" name="223122359444" type="Const" version="opset1">
			<data offset="0" size="4" shape="" element_type="f32"/>
			<output>
				<port id="0" precision="FP32"/>
			</output>
		</layer>
		<layer id="262" name="2232223610158" type="Const" version="opset1">
			<data offset="0" size="4" shape="" element_type="f32"/>
			<output>
				<port id="0" precision="FP32"/>
			</output>
		</layer>
		<layer id="263" name="223322379834" type="Const" version="opset1">
			<data offset="0" size="4" shape="" element_type="f32"/>
			<output>
				<port id="0" precision="FP32"/>
			</output>
		</layer>
		<layer id="264" name="223422389039" type="Const" version="opset1">
			<data offset="0" size="4" shape="" element_type="f32"/>
			<output>
				<port id="0" precision="FP32"/>
			</output>
		</layer>
		<layer id="265" name="7283859672" type="Const" version="opset1">
			<data offset="803844" size="4096" shape="32,32,1,1" element_type="f32"/>
			<output>
				<port id="0" precision="FP32" names="728">
					<dim>32</dim>
					<dim>32</dim>
					<dim>1</dim>
					<dim>1</dim>
				</port>
			</output>
		</layer>
		<layer id="266" name="Conv_4/WithoutBiases/fq_weights_1" type="FakeQuantize" version="opset1">
			<data levels="0" auto_broadcast="numpy"/>
			<input>
				<port id="0">
					<dim>32</dim>
					<dim>32</dim>
					<dim>1</dim>
					<dim>1</dim>
				</port>
				<port id="1"/>
				<port id="2"/>
				<port id="3"/>
				<port id="4"/>
			</input>
			<output>
				<port id="5" precision="FP32">
					<dim>32</dim>
					<dim>32</dim>
					<dim>1</dim>
					<dim>1</dim>
				</port>
			</output>
		</layer>
		<layer id="267" name="Conv_4/WithoutBiases" type="Convolution" version="opset1">
			<data auto_pad="explicit" strides="1,1" dilations="1,1" pads_begin="0,0" pads_end="0,0"/>
			<input>
				<port id="0">
					<dim>1</dim>
					<dim>32</dim>
					<dim>432</dim>
					<dim>432</dim>
				</port>
				<port id="1">
					<dim>32</dim>
					<dim>32</dim>
					<dim>1</dim>
					<dim>1</dim>
				</port>
			</input>
			<output>
				<port id="2" precision="FP32">
					<dim>1</dim>
					<dim>32</dim>
					<dim>432</dim>
					<dim>432</dim>
				</port>
			</output>
		</layer>
		<layer id="268" name="Reshape_2543879606" type="Const" version="opset1">
			<data offset="807940" size="128" shape="1,32,1,1" element_type="f32"/>
			<output>
				<port id="0" precision="FP32">
					<dim>1</dim>
					<dim>32</dim>
					<dim>1</dim>
					<dim>1</dim>
				</port>
			</output>
		</layer>
		<layer id="269" name="Conv_4" type="Add" version="opset1">
			<data auto_broadcast="numpy"/>
			<input>
				<port id="0">
					<dim>1</dim>
					<dim>32</dim>
					<dim>432</dim>
					<dim>432</dim>
				</port>
				<port id="1">
					<dim>1</dim>
					<dim>32</dim>
					<dim>1</dim>
					<dim>1</dim>
				</port>
			</input>
			<output>
				<port id="2" precision="FP32" names="727">
					<dim>1</dim>
					<dim>32</dim>
					<dim>432</dim>
					<dim>432</dim>
				</port>
			</output>
		</layer>
		<layer id="270" name="Clip_7" type="Clamp" version="opset1">
			<data max="6" min="0"/>
			<input>
				<port id="0">
					<dim>1</dim>
					<dim>32</dim>
					<dim>432</dim>
					<dim>432</dim>
				</port>
			</input>
			<output>
				<port id="1" precision="FP32" names="358">
					<dim>1</dim>
					<dim>32</dim>
					<dim>432</dim>
					<dim>432</dim>
				</port>
			</output>
		</layer>
		<layer id="271" name="Conv_8/WithoutBiases/fq_input_0" type="FakeQuantize" version="opset1">
			<data levels="0" auto_broadcast="numpy"/>
			<input>
				<port id="0">
					<dim>1</dim>
					<dim>32</dim>
					<dim>432</dim>
					<dim>432</dim>
				</port>
				<port id="1"/>
				<port id="2"/>
				<port id="3"/>
				<port id="4"/>
			</input>
			<output>
				<port id="5" precision="FP32">
					<dim>1</dim>
					<dim>32</dim>
					<dim>432</dim>
					<dim>432</dim>
				</port>
			</output>
		</layer>
		<layer id="272" name="Conv_8/WithoutBiases/weights_shape693010392" type="Const" version="opset1">
			<data offset="808068" size="40" shape="5" element_type="i64"/>
			<output>
				<port id="0" precision="I64">
					<dim>5</dim>
				</port>
			</output>
		</layer>
		<layer id="273" name="1691169510110" type="Const" version="opset1">
			<data offset="0" size="4" shape="" element_type="f32"/>
			<output>
				<port id="0" precision="FP32"/>
			</output>
		</layer>
		<layer id="274" name="1692169610368" type="Const" version="opset1">
			<data offset="0" size="4" shape="" element_type="f32"/>
			<output>
				<port id="0" precision="FP32"/>
			</output>
		</layer>
		<layer id="275" name="169316979681" type="Const" version="opset1">
			<data offset="0" size="4" shape="" element_type="f32"/>
			<output>
				<port id="0" precision="FP32"/>
			</output>
		</layer>
		<layer id="276" name="1694169810707" type="Const" version="opset1">
			<data offset="0" size="4" shape="" element_type="f32"/>
			<output>
				<port id="0" precision="FP32"/>
			</output>
		</layer>
		<layer id="277" name="Reshape_26739010719" type="Const" version="opset1">
			<data offset="808108" size="1152" shape="32,1,3,3" element_type="f32"/>
			<output>
				<port id="0" precision="FP32">
					<dim>32</dim>
					<dim>1</dim>
					<dim>3</dim>
					<dim>3</dim>
				</port>
			</output>
		</layer>
		<layer id="278" name="Conv_8/WithoutBiases/fq_weights_1" type="FakeQuantize" version="opset1">
			<data levels="0" auto_broadcast="numpy"/>
			<input>
				<port id="0">
					<dim>32</dim>
					<dim>1</dim>
					<dim>3</dim>
					<dim>3</dim>
				</port>
				<port id="1"/>
				<port id="2"/>
				<port id="3"/>
				<port id="4"/>
			</input>
			<output>
				<port id="5" precision="FP32">
					<dim>32</dim>
					<dim>1</dim>
					<dim>3</dim>
					<dim>3</dim>
				</port>
			</output>
		</layer>
		<layer id="279" name="6929" type="Reshape" version="opset1">
			<data special_zero="true"/>
			<input>
				<port id="0">
					<dim>32</dim>
					<dim>1</dim>
					<dim>3</dim>
					<dim>3</dim>
				</port>
				<port id="1">
					<dim>5</dim>
				</port>
			</input>
			<output>
				<port id="2" precision="FP32">
					<dim>32</dim>
					<dim>1</dim>
					<dim>1</dim>
					<dim>3</dim>
					<dim>3</dim>
				</port>
			</output>
		</layer>
		<layer id="280" name="Conv_8/WithoutBiases" type="GroupConvolution" version="opset1">
			<data auto_pad="explicit" strides="1,1" dilations="1,1" pads_begin="1,1" pads_end="1,1"/>
			<input>
				<port id="0">
					<dim>1</dim>
					<dim>32</dim>
					<dim>432</dim>
					<dim>432</dim>
				</port>
				<port id="1">
					<dim>32</dim>
					<dim>1</dim>
					<dim>1</dim>
					<dim>3</dim>
					<dim>3</dim>
				</port>
			</input>
			<output>
				<port id="2" precision="FP32">
					<dim>1</dim>
					<dim>32</dim>
					<dim>432</dim>
					<dim>432</dim>
				</port>
			</output>
		</layer>
		<layer id="281" name="Reshape_3193929051" type="Const" version="opset1">
			<data offset="809260" size="128" shape="1,32,1,1" element_type="f32"/>
			<output>
				<port id="0" precision="FP32">
					<dim>1</dim>
					<dim>32</dim>
					<dim>1</dim>
					<dim>1</dim>
				</port>
			</output>
		</layer>
		<layer id="282" name="Conv_8" type="Add" version="opset1">
			<data auto_broadcast="numpy"/>
			<input>
				<port id="0">
					<dim>1</dim>
					<dim>32</dim>
					<dim>432</dim>
					<dim>432</dim>
				</port>
				<port id="1">
					<dim>1</dim>
					<dim>32</dim>
					<dim>1</dim>
					<dim>1</dim>
				</port>
			</input>
			<output>
				<port id="2" precision="FP32" names="730">
					<dim>1</dim>
					<dim>32</dim>
					<dim>432</dim>
					<dim>432</dim>
				</port>
			</output>
		</layer>
		<layer id="283" name="Clip_11" type="Clamp" version="opset1">
			<data max="6" min="0"/>
			<input>
				<port id="0">
					<dim>1</dim>
					<dim>32</dim>
					<dim>432</dim>
					<dim>432</dim>
				</port>
			</input>
			<output>
				<port id="1" precision="FP32" names="363">
					<dim>1</dim>
					<dim>32</dim>
					<dim>432</dim>
					<dim>432</dim>
				</port>
			</output>
		</layer>
		<layer id="284" name="Conv_12/WithoutBiases/fq_input_0" type="FakeQuantize" version="opset1">
			<data levels="0" auto_broadcast="numpy"/>
			<input>
				<port id="0">
					<dim>1</dim>
					<dim>32</dim>
					<dim>432</dim>
					<dim>432</dim>
				</port>
				<port id="1"/>
				<port id="2"/>
				<port id="3"/>
				<port id="4"/>
			</input>
			<output>
				<port id="5" precision="FP32">
					<dim>1</dim>
					<dim>32</dim>
					<dim>432</dim>
					<dim>432</dim>
				</port>
			</output>
		</layer>
		<layer id="285" name="161116159342" type="Const" version="opset1">
			<data offset="0" size="4" shape="" element_type="f32"/>
			<output>
				<port id="0" precision="FP32"/>
			</output>
		</layer>
		<layer id="286" name="161216168778" type="Const" version="opset1">
			<data offset="0" size="4" shape="" element_type="f32"/>
			<output>
				<port id="0" precision="FP32"/>
			</output>
		</layer>
		<layer id="287" name="1613161710482" type="Const" version="opset1">
			<data offset="0" size="4" shape="" element_type="f32"/>
			<output>
				<port id="0" precision="FP32"/>
			</output>
		</layer>
		<layer id="288" name="1614161810185" type="Const" version="opset1">
			<data offset="0" size="4" shape="" element_type="f32"/>
			<output>
				<port id="0" precision="FP32"/>
			</output>
		</layer>
		<layer id="289" name="7343958814" type="Const" version="opset1">
			<data offset="809388" size="2048" shape="16,32,1,1" element_type="f32"/>
			<output>
				<port id="0" precision="FP32" names="734">
					<dim>16</dim>
					<dim>32</dim>
					<dim>1</dim>
					<dim>1</dim>
				</port>
			</output>
		</layer>
		<layer id="290" name="Conv_12/WithoutBiases/fq_weights_1" type="FakeQuantize" version="opset1">
			<data levels="0" auto_broadcast="numpy"/>
			<input>
				<port id="0">
					<dim>16</dim>
					<dim>32</dim>
					<dim>1</dim>
					<dim>1</dim>
				</port>
				<port id="1"/>
				<port id="2"/>
				<port id="3"/>
				<port id="4"/>
			</input>
			<output>
				<port id="5" precision="FP32">
					<dim>16</dim>
					<dim>32</dim>
					<dim>1</dim>
					<dim>1</dim>
				</port>
			</output>
		</layer>
		<layer id="291" name="Conv_12/WithoutBiases" type="Convolution" version="opset1">
			<data auto_pad="explicit" strides="1,1" dilations="1,1" pads_begin="0,0" pads_end="0,0"/>
			<input>
				<port id="0">
					<dim>1</dim>
					<dim>32</dim>
					<dim>432</dim>
					<dim>432</dim>
				</port>
				<port id="1">
					<dim>16</dim>
					<dim>32</dim>
					<dim>1</dim>
					<dim>1</dim>
				</port>
			</input>
			<output>
				<port id="2" precision="FP32">
					<dim>1</dim>
					<dim>16</dim>
					<dim>432</dim>
					<dim>432</dim>
				</port>
			</output>
		</layer>
		<layer id="292" name="Reshape_3363979306" type="Const" version="opset1">
			<data offset="811436" size="64" shape="1,16,1,1" element_type="f32"/>
			<output>
				<port id="0" precision="FP32">
					<dim>1</dim>
					<dim>16</dim>
					<dim>1</dim>
					<dim>1</dim>
				</port>
			</output>
		</layer>
		<layer id="293" name="Conv_12" type="Add" version="opset1">
			<data auto_broadcast="numpy"/>
			<input>
				<port id="0">
					<dim>1</dim>
					<dim>16</dim>
					<dim>432</dim>
					<dim>432</dim>
				</port>
				<port id="1">
					<dim>1</dim>
					<dim>16</dim>
					<dim>1</dim>
					<dim>1</dim>
				</port>
			</input>
			<output>
				<port id="2" precision="FP32" names="733">
					<dim>1</dim>
					<dim>16</dim>
					<dim>432</dim>
					<dim>432</dim>
				</port>
			</output>
		</layer>
		<layer id="294" name="Conv_13/WithoutBiases/fq_input_0" type="FakeQuantize" version="opset1">
			<data levels="0" auto_broadcast="numpy"/>
			<input>
				<port id="0">
					<dim>1</dim>
					<dim>16</dim>
					<dim>432</dim>
					<dim>432</dim>
				</port>
				<port id="1"/>
				<port id="2"/>
				<port id="3"/>
				<port id="4"/>
			</input>
			<output>
				<port id="5" precision="FP32">
					<dim>1</dim>
					<dim>16</dim>
					<dim>432</dim>
					<dim>432</dim>
				</port>
			</output>
		</layer>
		<layer id="295" name="2091209510557" type="Const" version="opset1">
			<data offset="0" size="4" shape="" element_type="f32"/>
			<output>
				<port id="0" precision="FP32"/>
			</output>
		</layer>
		<layer id="296" name="2092209610722" type="Const" version="opset1">
			<data offset="0" size="4" shape="" element_type="f32"/>
			<output>
				<port id="0" precision="FP32"/>
			</output>
		</layer>
		<layer id="297" name="209320979447" type="Const" version="opset1">
			<data offset="0" size="4" shape="" element_type="f32"/>
			<output>
				<port id="0" precision="FP32"/>
			</output>
		</layer>
		<layer id="298" name="2094209810173" type="Const" version="opset1">
			<data offset="0" size="4" shape="" element_type="f32"/>
			<output>
				<port id="0" precision="FP32"/>
			</output>
		</layer>
		<layer id="299" name="73739910611" type="Const" version="opset1">
			<data offset="811500" size="6144" shape="96,16,1,1" element_type="f32"/>
			<output>
				<port id="0" precision="FP32" names="737">
					<dim>96</dim>
					<dim>16</dim>
					<dim>1</dim>
					<dim>1</dim>
				</port>
			</output>
		</layer>
		<layer id="300" name="Conv_13/WithoutBiases/fq_weights_1" type="FakeQuantize" version="opset1">
			<data levels="0" auto_broadcast="numpy"/>
			<input>
				<port id="0">
					<dim>96</dim>
					<dim>16</dim>
					<dim>1</dim>
					<dim>1</dim>
				</port>
				<port id="1"/>
				<port id="2"/>
				<port id="3"/>
				<port id="4"/>
			</input>
			<output>
				<port id="5" precision="FP32">
					<dim>96</dim>
					<dim>16</dim>
					<dim>1</dim>
					<dim>1</dim>
				</port>
			</output>
		</layer>
		<layer id="301" name="Conv_13/WithoutBiases" type="Convolution" version="opset1">
			<data auto_pad="explicit" strides="1,1" dilations="1,1" pads_begin="0,0" pads_end="0,0"/>
			<input>
				<port id="0">
					<dim>1</dim>
					<dim>16</dim>
					<dim>432</dim>
					<dim>432</dim>
				</port>
				<port id="1">
					<dim>96</dim>
					<dim>16</dim>
					<dim>1</dim>
					<dim>1</dim>
				</port>
			</input>
			<output>
				<port id="2" precision="FP32">
					<dim>1</dim>
					<dim>96</dim>
					<dim>432</dim>
					<dim>432</dim>
				</port>
			</output>
		</layer>
		<layer id="302" name="Reshape_3514019354" type="Const" version="opset1">
			<data offset="817644" size="384" shape="1,96,1,1" element_type="f32"/>
			<output>
				<port id="0" precision="FP32">
					<dim>1</dim>
					<dim>96</dim>
					<dim>1</dim>
					<dim>1</dim>
				</port>
			</output>
		</layer>
		<layer id="303" name="Conv_13" type="Add" version="opset1">
			<data auto_broadcast="numpy"/>
			<input>
				<port id="0">
					<dim>1</dim>
					<dim>96</dim>
					<dim>432</dim>
					<dim>432</dim>
				</port>
				<port id="1">
					<dim>1</dim>
					<dim>96</dim>
					<dim>1</dim>
					<dim>1</dim>
				</port>
			</input>
			<output>
				<port id="2" precision="FP32" names="736">
					<dim>1</dim>
					<dim>96</dim>
					<dim>432</dim>
					<dim>432</dim>
				</port>
			</output>
		</layer>
		<layer id="304" name="Clip_16" type="Clamp" version="opset1">
			<data max="6" min="0"/>
			<input>
				<port id="0">
					<dim>1</dim>
					<dim>96</dim>
					<dim>432</dim>
					<dim>432</dim>
				</port>
			</input>
			<output>
				<port id="1" precision="FP32" names="370">
					<dim>1</dim>
					<dim>96</dim>
					<dim>432</dim>
					<dim>432</dim>
				</port>
			</output>
		</layer>
		<layer id="305" name="Conv_17/WithoutBiases/fq_input_0" type="FakeQuantize" version="opset1">
			<data levels="0" auto_broadcast="numpy"/>
			<input>
				<port id="0">
					<dim>1</dim>
					<dim>96</dim>
					<dim>432</dim>
					<dim>432</dim>
				</port>
				<port id="1"/>
				<port id="2"/>
				<port id="3"/>
				<port id="4"/>
			</input>
			<output>
				<port id="5" precision="FP32">
					<dim>1</dim>
					<dim>96</dim>
					<dim>432</dim>
					<dim>432</dim>
				</port>
			</output>
		</layer>
		<layer id="306" name="Conv_17/WithoutBiases/weights_shape694410680" type="Const" version="opset1">
			<data offset="818028" size="40" shape="5" element_type="i64"/>
			<output>
				<port id="0" precision="I64">
					<dim>5</dim>
				</port>
			</output>
		</layer>
		<layer id="307" name="1911191510191" type="Const" version="opset1">
			<data offset="0" size="4" shape="" element_type="f32"/>
			<output>
				<port id="0" precision="FP32"/>
			</output>
		</layer>
		<layer id="308" name="191219169762" type="Const" version="opset1">
			<data offset="0" size="4" shape="" element_type="f32"/>
			<output>
				<port id="0" precision="FP32"/>
			</output>
		</layer>
		<layer id="309" name="1913191710053" type="Const" version="opset1">
			<data offset="0" size="4" shape="" element_type="f32"/>
			<output>
				<port id="0" precision="FP32"/>
			</output>
		</layer>
		<layer id="310" name="191419189174" type="Const" version="opset1">
			<data offset="0" size="4" shape="" element_type="f32"/>
			<output>
				<port id="0" precision="FP32"/>
			</output>
		</layer>
		<layer id="311" name="Reshape_3644048694" type="Const" version="opset1">
			<data offset="818068" size="3456" shape="96,1,3,3" element_type="f32"/>
			<output>
				<port id="0" precision="FP32">
					<dim>96</dim>
					<dim>1</dim>
					<dim>3</dim>
					<dim>3</dim>
				</port>
			</output>
		</layer>
		<layer id="312" name="Conv_17/WithoutBiases/fq_weights_1" type="FakeQuantize" version="opset1">
			<data levels="0" auto_broadcast="numpy"/>
			<input>
				<port id="0">
					<dim>96</dim>
					<dim>1</dim>
					<dim>3</dim>
					<dim>3</dim>
				</port>
				<port id="1"/>
				<port id="2"/>
				<port id="3"/>
				<port id="4"/>
			</input>
			<output>
				<port id="5" precision="FP32">
					<dim>96</dim>
					<dim>1</dim>
					<dim>3</dim>
					<dim>3</dim>
				</port>
			</output>
		</layer>
		<layer id="313" name="6943" type="Reshape" version="opset1">
			<data special_zero="true"/>
			<input>
				<port id="0">
					<dim>96</dim>
					<dim>1</dim>
					<dim>3</dim>
					<dim>3</dim>
				</port>
				<port id="1">
					<dim>5</dim>
				</port>
			</input>
			<output>
				<port id="2" precision="FP32">
					<dim>96</dim>
					<dim>1</dim>
					<dim>1</dim>
					<dim>3</dim>
					<dim>3</dim>
				</port>
			</output>
		</layer>
		<layer id="314" name="Conv_17/WithoutBiases" type="GroupConvolution" version="opset1">
			<data auto_pad="explicit" strides="2,2" dilations="1,1" pads_begin="1,1" pads_end="1,1"/>
			<input>
				<port id="0">
					<dim>1</dim>
					<dim>96</dim>
					<dim>432</dim>
					<dim>432</dim>
				</port>
				<port id="1">
					<dim>96</dim>
					<dim>1</dim>
					<dim>1</dim>
					<dim>3</dim>
					<dim>3</dim>
				</port>
			</input>
			<output>
				<port id="2" precision="FP32">
					<dim>1</dim>
					<dim>96</dim>
					<dim>216</dim>
					<dim>216</dim>
				</port>
			</output>
		</layer>
		<layer id="315" name="Reshape_4164068829" type="Const" version="opset1">
			<data offset="821524" size="384" shape="1,96,1,1" element_type="f32"/>
			<output>
				<port id="0" precision="FP32">
					<dim>1</dim>
					<dim>96</dim>
					<dim>1</dim>
					<dim>1</dim>
				</port>
			</output>
		</layer>
		<layer id="316" name="Conv_17" type="Add" version="opset1">
			<data auto_broadcast="numpy"/>
			<input>
				<port id="0">
					<dim>1</dim>
					<dim>96</dim>
					<dim>216</dim>
					<dim>216</dim>
				</port>
				<port id="1">
					<dim>1</dim>
					<dim>96</dim>
					<dim>1</dim>
					<dim>1</dim>
				</port>
			</input>
			<output>
				<port id="2" precision="FP32" names="739">
					<dim>1</dim>
					<dim>96</dim>
					<dim>216</dim>
					<dim>216</dim>
				</port>
			</output>
		</layer>
		<layer id="317" name="Clip_20" type="Clamp" version="opset1">
			<data max="6" min="0"/>
			<input>
				<port id="0">
					<dim>1</dim>
					<dim>96</dim>
					<dim>216</dim>
					<dim>216</dim>
				</port>
			</input>
			<output>
				<port id="1" precision="FP32" names="375">
					<dim>1</dim>
					<dim>96</dim>
					<dim>216</dim>
					<dim>216</dim>
				</port>
			</output>
		</layer>
		<layer id="318" name="Conv_21/WithoutBiases/fq_input_0" type="FakeQuantize" version="opset1">
			<data levels="0" auto_broadcast="numpy"/>
			<input>
				<port id="0">
					<dim>1</dim>
					<dim>96</dim>
					<dim>216</dim>
					<dim>216</dim>
				</port>
				<port id="1"/>
				<port id="2"/>
				<port id="3"/>
				<port id="4"/>
			</input>
			<output>
				<port id="5" precision="FP32">
					<dim>1</dim>
					<dim>96</dim>
					<dim>216</dim>
					<dim>216</dim>
				</port>
			</output>
		</layer>
		<layer id="319" name="2431243510152" type="Const" version="opset1">
			<data offset="0" size="4" shape="" element_type="f32"/>
			<output>
				<port id="0" precision="FP32"/>
			</output>
		</layer>
		<layer id="320" name="2432243610470" type="Const" version="opset1">
			<data offset="0" size="4" shape="" element_type="f32"/>
			<output>
				<port id="0" precision="FP32"/>
			</output>
		</layer>
		<layer id="321" name="2433243710230" type="Const" version="opset1">
			<data offset="0" size="4" shape="" element_type="f32"/>
			<output>
				<port id="0" precision="FP32"/>
			</output>
		</layer>
		<layer id="322" name="243424388925" type="Const" version="opset1">
			<data offset="0" size="4" shape="" element_type="f32"/>
			<output>
				<port id="0" precision="FP32"/>
			</output>
		</layer>
		<layer id="323" name="74340910011" type="Const" version="opset1">
			<data offset="821908" size="9216" shape="24,96,1,1" element_type="f32"/>
			<output>
				<port id="0" precision="FP32" names="743">
					<dim>24</dim>
					<dim>96</dim>
					<dim>1</dim>
					<dim>1</dim>
				</port>
			</output>
		</layer>
		<layer id="324" name="Conv_21/WithoutBiases/fq_weights_1" type="FakeQuantize" version="opset1">
			<data levels="0" auto_broadcast="numpy"/>
			<input>
				<port id="0">
					<dim>24</dim>
					<dim>96</dim>
					<dim>1</dim>
					<dim>1</dim>
				</port>
				<port id="1"/>
				<port id="2"/>
				<port id="3"/>
				<port id="4"/>
			</input>
			<output>
				<port id="5" precision="FP32">
					<dim>24</dim>
					<dim>96</dim>
					<dim>1</dim>
					<dim>1</dim>
				</port>
			</output>
		</layer>
		<layer id="325" name="Conv_21/WithoutBiases" type="Convolution" version="opset1">
			<data auto_pad="explicit" strides="1,1" dilations="1,1" pads_begin="0,0" pads_end="0,0"/>
			<input>
				<port id="0">
					<dim>1</dim>
					<dim>96</dim>
					<dim>216</dim>
					<dim>216</dim>
				</port>
				<port id="1">
					<dim>24</dim>
					<dim>96</dim>
					<dim>1</dim>
					<dim>1</dim>
				</port>
			</input>
			<output>
				<port id="2" precision="FP32">
					<dim>1</dim>
					<dim>24</dim>
					<dim>216</dim>
					<dim>216</dim>
				</port>
			</output>
		</layer>
		<layer id="326" name="Reshape_43341110476" type="Const" version="opset1">
			<data offset="831124" size="96" shape="1,24,1,1" element_type="f32"/>
			<output>
				<port id="0" precision="FP32">
					<dim>1</dim>
					<dim>24</dim>
					<dim>1</dim>
					<dim>1</dim>
				</port>
			</output>
		</layer>
		<layer id="327" name="Conv_21" type="Add" version="opset1">
			<data auto_broadcast="numpy"/>
			<input>
				<port id="0">
					<dim>1</dim>
					<dim>24</dim>
					<dim>216</dim>
					<dim>216</dim>
				</port>
				<port id="1">
					<dim>1</dim>
					<dim>24</dim>
					<dim>1</dim>
					<dim>1</dim>
				</port>
			</input>
			<output>
				<port id="2" precision="FP32" names="742">
					<dim>1</dim>
					<dim>24</dim>
					<dim>216</dim>
					<dim>216</dim>
				</port>
			</output>
		</layer>
		<layer id="328" name="Add_31/fq_input_1" type="FakeQuantize" version="opset1">
			<data levels="0" auto_broadcast="numpy"/>
			<input>
				<port id="0">
					<dim>1</dim>
					<dim>24</dim>
					<dim>216</dim>
					<dim>216</dim>
				</port>
				<port id="1"/>
				<port id="2"/>
				<port id="3"/>
				<port id="4"/>
			</input>
			<output>
				<port id="5" precision="FP32">
					<dim>1</dim>
					<dim>24</dim>
					<dim>216</dim>
					<dim>216</dim>
				</port>
			</output>
		</layer>
		<layer id="329" name="Conv_22/WithoutBiases" type="Convolution" version="opset1">
			<data auto_pad="explicit" strides="1,1" dilations="1,1" pads_begin="0,0" pads_end="0,0"/>
			<input>
				<port id="0">
					<dim>1</dim>
					<dim>24</dim>
					<dim>216</dim>
					<dim>216</dim>
				</port>
				<port id="1">
					<dim>144</dim>
					<dim>24</dim>
					<dim>1</dim>
					<dim>1</dim>
				</port>
			</input>
			<output>
				<port id="2" precision="FP32">
					<dim>1</dim>
					<dim>144</dim>
					<dim>216</dim>
					<dim>216</dim>
				</port>
			</output>
		</layer>
		<layer id="330" name="Reshape_4484159186" type="Const" version="opset1">
			<data offset="831220" size="576" shape="1,144,1,1" element_type="f32"/>
			<output>
				<port id="0" precision="FP32">
					<dim>1</dim>
					<dim>144</dim>
					<dim>1</dim>
					<dim>1</dim>
				</port>
			</output>
		</layer>
		<layer id="331" name="Conv_22" type="Add" version="opset1">
			<data auto_broadcast="numpy"/>
			<input>
				<port id="0">
					<dim>1</dim>
					<dim>144</dim>
					<dim>216</dim>
					<dim>216</dim>
				</port>
				<port id="1">
					<dim>1</dim>
					<dim>144</dim>
					<dim>1</dim>
					<dim>1</dim>
				</port>
			</input>
			<output>
				<port id="2" precision="FP32" names="745">
					<dim>1</dim>
					<dim>144</dim>
					<dim>216</dim>
					<dim>216</dim>
				</port>
			</output>
		</layer>
		<layer id="332" name="Clip_25" type="Clamp" version="opset1">
			<data max="6" min="0"/>
			<input>
				<port id="0">
					<dim>1</dim>
					<dim>144</dim>
					<dim>216</dim>
					<dim>216</dim>
				</port>
			</input>
			<output>
				<port id="1" precision="FP32" names="382">
					<dim>1</dim>
					<dim>144</dim>
					<dim>216</dim>
					<dim>216</dim>
				</port>
			</output>
		</layer>
		<layer id="333" name="Conv_26/WithoutBiases/fq_input_0" type="FakeQuantize" version="opset1">
			<data levels="0" auto_broadcast="numpy"/>
			<input>
				<port id="0">
					<dim>1</dim>
					<dim>144</dim>
					<dim>216</dim>
					<dim>216</dim>
				</port>
				<port id="1"/>
				<port id="2"/>
				<port id="3"/>
				<port id="4"/>
			</input>
			<output>
				<port id="5" precision="FP32">
					<dim>1</dim>
					<dim>144</dim>
					<dim>216</dim>
					<dim>216</dim>
				</port>
			</output>
		</layer>
		<layer id="334" name="Conv_26/WithoutBiases/weights_shape69589399" type="Const" version="opset1">
			<data offset="831796" size="40" shape="5" element_type="i64"/>
			<output>
				<port id="0" precision="I64">
					<dim>5</dim>
				</port>
			</output>
		</layer>
		<layer id="335" name="1891189510668" type="Const" version="opset1">
			<data offset="0" size="4" shape="" element_type="f32"/>
			<output>
				<port id="0" precision="FP32"/>
			</output>
		</layer>
		<layer id="336" name="189218969597" type="Const" version="opset1">
			<data offset="0" size="4" shape="" element_type="f32"/>
			<output>
				<port id="0" precision="FP32"/>
			</output>
		</layer>
		<layer id="337" name="1893189710626" type="Const" version="opset1">
			<data offset="0" size="4" shape="" element_type="f32"/>
			<output>
				<port id="0" precision="FP32"/>
			</output>
		</layer>
		<layer id="338" name="1894189810161" type="Const" version="opset1">
			<data offset="0" size="4" shape="" element_type="f32"/>
			<output>
				<port id="0" precision="FP32"/>
			</output>
		</layer>
		<layer id="339" name="Reshape_4614189999" type="Const" version="opset1">
			<data offset="831836" size="5184" shape="144,1,3,3" element_type="f32"/>
			<output>
				<port id="0" precision="FP32">
					<dim>144</dim>
					<dim>1</dim>
					<dim>3</dim>
					<dim>3</dim>
				</port>
			</output>
		</layer>
		<layer id="340" name="Conv_26/WithoutBiases/fq_weights_1" type="FakeQuantize" version="opset1">
			<data levels="0" auto_broadcast="numpy"/>
			<input>
				<port id="0">
					<dim>144</dim>
					<dim>1</dim>
					<dim>3</dim>
					<dim>3</dim>
				</port>
				<port id="1"/>
				<port id="2"/>
				<port id="3"/>
				<port id="4"/>
			</input>
			<output>
				<port id="5" precision="FP32">
					<dim>144</dim>
					<dim>1</dim>
					<dim>3</dim>
					<dim>3</dim>
				</port>
			</output>
		</layer>
		<layer id="341" name="6957" type="Reshape" version="opset1">
			<data special_zero="true"/>
			<input>
				<port id="0">
					<dim>144</dim>
					<dim>1</dim>
					<dim>3</dim>
					<dim>3</dim>
				</port>
				<port id="1">
					<dim>5</dim>
				</port>
			</input>
			<output>
				<port id="2" precision="FP32">
					<dim>144</dim>
					<dim>1</dim>
					<dim>1</dim>
					<dim>3</dim>
					<dim>3</dim>
				</port>
			</output>
		</layer>
		<layer id="342" name="Conv_26/WithoutBiases" type="GroupConvolution" version="opset1">
			<data auto_pad="explicit" strides="1,1" dilations="1,1" pads_begin="1,1" pads_end="1,1"/>
			<input>
				<port id="0">
					<dim>1</dim>
					<dim>144</dim>
					<dim>216</dim>
					<dim>216</dim>
				</port>
				<port id="1">
					<dim>144</dim>
					<dim>1</dim>
					<dim>1</dim>
					<dim>3</dim>
					<dim>3</dim>
				</port>
			</input>
			<output>
				<port id="2" precision="FP32">
					<dim>1</dim>
					<dim>144</dim>
					<dim>216</dim>
					<dim>216</dim>
				</port>
			</output>
		</layer>
		<layer id="343" name="Reshape_5134208940" type="Const" version="opset1">
			<data offset="837020" size="576" shape="1,144,1,1" element_type="f32"/>
			<output>
				<port id="0" precision="FP32">
					<dim>1</dim>
					<dim>144</dim>
					<dim>1</dim>
					<dim>1</dim>
				</port>
			</output>
		</layer>
		<layer id="344" name="Conv_26" type="Add" version="opset1">
			<data auto_broadcast="numpy"/>
			<input>
				<port id="0">
					<dim>1</dim>
					<dim>144</dim>
					<dim>216</dim>
					<dim>216</dim>
				</port>
				<port id="1">
					<dim>1</dim>
					<dim>144</dim>
					<dim>1</dim>
					<dim>1</dim>
				</port>
			</input>
			<output>
				<port id="2" precision="FP32" names="748">
					<dim>1</dim>
					<dim>144</dim>
					<dim>216</dim>
					<dim>216</dim>
				</port>
			</output>
		</layer>
		<layer id="345" name="Clip_29" type="Clamp" version="opset1">
			<data max="6" min="0"/>
			<input>
				<port id="0">
					<dim>1</dim>
					<dim>144</dim>
					<dim>216</dim>
					<dim>216</dim>
				</port>
			</input>
			<output>
				<port id="1" precision="FP32" names="387">
					<dim>1</dim>
					<dim>144</dim>
					<dim>216</dim>
					<dim>216</dim>
				</port>
			</output>
		</layer>
		<layer id="346" name="Conv_30/WithoutBiases/fq_input_0" type="FakeQuantize" version="opset1">
			<data levels="0" auto_broadcast="numpy"/>
			<input>
				<port id="0">
					<dim>1</dim>
					<dim>144</dim>
					<dim>216</dim>
					<dim>216</dim>
				</port>
				<port id="1"/>
				<port id="2"/>
				<port id="3"/>
				<port id="4"/>
			</input>
			<output>
				<port id="5" precision="FP32">
					<dim>1</dim>
					<dim>144</dim>
					<dim>216</dim>
					<dim>216</dim>
				</port>
			</output>
		</layer>
		<layer id="347" name="277127759246" type="Const" version="opset1">
			<data offset="0" size="4" shape="" element_type="f32"/>
			<output>
				<port id="0" precision="FP32"/>
			</output>
		</layer>
		<layer id="348" name="277227769921" type="Const" version="opset1">
			<data offset="0" size="4" shape="" element_type="f32"/>
			<output>
				<port id="0" precision="FP32"/>
			</output>
		</layer>
		<layer id="349" name="277327779780" type="Const" version="opset1">
			<data offset="0" size="4" shape="" element_type="f32"/>
			<output>
				<port id="0" precision="FP32"/>
			</output>
		</layer>
		<layer id="350" name="277427789696" type="Const" version="opset1">
			<data offset="0" size="4" shape="" element_type="f32"/>
			<output>
				<port id="0" precision="FP32"/>
			</output>
		</layer>
		<layer id="351" name="7524239042" type="Const" version="opset1">
			<data offset="837596" size="13824" shape="24,144,1,1" element_type="f32"/>
			<output>
				<port id="0" precision="FP32" names="752">
					<dim>24</dim>
					<dim>144</dim>
					<dim>1</dim>
					<dim>1</dim>
				</port>
			</output>
		</layer>
		<layer id="352" name="Conv_30/WithoutBiases/fq_weights_1" type="FakeQuantize" version="opset1">
			<data levels="0" auto_broadcast="numpy"/>
			<input>
				<port id="0">
					<dim>24</dim>
					<dim>144</dim>
					<dim>1</dim>
					<dim>1</dim>
				</port>
				<port id="1"/>
				<port id="2"/>
				<port id="3"/>
				<port id="4"/>
			</input>
			<output>
				<port id="5" precision="FP32">
					<dim>24</dim>
					<dim>144</dim>
					<dim>1</dim>
					<dim>1</dim>
				</port>
			</output>
		</layer>
		<layer id="353" name="Conv_30/WithoutBiases" type="Convolution" version="opset1">
			<data auto_pad="explicit" strides="1,1" dilations="1,1" pads_begin="0,0" pads_end="0,0"/>
			<input>
				<port id="0">
					<dim>1</dim>
					<dim>144</dim>
					<dim>216</dim>
					<dim>216</dim>
				</port>
				<port id="1">
					<dim>24</dim>
					<dim>144</dim>
					<dim>1</dim>
					<dim>1</dim>
				</port>
			</input>
			<output>
				<port id="2" precision="FP32">
					<dim>1</dim>
					<dim>24</dim>
					<dim>216</dim>
					<dim>216</dim>
				</port>
			</output>
		</layer>
		<layer id="354" name="Reshape_53042510113" type="Const" version="opset1">
			<data offset="851420" size="96" shape="1,24,1,1" element_type="f32"/>
			<output>
				<port id="0" precision="FP32">
					<dim>1</dim>
					<dim>24</dim>
					<dim>1</dim>
					<dim>1</dim>
				</port>
			</output>
		</layer>
		<layer id="355" name="Conv_30" type="Add" version="opset1">
			<data auto_broadcast="numpy"/>
			<input>
				<port id="0">
					<dim>1</dim>
					<dim>24</dim>
					<dim>216</dim>
					<dim>216</dim>
				</port>
				<port id="1">
					<dim>1</dim>
					<dim>24</dim>
					<dim>1</dim>
					<dim>1</dim>
				</port>
			</input>
			<output>
				<port id="2" precision="FP32" names="751">
					<dim>1</dim>
					<dim>24</dim>
					<dim>216</dim>
					<dim>216</dim>
				</port>
			</output>
		</layer>
		<layer id="356" name="Add_31/fq_input_0" type="FakeQuantize" version="opset1">
			<data levels="0" auto_broadcast="numpy"/>
			<input>
				<port id="0">
					<dim>1</dim>
					<dim>24</dim>
					<dim>216</dim>
					<dim>216</dim>
				</port>
				<port id="1"/>
				<port id="2"/>
				<port id="3"/>
				<port id="4"/>
			</input>
			<output>
				<port id="5" precision="FP32">
					<dim>1</dim>
					<dim>24</dim>
					<dim>216</dim>
					<dim>216</dim>
				</port>
			</output>
		</layer>
		<layer id="357" name="Add_31" type="Add" version="opset1">
			<data auto_broadcast="numpy"/>
			<input>
				<port id="0">
					<dim>1</dim>
					<dim>24</dim>
					<dim>216</dim>
					<dim>216</dim>
				</port>
				<port id="1">
					<dim>1</dim>
					<dim>24</dim>
					<dim>216</dim>
					<dim>216</dim>
				</port>
			</input>
			<output>
				<port id="2" precision="FP32" names="390">
					<dim>1</dim>
					<dim>24</dim>
					<dim>216</dim>
					<dim>216</dim>
				</port>
			</output>
		</layer>
		<layer id="358" name="Conv_32/WithoutBiases/fq_input_0" type="FakeQuantize" version="opset1">
			<data levels="0" auto_broadcast="numpy"/>
			<input>
				<port id="0">
					<dim>1</dim>
					<dim>24</dim>
					<dim>216</dim>
					<dim>216</dim>
				</port>
				<port id="1"/>
				<port id="2"/>
				<port id="3"/>
				<port id="4"/>
			</input>
			<output>
				<port id="5" precision="FP32">
					<dim>1</dim>
					<dim>24</dim>
					<dim>216</dim>
					<dim>216</dim>
				</port>
			</output>
		</layer>
		<layer id="359" name="179117958862" type="Const" version="opset1">
			<data offset="0" size="4" shape="" element_type="f32"/>
			<output>
				<port id="0" precision="FP32"/>
			</output>
		</layer>
		<layer id="360" name="1792179610344" type="Const" version="opset1">
			<data offset="0" size="4" shape="" element_type="f32"/>
			<output>
				<port id="0" precision="FP32"/>
			</output>
		</layer>
		<layer id="361" name="1793179710485" type="Const" version="opset1">
			<data offset="0" size="4" shape="" element_type="f32"/>
			<output>
				<port id="0" precision="FP32"/>
			</output>
		</layer>
		<layer id="362" name="179417989963" type="Const" version="opset1">
			<data offset="0" size="4" shape="" element_type="f32"/>
			<output>
				<port id="0" precision="FP32"/>
			</output>
		</layer>
		<layer id="363" name="75542810743" type="Const" version="opset1">
			<data offset="851516" size="13824" shape="144,24,1,1" element_type="f32"/>
			<output>
				<port id="0" precision="FP32" names="755">
					<dim>144</dim>
					<dim>24</dim>
					<dim>1</dim>
					<dim>1</dim>
				</port>
			</output>
		</layer>
		<layer id="364" name="Conv_32/WithoutBiases/fq_weights_1" type="FakeQuantize" version="opset1">
			<data levels="0" auto_broadcast="numpy"/>
			<input>
				<port id="0">
					<dim>144</dim>
					<dim>24</dim>
					<dim>1</dim>
					<dim>1</dim>
				</port>
				<port id="1"/>
				<port id="2"/>
				<port id="3"/>
				<port id="4"/>
			</input>
			<output>
				<port id="5" precision="FP32">
					<dim>144</dim>
					<dim>24</dim>
					<dim>1</dim>
					<dim>1</dim>
				</port>
			</output>
		</layer>
		<layer id="365" name="Conv_32/WithoutBiases" type="Convolution" version="opset1">
			<data auto_pad="explicit" strides="1,1" dilations="1,1" pads_begin="0,0" pads_end="0,0"/>
			<input>
				<port id="0">
					<dim>1</dim>
					<dim>24</dim>
					<dim>216</dim>
					<dim>216</dim>
				</port>
				<port id="1">
					<dim>144</dim>
					<dim>24</dim>
					<dim>1</dim>
					<dim>1</dim>
				</port>
			</input>
			<output>
				<port id="2" precision="FP32">
					<dim>1</dim>
					<dim>144</dim>
					<dim>216</dim>
					<dim>216</dim>
				</port>
			</output>
		</layer>
		<layer id="366" name="Reshape_54643010434" type="Const" version="opset1">
			<data offset="865340" size="576" shape="1,144,1,1" element_type="f32"/>
			<output>
				<port id="0" precision="FP32">
					<dim>1</dim>
					<dim>144</dim>
					<dim>1</dim>
					<dim>1</dim>
				</port>
			</output>
		</layer>
		<layer id="367" name="Conv_32" type="Add" version="opset1">
			<data auto_broadcast="numpy"/>
			<input>
				<port id="0">
					<dim>1</dim>
					<dim>144</dim>
					<dim>216</dim>
					<dim>216</dim>
				</port>
				<port id="1">
					<dim>1</dim>
					<dim>144</dim>
					<dim>1</dim>
					<dim>1</dim>
				</port>
			</input>
			<output>
				<port id="2" precision="FP32" names="754">
					<dim>1</dim>
					<dim>144</dim>
					<dim>216</dim>
					<dim>216</dim>
				</port>
			</output>
		</layer>
		<layer id="368" name="Clip_35" type="Clamp" version="opset1">
			<data max="6" min="0"/>
			<input>
				<port id="0">
					<dim>1</dim>
					<dim>144</dim>
					<dim>216</dim>
					<dim>216</dim>
				</port>
			</input>
			<output>
				<port id="1" precision="FP32" names="395">
					<dim>1</dim>
					<dim>144</dim>
					<dim>216</dim>
					<dim>216</dim>
				</port>
			</output>
		</layer>
		<layer id="369" name="Conv_36/WithoutBiases/fq_input_0" type="FakeQuantize" version="opset1">
			<data levels="0" auto_broadcast="numpy"/>
			<input>
				<port id="0">
					<dim>1</dim>
					<dim>144</dim>
					<dim>216</dim>
					<dim>216</dim>
				</port>
				<port id="1"/>
				<port id="2"/>
				<port id="3"/>
				<port id="4"/>
			</input>
			<output>
				<port id="5" precision="FP32">
					<dim>1</dim>
					<dim>144</dim>
					<dim>216</dim>
					<dim>216</dim>
				</port>
			</output>
		</layer>
		<layer id="370" name="Conv_36/WithoutBiases/weights_shape697210599" type="Const" version="opset1">
			<data offset="831796" size="40" shape="5" element_type="i64"/>
			<output>
				<port id="0" precision="I64">
					<dim>5</dim>
				</port>
			</output>
		</layer>
		<layer id="371" name="225122559825" type="Const" version="opset1">
			<data offset="0" size="4" shape="" element_type="f32"/>
			<output>
				<port id="0" precision="FP32"/>
			</output>
		</layer>
		<layer id="372" name="225222569657" type="Const" version="opset1">
			<data offset="0" size="4" shape="" element_type="f32"/>
			<output>
				<port id="0" precision="FP32"/>
			</output>
		</layer>
		<layer id="373" name="225322579813" type="Const" version="opset1">
			<data offset="0" size="4" shape="" element_type="f32"/>
			<output>
				<port id="0" precision="FP32"/>
			</output>
		</layer>
		<layer id="374" name="2254225810332" type="Const" version="opset1">
			<data offset="0" size="4" shape="" element_type="f32"/>
			<output>
				<port id="0" precision="FP32"/>
			</output>
		</layer>
		<layer id="375" name="Reshape_55943310311" type="Const" version="opset1">
			<data offset="865916" size="5184" shape="144,1,3,3" element_type="f32"/>
			<output>
				<port id="0" precision="FP32">
					<dim>144</dim>
					<dim>1</dim>
					<dim>3</dim>
					<dim>3</dim>
				</port>
			</output>
		</layer>
		<layer id="376" name="Conv_36/WithoutBiases/fq_weights_1" type="FakeQuantize" version="opset1">
			<data levels="0" auto_broadcast="numpy"/>
			<input>
				<port id="0">
					<dim>144</dim>
					<dim>1</dim>
					<dim>3</dim>
					<dim>3</dim>
				</port>
				<port id="1"/>
				<port id="2"/>
				<port id="3"/>
				<port id="4"/>
			</input>
			<output>
				<port id="5" precision="FP32">
					<dim>144</dim>
					<dim>1</dim>
					<dim>3</dim>
					<dim>3</dim>
				</port>
			</output>
		</layer>
		<layer id="377" name="6971" type="Reshape" version="opset1">
			<data special_zero="true"/>
			<input>
				<port id="0">
					<dim>144</dim>
					<dim>1</dim>
					<dim>3</dim>
					<dim>3</dim>
				</port>
				<port id="1">
					<dim>5</dim>
				</port>
			</input>
			<output>
				<port id="2" precision="FP32">
					<dim>144</dim>
					<dim>1</dim>
					<dim>1</dim>
					<dim>3</dim>
					<dim>3</dim>
				</port>
			</output>
		</layer>
		<layer id="378" name="Conv_36/WithoutBiases" type="GroupConvolution" version="opset1">
			<data auto_pad="explicit" strides="2,2" dilations="1,1" pads_begin="1,1" pads_end="1,1"/>
			<input>
				<port id="0">
					<dim>1</dim>
					<dim>144</dim>
					<dim>216</dim>
					<dim>216</dim>
				</port>
				<port id="1">
					<dim>144</dim>
					<dim>1</dim>
					<dim>1</dim>
					<dim>3</dim>
					<dim>3</dim>
				</port>
			</input>
			<output>
				<port id="2" precision="FP32">
					<dim>1</dim>
					<dim>144</dim>
					<dim>108</dim>
					<dim>108</dim>
				</port>
			</output>
		</layer>
		<layer id="379" name="Reshape_6114359048" type="Const" version="opset1">
			<data offset="871100" size="576" shape="1,144,1,1" element_type="f32"/>
			<output>
				<port id="0" precision="FP32">
					<dim>1</dim>
					<dim>144</dim>
					<dim>1</dim>
					<dim>1</dim>
				</port>
			</output>
		</layer>
		<layer id="380" name="Conv_36" type="Add" version="opset1">
			<data auto_broadcast="numpy"/>
			<input>
				<port id="0">
					<dim>1</dim>
					<dim>144</dim>
					<dim>108</dim>
					<dim>108</dim>
				</port>
				<port id="1">
					<dim>1</dim>
					<dim>144</dim>
					<dim>1</dim>
					<dim>1</dim>
				</port>
			</input>
			<output>
				<port id="2" precision="FP32" names="757">
					<dim>1</dim>
					<dim>144</dim>
					<dim>108</dim>
					<dim>108</dim>
				</port>
			</output>
		</layer>
		<layer id="381" name="Clip_39" type="Clamp" version="opset1">
			<data max="6" min="0"/>
			<input>
				<port id="0">
					<dim>1</dim>
					<dim>144</dim>
					<dim>108</dim>
					<dim>108</dim>
				</port>
			</input>
			<output>
				<port id="1" precision="FP32" names="400">
					<dim>1</dim>
					<dim>144</dim>
					<dim>108</dim>
					<dim>108</dim>
				</port>
			</output>
		</layer>
		<layer id="382" name="Conv_40/WithoutBiases/fq_input_0" type="FakeQuantize" version="opset1">
			<data levels="0" auto_broadcast="numpy"/>
			<input>
				<port id="0">
					<dim>1</dim>
					<dim>144</dim>
					<dim>108</dim>
					<dim>108</dim>
				</port>
				<port id="1"/>
				<port id="2"/>
				<port id="3"/>
				<port id="4"/>
			</input>
			<output>
				<port id="5" precision="FP32">
					<dim>1</dim>
					<dim>144</dim>
					<dim>108</dim>
					<dim>108</dim>
				</port>
			</output>
		</layer>
		<layer id="383" name="207120759255" type="Const" version="opset1">
			<data offset="0" size="4" shape="" element_type="f32"/>
			<output>
				<port id="0" precision="FP32"/>
			</output>
		</layer>
		<layer id="384" name="207220769582" type="Const" version="opset1">
			<data offset="0" size="4" shape="" element_type="f32"/>
			<output>
				<port id="0" precision="FP32"/>
			</output>
		</layer>
		<layer id="385" name="207320778703" type="Const" version="opset1">
			<data offset="0" size="4" shape="" element_type="f32"/>
			<output>
				<port id="0" precision="FP32"/>
			</output>
		</layer>
		<layer id="386" name="207420789708" type="Const" version="opset1">
			<data offset="0" size="4" shape="" element_type="f32"/>
			<output>
				<port id="0" precision="FP32"/>
			</output>
		</layer>
		<layer id="387" name="76143810614" type="Const" version="opset1">
			<data offset="871676" size="18432" shape="32,144,1,1" element_type="f32"/>
			<output>
				<port id="0" precision="FP32" names="761">
					<dim>32</dim>
					<dim>144</dim>
					<dim>1</dim>
					<dim>1</dim>
				</port>
			</output>
		</layer>
		<layer id="388" name="Conv_40/WithoutBiases/fq_weights_1" type="FakeQuantize" version="opset1">
			<data levels="0" auto_broadcast="numpy"/>
			<input>
				<port id="0">
					<dim>32</dim>
					<dim>144</dim>
					<dim>1</dim>
					<dim>1</dim>
				</port>
				<port id="1"/>
				<port id="2"/>
				<port id="3"/>
				<port id="4"/>
			</input>
			<output>
				<port id="5" precision="FP32">
					<dim>32</dim>
					<dim>144</dim>
					<dim>1</dim>
					<dim>1</dim>
				</port>
			</output>
		</layer>
		<layer id="389" name="Conv_40/WithoutBiases" type="Convolution" version="opset1">
			<data auto_pad="explicit" strides="1,1" dilations="1,1" pads_begin="0,0" pads_end="0,0"/>
			<input>
				<port id="0">
					<dim>1</dim>
					<dim>144</dim>
					<dim>108</dim>
					<dim>108</dim>
				</port>
				<port id="1">
					<dim>32</dim>
					<dim>144</dim>
					<dim>1</dim>
					<dim>1</dim>
				</port>
			</input>
			<output>
				<port id="2" precision="FP32">
					<dim>1</dim>
					<dim>32</dim>
					<dim>108</dim>
					<dim>108</dim>
				</port>
			</output>
		</layer>
		<layer id="390" name="Reshape_6284408973" type="Const" version="opset1">
			<data offset="890108" size="128" shape="1,32,1,1" element_type="f32"/>
			<output>
				<port id="0" precision="FP32">
					<dim>1</dim>
					<dim>32</dim>
					<dim>1</dim>
					<dim>1</dim>
				</port>
			</output>
		</layer>
		<layer id="391" name="Conv_40" type="Add" version="opset1">
			<data auto_broadcast="numpy"/>
			<input>
				<port id="0">
					<dim>1</dim>
					<dim>32</dim>
					<dim>108</dim>
					<dim>108</dim>
				</port>
				<port id="1">
					<dim>1</dim>
					<dim>32</dim>
					<dim>1</dim>
					<dim>1</dim>
				</port>
			</input>
			<output>
				<port id="2" precision="FP32" names="760">
					<dim>1</dim>
					<dim>32</dim>
					<dim>108</dim>
					<dim>108</dim>
				</port>
			</output>
		</layer>
		<layer id="392" name="Add_50/fq_input_1" type="FakeQuantize" version="opset1">
			<data levels="0" auto_broadcast="numpy"/>
			<input>
				<port id="0">
					<dim>1</dim>
					<dim>32</dim>
					<dim>108</dim>
					<dim>108</dim>
				</port>
				<port id="1"/>
				<port id="2"/>
				<port id="3"/>
				<port id="4"/>
			</input>
			<output>
				<port id="5" precision="FP32">
					<dim>1</dim>
					<dim>32</dim>
					<dim>108</dim>
					<dim>108</dim>
				</port>
			</output>
		</layer>
		<layer id="393" name="Conv_41/WithoutBiases" type="Convolution" version="opset1">
			<data auto_pad="explicit" strides="1,1" dilations="1,1" pads_begin="0,0" pads_end="0,0"/>
			<input>
				<port id="0">
					<dim>1</dim>
					<dim>32</dim>
					<dim>108</dim>
					<dim>108</dim>
				</port>
				<port id="1">
					<dim>192</dim>
					<dim>32</dim>
					<dim>1</dim>
					<dim>1</dim>
				</port>
			</input>
			<output>
				<port id="2" precision="FP32">
					<dim>1</dim>
					<dim>192</dim>
					<dim>108</dim>
					<dim>108</dim>
				</port>
			</output>
		</layer>
		<layer id="394" name="Reshape_6434448766" type="Const" version="opset1">
			<data offset="890236" size="768" shape="1,192,1,1" element_type="f32"/>
			<output>
				<port id="0" precision="FP32">
					<dim>1</dim>
					<dim>192</dim>
					<dim>1</dim>
					<dim>1</dim>
				</port>
			</output>
		</layer>
		<layer id="395" name="Conv_41" type="Add" version="opset1">
			<data auto_broadcast="numpy"/>
			<input>
				<port id="0">
					<dim>1</dim>
					<dim>192</dim>
					<dim>108</dim>
					<dim>108</dim>
				</port>
				<port id="1">
					<dim>1</dim>
					<dim>192</dim>
					<dim>1</dim>
					<dim>1</dim>
				</port>
			</input>
			<output>
				<port id="2" precision="FP32" names="763">
					<dim>1</dim>
					<dim>192</dim>
					<dim>108</dim>
					<dim>108</dim>
				</port>
			</output>
		</layer>
		<layer id="396" name="Clip_44" type="Clamp" version="opset1">
			<data max="6" min="0"/>
			<input>
				<port id="0">
					<dim>1</dim>
					<dim>192</dim>
					<dim>108</dim>
					<dim>108</dim>
				</port>
			</input>
			<output>
				<port id="1" precision="FP32" names="407">
					<dim>1</dim>
					<dim>192</dim>
					<dim>108</dim>
					<dim>108</dim>
				</port>
			</output>
		</layer>
		<layer id="397" name="Conv_45/WithoutBiases/fq_input_0" type="FakeQuantize" version="opset1">
			<data levels="0" auto_broadcast="numpy"/>
			<input>
				<port id="0">
					<dim>1</dim>
					<dim>192</dim>
					<dim>108</dim>
					<dim>108</dim>
				</port>
				<port id="1"/>
				<port id="2"/>
				<port id="3"/>
				<port id="4"/>
			</input>
			<output>
				<port id="5" precision="FP32">
					<dim>1</dim>
					<dim>192</dim>
					<dim>108</dim>
					<dim>108</dim>
				</port>
			</output>
		</layer>
		<layer id="398" name="Conv_45/WithoutBiases/weights_shape698610125" type="Const" version="opset1">
			<data offset="891004" size="40" shape="5" element_type="i64"/>
			<output>
				<port id="0" precision="I64">
					<dim>5</dim>
				</port>
			</output>
		</layer>
		<layer id="399" name="233123359765" type="Const" version="opset1">
			<data offset="0" size="4" shape="" element_type="f32"/>
			<output>
				<port id="0" precision="FP32"/>
			</output>
		</layer>
		<layer id="400" name="2332233610326" type="Const" version="opset1">
			<data offset="0" size="4" shape="" element_type="f32"/>
			<output>
				<port id="0" precision="FP32"/>
			</output>
		</layer>
		<layer id="401" name="233323379513" type="Const" version="opset1">
			<data offset="0" size="4" shape="" element_type="f32"/>
			<output>
				<port id="0" precision="FP32"/>
			</output>
		</layer>
		<layer id="402" name="233423389684" type="Const" version="opset1">
			<data offset="0" size="4" shape="" element_type="f32"/>
			<output>
				<port id="0" precision="FP32"/>
			</output>
		</layer>
		<layer id="403" name="Reshape_65644710017" type="Const" version="opset1">
			<data offset="891044" size="6912" shape="192,1,3,3" element_type="f32"/>
			<output>
				<port id="0" precision="FP32">
					<dim>192</dim>
					<dim>1</dim>
					<dim>3</dim>
					<dim>3</dim>
				</port>
			</output>
		</layer>
		<layer id="404" name="Conv_45/WithoutBiases/fq_weights_1" type="FakeQuantize" version="opset1">
			<data levels="0" auto_broadcast="numpy"/>
			<input>
				<port id="0">
					<dim>192</dim>
					<dim>1</dim>
					<dim>3</dim>
					<dim>3</dim>
				</port>
				<port id="1"/>
				<port id="2"/>
				<port id="3"/>
				<port id="4"/>
			</input>
			<output>
				<port id="5" precision="FP32">
					<dim>192</dim>
					<dim>1</dim>
					<dim>3</dim>
					<dim>3</dim>
				</port>
			</output>
		</layer>
		<layer id="405" name="6985" type="Reshape" version="opset1">
			<data special_zero="true"/>
			<input>
				<port id="0">
					<dim>192</dim>
					<dim>1</dim>
					<dim>3</dim>
					<dim>3</dim>
				</port>
				<port id="1">
					<dim>5</dim>
				</port>
			</input>
			<output>
				<port id="2" precision="FP32">
					<dim>192</dim>
					<dim>1</dim>
					<dim>1</dim>
					<dim>3</dim>
					<dim>3</dim>
				</port>
			</output>
		</layer>
		<layer id="406" name="Conv_45/WithoutBiases" type="GroupConvolution" version="opset1">
			<data auto_pad="explicit" strides="1,1" dilations="1,1" pads_begin="1,1" pads_end="1,1"/>
			<input>
				<port id="0">
					<dim>1</dim>
					<dim>192</dim>
					<dim>108</dim>
					<dim>108</dim>
				</port>
				<port id="1">
					<dim>192</dim>
					<dim>1</dim>
					<dim>1</dim>
					<dim>3</dim>
					<dim>3</dim>
				</port>
			</input>
			<output>
				<port id="2" precision="FP32">
					<dim>1</dim>
					<dim>192</dim>
					<dim>108</dim>
					<dim>108</dim>
				</port>
			</output>
		</layer>
		<layer id="407" name="Reshape_70844910350" type="Const" version="opset1">
			<data offset="897956" size="768" shape="1,192,1,1" element_type="f32"/>
			<output>
				<port id="0" precision="FP32">
					<dim>1</dim>
					<dim>192</dim>
					<dim>1</dim>
					<dim>1</dim>
				</port>
			</output>
		</layer>
		<layer id="408" name="Conv_45" type="Add" version="opset1">
			<data auto_broadcast="numpy"/>
			<input>
				<port id="0">
					<dim>1</dim>
					<dim>192</dim>
					<dim>108</dim>
					<dim>108</dim>
				</port>
				<port id="1">
					<dim>1</dim>
					<dim>192</dim>
					<dim>1</dim>
					<dim>1</dim>
				</port>
			</input>
			<output>
				<port id="2" precision="FP32" names="766">
					<dim>1</dim>
					<dim>192</dim>
					<dim>108</dim>
					<dim>108</dim>
				</port>
			</output>
		</layer>
		<layer id="409" name="Clip_48" type="Clamp" version="opset1">
			<data max="6" min="0"/>
			<input>
				<port id="0">
					<dim>1</dim>
					<dim>192</dim>
					<dim>108</dim>
					<dim>108</dim>
				</port>
			</input>
			<output>
				<port id="1" precision="FP32" names="412">
					<dim>1</dim>
					<dim>192</dim>
					<dim>108</dim>
					<dim>108</dim>
				</port>
			</output>
		</layer>
		<layer id="410" name="Conv_49/WithoutBiases/fq_input_0" type="FakeQuantize" version="opset1">
			<data levels="0" auto_broadcast="numpy"/>
			<input>
				<port id="0">
					<dim>1</dim>
					<dim>192</dim>
					<dim>108</dim>
					<dim>108</dim>
				</port>
				<port id="1"/>
				<port id="2"/>
				<port id="3"/>
				<port id="4"/>
			</input>
			<output>
				<port id="5" precision="FP32">
					<dim>1</dim>
					<dim>192</dim>
					<dim>108</dim>
					<dim>108</dim>
				</port>
			</output>
		</layer>
		<layer id="411" name="2571257510728" type="Const" version="opset1">
			<data offset="0" size="4" shape="" element_type="f32"/>
			<output>
				<port id="0" precision="FP32"/>
			</output>
		</layer>
		<layer id="412" name="257225768904" type="Const" version="opset1">
			<data offset="0" size="4" shape="" element_type="f32"/>
			<output>
				<port id="0" precision="FP32"/>
			</output>
		</layer>
		<layer id="413" name="257325779867" type="Const" version="opset1">
			<data offset="0" size="4" shape="" element_type="f32"/>
			<output>
				<port id="0" precision="FP32"/>
			</output>
		</layer>
		<layer id="414" name="257425789003" type="Const" version="opset1">
			<data offset="0" size="4" shape="" element_type="f32"/>
			<output>
				<port id="0" precision="FP32"/>
			</output>
		</layer>
		<layer id="415" name="77045210257" type="Const" version="opset1">
			<data offset="898724" size="24576" shape="32,192,1,1" element_type="f32"/>
			<output>
				<port id="0" precision="FP32" names="770">
					<dim>32</dim>
					<dim>192</dim>
					<dim>1</dim>
					<dim>1</dim>
				</port>
			</output>
		</layer>
		<layer id="416" name="Conv_49/WithoutBiases/fq_weights_1" type="FakeQuantize" version="opset1">
			<data levels="0" auto_broadcast="numpy"/>
			<input>
				<port id="0">
					<dim>32</dim>
					<dim>192</dim>
					<dim>1</dim>
					<dim>1</dim>
				</port>
				<port id="1"/>
				<port id="2"/>
				<port id="3"/>
				<port id="4"/>
			</input>
			<output>
				<port id="5" precision="FP32">
					<dim>32</dim>
					<dim>192</dim>
					<dim>1</dim>
					<dim>1</dim>
				</port>
			</output>
		</layer>
		<layer id="417" name="Conv_49/WithoutBiases" type="Convolution" version="opset1">
			<data auto_pad="explicit" strides="1,1" dilations="1,1" pads_begin="0,0" pads_end="0,0"/>
			<input>
				<port id="0">
					<dim>1</dim>
					<dim>192</dim>
					<dim>108</dim>
					<dim>108</dim>
				</port>
				<port id="1">
					<dim>32</dim>
					<dim>192</dim>
					<dim>1</dim>
					<dim>1</dim>
				</port>
			</input>
			<output>
				<port id="2" precision="FP32">
					<dim>1</dim>
					<dim>32</dim>
					<dim>108</dim>
					<dim>108</dim>
				</port>
			</output>
		</layer>
		<layer id="418" name="Reshape_7254549084" type="Const" version="opset1">
			<data offset="923300" size="128" shape="1,32,1,1" element_type="f32"/>
			<output>
				<port id="0" precision="FP32">
					<dim>1</dim>
					<dim>32</dim>
					<dim>1</dim>
					<dim>1</dim>
				</port>
			</output>
		</layer>
		<layer id="419" name="Conv_49" type="Add" version="opset1">
			<data auto_broadcast="numpy"/>
			<input>
				<port id="0">
					<dim>1</dim>
					<dim>32</dim>
					<dim>108</dim>
					<dim>108</dim>
				</port>
				<port id="1">
					<dim>1</dim>
					<dim>32</dim>
					<dim>1</dim>
					<dim>1</dim>
				</port>
			</input>
			<output>
				<port id="2" precision="FP32" names="769">
					<dim>1</dim>
					<dim>32</dim>
					<dim>108</dim>
					<dim>108</dim>
				</port>
			</output>
		</layer>
		<layer id="420" name="Add_50/fq_input_0" type="FakeQuantize" version="opset1">
			<data levels="0" auto_broadcast="numpy"/>
			<input>
				<port id="0">
					<dim>1</dim>
					<dim>32</dim>
					<dim>108</dim>
					<dim>108</dim>
				</port>
				<port id="1"/>
				<port id="2"/>
				<port id="3"/>
				<port id="4"/>
			</input>
			<output>
				<port id="5" precision="FP32">
					<dim>1</dim>
					<dim>32</dim>
					<dim>108</dim>
					<dim>108</dim>
				</port>
			</output>
		</layer>
		<layer id="421" name="Add_50" type="Add" version="opset1">
			<data auto_broadcast="numpy"/>
			<input>
				<port id="0">
					<dim>1</dim>
					<dim>32</dim>
					<dim>108</dim>
					<dim>108</dim>
				</port>
				<port id="1">
					<dim>1</dim>
					<dim>32</dim>
					<dim>108</dim>
					<dim>108</dim>
				</port>
			</input>
			<output>
				<port id="2" precision="FP32" names="415">
					<dim>1</dim>
					<dim>32</dim>
					<dim>108</dim>
					<dim>108</dim>
				</port>
			</output>
		</layer>
		<layer id="422" name="Add_60/fq_input_1" type="FakeQuantize" version="opset1">
			<data levels="0" auto_broadcast="numpy"/>
			<input>
				<port id="0">
					<dim>1</dim>
					<dim>32</dim>
					<dim>108</dim>
					<dim>108</dim>
				</port>
				<port id="1"/>
				<port id="2"/>
				<port id="3"/>
				<port id="4"/>
			</input>
			<output>
				<port id="5" precision="FP32">
					<dim>1</dim>
					<dim>32</dim>
					<dim>108</dim>
					<dim>108</dim>
				</port>
			</output>
		</layer>
		<layer id="423" name="Conv_51/WithoutBiases" type="Convolution" version="opset1">
			<data auto_pad="explicit" strides="1,1" dilations="1,1" pads_begin="0,0" pads_end="0,0"/>
			<input>
				<port id="0">
					<dim>1</dim>
					<dim>32</dim>
					<dim>108</dim>
					<dim>108</dim>
				</port>
				<port id="1">
					<dim>192</dim>
					<dim>32</dim>
					<dim>1</dim>
					<dim>1</dim>
				</port>
			</input>
			<output>
				<port id="2" precision="FP32">
					<dim>1</dim>
					<dim>192</dim>
					<dim>108</dim>
					<dim>108</dim>
				</port>
			</output>
		</layer>
		<layer id="424" name="Reshape_74145910413" type="Const" version="opset1">
			<data offset="923428" size="768" shape="1,192,1,1" element_type="f32"/>
			<output>
				<port id="0" precision="FP32">
					<dim>1</dim>
					<dim>192</dim>
					<dim>1</dim>
					<dim>1</dim>
				</port>
			</output>
		</layer>
		<layer id="425" name="Conv_51" type="Add" version="opset1">
			<data auto_broadcast="numpy"/>
			<input>
				<port id="0">
					<dim>1</dim>
					<dim>192</dim>
					<dim>108</dim>
					<dim>108</dim>
				</port>
				<port id="1">
					<dim>1</dim>
					<dim>192</dim>
					<dim>1</dim>
					<dim>1</dim>
				</port>
			</input>
			<output>
				<port id="2" precision="FP32" names="772">
					<dim>1</dim>
					<dim>192</dim>
					<dim>108</dim>
					<dim>108</dim>
				</port>
			</output>
		</layer>
		<layer id="426" name="Clip_54" type="Clamp" version="opset1">
			<data max="6" min="0"/>
			<input>
				<port id="0">
					<dim>1</dim>
					<dim>192</dim>
					<dim>108</dim>
					<dim>108</dim>
				</port>
			</input>
			<output>
				<port id="1" precision="FP32" names="420">
					<dim>1</dim>
					<dim>192</dim>
					<dim>108</dim>
					<dim>108</dim>
				</port>
			</output>
		</layer>
		<layer id="427" name="Conv_55/WithoutBiases/fq_input_0" type="FakeQuantize" version="opset1">
			<data levels="0" auto_broadcast="numpy"/>
			<input>
				<port id="0">
					<dim>1</dim>
					<dim>192</dim>
					<dim>108</dim>
					<dim>108</dim>
				</port>
				<port id="1"/>
				<port id="2"/>
				<port id="3"/>
				<port id="4"/>
			</input>
			<output>
				<port id="5" precision="FP32">
					<dim>1</dim>
					<dim>192</dim>
					<dim>108</dim>
					<dim>108</dim>
				</port>
			</output>
		</layer>
		<layer id="428" name="Conv_55/WithoutBiases/weights_shape70009282" type="Const" version="opset1">
			<data offset="891004" size="40" shape="5" element_type="i64"/>
			<output>
				<port id="0" precision="I64">
					<dim>5</dim>
				</port>
			</output>
		</layer>
		<layer id="429" name="245124559927" type="Const" version="opset1">
			<data offset="0" size="4" shape="" element_type="f32"/>
			<output>
				<port id="0" precision="FP32"/>
			</output>
		</layer>
		<layer id="430" name="245224569108" type="Const" version="opset1">
			<data offset="0" size="4" shape="" element_type="f32"/>
			<output>
				<port id="0" precision="FP32"/>
			</output>
		</layer>
		<layer id="431" name="245324579591" type="Const" version="opset1">
			<data offset="0" size="4" shape="" element_type="f32"/>
			<output>
				<port id="0" precision="FP32"/>
			</output>
		</layer>
		<layer id="432" name="245424588874" type="Const" version="opset1">
			<data offset="0" size="4" shape="" element_type="f32"/>
			<output>
				<port id="0" precision="FP32"/>
			</output>
		</layer>
		<layer id="433" name="Reshape_75446210419" type="Const" version="opset1">
			<data offset="924196" size="6912" shape="192,1,3,3" element_type="f32"/>
			<output>
				<port id="0" precision="FP32">
					<dim>192</dim>
					<dim>1</dim>
					<dim>3</dim>
					<dim>3</dim>
				</port>
			</output>
		</layer>
		<layer id="434" name="Conv_55/WithoutBiases/fq_weights_1" type="FakeQuantize" version="opset1">
			<data levels="0" auto_broadcast="numpy"/>
			<input>
				<port id="0">
					<dim>192</dim>
					<dim>1</dim>
					<dim>3</dim>
					<dim>3</dim>
				</port>
				<port id="1"/>
				<port id="2"/>
				<port id="3"/>
				<port id="4"/>
			</input>
			<output>
				<port id="5" precision="FP32">
					<dim>192</dim>
					<dim>1</dim>
					<dim>3</dim>
					<dim>3</dim>
				</port>
			</output>
		</layer>
		<layer id="435" name="6999" type="Reshape" version="opset1">
			<data special_zero="true"/>
			<input>
				<port id="0">
					<dim>192</dim>
					<dim>1</dim>
					<dim>3</dim>
					<dim>3</dim>
				</port>
				<port id="1">
					<dim>5</dim>
				</port>
			</input>
			<output>
				<port id="2" precision="FP32">
					<dim>192</dim>
					<dim>1</dim>
					<dim>1</dim>
					<dim>3</dim>
					<dim>3</dim>
				</port>
			</output>
		</layer>
		<layer id="436" name="Conv_55/WithoutBiases" type="GroupConvolution" version="opset1">
			<data auto_pad="explicit" strides="1,1" dilations="1,1" pads_begin="1,1" pads_end="1,1"/>
			<input>
				<port id="0">
					<dim>1</dim>
					<dim>192</dim>
					<dim>108</dim>
					<dim>108</dim>
				</port>
				<port id="1">
					<dim>192</dim>
					<dim>1</dim>
					<dim>1</dim>
					<dim>3</dim>
					<dim>3</dim>
				</port>
			</input>
			<output>
				<port id="2" precision="FP32">
					<dim>1</dim>
					<dim>192</dim>
					<dim>108</dim>
					<dim>108</dim>
				</port>
			</output>
		</layer>
		<layer id="437" name="Reshape_8064649882" type="Const" version="opset1">
			<data offset="931108" size="768" shape="1,192,1,1" element_type="f32"/>
			<output>
				<port id="0" precision="FP32">
					<dim>1</dim>
					<dim>192</dim>
					<dim>1</dim>
					<dim>1</dim>
				</port>
			</output>
		</layer>
		<layer id="438" name="Conv_55" type="Add" version="opset1">
			<data auto_broadcast="numpy"/>
			<input>
				<port id="0">
					<dim>1</dim>
					<dim>192</dim>
					<dim>108</dim>
					<dim>108</dim>
				</port>
				<port id="1">
					<dim>1</dim>
					<dim>192</dim>
					<dim>1</dim>
					<dim>1</dim>
				</port>
			</input>
			<output>
				<port id="2" precision="FP32" names="775">
					<dim>1</dim>
					<dim>192</dim>
					<dim>108</dim>
					<dim>108</dim>
				</port>
			</output>
		</layer>
		<layer id="439" name="Clip_58" type="Clamp" version="opset1">
			<data max="6" min="0"/>
			<input>
				<port id="0">
					<dim>1</dim>
					<dim>192</dim>
					<dim>108</dim>
					<dim>108</dim>
				</port>
			</input>
			<output>
				<port id="1" precision="FP32" names="425">
					<dim>1</dim>
					<dim>192</dim>
					<dim>108</dim>
					<dim>108</dim>
				</port>
			</output>
		</layer>
		<layer id="440" name="Conv_59/WithoutBiases/fq_input_0" type="FakeQuantize" version="opset1">
			<data levels="0" auto_broadcast="numpy"/>
			<input>
				<port id="0">
					<dim>1</dim>
					<dim>192</dim>
					<dim>108</dim>
					<dim>108</dim>
				</port>
				<port id="1"/>
				<port id="2"/>
				<port id="3"/>
				<port id="4"/>
			</input>
			<output>
				<port id="5" precision="FP32">
					<dim>1</dim>
					<dim>192</dim>
					<dim>108</dim>
					<dim>108</dim>
				</port>
			</output>
		</layer>
		<layer id="441" name="175117559522" type="Const" version="opset1">
			<data offset="0" size="4" shape="" element_type="f32"/>
			<output>
				<port id="0" precision="FP32"/>
			</output>
		</layer>
		<layer id="442" name="175217569384" type="Const" version="opset1">
			<data offset="0" size="4" shape="" element_type="f32"/>
			<output>
				<port id="0" precision="FP32"/>
			</output>
		</layer>
		<layer id="443" name="175317578706" type="Const" version="opset1">
			<data offset="0" size="4" shape="" element_type="f32"/>
			<output>
				<port id="0" precision="FP32"/>
			</output>
		</layer>
		<layer id="444" name="175417589699" type="Const" version="opset1">
			<data offset="0" size="4" shape="" element_type="f32"/>
			<output>
				<port id="0" precision="FP32"/>
			</output>
		</layer>
		<layer id="445" name="7794679183" type="Const" version="opset1">
			<data offset="931876" size="24576" shape="32,192,1,1" element_type="f32"/>
			<output>
				<port id="0" precision="FP32" names="779">
					<dim>32</dim>
					<dim>192</dim>
					<dim>1</dim>
					<dim>1</dim>
				</port>
			</output>
		</layer>
		<layer id="446" name="Conv_59/WithoutBiases/fq_weights_1" type="FakeQuantize" version="opset1">
			<data levels="0" auto_broadcast="numpy"/>
			<input>
				<port id="0">
					<dim>32</dim>
					<dim>192</dim>
					<dim>1</dim>
					<dim>1</dim>
				</port>
				<port id="1"/>
				<port id="2"/>
				<port id="3"/>
				<port id="4"/>
			</input>
			<output>
				<port id="5" precision="FP32">
					<dim>32</dim>
					<dim>192</dim>
					<dim>1</dim>
					<dim>1</dim>
				</port>
			</output>
		</layer>
		<layer id="447" name="Conv_59/WithoutBiases" type="Convolution" version="opset1">
			<data auto_pad="explicit" strides="1,1" dilations="1,1" pads_begin="0,0" pads_end="0,0"/>
			<input>
				<port id="0">
					<dim>1</dim>
					<dim>192</dim>
					<dim>108</dim>
					<dim>108</dim>
				</port>
				<port id="1">
					<dim>32</dim>
					<dim>192</dim>
					<dim>1</dim>
					<dim>1</dim>
				</port>
			</input>
			<output>
				<port id="2" precision="FP32">
					<dim>1</dim>
					<dim>32</dim>
					<dim>108</dim>
					<dim>108</dim>
				</port>
			</output>
		</layer>
		<layer id="448" name="Reshape_8234698709" type="Const" version="opset1">
			<data offset="956452" size="128" shape="1,32,1,1" element_type="f32"/>
			<output>
				<port id="0" precision="FP32">
					<dim>1</dim>
					<dim>32</dim>
					<dim>1</dim>
					<dim>1</dim>
				</port>
			</output>
		</layer>
		<layer id="449" name="Conv_59" type="Add" version="opset1">
			<data auto_broadcast="numpy"/>
			<input>
				<port id="0">
					<dim>1</dim>
					<dim>32</dim>
					<dim>108</dim>
					<dim>108</dim>
				</port>
				<port id="1">
					<dim>1</dim>
					<dim>32</dim>
					<dim>1</dim>
					<dim>1</dim>
				</port>
			</input>
			<output>
				<port id="2" precision="FP32" names="778">
					<dim>1</dim>
					<dim>32</dim>
					<dim>108</dim>
					<dim>108</dim>
				</port>
			</output>
		</layer>
		<layer id="450" name="Add_60/fq_input_0" type="FakeQuantize" version="opset1">
			<data levels="0" auto_broadcast="numpy"/>
			<input>
				<port id="0">
					<dim>1</dim>
					<dim>32</dim>
					<dim>108</dim>
					<dim>108</dim>
				</port>
				<port id="1"/>
				<port id="2"/>
				<port id="3"/>
				<port id="4"/>
			</input>
			<output>
				<port id="5" precision="FP32">
					<dim>1</dim>
					<dim>32</dim>
					<dim>108</dim>
					<dim>108</dim>
				</port>
			</output>
		</layer>
		<layer id="451" name="Add_60" type="Add" version="opset1">
			<data auto_broadcast="numpy"/>
			<input>
				<port id="0">
					<dim>1</dim>
					<dim>32</dim>
					<dim>108</dim>
					<dim>108</dim>
				</port>
				<port id="1">
					<dim>1</dim>
					<dim>32</dim>
					<dim>108</dim>
					<dim>108</dim>
				</port>
			</input>
			<output>
				<port id="2" precision="FP32" names="428">
					<dim>1</dim>
					<dim>32</dim>
					<dim>108</dim>
					<dim>108</dim>
				</port>
			</output>
		</layer>
		<layer id="452" name="Conv_61/WithoutBiases/fq_input_0" type="FakeQuantize" version="opset1">
			<data levels="0" auto_broadcast="numpy"/>
			<input>
				<port id="0">
					<dim>1</dim>
					<dim>32</dim>
					<dim>108</dim>
					<dim>108</dim>
				</port>
				<port id="1"/>
				<port id="2"/>
				<port id="3"/>
				<port id="4"/>
			</input>
			<output>
				<port id="5" precision="FP32">
					<dim>1</dim>
					<dim>32</dim>
					<dim>108</dim>
					<dim>108</dim>
				</port>
			</output>
		</layer>
		<layer id="453" name="205120558733" type="Const" version="opset1">
			<data offset="0" size="4" shape="" element_type="f32"/>
			<output>
				<port id="0" precision="FP32"/>
			</output>
		</layer>
		<layer id="454" name="205220569348" type="Const" version="opset1">
			<data offset="0" size="4" shape="" element_type="f32"/>
			<output>
				<port id="0" precision="FP32"/>
			</output>
		</layer>
		<layer id="455" name="205320578832" type="Const" version="opset1">
			<data offset="0" size="4" shape="" element_type="f32"/>
			<output>
				<port id="0" precision="FP32"/>
			</output>
		</layer>
		<layer id="456" name="205420589267" type="Const" version="opset1">
			<data offset="0" size="4" shape="" element_type="f32"/>
			<output>
				<port id="0" precision="FP32"/>
			</output>
		</layer>
		<layer id="457" name="7824729489" type="Const" version="opset1">
			<data offset="956580" size="24576" shape="192,32,1,1" element_type="f32"/>
			<output>
				<port id="0" precision="FP32" names="782">
					<dim>192</dim>
					<dim>32</dim>
					<dim>1</dim>
					<dim>1</dim>
				</port>
			</output>
		</layer>
		<layer id="458" name="Conv_61/WithoutBiases/fq_weights_1" type="FakeQuantize" version="opset1">
			<data levels="0" auto_broadcast="numpy"/>
			<input>
				<port id="0">
					<dim>192</dim>
					<dim>32</dim>
					<dim>1</dim>
					<dim>1</dim>
				</port>
				<port id="1"/>
				<port id="2"/>
				<port id="3"/>
				<port id="4"/>
			</input>
			<output>
				<port id="5" precision="FP32">
					<dim>192</dim>
					<dim>32</dim>
					<dim>1</dim>
					<dim>1</dim>
				</port>
			</output>
		</layer>
		<layer id="459" name="Conv_61/WithoutBiases" type="Convolution" version="opset1">
			<data auto_pad="explicit" strides="1,1" dilations="1,1" pads_begin="0,0" pads_end="0,0"/>
			<input>
				<port id="0">
					<dim>1</dim>
					<dim>32</dim>
					<dim>108</dim>
					<dim>108</dim>
				</port>
				<port id="1">
					<dim>192</dim>
					<dim>32</dim>
					<dim>1</dim>
					<dim>1</dim>
				</port>
			</input>
			<output>
				<port id="2" precision="FP32">
					<dim>1</dim>
					<dim>192</dim>
					<dim>108</dim>
					<dim>108</dim>
				</port>
			</output>
		</layer>
		<layer id="460" name="Reshape_8394749579" type="Const" version="opset1">
			<data offset="981156" size="768" shape="1,192,1,1" element_type="f32"/>
			<output>
				<port id="0" precision="FP32">
					<dim>1</dim>
					<dim>192</dim>
					<dim>1</dim>
					<dim>1</dim>
				</port>
			</output>
		</layer>
		<layer id="461" name="Conv_61" type="Add" version="opset1">
			<data auto_broadcast="numpy"/>
			<input>
				<port id="0">
					<dim>1</dim>
					<dim>192</dim>
					<dim>108</dim>
					<dim>108</dim>
				</port>
				<port id="1">
					<dim>1</dim>
					<dim>192</dim>
					<dim>1</dim>
					<dim>1</dim>
				</port>
			</input>
			<output>
				<port id="2" precision="FP32" names="781">
					<dim>1</dim>
					<dim>192</dim>
					<dim>108</dim>
					<dim>108</dim>
				</port>
			</output>
		</layer>
		<layer id="462" name="Clip_64" type="Clamp" version="opset1">
			<data max="6" min="0"/>
			<input>
				<port id="0">
					<dim>1</dim>
					<dim>192</dim>
					<dim>108</dim>
					<dim>108</dim>
				</port>
			</input>
			<output>
				<port id="1" precision="FP32" names="433">
					<dim>1</dim>
					<dim>192</dim>
					<dim>108</dim>
					<dim>108</dim>
				</port>
			</output>
		</layer>
		<layer id="463" name="Conv_65/WithoutBiases/fq_input_0" type="FakeQuantize" version="opset1">
			<data levels="0" auto_broadcast="numpy"/>
			<input>
				<port id="0">
					<dim>1</dim>
					<dim>192</dim>
					<dim>108</dim>
					<dim>108</dim>
				</port>
				<port id="1"/>
				<port id="2"/>
				<port id="3"/>
				<port id="4"/>
			</input>
			<output>
				<port id="5" precision="FP32">
					<dim>1</dim>
					<dim>192</dim>
					<dim>108</dim>
					<dim>108</dim>
				</port>
			</output>
		</layer>
		<layer id="464" name="Conv_65/WithoutBiases/weights_shape701410623" type="Const" version="opset1">
			<data offset="891004" size="40" shape="5" element_type="i64"/>
			<output>
				<port id="0" precision="I64">
					<dim>5</dim>
				</port>
			</output>
		</layer>
		<layer id="465" name="1851185510041" type="Const" version="opset1">
			<data offset="0" size="4" shape="" element_type="f32"/>
			<output>
				<port id="0" precision="FP32"/>
			</output>
		</layer>
		<layer id="466" name="185218569453" type="Const" version="opset1">
			<data offset="0" size="4" shape="" element_type="f32"/>
			<output>
				<port id="0" precision="FP32"/>
			</output>
		</layer>
		<layer id="467" name="185318579414" type="Const" version="opset1">
			<data offset="0" size="4" shape="" element_type="f32"/>
			<output>
				<port id="0" precision="FP32"/>
			</output>
		</layer>
		<layer id="468" name="185418589393" type="Const" version="opset1">
			<data offset="0" size="4" shape="" element_type="f32"/>
			<output>
				<port id="0" precision="FP32"/>
			</output>
		</layer>
		<layer id="469" name="Reshape_8524778982" type="Const" version="opset1">
			<data offset="981924" size="6912" shape="192,1,3,3" element_type="f32"/>
			<output>
				<port id="0" precision="FP32">
					<dim>192</dim>
					<dim>1</dim>
					<dim>3</dim>
					<dim>3</dim>
				</port>
			</output>
		</layer>
		<layer id="470" name="Conv_65/WithoutBiases/fq_weights_1" type="FakeQuantize" version="opset1">
			<data levels="0" auto_broadcast="numpy"/>
			<input>
				<port id="0">
					<dim>192</dim>
					<dim>1</dim>
					<dim>3</dim>
					<dim>3</dim>
				</port>
				<port id="1"/>
				<port id="2"/>
				<port id="3"/>
				<port id="4"/>
			</input>
			<output>
				<port id="5" precision="FP32">
					<dim>192</dim>
					<dim>1</dim>
					<dim>3</dim>
					<dim>3</dim>
				</port>
			</output>
		</layer>
		<layer id="471" name="7013" type="Reshape" version="opset1">
			<data special_zero="true"/>
			<input>
				<port id="0">
					<dim>192</dim>
					<dim>1</dim>
					<dim>3</dim>
					<dim>3</dim>
				</port>
				<port id="1">
					<dim>5</dim>
				</port>
			</input>
			<output>
				<port id="2" precision="FP32">
					<dim>192</dim>
					<dim>1</dim>
					<dim>1</dim>
					<dim>3</dim>
					<dim>3</dim>
				</port>
			</output>
		</layer>
		<layer id="472" name="Conv_65/WithoutBiases" type="GroupConvolution" version="opset1">
			<data auto_pad="explicit" strides="2,2" dilations="1,1" pads_begin="1,1" pads_end="1,1"/>
			<input>
				<port id="0">
					<dim>1</dim>
					<dim>192</dim>
					<dim>108</dim>
					<dim>108</dim>
				</port>
				<port id="1">
					<dim>192</dim>
					<dim>1</dim>
					<dim>1</dim>
					<dim>3</dim>
					<dim>3</dim>
				</port>
			</input>
			<output>
				<port id="2" precision="FP32">
					<dim>1</dim>
					<dim>192</dim>
					<dim>54</dim>
					<dim>54</dim>
				</port>
			</output>
		</layer>
		<layer id="473" name="Reshape_90447910101" type="Const" version="opset1">
			<data offset="988836" size="768" shape="1,192,1,1" element_type="f32"/>
			<output>
				<port id="0" precision="FP32">
					<dim>1</dim>
					<dim>192</dim>
					<dim>1</dim>
					<dim>1</dim>
				</port>
			</output>
		</layer>
		<layer id="474" name="Conv_65" type="Add" version="opset1">
			<data auto_broadcast="numpy"/>
			<input>
				<port id="0">
					<dim>1</dim>
					<dim>192</dim>
					<dim>54</dim>
					<dim>54</dim>
				</port>
				<port id="1">
					<dim>1</dim>
					<dim>192</dim>
					<dim>1</dim>
					<dim>1</dim>
				</port>
			</input>
			<output>
				<port id="2" precision="FP32" names="784">
					<dim>1</dim>
					<dim>192</dim>
					<dim>54</dim>
					<dim>54</dim>
				</port>
			</output>
		</layer>
		<layer id="475" name="Clip_68" type="Clamp" version="opset1">
			<data max="6" min="0"/>
			<input>
				<port id="0">
					<dim>1</dim>
					<dim>192</dim>
					<dim>54</dim>
					<dim>54</dim>
				</port>
			</input>
			<output>
				<port id="1" precision="FP32" names="438">
					<dim>1</dim>
					<dim>192</dim>
					<dim>54</dim>
					<dim>54</dim>
				</port>
			</output>
		</layer>
		<layer id="476" name="Conv_69/WithoutBiases/fq_input_0" type="FakeQuantize" version="opset1">
			<data levels="0" auto_broadcast="numpy"/>
			<input>
				<port id="0">
					<dim>1</dim>
					<dim>192</dim>
					<dim>54</dim>
					<dim>54</dim>
				</port>
				<port id="1"/>
				<port id="2"/>
				<port id="3"/>
				<port id="4"/>
			</input>
			<output>
				<port id="5" precision="FP32">
					<dim>1</dim>
					<dim>192</dim>
					<dim>54</dim>
					<dim>54</dim>
				</port>
			</output>
		</layer>
		<layer id="477" name="2351235510608" type="Const" version="opset1">
			<data offset="0" size="4" shape="" element_type="f32"/>
			<output>
				<port id="0" precision="FP32"/>
			</output>
		</layer>
		<layer id="478" name="235223569000" type="Const" version="opset1">
			<data offset="0" size="4" shape="" element_type="f32"/>
			<output>
				<port id="0" precision="FP32"/>
			</output>
		</layer>
		<layer id="479" name="2353235710266" type="Const" version="opset1">
			<data offset="0" size="4" shape="" element_type="f32"/>
			<output>
				<port id="0" precision="FP32"/>
			</output>
		</layer>
		<layer id="480" name="2354235810737" type="Const" version="opset1">
			<data offset="0" size="4" shape="" element_type="f32"/>
			<output>
				<port id="0" precision="FP32"/>
			</output>
		</layer>
		<layer id="481" name="7884829093" type="Const" version="opset1">
			<data offset="989604" size="49152" shape="64,192,1,1" element_type="f32"/>
			<output>
				<port id="0" precision="FP32" names="788">
					<dim>64</dim>
					<dim>192</dim>
					<dim>1</dim>
					<dim>1</dim>
				</port>
			</output>
		</layer>
		<layer id="482" name="Conv_69/WithoutBiases/fq_weights_1" type="FakeQuantize" version="opset1">
			<data levels="0" auto_broadcast="numpy"/>
			<input>
				<port id="0">
					<dim>64</dim>
					<dim>192</dim>
					<dim>1</dim>
					<dim>1</dim>
				</port>
				<port id="1"/>
				<port id="2"/>
				<port id="3"/>
				<port id="4"/>
			</input>
			<output>
				<port id="5" precision="FP32">
					<dim>64</dim>
					<dim>192</dim>
					<dim>1</dim>
					<dim>1</dim>
				</port>
			</output>
		</layer>
		<layer id="483" name="Conv_69/WithoutBiases" type="Convolution" version="opset1">
			<data auto_pad="explicit" strides="1,1" dilations="1,1" pads_begin="0,0" pads_end="0,0"/>
			<input>
				<port id="0">
					<dim>1</dim>
					<dim>192</dim>
					<dim>54</dim>
					<dim>54</dim>
				</port>
				<port id="1">
					<dim>64</dim>
					<dim>192</dim>
					<dim>1</dim>
					<dim>1</dim>
				</port>
			</input>
			<output>
				<port id="2" precision="FP32">
					<dim>1</dim>
					<dim>64</dim>
					<dim>54</dim>
					<dim>54</dim>
				</port>
			</output>
		</layer>
		<layer id="484" name="Reshape_92148410452" type="Const" version="opset1">
			<data offset="1038756" size="256" shape="1,64,1,1" element_type="f32"/>
			<output>
				<port id="0" precision="FP32">
					<dim>1</dim>
					<dim>64</dim>
					<dim>1</dim>
					<dim>1</dim>
				</port>
			</output>
		</layer>
		<layer id="485" name="Conv_69" type="Add" version="opset1">
			<data auto_broadcast="numpy"/>
			<input>
				<port id="0">
					<dim>1</dim>
					<dim>64</dim>
					<dim>54</dim>
					<dim>54</dim>
				</port>
				<port id="1">
					<dim>1</dim>
					<dim>64</dim>
					<dim>1</dim>
					<dim>1</dim>
				</port>
			</input>
			<output>
				<port id="2" precision="FP32" names="787">
					<dim>1</dim>
					<dim>64</dim>
					<dim>54</dim>
					<dim>54</dim>
				</port>
			</output>
		</layer>
		<layer id="486" name="Add_79/fq_input_1" type="FakeQuantize" version="opset1">
			<data levels="0" auto_broadcast="numpy"/>
			<input>
				<port id="0">
					<dim>1</dim>
					<dim>64</dim>
					<dim>54</dim>
					<dim>54</dim>
				</port>
				<port id="1"/>
				<port id="2"/>
				<port id="3"/>
				<port id="4"/>
			</input>
			<output>
				<port id="5" precision="FP32">
					<dim>1</dim>
					<dim>64</dim>
					<dim>54</dim>
					<dim>54</dim>
				</port>
			</output>
		</layer>
		<layer id="487" name="Conv_70/WithoutBiases" type="Convolution" version="opset1">
			<data auto_pad="explicit" strides="1,1" dilations="1,1" pads_begin="0,0" pads_end="0,0"/>
			<input>
				<port id="0">
					<dim>1</dim>
					<dim>64</dim>
					<dim>54</dim>
					<dim>54</dim>
				</port>
				<port id="1">
					<dim>384</dim>
					<dim>64</dim>
					<dim>1</dim>
					<dim>1</dim>
				</port>
			</input>
			<output>
				<port id="2" precision="FP32">
					<dim>1</dim>
					<dim>384</dim>
					<dim>54</dim>
					<dim>54</dim>
				</port>
			</output>
		</layer>
		<layer id="488" name="Reshape_9364888784" type="Const" version="opset1">
			<data offset="1039012" size="1536" shape="1,384,1,1" element_type="f32"/>
			<output>
				<port id="0" precision="FP32">
					<dim>1</dim>
					<dim>384</dim>
					<dim>1</dim>
					<dim>1</dim>
				</port>
			</output>
		</layer>
		<layer id="489" name="Conv_70" type="Add" version="opset1">
			<data auto_broadcast="numpy"/>
			<input>
				<port id="0">
					<dim>1</dim>
					<dim>384</dim>
					<dim>54</dim>
					<dim>54</dim>
				</port>
				<port id="1">
					<dim>1</dim>
					<dim>384</dim>
					<dim>1</dim>
					<dim>1</dim>
				</port>
			</input>
			<output>
				<port id="2" precision="FP32" names="790">
					<dim>1</dim>
					<dim>384</dim>
					<dim>54</dim>
					<dim>54</dim>
				</port>
			</output>
		</layer>
		<layer id="490" name="Clip_73" type="Clamp" version="opset1">
			<data max="6" min="0"/>
			<input>
				<port id="0">
					<dim>1</dim>
					<dim>384</dim>
					<dim>54</dim>
					<dim>54</dim>
				</port>
			</input>
			<output>
				<port id="1" precision="FP32" names="445">
					<dim>1</dim>
					<dim>384</dim>
					<dim>54</dim>
					<dim>54</dim>
				</port>
			</output>
		</layer>
		<layer id="491" name="Conv_74/WithoutBiases/fq_input_0" type="FakeQuantize" version="opset1">
			<data levels="0" auto_broadcast="numpy"/>
			<input>
				<port id="0">
					<dim>1</dim>
					<dim>384</dim>
					<dim>54</dim>
					<dim>54</dim>
				</port>
				<port id="1"/>
				<port id="2"/>
				<port id="3"/>
				<port id="4"/>
			</input>
			<output>
				<port id="5" precision="FP32">
					<dim>1</dim>
					<dim>384</dim>
					<dim>54</dim>
					<dim>54</dim>
				</port>
			</output>
		</layer>
		<layer id="492" name="Conv_74/WithoutBiases/weights_shape70289879" type="Const" version="opset1">
			<data offset="1040548" size="40" shape="5" element_type="i64"/>
			<output>
				<port id="0" precision="I64">
					<dim>5</dim>
				</port>
			</output>
		</layer>
		<layer id="493" name="2151215510245" type="Const" version="opset1">
			<data offset="0" size="4" shape="" element_type="f32"/>
			<output>
				<port id="0" precision="FP32"/>
			</output>
		</layer>
		<layer id="494" name="2152215610233" type="Const" version="opset1">
			<data offset="0" size="4" shape="" element_type="f32"/>
			<output>
				<port id="0" precision="FP32"/>
			</output>
		</layer>
		<layer id="495" name="2153215710122" type="Const" version="opset1">
			<data offset="0" size="4" shape="" element_type="f32"/>
			<output>
				<port id="0" precision="FP32"/>
			</output>
		</layer>
		<layer id="496" name="215421589516" type="Const" version="opset1">
			<data offset="0" size="4" shape="" element_type="f32"/>
			<output>
				<port id="0" precision="FP32"/>
			</output>
		</layer>
		<layer id="497" name="Reshape_94949110296" type="Const" version="opset1">
			<data offset="1040588" size="13824" shape="384,1,3,3" element_type="f32"/>
			<output>
				<port id="0" precision="FP32">
					<dim>384</dim>
					<dim>1</dim>
					<dim>3</dim>
					<dim>3</dim>
				</port>
			</output>
		</layer>
		<layer id="498" name="Conv_74/WithoutBiases/fq_weights_1" type="FakeQuantize" version="opset1">
			<data levels="0" auto_broadcast="numpy"/>
			<input>
				<port id="0">
					<dim>384</dim>
					<dim>1</dim>
					<dim>3</dim>
					<dim>3</dim>
				</port>
				<port id="1"/>
				<port id="2"/>
				<port id="3"/>
				<port id="4"/>
			</input>
			<output>
				<port id="5" precision="FP32">
					<dim>384</dim>
					<dim>1</dim>
					<dim>3</dim>
					<dim>3</dim>
				</port>
			</output>
		</layer>
		<layer id="499" name="7027" type="Reshape" version="opset1">
			<data special_zero="true"/>
			<input>
				<port id="0">
					<dim>384</dim>
					<dim>1</dim>
					<dim>3</dim>
					<dim>3</dim>
				</port>
				<port id="1">
					<dim>5</dim>
				</port>
			</input>
			<output>
				<port id="2" precision="FP32">
					<dim>384</dim>
					<dim>1</dim>
					<dim>1</dim>
					<dim>3</dim>
					<dim>3</dim>
				</port>
			</output>
		</layer>
		<layer id="500" name="Conv_74/WithoutBiases" type="GroupConvolution" version="opset1">
			<data auto_pad="explicit" strides="1,1" dilations="1,1" pads_begin="1,1" pads_end="1,1"/>
			<input>
				<port id="0">
					<dim>1</dim>
					<dim>384</dim>
					<dim>54</dim>
					<dim>54</dim>
				</port>
				<port id="1">
					<dim>384</dim>
					<dim>1</dim>
					<dim>1</dim>
					<dim>3</dim>
					<dim>3</dim>
				</port>
			</input>
			<output>
				<port id="2" precision="FP32">
					<dim>1</dim>
					<dim>384</dim>
					<dim>54</dim>
					<dim>54</dim>
				</port>
			</output>
		</layer>
		<layer id="501" name="Reshape_100149310299" type="Const" version="opset1">
			<data offset="1054412" size="1536" shape="1,384,1,1" element_type="f32"/>
			<output>
				<port id="0" precision="FP32">
					<dim>1</dim>
					<dim>384</dim>
					<dim>1</dim>
					<dim>1</dim>
				</port>
			</output>
		</layer>
		<layer id="502" name="Conv_74" type="Add" version="opset1">
			<data auto_broadcast="numpy"/>
			<input>
				<port id="0">
					<dim>1</dim>
					<dim>384</dim>
					<dim>54</dim>
					<dim>54</dim>
				</port>
				<port id="1">
					<dim>1</dim>
					<dim>384</dim>
					<dim>1</dim>
					<dim>1</dim>
				</port>
			</input>
			<output>
				<port id="2" precision="FP32" names="793">
					<dim>1</dim>
					<dim>384</dim>
					<dim>54</dim>
					<dim>54</dim>
				</port>
			</output>
		</layer>
		<layer id="503" name="Clip_77" type="Clamp" version="opset1">
			<data max="6" min="0"/>
			<input>
				<port id="0">
					<dim>1</dim>
					<dim>384</dim>
					<dim>54</dim>
					<dim>54</dim>
				</port>
			</input>
			<output>
				<port id="1" precision="FP32" names="450">
					<dim>1</dim>
					<dim>384</dim>
					<dim>54</dim>
					<dim>54</dim>
				</port>
			</output>
		</layer>
		<layer id="504" name="Conv_78/WithoutBiases/fq_input_0" type="FakeQuantize" version="opset1">
			<data levels="0" auto_broadcast="numpy"/>
			<input>
				<port id="0">
					<dim>1</dim>
					<dim>384</dim>
					<dim>54</dim>
					<dim>54</dim>
				</port>
				<port id="1"/>
				<port id="2"/>
				<port id="3"/>
				<port id="4"/>
			</input>
			<output>
				<port id="5" precision="FP32">
					<dim>1</dim>
					<dim>384</dim>
					<dim>54</dim>
					<dim>54</dim>
				</port>
			</output>
		</layer>
		<layer id="505" name="1811181510182" type="Const" version="opset1">
			<data offset="0" size="4" shape="" element_type="f32"/>
			<output>
				<port id="0" precision="FP32"/>
			</output>
		</layer>
		<layer id="506" name="181218169651" type="Const" version="opset1">
			<data offset="0" size="4" shape="" element_type="f32"/>
			<output>
				<port id="0" precision="FP32"/>
			</output>
		</layer>
		<layer id="507" name="181318179618" type="Const" version="opset1">
			<data offset="0" size="4" shape="" element_type="f32"/>
			<output>
				<port id="0" precision="FP32"/>
			</output>
		</layer>
		<layer id="508" name="181418189888" type="Const" version="opset1">
			<data offset="0" size="4" shape="" element_type="f32"/>
			<output>
				<port id="0" precision="FP32"/>
			</output>
		</layer>
		<layer id="509" name="79749610497" type="Const" version="opset1">
			<data offset="1055948" size="98304" shape="64,384,1,1" element_type="f32"/>
			<output>
				<port id="0" precision="FP32" names="797">
					<dim>64</dim>
					<dim>384</dim>
					<dim>1</dim>
					<dim>1</dim>
				</port>
			</output>
		</layer>
		<layer id="510" name="Conv_78/WithoutBiases/fq_weights_1" type="FakeQuantize" version="opset1">
			<data levels="0" auto_broadcast="numpy"/>
			<input>
				<port id="0">
					<dim>64</dim>
					<dim>384</dim>
					<dim>1</dim>
					<dim>1</dim>
				</port>
				<port id="1"/>
				<port id="2"/>
				<port id="3"/>
				<port id="4"/>
			</input>
			<output>
				<port id="5" precision="FP32">
					<dim>64</dim>
					<dim>384</dim>
					<dim>1</dim>
					<dim>1</dim>
				</port>
			</output>
		</layer>
		<layer id="511" name="Conv_78/WithoutBiases" type="Convolution" version="opset1">
			<data auto_pad="explicit" strides="1,1" dilations="1,1" pads_begin="0,0" pads_end="0,0"/>
			<input>
				<port id="0">
					<dim>1</dim>
					<dim>384</dim>
					<dim>54</dim>
					<dim>54</dim>
				</port>
				<port id="1">
					<dim>64</dim>
					<dim>384</dim>
					<dim>1</dim>
					<dim>1</dim>
				</port>
			</input>
			<output>
				<port id="2" precision="FP32">
					<dim>1</dim>
					<dim>64</dim>
					<dim>54</dim>
					<dim>54</dim>
				</port>
			</output>
		</layer>
		<layer id="512" name="Reshape_10184989504" type="Const" version="opset1">
			<data offset="1154252" size="256" shape="1,64,1,1" element_type="f32"/>
			<output>
				<port id="0" precision="FP32">
					<dim>1</dim>
					<dim>64</dim>
					<dim>1</dim>
					<dim>1</dim>
				</port>
			</output>
		</layer>
		<layer id="513" name="Conv_78" type="Add" version="opset1">
			<data auto_broadcast="numpy"/>
			<input>
				<port id="0">
					<dim>1</dim>
					<dim>64</dim>
					<dim>54</dim>
					<dim>54</dim>
				</port>
				<port id="1">
					<dim>1</dim>
					<dim>64</dim>
					<dim>1</dim>
					<dim>1</dim>
				</port>
			</input>
			<output>
				<port id="2" precision="FP32" names="796">
					<dim>1</dim>
					<dim>64</dim>
					<dim>54</dim>
					<dim>54</dim>
				</port>
			</output>
		</layer>
		<layer id="514" name="Add_79/fq_input_0" type="FakeQuantize" version="opset1">
…
		<edge from-layer="458" from-port="5" to-layer="459" to-port="1"/>
		<edge from-layer="459" from-port="2" to-layer="461" to-port="0"/>
		<edge from-layer="460" from-port="0" to-layer="461" to-port="1"/>
		<edge from-layer="461" from-port="2" to-layer="462" to-port="0"/>
		<edge from-layer="462" from-port="1" to-layer="463" to-port="0"/>
		<edge from-layer="134" from-port="0" to-layer="463" to-port="1"/>
		<edge from-layer="135" from-port="0" to-layer="463" to-port="2"/>
		<edge from-layer="136" from-port="0" to-layer="463" to-port="3"/>
		<edge from-layer="137" from-port="0" to-layer="463" to-port="4"/>
		<edge from-layer="469" from-port="0" to-layer="470" to-port="0"/>
		<edge from-layer="465" from-port="0" to-layer="470" to-port="1"/>
		<edge from-layer="466" from-port="0" to-layer="470" to-port="2"/>
		<edge from-layer="467" from-port="0" to-layer="470" to-port="3"/>
		<edge from-layer="468" from-port="0" to-layer="470" to-port="4"/>
		<edge from-layer="470" from-port="5" to-layer="471" to-port="0"/>
		<edge from-layer="464" from-port="0" to-layer="471" to-port="1"/>
		<edge from-layer="463" from-port="5" to-layer="472" to-port="0"/>
		<edge from-layer="471" from-port="2" to-layer="472" to-port="1"/>
		<edge from-layer="472" from-port="2" to-layer="474" to-port="0"/>
		<edge from-layer="473" from-port="0" to-layer="474" to-port="1"/>
		<edge from-layer="474" from-port="2" to-layer="475" to-port="0"/>
		<edge from-layer="475" from-port="1" to-layer="476" to-port="0"/>
		<edge from-layer="130" from-port="0" to-layer="476" to-port="1"/>
		<edge from-layer="131" from-port="0" to-layer="476" to-port="2"/>
		<edge from-layer="132" from-port="0" to-layer="476" to-port="3"/>
		<edge from-layer="133" from-port="0" to-layer="476" to-port="4"/>
		<edge from-layer="481" from-port="0" to-layer="482" to-port="0"/>
		<edge from-layer="477" from-port="0" to-layer="482" to-port="1"/>
		<edge from-layer="478" from-port="0" to-layer="482" to-port="2"/>
		<edge from-layer="479" from-port="0" to-layer="482" to-port="3"/>
		<edge from-layer="480" from-port="0" to-layer="482" to-port="4"/>
		<edge from-layer="476" from-port="5" to-layer="483" to-port="0"/>
		<edge from-layer="482" from-port="5" to-layer="483" to-port="1"/>
		<edge from-layer="483" from-port="2" to-layer="485" to-port="0"/>
		<edge from-layer="484" from-port="0" to-layer="485" to-port="1"/>
		<edge from-layer="485" from-port="2" to-layer="486" to-port="0"/>
		<edge from-layer="126" from-port="0" to-layer="486" to-port="1"/>
		<edge from-layer="127" from-port="0" to-layer="486" to-port="2"/>
		<edge from-layer="128" from-port="0" to-layer="486" to-port="3"/>
		<edge from-layer="129" from-port="0" to-layer="486" to-port="4"/>
		<edge from-layer="486" from-port="5" to-layer="487" to-port="0"/>
		<edge from-layer="125" from-port="5" to-layer="487" to-port="1"/>
		<edge from-layer="487" from-port="2" to-layer="489" to-port="0"/>
		<edge from-layer="488" from-port="0" to-layer="489" to-port="1"/>
		<edge from-layer="489" from-port="2" to-layer="490" to-port="0"/>
		<edge from-layer="490" from-port="1" to-layer="491" to-port="0"/>
		<edge from-layer="116" from-port="0" to-layer="491" to-port="1"/>
		<edge from-layer="117" from-port="0" to-layer="491" to-port="2"/>
		<edge from-layer="118" from-port="0" to-layer="491" to-port="3"/>
		<edge from-layer="119" from-port="0" to-layer="491" to-port="4"/>
		<edge from-layer="497" from-port="0" to-layer="498" to-port="0"/>
		<edge from-layer="493" from-port="0" to-layer="498" to-port="1"/>
		<edge from-layer="494" from-port="0" to-layer="498" to-port="2"/>
		<edge from-layer="495" from-port="0" to-layer="498" to-port="3"/>
		<edge from-layer="496" from-port="0" to-layer="498" to-port="4"/>
		<edge from-layer="498" from-port="5" to-layer="499" to-port="0"/>
		<edge from-layer="492" from-port="0" to-layer="499" to-port="1"/>
		<edge from-layer="491" from-port="5" to-layer="500" to-port="0"/>
		<edge from-layer="499" from-port="2" to-layer="500" to-port="1"/>
		<edge from-layer="500" from-port="2" to-layer="502" to-port="0"/>
		<edge from-layer="501" from-port="0" to-layer="502" to-port="1"/>
		<edge from-layer="502" from-port="2" to-layer="503" to-port="0"/>
		<edge from-layer="503" from-port="1" to-layer="504" to-port="0"/>
		<edge from-layer="112" from-port="0" to-layer="504" to-port="1"/>
		<edge from-layer="113" from-port="0" to-layer="504" to-port="2"/>
		<edge from-layer="114" from-port="0" to-layer="504" to-port="3"/>
		<edge from-layer="115" from-port="0" to-layer="504" to-port="4"/>
		<edge from-layer="509" from-port="0" to-layer="510" to-port="0"/>
		<edge from-layer="505" from-port="0" to-layer="510" to-port="1"/>
		<edge from-layer="506" from-port="0" to-layer="510" to-port="2"/>
		<edge from-layer="507" from-port="0" to-layer="510" to-port="3"/>
		<edge from-layer="508" from-port="0" to-layer="510" to-port="4"/>
		<edge from-layer="504" from-port="5" to-layer="511" to-port="0"/>
		<edge from-layer="510" from-port="5" to-layer="511" to-port="1"/>
		<edge from-layer="511" from-port="2" to-layer="513" to-port="0"/>
		<edge from-layer="512" from-port="0" to-layer="513" to-port="1"/>
		<edge from-layer="513" from-port="2" to-layer="514" to-port="0"/>
		<edge from-layer="108" from-port="0" to-layer="514" to-port="1"/>
		<edge from-layer="109" from-port="0" to-layer="514" to-port="2"/>
		<edge from-layer="110" from-port="0" to-layer="514" to-port="3"/>
		<edge from-layer="111" from-port="0" to-layer="514" to-port="4"/>
		<edge from-layer="514" from-port="5" to-layer="515" to-port="0"/>
		<edge from-layer="486" from-port="5" to-layer="515" to-port="1"/>
		<edge from-layer="515" from-port="2" to-layer="516" to-port="0"/>
		<edge from-layer="104" from-port="0" to-layer="516" to-port="1"/>
		<edge from-layer="105" from-port="0" to-layer="516" to-port="2"/>
		<edge from-layer="106" from-port="0" to-layer="516" to-port="3"/>
		<edge from-layer="107" from-port="0" to-layer="516" to-port="4"/>
		<edge from-layer="516" from-port="5" to-layer="517" to-port="0"/>
		<edge from-layer="103" from-port="5" to-layer="517" to-port="1"/>
		<edge from-layer="517" from-port="2" to-layer="519" to-port="0"/>
		<edge from-layer="518" from-port="0" to-layer="519" to-port="1"/>
		<edge from-layer="519" from-port="2" to-layer="520" to-port="0"/>
		<edge from-layer="520" from-port="1" to-layer="521" to-port="0"/>
		<edge from-layer="94" from-port="0" to-layer="521" to-port="1"/>
		<edge from-layer="95" from-port="0" to-layer="521" to-port="2"/>
		<edge from-layer="96" from-port="0" to-layer="521" to-port="3"/>
		<edge from-layer="97" from-port="0" to-layer="521" to-port="4"/>
		<edge from-layer="527" from-port="0" to-layer="528" to-port="0"/>
		<edge from-layer="523" from-port="0" to-layer="528" to-port="1"/>
		<edge from-layer="524" from-port="0" to-layer="528" to-port="2"/>
		<edge from-layer="525" from-port="0" to-layer="528" to-port="3"/>
		<edge from-layer="526" from-port="0" to-layer="528" to-port="4"/>
		<edge from-layer="528" from-port="5" to-layer="529" to-port="0"/>
		<edge from-layer="522" from-port="0" to-layer="529" to-port="1"/>
		<edge from-layer="521" from-port="5" to-layer="530" to-port="0"/>
		<edge from-layer="529" from-port="2" to-layer="530" to-port="1"/>
		<edge from-layer="530" from-port="2" to-layer="532" to-port="0"/>
		<edge from-layer="531" from-port="0" to-layer="532" to-port="1"/>
		<edge from-layer="532" from-port="2" to-layer="533" to-port="0"/>
		<edge from-layer="533" from-port="1" to-layer="534" to-port="0"/>
		<edge from-layer="90" from-port="0" to-layer="534" to-port="1"/>
		<edge from-layer="91" from-port="0" to-layer="534" to-port="2"/>
		<edge from-layer="92" from-port="0" to-layer="534" to-port="3"/>
		<edge from-layer="93" from-port="0" to-layer="534" to-port="4"/>
		<edge from-layer="539" from-port="0" to-layer="540" to-port="0"/>
		<edge from-layer="535" from-port="0" to-layer="540" to-port="1"/>
		<edge from-layer="536" from-port="0" to-layer="540" to-port="2"/>
		<edge from-layer="537" from-port="0" to-layer="540" to-port="3"/>
		<edge from-layer="538" from-port="0" to-layer="540" to-port="4"/>
		<edge from-layer="534" from-port="5" to-layer="541" to-port="0"/>
		<edge from-layer="540" from-port="5" to-layer="541" to-port="1"/>
		<edge from-layer="541" from-port="2" to-layer="543" to-port="0"/>
		<edge from-layer="542" from-port="0" to-layer="543" to-port="1"/>
		<edge from-layer="543" from-port="2" to-layer="544" to-port="0"/>
		<edge from-layer="86" from-port="0" to-layer="544" to-port="1"/>
		<edge from-layer="87" from-port="0" to-layer="544" to-port="2"/>
		<edge from-layer="88" from-port="0" to-layer="544" to-port="3"/>
		<edge from-layer="89" from-port="0" to-layer="544" to-port="4"/>
		<edge from-layer="544" from-port="5" to-layer="545" to-port="0"/>
		<edge from-layer="516" from-port="5" to-layer="545" to-port="1"/>
		<edge from-layer="545" from-port="2" to-layer="546" to-port="0"/>
		<edge from-layer="82" from-port="0" to-layer="546" to-port="1"/>
		<edge from-layer="83" from-port="0" to-layer="546" to-port="2"/>
		<edge from-layer="84" from-port="0" to-layer="546" to-port="3"/>
		<edge from-layer="85" from-port="0" to-layer="546" to-port="4"/>
		<edge from-layer="546" from-port="5" to-layer="547" to-port="0"/>
		<edge from-layer="81" from-port="5" to-layer="547" to-port="1"/>
		<edge from-layer="547" from-port="2" to-layer="549" to-port="0"/>
		<edge from-layer="548" from-port="0" to-layer="549" to-port="1"/>
		<edge from-layer="549" from-port="2" to-layer="550" to-port="0"/>
		<edge from-layer="550" from-port="1" to-layer="551" to-port="0"/>
		<edge from-layer="72" from-port="0" to-layer="551" to-port="1"/>
		<edge from-layer="73" from-port="0" to-layer="551" to-port="2"/>
		<edge from-layer="74" from-port="0" to-layer="551" to-port="3"/>
		<edge from-layer="75" from-port="0" to-layer="551" to-port="4"/>
		<edge from-layer="557" from-port="0" to-layer="558" to-port="0"/>
		<edge from-layer="553" from-port="0" to-layer="558" to-port="1"/>
		<edge from-layer="554" from-port="0" to-layer="558" to-port="2"/>
		<edge from-layer="555" from-port="0" to-layer="558" to-port="3"/>
		<edge from-layer="556" from-port="0" to-layer="558" to-port="4"/>
		<edge from-layer="558" from-port="5" to-layer="559" to-port="0"/>
		<edge from-layer="552" from-port="0" to-layer="559" to-port="1"/>
		<edge from-layer="551" from-port="5" to-layer="560" to-port="0"/>
		<edge from-layer="559" from-port="2" to-layer="560" to-port="1"/>
		<edge from-layer="560" from-port="2" to-layer="562" to-port="0"/>
		<edge from-layer="561" from-port="0" to-layer="562" to-port="1"/>
		<edge from-layer="562" from-port="2" to-layer="563" to-port="0"/>
		<edge from-layer="563" from-port="1" to-layer="564" to-port="0"/>
		<edge from-layer="68" from-port="0" to-layer="564" to-port="1"/>
		<edge from-layer="69" from-port="0" to-layer="564" to-port="2"/>
		<edge from-layer="70" from-port="0" to-layer="564" to-port="3"/>
		<edge from-layer="71" from-port="0" to-layer="564" to-port="4"/>
		<edge from-layer="569" from-port="0" to-layer="570" to-port="0"/>
		<edge from-layer="565" from-port="0" to-layer="570" to-port="1"/>
		<edge from-layer="566" from-port="0" to-layer="570" to-port="2"/>
		<edge from-layer="567" from-port="0" to-layer="570" to-port="3"/>
		<edge from-layer="568" from-port="0" to-layer="570" to-port="4"/>
		<edge from-layer="564" from-port="5" to-layer="571" to-port="0"/>
		<edge from-layer="570" from-port="5" to-layer="571" to-port="1"/>
		<edge from-layer="571" from-port="2" to-layer="573" to-port="0"/>
		<edge from-layer="572" from-port="0" to-layer="573" to-port="1"/>
		<edge from-layer="573" from-port="2" to-layer="574" to-port="0"/>
		<edge from-layer="64" from-port="0" to-layer="574" to-port="1"/>
		<edge from-layer="65" from-port="0" to-layer="574" to-port="2"/>
		<edge from-layer="66" from-port="0" to-layer="574" to-port="3"/>
		<edge from-layer="67" from-port="0" to-layer="574" to-port="4"/>
		<edge from-layer="574" from-port="5" to-layer="575" to-port="0"/>
		<edge from-layer="546" from-port="5" to-layer="575" to-port="1"/>
		<edge from-layer="575" from-port="2" to-layer="576" to-port="0"/>
		<edge from-layer="60" from-port="0" to-layer="576" to-port="1"/>
		<edge from-layer="61" from-port="0" to-layer="576" to-port="2"/>
		<edge from-layer="62" from-port="0" to-layer="576" to-port="3"/>
		<edge from-layer="63" from-port="0" to-layer="576" to-port="4"/>
		<edge from-layer="581" from-port="0" to-layer="582" to-port="0"/>
		<edge from-layer="577" from-port="0" to-layer="582" to-port="1"/>
		<edge from-layer="578" from-port="0" to-layer="582" to-port="2"/>
		<edge from-layer="579" from-port="0" to-layer="582" to-port="3"/>
		<edge from-layer="580" from-port="0" to-layer="582" to-port="4"/>
		<edge from-layer="576" from-port="5" to-layer="583" to-port="0"/>
		<edge from-layer="582" from-port="5" to-layer="583" to-port="1"/>
		<edge from-layer="583" from-port="2" to-layer="585" to-port="0"/>
		<edge from-layer="584" from-port="0" to-layer="585" to-port="1"/>
		<edge from-layer="585" from-port="2" to-layer="586" to-port="0"/>
		<edge from-layer="586" from-port="1" to-layer="587" to-port="0"/>
		<edge from-layer="56" from-port="0" to-layer="587" to-port="1"/>
		<edge from-layer="57" from-port="0" to-layer="587" to-port="2"/>
		<edge from-layer="58" from-port="0" to-layer="587" to-port="3"/>
		<edge from-layer="59" from-port="0" to-layer="587" to-port="4"/>
		<edge from-layer="593" from-port="0" to-layer="594" to-port="0"/>
		<edge from-layer="589" from-port="0" to-layer="594" to-port="1"/>
		<edge from-layer="590" from-port="0" to-layer="594" to-port="2"/>
		<edge from-layer="591" from-port="0" to-layer="594" to-port="3"/>
		<edge from-layer="592" from-port="0" to-layer="594" to-port="4"/>
		<edge from-layer="594" from-port="5" to-layer="595" to-port="0"/>
		<edge from-layer="588" from-port="0" to-layer="595" to-port="1"/>
		<edge from-layer="587" from-port="5" to-layer="596" to-port="0"/>
		<edge from-layer="595" from-port="2" to-layer="596" to-port="1"/>
		<edge from-layer="596" from-port="2" to-layer="598" to-port="0"/>
		<edge from-layer="597" from-port="0" to-layer="598" to-port="1"/>
		<edge from-layer="598" from-port="2" to-layer="599" to-port="0"/>
		<edge from-layer="599" from-port="1" to-layer="600" to-port="0"/>
		<edge from-layer="52" from-port="0" to-layer="600" to-port="1"/>
		<edge from-layer="53" from-port="0" to-layer="600" to-port="2"/>
		<edge from-layer="54" from-port="0" to-layer="600" to-port="3"/>
		<edge from-layer="55" from-port="0" to-layer="600" to-port="4"/>
		<edge from-layer="605" from-port="0" to-layer="606" to-port="0"/>
		<edge from-layer="601" from-port="0" to-layer="606" to-port="1"/>
		<edge from-layer="602" from-port="0" to-layer="606" to-port="2"/>
		<edge from-layer="603" from-port="0" to-layer="606" to-port="3"/>
		<edge from-layer="604" from-port="0" to-layer="606" to-port="4"/>
		<edge from-layer="600" from-port="5" to-layer="607" to-port="0"/>
		<edge from-layer="606" from-port="5" to-layer="607" to-port="1"/>
		<edge from-layer="607" from-port="2" to-layer="609" to-port="0"/>
		<edge from-layer="608" from-port="0" to-layer="609" to-port="1"/>
		<edge from-layer="609" from-port="2" to-layer="610" to-port="0"/>
		<edge from-layer="48" from-port="0" to-layer="610" to-port="1"/>
		<edge from-layer="49" from-port="0" to-layer="610" to-port="2"/>
		<edge from-layer="50" from-port="0" to-layer="610" to-port="3"/>
		<edge from-layer="51" from-port="0" to-layer="610" to-port="4"/>
		<edge from-layer="610" from-port="5" to-layer="611" to-port="0"/>
		<edge from-layer="47" from-port="5" to-layer="611" to-port="1"/>
		<edge from-layer="611" from-port="2" to-layer="613" to-port="0"/>
		<edge from-layer="612" from-port="0" to-layer="613" to-port="1"/>
		<edge from-layer="613" from-port="2" to-layer="614" to-port="0"/>
		<edge from-layer="614" from-port="1" to-layer="615" to-port="0"/>
		<edge from-layer="38" from-port="0" to-layer="615" to-port="1"/>
		<edge from-layer="39" from-port="0" to-layer="615" to-port="2"/>
		<edge from-layer="40" from-port="0" to-layer="615" to-port="3"/>
		<edge from-layer="41" from-port="0" to-layer="615" to-port="4"/>
		<edge from-layer="621" from-port="0" to-layer="622" to-port="0"/>
		<edge from-layer="617" from-port="0" to-layer="622" to-port="1"/>
		<edge from-layer="618" from-port="0" to-layer="622" to-port="2"/>
		<edge from-layer="619" from-port="0" to-layer="622" to-port="3"/>
		<edge from-layer="620" from-port="0" to-layer="622" to-port="4"/>
		<edge from-layer="622" from-port="5" to-layer="623" to-port="0"/>
		<edge from-layer="616" from-port="0" to-layer="623" to-port="1"/>
		<edge from-layer="615" from-port="5" to-layer="624" to-port="0"/>
		<edge from-layer="623" from-port="2" to-layer="624" to-port="1"/>
		<edge from-layer="624" from-port="2" to-layer="626" to-port="0"/>
		<edge from-layer="625" from-port="0" to-layer="626" to-port="1"/>
		<edge from-layer="626" from-port="2" to-layer="627" to-port="0"/>
		<edge from-layer="627" from-port="1" to-layer="628" to-port="0"/>
		<edge from-layer="34" from-port="0" to-layer="628" to-port="1"/>
		<edge from-layer="35" from-port="0" to-layer="628" to-port="2"/>
		<edge from-layer="36" from-port="0" to-layer="628" to-port="3"/>
		<edge from-layer="37" from-port="0" to-layer="628" to-port="4"/>
		<edge from-layer="633" from-port="0" to-layer="634" to-port="0"/>
		<edge from-layer="629" from-port="0" to-layer="634" to-port="1"/>
		<edge from-layer="630" from-port="0" to-layer="634" to-port="2"/>
		<edge from-layer="631" from-port="0" to-layer="634" to-port="3"/>
		<edge from-layer="632" from-port="0" to-layer="634" to-port="4"/>
		<edge from-layer="628" from-port="5" to-layer="635" to-port="0"/>
		<edge from-layer="634" from-port="5" to-layer="635" to-port="1"/>
		<edge from-layer="635" from-port="2" to-layer="637" to-port="0"/>
		<edge from-layer="636" from-port="0" to-layer="637" to-port="1"/>
		<edge from-layer="637" from-port="2" to-layer="638" to-port="0"/>
		<edge from-layer="30" from-port="0" to-layer="638" to-port="1"/>
		<edge from-layer="31" from-port="0" to-layer="638" to-port="2"/>
		<edge from-layer="32" from-port="0" to-layer="638" to-port="3"/>
		<edge from-layer="33" from-port="0" to-layer="638" to-port="4"/>
		<edge from-layer="638" from-port="5" to-layer="639" to-port="0"/>
		<edge from-layer="610" from-port="5" to-layer="639" to-port="1"/>
		<edge from-layer="639" from-port="2" to-layer="640" to-port="0"/>
		<edge from-layer="26" from-port="0" to-layer="640" to-port="1"/>
		<edge from-layer="27" from-port="0" to-layer="640" to-port="2"/>
		<edge from-layer="28" from-port="0" to-layer="640" to-port="3"/>
		<edge from-layer="29" from-port="0" to-layer="640" to-port="4"/>
		<edge from-layer="640" from-port="5" to-layer="641" to-port="0"/>
		<edge from-layer="25" from-port="5" to-layer="641" to-port="1"/>
		<edge from-layer="641" from-port="2" to-layer="643" to-port="0"/>
		<edge from-layer="642" from-port="0" to-layer="643" to-port="1"/>
		<edge from-layer="643" from-port="2" to-layer="644" to-port="0"/>
		<edge from-layer="644" from-port="1" to-layer="645" to-port="0"/>
		<edge from-layer="16" from-port="0" to-layer="645" to-port="1"/>
		<edge from-layer="17" from-port="0" to-layer="645" to-port="2"/>
		<edge from-layer="18" from-port="0" to-layer="645" to-port="3"/>
		<edge from-layer="19" from-port="0" to-layer="645" to-port="4"/>
		<edge from-layer="651" from-port="0" to-layer="652" to-port="0"/>
		<edge from-layer="647" from-port="0" to-layer="652" to-port="1"/>
		<edge from-layer="648" from-port="0" to-layer="652" to-port="2"/>
		<edge from-layer="649" from-port="0" to-layer="652" to-port="3"/>
		<edge from-layer="650" from-port="0" to-layer="652" to-port="4"/>
		<edge from-layer="652" from-port="5" to-layer="653" to-port="0"/>
		<edge from-layer="646" from-port="0" to-layer="653" to-port="1"/>
		<edge from-layer="645" from-port="5" to-layer="654" to-port="0"/>
		<edge from-layer="653" from-port="2" to-layer="654" to-port="1"/>
		<edge from-layer="654" from-port="2" to-layer="656" to-port="0"/>
		<edge from-layer="655" from-port="0" to-layer="656" to-port="1"/>
		<edge from-layer="656" from-port="2" to-layer="657" to-port="0"/>
		<edge from-layer="657" from-port="1" to-layer="658" to-port="0"/>
		<edge from-layer="12" from-port="0" to-layer="658" to-port="1"/>
		<edge from-layer="13" from-port="0" to-layer="658" to-port="2"/>
		<edge from-layer="14" from-port="0" to-layer="658" to-port="3"/>
		<edge from-layer="15" from-port="0" to-layer="658" to-port="4"/>
		<edge from-layer="663" from-port="0" to-layer="664" to-port="0"/>
		<edge from-layer="659" from-port="0" to-layer="664" to-port="1"/>
		<edge from-layer="660" from-port="0" to-layer="664" to-port="2"/>
		<edge from-layer="661" from-port="0" to-layer="664" to-port="3"/>
		<edge from-layer="662" from-port="0" to-layer="664" to-port="4"/>
		<edge from-layer="658" from-port="5" to-layer="665" to-port="0"/>
		<edge from-layer="664" from-port="5" to-layer="665" to-port="1"/>
		<edge from-layer="665" from-port="2" to-layer="667" to-port="0"/>
		<edge from-layer="666" from-port="0" to-layer="667" to-port="1"/>
		<edge from-layer="667" from-port="2" to-layer="668" to-port="0"/>
		<edge from-layer="8" from-port="0" to-layer="668" to-port="1"/>
		<edge from-layer="9" from-port="0" to-layer="668" to-port="2"/>
		<edge from-layer="10" from-port="0" to-layer="668" to-port="3"/>
		<edge from-layer="11" from-port="0" to-layer="668" to-port="4"/>
		<edge from-layer="668" from-port="5" to-layer="669" to-port="0"/>
		<edge from-layer="640" from-port="5" to-layer="669" to-port="1"/>
		<edge from-layer="669" from-port="2" to-layer="670" to-port="0"/>
		<edge from-layer="4" from-port="0" to-layer="670" to-port="1"/>
		<edge from-layer="5" from-port="0" to-layer="670" to-port="2"/>
		<edge from-layer="6" from-port="0" to-layer="670" to-port="3"/>
		<edge from-layer="7" from-port="0" to-layer="670" to-port="4"/>
		<edge from-layer="676" from-port="0" to-layer="677" to-port="0"/>
		<edge from-layer="672" from-port="0" to-layer="677" to-port="1"/>
		<edge from-layer="673" from-port="0" to-layer="677" to-port="2"/>
		<edge from-layer="674" from-port="0" to-layer="677" to-port="3"/>
		<edge from-layer="675" from-port="0" to-layer="677" to-port="4"/>
		<edge from-layer="677" from-port="5" to-layer="678" to-port="0"/>
		<edge from-layer="671" from-port="0" to-layer="678" to-port="1"/>
		<edge from-layer="670" from-port="5" to-layer="679" to-port="0"/>
		<edge from-layer="678" from-port="2" to-layer="679" to-port="1"/>
		<edge from-layer="679" from-port="2" to-layer="681" to-port="0"/>
		<edge from-layer="680" from-port="0" to-layer="681" to-port="1"/>
		<edge from-layer="681" from-port="2" to-layer="682" to-port="0"/>
		<edge from-layer="682" from-port="1" to-layer="683" to-port="0"/>
		<edge from-layer="0" from-port="0" to-layer="683" to-port="1"/>
		<edge from-layer="1" from-port="0" to-layer="683" to-port="2"/>
		<edge from-layer="2" from-port="0" to-layer="683" to-port="3"/>
		<edge from-layer="3" from-port="0" to-layer="683" to-port="4"/>
		<edge from-layer="688" from-port="0" to-layer="689" to-port="0"/>
		<edge from-layer="684" from-port="0" to-layer="689" to-port="1"/>
		<edge from-layer="685" from-port="0" to-layer="689" to-port="2"/>
		<edge from-layer="686" from-port="0" to-layer="689" to-port="3"/>
		<edge from-layer="687" from-port="0" to-layer="689" to-port="4"/>
		<edge from-layer="683" from-port="5" to-layer="690" to-port="0"/>
		<edge from-layer="689" from-port="5" to-layer="690" to-port="1"/>
		<edge from-layer="690" from-port="2" to-layer="692" to-port="0"/>
		<edge from-layer="691" from-port="0" to-layer="692" to-port="1"/>
		<edge from-layer="692" from-port="2" to-layer="694" to-port="0"/>
		<edge from-layer="693" from-port="0" to-layer="694" to-port="1"/>
		<edge from-layer="692" from-port="2" to-layer="695" to-port="0"/>
		<edge from-layer="695" from-port="1" to-layer="698" to-port="0"/>
		<edge from-layer="696" from-port="0" to-layer="698" to-port="1"/>
		<edge from-layer="697" from-port="0" to-layer="698" to-port="2"/>
		<edge from-layer="698" from-port="3" to-layer="701" to-port="0"/>
		<edge from-layer="699" from-port="0" to-layer="701" to-port="1"/>
		<edge from-layer="700" from-port="0" to-layer="701" to-port="2"/>
		<edge from-layer="694" from-port="2" to-layer="702" to-port="0"/>
		<edge from-layer="701" from-port="3" to-layer="702" to-port="1"/>
		<edge from-layer="702" from-port="2" to-layer="704" to-port="0"/>
		<edge from-layer="703" from-port="0" to-layer="704" to-port="1"/>
		<edge from-layer="741" from-port="0" to-layer="742" to-port="0"/>
		<edge from-layer="737" from-port="0" to-layer="742" to-port="1"/>
		<edge from-layer="738" from-port="0" to-layer="742" to-port="2"/>
		<edge from-layer="739" from-port="0" to-layer="742" to-port="3"/>
		<edge from-layer="740" from-port="0" to-layer="742" to-port="4"/>
		<edge from-layer="763" from-port="0" to-layer="764" to-port="0"/>
		<edge from-layer="759" from-port="0" to-layer="764" to-port="1"/>
		<edge from-layer="760" from-port="0" to-layer="764" to-port="2"/>
		<edge from-layer="761" from-port="0" to-layer="764" to-port="3"/>
		<edge from-layer="762" from-port="0" to-layer="764" to-port="4"/>
		<edge from-layer="781" from-port="0" to-layer="782" to-port="0"/>
		<edge from-layer="777" from-port="0" to-layer="782" to-port="1"/>
		<edge from-layer="778" from-port="0" to-layer="782" to-port="2"/>
		<edge from-layer="779" from-port="0" to-layer="782" to-port="3"/>
		<edge from-layer="780" from-port="0" to-layer="782" to-port="4"/>
		<edge from-layer="670" from-port="5" to-layer="783" to-port="0"/>
		<edge from-layer="782" from-port="5" to-layer="783" to-port="1"/>
		<edge from-layer="783" from-port="2" to-layer="785" to-port="0"/>
		<edge from-layer="784" from-port="0" to-layer="785" to-port="1"/>
		<edge from-layer="785" from-port="2" to-layer="786" to-port="0"/>
		<edge from-layer="786" from-port="1" to-layer="787" to-port="0"/>
		<edge from-layer="773" from-port="0" to-layer="787" to-port="1"/>
		<edge from-layer="774" from-port="0" to-layer="787" to-port="2"/>
		<edge from-layer="775" from-port="0" to-layer="787" to-port="3"/>
		<edge from-layer="776" from-port="0" to-layer="787" to-port="4"/>
		<edge from-layer="793" from-port="0" to-layer="794" to-port="0"/>
		<edge from-layer="789" from-port="0" to-layer="794" to-port="1"/>
		<edge from-layer="790" from-port="0" to-layer="794" to-port="2"/>
		<edge from-layer="791" from-port="0" to-layer="794" to-port="3"/>
		<edge from-layer="792" from-port="0" to-layer="794" to-port="4"/>
		<edge from-layer="794" from-port="5" to-layer="795" to-port="0"/>
		<edge from-layer="788" from-port="0" to-layer="795" to-port="1"/>
		<edge from-layer="787" from-port="5" to-layer="796" to-port="0"/>
		<edge from-layer="795" from-port="2" to-layer="796" to-port="1"/>
		<edge from-layer="796" from-port="2" to-layer="798" to-port="0"/>
		<edge from-layer="797" from-port="0" to-layer="798" to-port="1"/>
		<edge from-layer="798" from-port="2" to-layer="799" to-port="0"/>
		<edge from-layer="799" from-port="1" to-layer="800" to-port="0"/>
		<edge from-layer="769" from-port="0" to-layer="800" to-port="1"/>
		<edge from-layer="770" from-port="0" to-layer="800" to-port="2"/>
		<edge from-layer="771" from-port="0" to-layer="800" to-port="3"/>
		<edge from-layer="772" from-port="0" to-layer="800" to-port="4"/>
		<edge from-layer="805" from-port="0" to-layer="806" to-port="0"/>
		<edge from-layer="801" from-port="0" to-layer="806" to-port="1"/>
		<edge from-layer="802" from-port="0" to-layer="806" to-port="2"/>
		<edge from-layer="803" from-port="0" to-layer="806" to-port="3"/>
		<edge from-layer="804" from-port="0" to-layer="806" to-port="4"/>
		<edge from-layer="800" from-port="5" to-layer="807" to-port="0"/>
		<edge from-layer="806" from-port="5" to-layer="807" to-port="1"/>
		<edge from-layer="807" from-port="2" to-layer="809" to-port="0"/>
		<edge from-layer="808" from-port="0" to-layer="809" to-port="1"/>
		<edge from-layer="809" from-port="2" to-layer="810" to-port="0"/>
		<edge from-layer="765" from-port="0" to-layer="810" to-port="1"/>
		<edge from-layer="766" from-port="0" to-layer="810" to-port="2"/>
		<edge from-layer="767" from-port="0" to-layer="810" to-port="3"/>
		<edge from-layer="768" from-port="0" to-layer="810" to-port="4"/>
		<edge from-layer="810" from-port="5" to-layer="811" to-port="0"/>
		<edge from-layer="764" from-port="5" to-layer="811" to-port="1"/>
		<edge from-layer="811" from-port="2" to-layer="813" to-port="0"/>
		<edge from-layer="812" from-port="0" to-layer="813" to-port="1"/>
		<edge from-layer="813" from-port="2" to-layer="814" to-port="0"/>
		<edge from-layer="814" from-port="1" to-layer="815" to-port="0"/>
		<edge from-layer="755" from-port="0" to-layer="815" to-port="1"/>
		<edge from-layer="756" from-port="0" to-layer="815" to-port="2"/>
		<edge from-layer="757" from-port="0" to-layer="815" to-port="3"/>
		<edge from-layer="758" from-port="0" to-layer="815" to-port="4"/>
		<edge from-layer="821" from-port="0" to-layer="822" to-port="0"/>
		<edge from-layer="817" from-port="0" to-layer="822" to-port="1"/>
		<edge from-layer="818" from-port="0" to-layer="822" to-port="2"/>
		<edge from-layer="819" from-port="0" to-layer="822" to-port="3"/>
		<edge from-layer="820" from-port="0" to-layer="822" to-port="4"/>
		<edge from-layer="822" from-port="5" to-layer="823" to-port="0"/>
		<edge from-layer="816" from-port="0" to-layer="823" to-port="1"/>
		<edge from-layer="815" from-port="5" to-layer="824" to-port="0"/>
		<edge from-layer="823" from-port="2" to-layer="824" to-port="1"/>
		<edge from-layer="824" from-port="2" to-layer="826" to-port="0"/>
		<edge from-layer="825" from-port="0" to-layer="826" to-port="1"/>
		<edge from-layer="826" from-port="2" to-layer="827" to-port="0"/>
		<edge from-layer="827" from-port="1" to-layer="828" to-port="0"/>
		<edge from-layer="751" from-port="0" to-layer="828" to-port="1"/>
		<edge from-layer="752" from-port="0" to-layer="828" to-port="2"/>
		<edge from-layer="753" from-port="0" to-layer="828" to-port="3"/>
		<edge from-layer="754" from-port="0" to-layer="828" to-port="4"/>
		<edge from-layer="833" from-port="0" to-layer="834" to-port="0"/>
		<edge from-layer="829" from-port="0" to-layer="834" to-port="1"/>
		<edge from-layer="830" from-port="0" to-layer="834" to-port="2"/>
		<edge from-layer="831" from-port="0" to-layer="834" to-port="3"/>
		<edge from-layer="832" from-port="0" to-layer="834" to-port="4"/>
		<edge from-layer="828" from-port="5" to-layer="835" to-port="0"/>
		<edge from-layer="834" from-port="5" to-layer="835" to-port="1"/>
		<edge from-layer="835" from-port="2" to-layer="837" to-port="0"/>
		<edge from-layer="836" from-port="0" to-layer="837" to-port="1"/>
		<edge from-layer="837" from-port="2" to-layer="838" to-port="0"/>
		<edge from-layer="747" from-port="0" to-layer="838" to-port="1"/>
		<edge from-layer="748" from-port="0" to-layer="838" to-port="2"/>
		<edge from-layer="749" from-port="0" to-layer="838" to-port="3"/>
		<edge from-layer="750" from-port="0" to-layer="838" to-port="4"/>
		<edge from-layer="838" from-port="5" to-layer="839" to-port="0"/>
		<edge from-layer="810" from-port="5" to-layer="839" to-port="1"/>
		<edge from-layer="839" from-port="2" to-layer="840" to-port="0"/>
		<edge from-layer="743" from-port="0" to-layer="840" to-port="1"/>
		<edge from-layer="744" from-port="0" to-layer="840" to-port="2"/>
		<edge from-layer="745" from-port="0" to-layer="840" to-port="3"/>
		<edge from-layer="746" from-port="0" to-layer="840" to-port="4"/>
		<edge from-layer="840" from-port="5" to-layer="841" to-port="0"/>
		<edge from-layer="742" from-port="5" to-layer="841" to-port="1"/>
		<edge from-layer="841" from-port="2" to-layer="843" to-port="0"/>
		<edge from-layer="842" from-port="0" to-layer="843" to-port="1"/>
		<edge from-layer="843" from-port="2" to-layer="844" to-port="0"/>
		<edge from-layer="844" from-port="1" to-layer="845" to-port="0"/>
		<edge from-layer="733" from-port="0" to-layer="845" to-port="1"/>
		<edge from-layer="734" from-port="0" to-layer="845" to-port="2"/>
		<edge from-layer="735" from-port="0" to-layer="845" to-port="3"/>
		<edge from-layer="736" from-port="0" to-layer="845" to-port="4"/>
		<edge from-layer="851" from-port="0" to-layer="852" to-port="0"/>
		<edge from-layer="847" from-port="0" to-layer="852" to-port="1"/>
		<edge from-layer="848" from-port="0" to-layer="852" to-port="2"/>
		<edge from-layer="849" from-port="0" to-layer="852" to-port="3"/>
		<edge from-layer="850" from-port="0" to-layer="852" to-port="4"/>
		<edge from-layer="852" from-port="5" to-layer="853" to-port="0"/>
		<edge from-layer="846" from-port="0" to-layer="853" to-port="1"/>
		<edge from-layer="845" from-port="5" to-layer="854" to-port="0"/>
		<edge from-layer="853" from-port="2" to-layer="854" to-port="1"/>
		<edge from-layer="854" from-port="2" to-layer="856" to-port="0"/>
		<edge from-layer="855" from-port="0" to-layer="856" to-port="1"/>
		<edge from-layer="856" from-port="2" to-layer="857" to-port="0"/>
		<edge from-layer="857" from-port="1" to-layer="858" to-port="0"/>
		<edge from-layer="729" from-port="0" to-layer="858" to-port="1"/>
		<edge from-layer="730" from-port="0" to-layer="858" to-port="2"/>
		<edge from-layer="731" from-port="0" to-layer="858" to-port="3"/>
		<edge from-layer="732" from-port="0" to-layer="858" to-port="4"/>
		<edge from-layer="863" from-port="0" to-layer="864" to-port="0"/>
		<edge from-layer="859" from-port="0" to-layer="864" to-port="1"/>
		<edge from-layer="860" from-port="0" to-layer="864" to-port="2"/>
		<edge from-layer="861" from-port="0" to-layer="864" to-port="3"/>
		<edge from-layer="862" from-port="0" to-layer="864" to-port="4"/>
		<edge from-layer="858" from-port="5" to-layer="865" to-port="0"/>
		<edge from-layer="864" from-port="5" to-layer="865" to-port="1"/>
		<edge from-layer="865" from-port="2" to-layer="867" to-port="0"/>
		<edge from-layer="866" from-port="0" to-layer="867" to-port="1"/>
		<edge from-layer="867" from-port="2" to-layer="868" to-port="0"/>
		<edge from-layer="725" from-port="0" to-layer="868" to-port="1"/>
		<edge from-layer="726" from-port="0" to-layer="868" to-port="2"/>
		<edge from-layer="727" from-port="0" to-layer="868" to-port="3"/>
		<edge from-layer="728" from-port="0" to-layer="868" to-port="4"/>
		<edge from-layer="868" from-port="5" to-layer="869" to-port="0"/>
		<edge from-layer="840" from-port="5" to-layer="869" to-port="1"/>
		<edge from-layer="869" from-port="2" to-layer="870" to-port="0"/>
		<edge from-layer="721" from-port="0" to-layer="870" to-port="1"/>
		<edge from-layer="722" from-port="0" to-layer="870" to-port="2"/>
		<edge from-layer="723" from-port="0" to-layer="870" to-port="3"/>
		<edge from-layer="724" from-port="0" to-layer="870" to-port="4"/>
		<edge from-layer="875" from-port="0" to-layer="876" to-port="0"/>
		<edge from-layer="871" from-port="0" to-layer="876" to-port="1"/>
		<edge from-layer="872" from-port="0" to-layer="876" to-port="2"/>
		<edge from-layer="873" from-port="0" to-layer="876" to-port="3"/>
		<edge from-layer="874" from-port="0" to-layer="876" to-port="4"/>
		<edge from-layer="870" from-port="5" to-layer="877" to-port="0"/>
		<edge from-layer="876" from-port="5" to-layer="877" to-port="1"/>
		<edge from-layer="877" from-port="2" to-layer="879" to-port="0"/>
		<edge from-layer="878" from-port="0" to-layer="879" to-port="1"/>
		<edge from-layer="879" from-port="2" to-layer="880" to-port="0"/>
		<edge from-layer="880" from-port="1" to-layer="881" to-port="0"/>
		<edge from-layer="717" from-port="0" to-layer="881" to-port="1"/>
		<edge from-layer="718" from-port="0" to-layer="881" to-port="2"/>
		<edge from-layer="719" from-port="0" to-layer="881" to-port="3"/>
		<edge from-layer="720" from-port="0" to-layer="881" to-port="4"/>
		<edge from-layer="887" from-port="0" to-layer="888" to-port="0"/>
		<edge from-layer="883" from-port="0" to-layer="888" to-port="1"/>
		<edge from-layer="884" from-port="0" to-layer="888" to-port="2"/>
		<edge from-layer="885" from-port="0" to-layer="888" to-port="3"/>
		<edge from-layer="886" from-port="0" to-layer="888" to-port="4"/>
		<edge from-layer="888" from-port="5" to-layer="889" to-port="0"/>
		<edge from-layer="882" from-port="0" to-layer="889" to-port="1"/>
		<edge from-layer="881" from-port="5" to-layer="890" to-port="0"/>
		<edge from-layer="889" from-port="2" to-layer="890" to-port="1"/>
		<edge from-layer="890" from-port="2" to-layer="892" to-port="0"/>
		<edge from-layer="891" from-port="0" to-layer="892" to-port="1"/>
		<edge from-layer="892" from-port="2" to-layer="893" to-port="0"/>
		<edge from-layer="893" from-port="1" to-layer="894" to-port="0"/>
		<edge from-layer="713" from-port="0" to-layer="894" to-port="1"/>
		<edge from-layer="714" from-port="0" to-layer="894" to-port="2"/>
		<edge from-layer="715" from-port="0" to-layer="894" to-port="3"/>
		<edge from-layer="716" from-port="0" to-layer="894" to-port="4"/>
		<edge from-layer="899" from-port="0" to-layer="900" to-port="0"/>
		<edge from-layer="895" from-port="0" to-layer="900" to-port="1"/>
		<edge from-layer="896" from-port="0" to-layer="900" to-port="2"/>
		<edge from-layer="897" from-port="0" to-layer="900" to-port="3"/>
		<edge from-layer="898" from-port="0" to-layer="900" to-port="4"/>
		<edge from-layer="894" from-port="5" to-layer="901" to-port="0"/>
		<edge from-layer="900" from-port="5" to-layer="901" to-port="1"/>
		<edge from-layer="901" from-port="2" to-layer="903" to-port="0"/>
		<edge from-layer="902" from-port="0" to-layer="903" to-port="1"/>
		<edge from-layer="903" from-port="2" to-layer="904" to-port="0"/>
		<edge from-layer="709" from-port="0" to-layer="904" to-port="1"/>
		<edge from-layer="710" from-port="0" to-layer="904" to-port="2"/>
		<edge from-layer="711" from-port="0" to-layer="904" to-port="3"/>
		<edge from-layer="712" from-port="0" to-layer="904" to-port="4"/>
		<edge from-layer="910" from-port="0" to-layer="911" to-port="0"/>
		<edge from-layer="906" from-port="0" to-layer="911" to-port="1"/>
		<edge from-layer="907" from-port="0" to-layer="911" to-port="2"/>
		<edge from-layer="908" from-port="0" to-layer="911" to-port="3"/>
		<edge from-layer="909" from-port="0" to-layer="911" to-port="4"/>
		<edge from-layer="911" from-port="5" to-layer="912" to-port="0"/>
		<edge from-layer="905" from-port="0" to-layer="912" to-port="1"/>
		<edge from-layer="904" from-port="5" to-layer="913" to-port="0"/>
		<edge from-layer="912" from-port="2" to-layer="913" to-port="1"/>
		<edge from-layer="913" from-port="2" to-layer="915" to-port="0"/>
		<edge from-layer="914" from-port="0" to-layer="915" to-port="1"/>
		<edge from-layer="915" from-port="2" to-layer="916" to-port="0"/>
		<edge from-layer="916" from-port="1" to-layer="917" to-port="0"/>
		<edge from-layer="705" from-port="0" to-layer="917" to-port="1"/>
		<edge from-layer="706" from-port="0" to-layer="917" to-port="2"/>
		<edge from-layer="707" from-port="0" to-layer="917" to-port="3"/>
		<edge from-layer="708" from-port="0" to-layer="917" to-port="4"/>
		<edge from-layer="922" from-port="0" to-layer="923" to-port="0"/>
		<edge from-layer="918" from-port="0" to-layer="923" to-port="1"/>
		<edge from-layer="919" from-port="0" to-layer="923" to-port="2"/>
		<edge from-layer="920" from-port="0" to-layer="923" to-port="3"/>
		<edge from-layer="921" from-port="0" to-layer="923" to-port="4"/>
		<edge from-layer="917" from-port="5" to-layer="924" to-port="0"/>
		<edge from-layer="923" from-port="5" to-layer="924" to-port="1"/>
		<edge from-layer="924" from-port="2" to-layer="926" to-port="0"/>
		<edge from-layer="925" from-port="0" to-layer="926" to-port="1"/>
		<edge from-layer="926" from-port="2" to-layer="928" to-port="0"/>
		<edge from-layer="927" from-port="0" to-layer="928" to-port="1"/>
		<edge from-layer="926" from-port="2" to-layer="929" to-port="0"/>
		<edge from-layer="929" from-port="1" to-layer="932" to-port="0"/>
		<edge from-layer="930" from-port="0" to-layer="932" to-port="1"/>
		<edge from-layer="931" from-port="0" to-layer="932" to-port="2"/>
		<edge from-layer="932" from-port="3" to-layer="935" to-port="0"/>
		<edge from-layer="933" from-port="0" to-layer="935" to-port="1"/>
		<edge from-layer="934" from-port="0" to-layer="935" to-port="2"/>
		<edge from-layer="928" from-port="2" to-layer="936" to-port="0"/>
		<edge from-layer="935" from-port="3" to-layer="936" to-port="1"/>
		<edge from-layer="936" from-port="2" to-layer="938" to-port="0"/>
		<edge from-layer="937" from-port="0" to-layer="938" to-port="1"/>
		<edge from-layer="704" from-port="2" to-layer="939" to-port="0"/>
		<edge from-layer="938" from-port="2" to-layer="939" to-port="1"/>
		<edge from-layer="949" from-port="0" to-layer="950" to-port="0"/>
		<edge from-layer="945" from-port="0" to-layer="950" to-port="1"/>
		<edge from-layer="946" from-port="0" to-layer="950" to-port="2"/>
		<edge from-layer="947" from-port="0" to-layer="950" to-port="3"/>
		<edge from-layer="948" from-port="0" to-layer="950" to-port="4"/>
		<edge from-layer="950" from-port="5" to-layer="951" to-port="0"/>
		<edge from-layer="944" from-port="0" to-layer="951" to-port="1"/>
		<edge from-layer="670" from-port="5" to-layer="952" to-port="0"/>
		<edge from-layer="951" from-port="2" to-layer="952" to-port="1"/>
		<edge from-layer="952" from-port="2" to-layer="954" to-port="0"/>
		<edge from-layer="953" from-port="0" to-layer="954" to-port="1"/>
		<edge from-layer="954" from-port="2" to-layer="955" to-port="0"/>
		<edge from-layer="955" from-port="1" to-layer="956" to-port="0"/>
		<edge from-layer="940" from-port="0" to-layer="956" to-port="1"/>
		<edge from-layer="941" from-port="0" to-layer="956" to-port="2"/>
		<edge from-layer="942" from-port="0" to-layer="956" to-port="3"/>
		<edge from-layer="943" from-port="0" to-layer="956" to-port="4"/>
		<edge from-layer="961" from-port="0" to-layer="962" to-port="0"/>
		<edge from-layer="957" from-port="0" to-layer="962" to-port="1"/>
		<edge from-layer="958" from-port="0" to-layer="962" to-port="2"/>
		<edge from-layer="959" from-port="0" to-layer="962" to-port="3"/>
		<edge from-layer="960" from-port="0" to-layer="962" to-port="4"/>
		<edge from-layer="956" from-port="5" to-layer="963" to-port="0"/>
		<edge from-layer="962" from-port="5" to-layer="963" to-port="1"/>
		<edge from-layer="963" from-port="2" to-layer="965" to-port="0"/>
		<edge from-layer="964" from-port="0" to-layer="965" to-port="1"/>
		<edge from-layer="965" from-port="2" to-layer="967" to-port="0"/>
		<edge from-layer="966" from-port="0" to-layer="967" to-port="1"/>
		<edge from-layer="965" from-port="2" to-layer="968" to-port="0"/>
		<edge from-layer="968" from-port="1" to-layer="971" to-port="0"/>
		<edge from-layer="969" from-port="0" to-layer="971" to-port="1"/>
		<edge from-layer="970" from-port="0" to-layer="971" to-port="2"/>
		<edge from-layer="971" from-port="3" to-layer="973" to-port="0"/>
		<edge from-layer="972" from-port="0" to-layer="973" to-port="1"/>
		<edge from-layer="967" from-port="2" to-layer="974" to-port="0"/>
		<edge from-layer="973" from-port="2" to-layer="974" to-port="1"/>
		<edge from-layer="974" from-port="2" to-layer="976" to-port="0"/>
		<edge from-layer="975" from-port="0" to-layer="976" to-port="1"/>
		<edge from-layer="976" from-port="2" to-layer="977" to-port="0"/>
		<edge from-layer="977" from-port="1" to-layer="979" to-port="0"/>
		<edge from-layer="978" from-port="0" to-layer="979" to-port="1"/>
		<edge from-layer="989" from-port="0" to-layer="990" to-port="0"/>
		<edge from-layer="985" from-port="0" to-layer="990" to-port="1"/>
		<edge from-layer="986" from-port="0" to-layer="990" to-port="2"/>
		<edge from-layer="987" from-port="0" to-layer="990" to-port="3"/>
		<edge from-layer="988" from-port="0" to-layer="990" to-port="4"/>
		<edge from-layer="990" from-port="5" to-layer="991" to-port="0"/>
		<edge from-layer="984" from-port="0" to-layer="991" to-port="1"/>
		<edge from-layer="904" from-port="5" to-layer="992" to-port="0"/>
		<edge from-layer="991" from-port="2" to-layer="992" to-port="1"/>
		<edge from-layer="992" from-port="2" to-layer="994" to-port="0"/>
		<edge from-layer="993" from-port="0" to-layer="994" to-port="1"/>
		<edge from-layer="994" from-port="2" to-layer="995" to-port="0"/>
		<edge from-layer="995" from-port="1" to-layer="996" to-port="0"/>
		<edge from-layer="980" from-port="0" to-layer="996" to-port="1"/>
		<edge from-layer="981" from-port="0" to-layer="996" to-port="2"/>
		<edge from-layer="982" from-port="0" to-layer="996" to-port="3"/>
		<edge from-layer="983" from-port="0" to-layer="996" to-port="4"/>
		<edge from-layer="1001" from-port="0" to-layer="1002" to-port="0"/>
		<edge from-layer="997" from-port="0" to-layer="1002" to-port="1"/>
		<edge from-layer="998" from-port="0" to-layer="1002" to-port="2"/>
		<edge from-layer="999" from-port="0" to-layer="1002" to-port="3"/>
		<edge from-layer="1000" from-port="0" to-layer="1002" to-port="4"/>
		<edge from-layer="996" from-port="5" to-layer="1003" to-port="0"/>
		<edge from-layer="1002" from-port="5" to-layer="1003" to-port="1"/>
		<edge from-layer="1003" from-port="2" to-layer="1005" to-port="0"/>
		<edge from-layer="1004" from-port="0" to-layer="1005" to-port="1"/>
		<edge from-layer="1005" from-port="2" to-layer="1007" to-port="0"/>
		<edge from-layer="1006" from-port="0" to-layer="1007" to-port="1"/>
		<edge from-layer="1005" from-port="2" to-layer="1008" to-port="0"/>
		<edge from-layer="1008" from-port="1" to-layer="1011" to-port="0"/>
		<edge from-layer="1009" from-port="0" to-layer="1011" to-port="1"/>
		<edge from-layer="1010" from-port="0" to-layer="1011" to-port="2"/>
		<edge from-layer="1011" from-port="3" to-layer="1013" to-port="0"/>
		<edge from-layer="1012" from-port="0" to-layer="1013" to-port="1"/>
		<edge from-layer="1007" from-port="2" to-layer="1014" to-port="0"/>
		<edge from-layer="1013" from-port="2" to-layer="1014" to-port="1"/>
		<edge from-layer="1014" from-port="2" to-layer="1016" to-port="0"/>
		<edge from-layer="1015" from-port="0" to-layer="1016" to-port="1"/>
		<edge from-layer="1016" from-port="2" to-layer="1017" to-port="0"/>
		<edge from-layer="1017" from-port="1" to-layer="1019" to-port="0"/>
		<edge from-layer="1018" from-port="0" to-layer="1019" to-port="1"/>
		<edge from-layer="979" from-port="2" to-layer="1020" to-port="0"/>
		<edge from-layer="1019" from-port="2" to-layer="1020" to-port="1"/>
		<edge from-layer="1020" from-port="2" to-layer="1022" to-port="0"/>
		<edge from-layer="1021" from-port="0" to-layer="1022" to-port="1"/>
		<edge from-layer="669" from-port="2" to-layer="1023" to-port="0"/>
		<edge from-layer="1023" from-port="1" to-layer="1027" to-port="0"/>
		<edge from-layer="1024" from-port="0" to-layer="1027" to-port="1"/>
		<edge from-layer="1025" from-port="0" to-layer="1027" to-port="2"/>
		<edge from-layer="1026" from-port="0" to-layer="1027" to-port="3"/>
		<edge from-layer="248" from-port="0" to-layer="1028" to-port="0"/>
		<edge from-layer="1028" from-port="1" to-layer="1032" to-port="0"/>
		<edge from-layer="1029" from-port="0" to-layer="1032" to-port="1"/>
		<edge from-layer="1030" from-port="0" to-layer="1032" to-port="2"/>
		<edge from-layer="1031" from-port="0" to-layer="1032" to-port="3"/>
		<edge from-layer="1027" from-port="4" to-layer="1033" to-port="0"/>
		<edge from-layer="1032" from-port="4" to-layer="1033" to-port="1"/>
		<edge from-layer="1033" from-port="2" to-layer="1035" to-port="0"/>
		<edge from-layer="1034" from-port="0" to-layer="1035" to-port="1"/>
		<edge from-layer="1035" from-port="2" to-layer="1037" to-port="0"/>
		<edge from-layer="1036" from-port="0" to-layer="1037" to-port="1"/>
		<edge from-layer="903" from-port="2" to-layer="1038" to-port="0"/>
		<edge from-layer="1038" from-port="1" to-layer="1042" to-port="0"/>
		<edge from-layer="1039" from-port="0" to-layer="1042" to-port="1"/>
		<edge from-layer="1040" from-port="0" to-layer="1042" to-port="2"/>
		<edge from-layer="1041" from-port="0" to-layer="1042" to-port="3"/>
		<edge from-layer="1028" from-port="1" to-layer="1046" to-port="0"/>
		<edge from-layer="1043" from-port="0" to-layer="1046" to-port="1"/>
		<edge from-layer="1044" from-port="0" to-layer="1046" to-port="2"/>
		<edge from-layer="1045" from-port="0" to-layer="1046" to-port="3"/>
		<edge from-layer="1042" from-port="4" to-layer="1047" to-port="0"/>
		<edge from-layer="1046" from-port="4" to-layer="1047" to-port="1"/>
		<edge from-layer="1047" from-port="2" to-layer="1049" to-port="0"/>
		<edge from-layer="1048" from-port="0" to-layer="1049" to-port="1"/>
		<edge from-layer="1049" from-port="2" to-layer="1051" to-port="0"/>
		<edge from-layer="1050" from-port="0" to-layer="1051" to-port="1"/>
		<edge from-layer="1037" from-port="2" to-layer="1052" to-port="0"/>
		<edge from-layer="1051" from-port="2" to-layer="1052" to-port="1"/>
		<edge from-layer="939" from-port="2" to-layer="1053" to-port="0"/>
		<edge from-layer="1022" from-port="2" to-layer="1053" to-port="1"/>
		<edge from-layer="1052" from-port="2" to-layer="1053" to-port="2"/>
		<edge from-layer="1053" from-port="3" to-layer="1054" to-port="0"/>
	</edges>
	<rt_info>
		<MO_version value="custom_nm/pot_ci_update_92c3ca1425094b2acc1936e8528827939e99bf76"/>
		<Runtime_version value="2023.2.0-12165-80b8b6fff1b-HEAD"/>
		<conversion_parameters>
			<input_model value="DIR/mobilenetv2_ssd_example.onnx"/>
			<is_python_api_used value="False"/>
			<model_name value="mobilenetv2_ssd_example"/>
			<output_dir value="DIR"/>
		</conversion_parameters>
		<legacy_frontend value="False"/>
	</rt_info>
	<quantization_parameters>
		<config/>
		<version value="{}"/>
		<cli_params value="{}"/>
	</quantization_parameters>
</net>
