<?xml version="1.0" ?>
<net name="TensorFlow_Frontend_IR" version="11">
	<layers>
		<layer id="1" name="Input" type="Parameter" version="opset1">
			<data shape="1,12,12,1" element_type="f32"/>
			<output>
				<port id="0" precision="FP32" names="Input,Input:0">
					<dim>1</dim>
					<dim>12</dim>
					<dim>12</dim>
					<dim>1</dim>
					<rt_info/>
				</port>
			</output>
		</layer>
		<layer id="0" name="3436871655" type="Const" version="opset1">
			<data offset="0" size="20" shape="1,5,1,1" element_type="f32"/>
			<output>
				<port id="0" precision="FP32">
					<dim>1</dim>
					<dim>5</dim>
					<dim>1</dim>
					<dim>1</dim>
				</port>
			</output>
		</layer>
		<layer id="2" name="Constant_5141752" type="Const" version="opset1">
			<data offset="20" size="32" shape="4" element_type="i64"/>
			<output>
				<port id="0" precision="I64">
					<dim>4</dim>
				</port>
			</output>
		</layer>
		<layer id="3" name="Transpose_6" type="Transpose" version="opset1">
			<input>
				<port id="0">
					<dim>1</dim>
					<dim>12</dim>
					<dim>12</dim>
					<dim>1</dim>
				</port>
				<port id="1">
					<dim>4</dim>
				</port>
			</input>
			<output>
				<port id="2" precision="FP32">
					<dim>1</dim>
					<dim>1</dim>
					<dim>12</dim>
					<dim>12</dim>
				</port>
			</output>
		</layer>
		<layer id="4" name="Transpose_816781961" type="Const" version="opset1">
			<data offset="52" size="180" shape="5,1,3,3" element_type="f32"/>
			<output>
				<port id="0" precision="FP32">
					<dim>5</dim>
					<dim>1</dim>
					<dim>3</dim>
					<dim>3</dim>
				</port>
			</output>
		</layer>
		<layer id="5" name="Convolution_9" type="Convolution" version="opset1">
			<data auto_pad="valid" strides="1,1" dilations="1,1" pads_begin="0,0" pads_end="0,0"/>
			<input>
				<port id="0">
					<dim>1</dim>
					<dim>1</dim>
					<dim>12</dim>
					<dim>12</dim>
				</port>
				<port id="1">
					<dim>5</dim>
					<dim>1</dim>
					<dim>3</dim>
					<dim>3</dim>
				</port>
			</input>
			<output>
				<port id="2" precision="FP32">
					<dim>1</dim>
					<dim>5</dim>
					<dim>10</dim>
					<dim>10</dim>
				</port>
			</output>
		</layer>
		<layer id="6" name="Convolution_9/add_" type="Add" version="opset1">
			<data auto_broadcast="numpy"/>
			<input>
				<port id="0">
					<dim>1</dim>
					<dim>5</dim>
					<dim>10</dim>
					<dim>10</dim>
				</port>
				<port id="1">
					<dim>1</dim>
					<dim>5</dim>
					<dim>1</dim>
					<dim>1</dim>
				</port>
			</input>
			<output>
				<port id="2" precision="FP32">
					<dim>1</dim>
					<dim>5</dim>
					<dim>10</dim>
					<dim>10</dim>
				</port>
			</output>
		</layer>
		<layer id="7" name="Constant_10182249" type="Const" version="opset1">
			<data offset="232" size="32" shape="4" element_type="i64"/>
			<output>
				<port id="0" precision="I64">
					<dim>4</dim>
				</port>
			</output>
		</layer>
		<layer id="8" name="Convolution" type="Transpose" version="opset1">
			<input>
				<port id="0">
					<dim>1</dim>
					<dim>5</dim>
					<dim>10</dim>
					<dim>10</dim>
				</port>
				<port id="1">
					<dim>4</dim>
				</port>
			</input>
			<output>
				<port id="2" precision="FP32" names="Convolution,Convolution:0">
					<dim>1</dim>
					<dim>10</dim>
					<dim>10</dim>
					<dim>5</dim>
				</port>
			</output>
		</layer>
		<layer id="9" name="Reshape/shape20932458" type="Const" version="opset1">
			<data offset="264" size="16" shape="2" element_type="i64"/>
			<output>
				<port id="0" precision="I64" names="Reshape/shape,Reshape/shape:0">
					<dim>2</dim>
				</port>
			</output>
		</layer>
		<layer id="10" name="Reshape" type="Reshape" version="opset1">
			<data special_zero="false"/>
			<input>
				<port id="0">
					<dim>1</dim>
					<dim>10</dim>
					<dim>10</dim>
					<dim>5</dim>
				</port>
				<port id="1">
					<dim>2</dim>
				</port>
			</input>
			<output>
				<port id="2" precision="FP32" names="Reshape,Reshape:0">
					<dim>100</dim>
					<dim>5</dim>
				</port>
			</output>
		</layer>
		<layer id="11" name="Transpose_136022902646" type="Const" version="opset1">
			<data offset="280" size="220" shape="11,5" element_type="f32"/>
			<output>
				<port id="0" precision="FP32">
					<dim>11</dim>
					<dim>5</dim>
				</port>
			</output>
		</layer>
		<layer id="12" name="MatMul" type="MatMul" version="opset1">
			<data transpose_a="false" transpose_b="true"/>
			<input>
				<port id="0">
					<dim>100</dim>
					<dim>5</dim>
				</port>
				<port id="1">
					<dim>11</dim>
					<dim>5</dim>
				</port>
			</input>
			<output>
				<port id="2" precision="FP32" names="MatMul,MatMul:0">
					<dim>100</dim>
					<dim>11</dim>
				</port>
			</output>
		</layer>
		<layer id="13" name="MatMul:0" type="Result" version="opset1">
			<input>
				<port id="0">
					<dim>100</dim>
					<dim>11</dim>
				</port>
			</input>
		</layer>
	</layers>
	<edges>
		<edge from-layer="1" from-port="0" to-layer="3" to-port="0"/>
		<edge from-layer="2" from-port="0" to-layer="3" to-port="1"/>
		<edge from-layer="3" from-port="2" to-layer="5" to-port="0"/>
		<edge from-layer="4" from-port="0" to-layer="5" to-port="1"/>
		<edge from-layer="5" from-port="2" to-layer="6" to-port="0"/>
		<edge from-layer="0" from-port="0" to-layer="6" to-port="1"/>
		<edge from-layer="6" from-port="2" to-layer="8" to-port="0"/>
		<edge from-layer="7" from-port="0" to-layer="8" to-port="1"/>
		<edge from-layer="8" from-port="2" to-layer="10" to-port="0"/>
		<edge from-layer="9" from-port="0" to-layer="10" to-port="1"/>
		<edge from-layer="10" from-port="2" to-layer="12" to-port="0"/>
		<edge from-layer="11" from-port="0" to-layer="12" to-port="1"/>
		<edge from-layer="12" from-port="2" to-layer="13" to-port="0"/>
	</edges>
	<rt_info>
		<MO_version value="custom_HEAD_a22c5f16b60ade2761d7da817c653fc02bff9874"/>
		<Runtime_version value="2023.1.0-11966-a22c5f16b60-HEAD"/>
		<conversion_parameters>
			<input_model value="DIR/sparsity_example.pb"/>
			<is_python_api_used value="False"/>
			<model_name value="sparsity_example"/>
			<output_dir value="DIR"/>
		</conversion_parameters>
		<legacy_frontend value="False"/>
		<quantization_parameters>
			<cli_params value="{}"/>
			<config value="None"/>
			<version value="{}"/>
		</quantization_parameters>
	</rt_info>
	<quantization_parameters>
		<config/>
		<version value="{}"/>
		<cli_params value="{}"/>
	</quantization_parameters>
</net>
