<?xml version="1.0" ?>
<net name="torch-jit-export" version="11">
	<layers>
		<layer id="1" name="input" type="Parameter" version="opset1">
			<data shape="1,3,224,224" element_type="f32"/>
			<rt_info>
				<attribute name="fused_names" version="0" value="input"/>
			</rt_info>
			<output>
				<port id="0" precision="FP32" names="input">
					<dim>1</dim>
					<dim>3</dim>
					<dim>224</dim>
					<dim>224</dim>
					<rt_info/>
				</port>
			</output>
		</layer>
		<layer id="0" name="232234956" type="Const" version="opset1">
			<data offset="0" size="256" shape="1,64,1,1" element_type="f32"/>
			<output>
				<port id="0" precision="FP32">
					<dim>1</dim>
					<dim>64</dim>
					<dim>1</dim>
					<dim>1</dim>
				</port>
			</output>
		</layer>
		<layer id="2" name="0.0.weight90791" type="Const" version="opset1">
			<data offset="256" size="6912" shape="64,3,3,3" element_type="f32"/>
			<rt_info>
				<attribute name="fused_names" version="0" value="0.0.weight"/>
			</rt_info>
			<output>
				<port id="0" precision="FP32" names="0.0.weight">
					<dim>64</dim>
					<dim>3</dim>
					<dim>3</dim>
					<dim>3</dim>
				</port>
			</output>
		</layer>
		<layer id="3" name="Conv_0/WithoutBiases" type="Convolution" version="opset1">
			<data auto_pad="explicit" strides="2,2" dilations="1,1" pads_begin="0,0" pads_end="0,0"/>
			<rt_info>
				<attribute name="fused_names" version="0" value="Concat_70, Conv_0, Conv_0/WithoutBiases, Reshape_71"/>
			</rt_info>
			<input>
				<port id="0">
					<dim>1</dim>
					<dim>3</dim>
					<dim>224</dim>
					<dim>224</dim>
				</port>
				<port id="1">
					<dim>64</dim>
					<dim>3</dim>
					<dim>3</dim>
					<dim>3</dim>
				</port>
			</input>
			<output>
				<port id="2" precision="FP32" names="51">
					<dim>1</dim>
					<dim>64</dim>
					<dim>111</dim>
					<dim>111</dim>
				</port>
			</output>
		</layer>
		<layer id="4" name="Conv_0/WithoutBiases/add_" type="Add" version="opset1">
			<data auto_broadcast="numpy"/>
			<input>
				<port id="0">
					<dim>1</dim>
					<dim>64</dim>
					<dim>111</dim>
					<dim>111</dim>
				</port>
				<port id="1">
					<dim>1</dim>
					<dim>64</dim>
					<dim>1</dim>
					<dim>1</dim>
				</port>
			</input>
			<output>
				<port id="2" precision="FP32">
					<dim>1</dim>
					<dim>64</dim>
					<dim>111</dim>
					<dim>111</dim>
				</port>
			</output>
		</layer>
		<layer id="5" name="Relu_1" type="ReLU" version="opset1">
			<rt_info>
				<attribute name="fused_names" version="0" value="Relu_1"/>
			</rt_info>
			<input>
				<port id="0">
					<dim>1</dim>
					<dim>64</dim>
					<dim>111</dim>
					<dim>111</dim>
				</port>
			</input>
			<output>
				<port id="1" precision="FP32" names="52">
					<dim>1</dim>
					<dim>64</dim>
					<dim>111</dim>
					<dim>111</dim>
				</port>
			</output>
		</layer>
		<layer id="6" name="MaxPool_2" type="MaxPool" version="opset8">
			<data strides="2,2" kernel="3,3" pads_begin="0,0" pads_end="1,1" rounding_type="floor" auto_pad="explicit" dilations="1,1" axis="0" index_element_type="i64"/>
			<rt_info>
				<attribute name="fused_names" version="0" value="MaxPool_2"/>
			</rt_info>
			<input>
				<port id="0">
					<dim>1</dim>
					<dim>64</dim>
					<dim>111</dim>
					<dim>111</dim>
				</port>
			</input>
			<output>
				<port id="1" precision="FP32" names="53">
					<dim>1</dim>
					<dim>64</dim>
					<dim>55</dim>
					<dim>55</dim>
				</port>
				<port id="2" precision="FP32">
					<dim>1</dim>
					<dim>64</dim>
					<dim>55</dim>
					<dim>55</dim>
					<rt_info/>
				</port>
			</output>
		</layer>
		<layer id="8" name="252254986" type="Const" version="opset1">
			<data offset="0" size="256" shape="1,64,1,1" element_type="f32"/>
			<output>
				<port id="0" precision="FP32">
					<dim>1</dim>
					<dim>64</dim>
					<dim>1</dim>
					<dim>1</dim>
				</port>
			</output>
		</layer>
		<layer id="9" name="248250950" type="Const" version="opset1">
			<data offset="7168" size="64" shape="1,16,1,1" element_type="f32"/>
			<output>
				<port id="0" precision="FP32">
					<dim>1</dim>
					<dim>16</dim>
					<dim>1</dim>
					<dim>1</dim>
				</port>
			</output>
		</layer>
		<layer id="10" name="240242782" type="Const" version="opset1">
			<data offset="0" size="256" shape="1,64,1,1" element_type="f32"/>
			<output>
				<port id="0" precision="FP32">
					<dim>1</dim>
					<dim>64</dim>
					<dim>1</dim>
					<dim>1</dim>
				</port>
			</output>
		</layer>
		<layer id="11" name="236238935" type="Const" version="opset1">
			<data offset="7168" size="64" shape="1,16,1,1" element_type="f32"/>
			<output>
				<port id="0" precision="FP32">
					<dim>1</dim>
					<dim>16</dim>
					<dim>1</dim>
					<dim>1</dim>
				</port>
			</output>
		</layer>
		<layer id="12" name="0.3.squeeze.weight941040" type="Const" version="opset1">
			<data offset="7232" size="4096" shape="16,64,1,1" element_type="f32"/>
			<rt_info>
				<attribute name="fused_names" version="0" value="0.3.squeeze.weight"/>
			</rt_info>
			<output>
				<port id="0" precision="FP32" names="0.3.squeeze.weight">
					<dim>16</dim>
					<dim>64</dim>
					<dim>1</dim>
					<dim>1</dim>
				</port>
			</output>
		</layer>
		<layer id="13" name="Conv_3/WithoutBiases" type="Convolution" version="opset1">
			<data auto_pad="explicit" strides="1,1" dilations="1,1" pads_begin="0,0" pads_end="0,0"/>
			<rt_info>
				<attribute name="fused_names" version="0" value="Concat_120, Conv_3, Conv_3/WithoutBiases, Reshape_121"/>
			</rt_info>
			<input>
				<port id="0">
					<dim>1</dim>
					<dim>64</dim>
					<dim>55</dim>
					<dim>55</dim>
				</port>
				<port id="1">
					<dim>16</dim>
					<dim>64</dim>
					<dim>1</dim>
					<dim>1</dim>
				</port>
			</input>
			<output>
				<port id="2" precision="FP32" names="54">
					<dim>1</dim>
					<dim>16</dim>
					<dim>55</dim>
					<dim>55</dim>
				</port>
			</output>
		</layer>
		<layer id="14" name="Conv_3/WithoutBiases/add_" type="Add" version="opset1">
			<data auto_broadcast="numpy"/>
			<input>
				<port id="0">
					<dim>1</dim>
					<dim>16</dim>
					<dim>55</dim>
					<dim>55</dim>
				</port>
				<port id="1">
					<dim>1</dim>
					<dim>16</dim>
					<dim>1</dim>
					<dim>1</dim>
				</port>
			</input>
			<output>
				<port id="2" precision="FP32">
					<dim>1</dim>
					<dim>16</dim>
					<dim>55</dim>
					<dim>55</dim>
				</port>
			</output>
		</layer>
		<layer id="15" name="Relu_4" type="ReLU" version="opset1">
			<rt_info>
				<attribute name="fused_names" version="0" value="Relu_4"/>
			</rt_info>
			<input>
				<port id="0">
					<dim>1</dim>
					<dim>16</dim>
					<dim>55</dim>
					<dim>55</dim>
				</port>
			</input>
			<output>
				<port id="1" precision="FP32" names="55">
					<dim>1</dim>
					<dim>16</dim>
					<dim>55</dim>
					<dim>55</dim>
				</port>
			</output>
		</layer>
		<layer id="16" name="0.3.expand1x1.weight97794" type="Const" version="opset1">
			<data offset="11328" size="4096" shape="64,16,1,1" element_type="f32"/>
			<rt_info>
				<attribute name="fused_names" version="0" value="0.3.expand1x1.weight"/>
			</rt_info>
			<output>
				<port id="0" precision="FP32" names="0.3.expand1x1.weight">
					<dim>64</dim>
					<dim>16</dim>
					<dim>1</dim>
					<dim>1</dim>
				</port>
			</output>
		</layer>
		<layer id="17" name="Conv_5/WithoutBiases" type="Convolution" version="opset1">
			<data auto_pad="explicit" strides="1,1" dilations="1,1" pads_begin="0,0" pads_end="0,0"/>
			<rt_info>
				<attribute name="fused_names" version="0" value="Concat_169, Conv_5, Conv_5/WithoutBiases, Reshape_170"/>
			</rt_info>
			<input>
				<port id="0">
					<dim>1</dim>
					<dim>16</dim>
					<dim>55</dim>
					<dim>55</dim>
				</port>
				<port id="1">
					<dim>64</dim>
					<dim>16</dim>
					<dim>1</dim>
					<dim>1</dim>
				</port>
			</input>
			<output>
				<port id="2" precision="FP32" names="56">
					<dim>1</dim>
					<dim>64</dim>
					<dim>55</dim>
					<dim>55</dim>
				</port>
			</output>
		</layer>
		<layer id="18" name="Conv_5/WithoutBiases/add_" type="Add" version="opset1">
			<data auto_broadcast="numpy"/>
			<input>
				<port id="0">
					<dim>1</dim>
					<dim>64</dim>
					<dim>55</dim>
					<dim>55</dim>
				</port>
				<port id="1">
					<dim>1</dim>
					<dim>64</dim>
					<dim>1</dim>
					<dim>1</dim>
				</port>
			</input>
			<output>
				<port id="2" precision="FP32">
					<dim>1</dim>
					<dim>64</dim>
					<dim>55</dim>
					<dim>55</dim>
				</port>
			</output>
		</layer>
		<layer id="19" name="Relu_6" type="ReLU" version="opset1">
			<rt_info>
				<attribute name="fused_names" version="0" value="Relu_6"/>
			</rt_info>
			<input>
				<port id="0">
					<dim>1</dim>
					<dim>64</dim>
					<dim>55</dim>
					<dim>55</dim>
				</port>
			</input>
			<output>
				<port id="1" precision="FP32" names="57">
					<dim>1</dim>
					<dim>64</dim>
					<dim>55</dim>
					<dim>55</dim>
				</port>
			</output>
		</layer>
		<layer id="20" name="244246968" type="Const" version="opset1">
			<data offset="0" size="256" shape="1,64,1,1" element_type="f32"/>
			<output>
				<port id="0" precision="FP32">
					<dim>1</dim>
					<dim>64</dim>
					<dim>1</dim>
					<dim>1</dim>
				</port>
			</output>
		</layer>
		<layer id="21" name="0.3.expand3x3.weight100896" type="Const" version="opset1">
			<data offset="15424" size="36864" shape="64,16,3,3" element_type="f32"/>
			<rt_info>
				<attribute name="fused_names" version="0" value="0.3.expand3x3.weight"/>
			</rt_info>
			<output>
				<port id="0" precision="FP32" names="0.3.expand3x3.weight">
					<dim>64</dim>
					<dim>16</dim>
					<dim>3</dim>
					<dim>3</dim>
				</port>
			</output>
		</layer>
		<layer id="22" name="Conv_7/WithoutBiases" type="Convolution" version="opset1">
			<data auto_pad="explicit" strides="1,1" dilations="1,1" pads_begin="1,1" pads_end="1,1"/>
			<rt_info>
				<attribute name="fused_names" version="0" value="Concat_218, Conv_7, Conv_7/WithoutBiases, Reshape_219"/>
			</rt_info>
			<input>
				<port id="0">
					<dim>1</dim>
					<dim>16</dim>
					<dim>55</dim>
					<dim>55</dim>
				</port>
				<port id="1">
					<dim>64</dim>
					<dim>16</dim>
					<dim>3</dim>
					<dim>3</dim>
				</port>
			</input>
			<output>
				<port id="2" precision="FP32" names="58">
					<dim>1</dim>
					<dim>64</dim>
					<dim>55</dim>
					<dim>55</dim>
				</port>
			</output>
		</layer>
		<layer id="23" name="Conv_7/WithoutBiases/add_" type="Add" version="opset1">
			<data auto_broadcast="numpy"/>
			<input>
				<port id="0">
					<dim>1</dim>
					<dim>64</dim>
					<dim>55</dim>
					<dim>55</dim>
				</port>
				<port id="1">
					<dim>1</dim>
					<dim>64</dim>
					<dim>1</dim>
					<dim>1</dim>
				</port>
			</input>
			<output>
				<port id="2" precision="FP32">
					<dim>1</dim>
					<dim>64</dim>
					<dim>55</dim>
					<dim>55</dim>
				</port>
			</output>
		</layer>
		<layer id="24" name="Relu_8" type="ReLU" version="opset1">
			<rt_info>
				<attribute name="fused_names" version="0" value="Relu_8"/>
			</rt_info>
			<input>
				<port id="0">
					<dim>1</dim>
					<dim>64</dim>
					<dim>55</dim>
					<dim>55</dim>
				</port>
			</input>
			<output>
				<port id="1" precision="FP32" names="59">
					<dim>1</dim>
					<dim>64</dim>
					<dim>55</dim>
					<dim>55</dim>
				</port>
			</output>
		</layer>
		<layer id="25" name="Concat_9" type="Concat" version="opset1">
			<data axis="1"/>
			<rt_info>
				<attribute name="fused_names" version="0" value="Concat_9"/>
			</rt_info>
			<input>
				<port id="0">
					<dim>1</dim>
					<dim>64</dim>
					<dim>55</dim>
					<dim>55</dim>
				</port>
				<port id="1">
					<dim>1</dim>
					<dim>64</dim>
					<dim>55</dim>
					<dim>55</dim>
				</port>
			</input>
			<output>
				<port id="2" precision="FP32" names="60">
					<dim>1</dim>
					<dim>128</dim>
					<dim>55</dim>
					<dim>55</dim>
				</port>
			</output>
		</layer>
		<layer id="26" name="0.4.squeeze.weight104965" type="Const" version="opset1">
			<data offset="52288" size="8192" shape="16,128,1,1" element_type="f32"/>
			<rt_info>
				<attribute name="fused_names" version="0" value="0.4.squeeze.weight"/>
			</rt_info>
			<output>
				<port id="0" precision="FP32" names="0.4.squeeze.weight">
					<dim>16</dim>
					<dim>128</dim>
					<dim>1</dim>
					<dim>1</dim>
				</port>
			</output>
		</layer>
		<layer id="27" name="Conv_10/WithoutBiases" type="Convolution" version="opset1">
			<data auto_pad="explicit" strides="1,1" dilations="1,1" pads_begin="0,0" pads_end="0,0"/>
			<rt_info>
				<attribute name="fused_names" version="0" value="Concat_268, Conv_10, Conv_10/WithoutBiases, Reshape_269"/>
			</rt_info>
			<input>
				<port id="0">
					<dim>1</dim>
					<dim>128</dim>
					<dim>55</dim>
					<dim>55</dim>
				</port>
				<port id="1">
					<dim>16</dim>
					<dim>128</dim>
					<dim>1</dim>
					<dim>1</dim>
				</port>
			</input>
			<output>
				<port id="2" precision="FP32" names="61">
					<dim>1</dim>
					<dim>16</dim>
					<dim>55</dim>
					<dim>55</dim>
				</port>
			</output>
		</layer>
		<layer id="28" name="Conv_10/WithoutBiases/add_" type="Add" version="opset1">
			<data auto_broadcast="numpy"/>
			<input>
				<port id="0">
					<dim>1</dim>
					<dim>16</dim>
					<dim>55</dim>
					<dim>55</dim>
				</port>
				<port id="1">
					<dim>1</dim>
					<dim>16</dim>
					<dim>1</dim>
					<dim>1</dim>
				</port>
			</input>
			<output>
				<port id="2" precision="FP32">
					<dim>1</dim>
					<dim>16</dim>
					<dim>55</dim>
					<dim>55</dim>
				</port>
			</output>
		</layer>
		<layer id="29" name="Relu_11" type="ReLU" version="opset1">
			<rt_info>
				<attribute name="fused_names" version="0" value="Relu_11"/>
			</rt_info>
			<input>
				<port id="0">
					<dim>1</dim>
					<dim>16</dim>
					<dim>55</dim>
					<dim>55</dim>
				</port>
			</input>
			<output>
				<port id="1" precision="FP32" names="62">
					<dim>1</dim>
					<dim>16</dim>
					<dim>55</dim>
					<dim>55</dim>
				</port>
			</output>
		</layer>
		<layer id="30" name="0.4.expand1x1.weight107827" type="Const" version="opset1">
			<data offset="60480" size="4096" shape="64,16,1,1" element_type="f32"/>
			<rt_info>
				<attribute name="fused_names" version="0" value="0.4.expand1x1.weight"/>
			</rt_info>
			<output>
				<port id="0" precision="FP32" names="0.4.expand1x1.weight">
					<dim>64</dim>
					<dim>16</dim>
					<dim>1</dim>
					<dim>1</dim>
				</port>
			</output>
		</layer>
		<layer id="31" name="Conv_12/WithoutBiases" type="Convolution" version="opset1">
			<data auto_pad="explicit" strides="1,1" dilations="1,1" pads_begin="0,0" pads_end="0,0"/>
			<rt_info>
				<attribute name="fused_names" version="0" value="Concat_317, Conv_12, Conv_12/WithoutBiases, Reshape_318"/>
			</rt_info>
			<input>
				<port id="0">
					<dim>1</dim>
					<dim>16</dim>
					<dim>55</dim>
					<dim>55</dim>
				</port>
				<port id="1">
					<dim>64</dim>
					<dim>16</dim>
					<dim>1</dim>
					<dim>1</dim>
				</port>
			</input>
			<output>
				<port id="2" precision="FP32" names="63">
					<dim>1</dim>
					<dim>64</dim>
					<dim>55</dim>
					<dim>55</dim>
				</port>
			</output>
		</layer>
		<layer id="32" name="Conv_12/WithoutBiases/add_" type="Add" version="opset1">
			<data auto_broadcast="numpy"/>
			<input>
				<port id="0">
					<dim>1</dim>
					<dim>64</dim>
					<dim>55</dim>
					<dim>55</dim>
				</port>
				<port id="1">
					<dim>1</dim>
					<dim>64</dim>
					<dim>1</dim>
					<dim>1</dim>
				</port>
			</input>
			<output>
				<port id="2" precision="FP32">
					<dim>1</dim>
					<dim>64</dim>
					<dim>55</dim>
					<dim>55</dim>
				</port>
			</output>
		</layer>
		<layer id="33" name="Relu_13" type="ReLU" version="opset1">
			<rt_info>
				<attribute name="fused_names" version="0" value="Relu_13"/>
			</rt_info>
			<input>
				<port id="0">
					<dim>1</dim>
					<dim>64</dim>
					<dim>55</dim>
					<dim>55</dim>
				</port>
			</input>
			<output>
				<port id="1" precision="FP32" names="64">
					<dim>1</dim>
					<dim>64</dim>
					<dim>55</dim>
					<dim>55</dim>
				</port>
			</output>
		</layer>
		<layer id="34" name="2562581037" type="Const" version="opset1">
			<data offset="0" size="256" shape="1,64,1,1" element_type="f32"/>
			<output>
				<port id="0" precision="FP32">
					<dim>1</dim>
					<dim>64</dim>
					<dim>1</dim>
					<dim>1</dim>
				</port>
			</output>
		</layer>
		<layer id="35" name="0.4.expand3x3.weight110812" type="Const" version="opset1">
			<data offset="64576" size="36864" shape="64,16,3,3" element_type="f32"/>
			<rt_info>
				<attribute name="fused_names" version="0" value="0.4.expand3x3.weight"/>
			</rt_info>
			<output>
				<port id="0" precision="FP32" names="0.4.expand3x3.weight">
					<dim>64</dim>
					<dim>16</dim>
					<dim>3</dim>
					<dim>3</dim>
				</port>
			</output>
		</layer>
		<layer id="36" name="Conv_14/WithoutBiases" type="Convolution" version="opset1">
			<data auto_pad="explicit" strides="1,1" dilations="1,1" pads_begin="1,1" pads_end="1,1"/>
			<rt_info>
				<attribute name="fused_names" version="0" value="Concat_366, Conv_14, Conv_14/WithoutBiases, Reshape_367"/>
			</rt_info>
			<input>
				<port id="0">
					<dim>1</dim>
					<dim>16</dim>
					<dim>55</dim>
					<dim>55</dim>
				</port>
				<port id="1">
					<dim>64</dim>
					<dim>16</dim>
					<dim>3</dim>
					<dim>3</dim>
				</port>
			</input>
			<output>
				<port id="2" precision="FP32" names="65">
					<dim>1</dim>
					<dim>64</dim>
					<dim>55</dim>
					<dim>55</dim>
				</port>
			</output>
		</layer>
		<layer id="37" name="Conv_14/WithoutBiases/add_" type="Add" version="opset1">
			<data auto_broadcast="numpy"/>
			<input>
				<port id="0">
					<dim>1</dim>
					<dim>64</dim>
					<dim>55</dim>
					<dim>55</dim>
				</port>
				<port id="1">
					<dim>1</dim>
					<dim>64</dim>
					<dim>1</dim>
					<dim>1</dim>
				</port>
			</input>
			<output>
				<port id="2" precision="FP32">
					<dim>1</dim>
					<dim>64</dim>
					<dim>55</dim>
					<dim>55</dim>
				</port>
			</output>
		</layer>
		<layer id="38" name="Relu_15" type="ReLU" version="opset1">
			<rt_info>
				<attribute name="fused_names" version="0" value="Relu_15"/>
			</rt_info>
			<input>
				<port id="0">
					<dim>1</dim>
					<dim>64</dim>
					<dim>55</dim>
					<dim>55</dim>
				</port>
			</input>
			<output>
				<port id="1" precision="FP32" names="66">
					<dim>1</dim>
					<dim>64</dim>
					<dim>55</dim>
					<dim>55</dim>
				</port>
			</output>
		</layer>
		<layer id="39" name="Concat_16" type="Concat" version="opset1">
			<data axis="1"/>
			<rt_info>
				<attribute name="fused_names" version="0" value="Concat_16"/>
			</rt_info>
			<input>
				<port id="0">
					<dim>1</dim>
					<dim>64</dim>
					<dim>55</dim>
					<dim>55</dim>
				</port>
				<port id="1">
					<dim>1</dim>
					<dim>64</dim>
					<dim>55</dim>
					<dim>55</dim>
				</port>
			</input>
			<output>
				<port id="2" precision="FP32" names="67">
					<dim>1</dim>
					<dim>128</dim>
					<dim>55</dim>
					<dim>55</dim>
				</port>
			</output>
		</layer>
		<layer id="40" name="MaxPool_17" type="MaxPool" version="opset8">
			<data strides="2,2" kernel="3,3" pads_begin="0,0" pads_end="1,1" rounding_type="floor" auto_pad="explicit" dilations="1,1" axis="0" index_element_type="i64"/>
			<rt_info>
				<attribute name="fused_names" version="0" value="MaxPool_17"/>
			</rt_info>
			<input>
				<port id="0">
					<dim>1</dim>
					<dim>128</dim>
					<dim>55</dim>
					<dim>55</dim>
				</port>
			</input>
			<output>
				<port id="1" precision="FP32" names="68">
					<dim>1</dim>
					<dim>128</dim>
					<dim>27</dim>
					<dim>27</dim>
				</port>
				<port id="2" precision="FP32">
					<dim>1</dim>
					<dim>128</dim>
					<dim>27</dim>
					<dim>27</dim>
					<rt_info/>
				</port>
			</output>
		</layer>
		<layer id="42" name="276278815" type="Const" version="opset1">
			<data offset="101440" size="512" shape="1,128,1,1" element_type="f32"/>
			<output>
				<port id="0" precision="FP32">
					<dim>1</dim>
					<dim>128</dim>
					<dim>1</dim>
					<dim>1</dim>
				</port>
			</output>
		</layer>
		<layer id="43" name="272274878" type="Const" version="opset1">
			<data offset="101952" size="128" shape="1,32,1,1" element_type="f32"/>
			<output>
				<port id="0" precision="FP32">
					<dim>1</dim>
					<dim>32</dim>
					<dim>1</dim>
					<dim>1</dim>
				</port>
			</output>
		</layer>
		<layer id="44" name="264266911" type="Const" version="opset1">
			<data offset="101440" size="512" shape="1,128,1,1" element_type="f32"/>
			<output>
				<port id="0" precision="FP32">
					<dim>1</dim>
					<dim>128</dim>
					<dim>1</dim>
					<dim>1</dim>
				</port>
			</output>
		</layer>
		<layer id="45" name="260262881" type="Const" version="opset1">
			<data offset="101952" size="128" shape="1,32,1,1" element_type="f32"/>
			<output>
				<port id="0" precision="FP32">
					<dim>1</dim>
					<dim>32</dim>
					<dim>1</dim>
					<dim>1</dim>
				</port>
			</output>
		</layer>
		<layer id="46" name="0.6.squeeze.weight115959" type="Const" version="opset1">
			<data offset="102080" size="16384" shape="32,128,1,1" element_type="f32"/>
			<rt_info>
				<attribute name="fused_names" version="0" value="0.6.squeeze.weight"/>
			</rt_info>
			<output>
				<port id="0" precision="FP32" names="0.6.squeeze.weight">
					<dim>32</dim>
					<dim>128</dim>
					<dim>1</dim>
					<dim>1</dim>
				</port>
			</output>
		</layer>
		<layer id="47" name="Conv_18/WithoutBiases" type="Convolution" version="opset1">
			<data auto_pad="explicit" strides="1,1" dilations="1,1" pads_begin="0,0" pads_end="0,0"/>
			<rt_info>
				<attribute name="fused_names" version="0" value="Concat_417, Conv_18, Conv_18/WithoutBiases, Reshape_418"/>
			</rt_info>
			<input>
				<port id="0">
					<dim>1</dim>
					<dim>128</dim>
					<dim>27</dim>
					<dim>27</dim>
				</port>
				<port id="1">
					<dim>32</dim>
					<dim>128</dim>
					<dim>1</dim>
					<dim>1</dim>
				</port>
			</input>
			<output>
				<port id="2" precision="FP32" names="69">
					<dim>1</dim>
					<dim>32</dim>
					<dim>27</dim>
					<dim>27</dim>
				</port>
			</output>
		</layer>
		<layer id="48" name="Conv_18/WithoutBiases/add_" type="Add" version="opset1">
			<data auto_broadcast="numpy"/>
			<input>
				<port id="0">
					<dim>1</dim>
					<dim>32</dim>
					<dim>27</dim>
					<dim>27</dim>
				</port>
				<port id="1">
					<dim>1</dim>
					<dim>32</dim>
					<dim>1</dim>
					<dim>1</dim>
				</port>
			</input>
			<output>
				<port id="2" precision="FP32">
					<dim>1</dim>
					<dim>32</dim>
					<dim>27</dim>
					<dim>27</dim>
				</port>
			</output>
		</layer>
		<layer id="49" name="Relu_19" type="ReLU" version="opset1">
			<rt_info>
				<attribute name="fused_names" version="0" value="Relu_19"/>
			</rt_info>
			<input>
				<port id="0">
					<dim>1</dim>
					<dim>32</dim>
					<dim>27</dim>
					<dim>27</dim>
				</port>
			</input>
			<output>
				<port id="1" precision="FP32" names="70">
					<dim>1</dim>
					<dim>32</dim>
					<dim>27</dim>
					<dim>27</dim>
				</port>
			</output>
		</layer>
		<layer id="50" name="0.6.expand1x1.weight118848" type="Const" version="opset1">
			<data offset="118464" size="16384" shape="128,32,1,1" element_type="f32"/>
			<rt_info>
				<attribute name="fused_names" version="0" value="0.6.expand1x1.weight"/>
			</rt_info>
			<output>
				<port id="0" precision="FP32" names="0.6.expand1x1.weight">
					<dim>128</dim>
					<dim>32</dim>
					<dim>1</dim>
					<dim>1</dim>
				</port>
			</output>
		</layer>
		<layer id="51" name="Conv_20/WithoutBiases" type="Convolution" version="opset1">
			<data auto_pad="explicit" strides="1,1" dilations="1,1" pads_begin="0,0" pads_end="0,0"/>
			<rt_info>
				<attribute name="fused_names" version="0" value="Concat_466, Conv_20, Conv_20/WithoutBiases, Reshape_467"/>
			</rt_info>
			<input>
				<port id="0">
					<dim>1</dim>
					<dim>32</dim>
					<dim>27</dim>
					<dim>27</dim>
				</port>
				<port id="1">
					<dim>128</dim>
					<dim>32</dim>
					<dim>1</dim>
					<dim>1</dim>
				</port>
			</input>
			<output>
				<port id="2" precision="FP32" names="71">
					<dim>1</dim>
					<dim>128</dim>
					<dim>27</dim>
					<dim>27</dim>
				</port>
			</output>
		</layer>
		<layer id="52" name="Conv_20/WithoutBiases/add_" type="Add" version="opset1">
			<data auto_broadcast="numpy"/>
			<input>
				<port id="0">
					<dim>1</dim>
					<dim>128</dim>
					<dim>27</dim>
					<dim>27</dim>
				</port>
				<port id="1">
					<dim>1</dim>
					<dim>128</dim>
					<dim>1</dim>
					<dim>1</dim>
				</port>
			</input>
			<output>
				<port id="2" precision="FP32">
					<dim>1</dim>
					<dim>128</dim>
					<dim>27</dim>
					<dim>27</dim>
				</port>
			</output>
		</layer>
		<layer id="53" name="Relu_21" type="ReLU" version="opset1">
			<rt_info>
				<attribute name="fused_names" version="0" value="Relu_21"/>
			</rt_info>
			<input>
				<port id="0">
					<dim>1</dim>
					<dim>128</dim>
					<dim>27</dim>
					<dim>27</dim>
				</port>
			</input>
			<output>
				<port id="1" precision="FP32" names="72">
					<dim>1</dim>
					<dim>128</dim>
					<dim>27</dim>
					<dim>27</dim>
				</port>
			</output>
		</layer>
		<layer id="54" name="268270932" type="Const" version="opset1">
			<data offset="101440" size="512" shape="1,128,1,1" element_type="f32"/>
			<output>
				<port id="0" precision="FP32">
					<dim>1</dim>
					<dim>128</dim>
					<dim>1</dim>
					<dim>1</dim>
				</port>
			</output>
		</layer>
		<layer id="55" name="0.6.expand3x3.weight121914" type="Const" version="opset1">
			<data offset="134848" size="147456" shape="128,32,3,3" element_type="f32"/>
			<rt_info>
				<attribute name="fused_names" version="0" value="0.6.expand3x3.weight"/>
			</rt_info>
			<output>
				<port id="0" precision="FP32" names="0.6.expand3x3.weight">
					<dim>128</dim>
					<dim>32</dim>
					<dim>3</dim>
					<dim>3</dim>
				</port>
			</output>
		</layer>
		<layer id="56" name="Conv_22/WithoutBiases" type="Convolution" version="opset1">
			<data auto_pad="explicit" strides="1,1" dilations="1,1" pads_begin="1,1" pads_end="1,1"/>
			<rt_info>
				<attribute name="fused_names" version="0" value="Concat_515, Conv_22, Conv_22/WithoutBiases, Reshape_516"/>
			</rt_info>
			<input>
				<port id="0">
					<dim>1</dim>
					<dim>32</dim>
					<dim>27</dim>
					<dim>27</dim>
				</port>
				<port id="1">
					<dim>128</dim>
					<dim>32</dim>
					<dim>3</dim>
					<dim>3</dim>
				</port>
			</input>
			<output>
				<port id="2" precision="FP32" names="73">
					<dim>1</dim>
					<dim>128</dim>
					<dim>27</dim>
					<dim>27</dim>
				</port>
			</output>
		</layer>
		<layer id="57" name="Conv_22/WithoutBiases/add_" type="Add" version="opset1">
			<data auto_broadcast="numpy"/>
			<input>
				<port id="0">
					<dim>1</dim>
					<dim>128</dim>
					<dim>27</dim>
					<dim>27</dim>
				</port>
				<port id="1">
					<dim>1</dim>
					<dim>128</dim>
					<dim>1</dim>
					<dim>1</dim>
				</port>
			</input>
			<output>
				<port id="2" precision="FP32">
					<dim>1</dim>
					<dim>128</dim>
					<dim>27</dim>
					<dim>27</dim>
				</port>
			</output>
		</layer>
		<layer id="58" name="Relu_23" type="ReLU" version="opset1">
			<rt_info>
				<attribute name="fused_names" version="0" value="Relu_23"/>
			</rt_info>
			<input>
				<port id="0">
					<dim>1</dim>
					<dim>128</dim>
					<dim>27</dim>
					<dim>27</dim>
				</port>
			</input>
			<output>
				<port id="1" precision="FP32" names="74">
					<dim>1</dim>
					<dim>128</dim>
					<dim>27</dim>
					<dim>27</dim>
				</port>
			</output>
		</layer>
		<layer id="59" name="Concat_24" type="Concat" version="opset1">
			<data axis="1"/>
			<rt_info>
				<attribute name="fused_names" version="0" value="Concat_24"/>
			</rt_info>
			<input>
				<port id="0">
					<dim>1</dim>
					<dim>128</dim>
					<dim>27</dim>
					<dim>27</dim>
				</port>
				<port id="1">
					<dim>1</dim>
					<dim>128</dim>
					<dim>27</dim>
					<dim>27</dim>
				</port>
			</input>
			<output>
				<port id="2" precision="FP32" names="75">
					<dim>1</dim>
					<dim>256</dim>
					<dim>27</dim>
					<dim>27</dim>
				</port>
			</output>
		</layer>
		<layer id="60" name="0.7.squeeze.weight125836" type="Const" version="opset1">
			<data offset="282304" size="32768" shape="32,256,1,1" element_type="f32"/>
			<rt_info>
				<attribute name="fused_names" version="0" value="0.7.squeeze.weight"/>
			</rt_info>
			<output>
				<port id="0" precision="FP32" names="0.7.squeeze.weight">
					<dim>32</dim>
					<dim>256</dim>
					<dim>1</dim>
					<dim>1</dim>
				</port>
			</output>
		</layer>
		<layer id="61" name="Conv_25/WithoutBiases" type="Convolution" version="opset1">
			<data auto_pad="explicit" strides="1,1" dilations="1,1" pads_begin="0,0" pads_end="0,0"/>
			<rt_info>
				<attribute name="fused_names" version="0" value="Concat_565, Conv_25, Conv_25/WithoutBiases, Reshape_566"/>
			</rt_info>
			<input>
				<port id="0">
					<dim>1</dim>
					<dim>256</dim>
					<dim>27</dim>
					<dim>27</dim>
				</port>
				<port id="1">
					<dim>32</dim>
					<dim>256</dim>
					<dim>1</dim>
					<dim>1</dim>
				</port>
			</input>
			<output>
				<port id="2" precision="FP32" names="76">
					<dim>1</dim>
					<dim>32</dim>
					<dim>27</dim>
					<dim>27</dim>
				</port>
			</output>
		</layer>
		<layer id="62" name="Conv_25/WithoutBiases/add_" type="Add" version="opset1">
			<data auto_broadcast="numpy"/>
			<input>
				<port id="0">
					<dim>1</dim>
					<dim>32</dim>
					<dim>27</dim>
					<dim>27</dim>
				</port>
				<port id="1">
					<dim>1</dim>
					<dim>32</dim>
					<dim>1</dim>
					<dim>1</dim>
				</port>
			</input>
			<output>
				<port id="2" precision="FP32">
					<dim>1</dim>
					<dim>32</dim>
					<dim>27</dim>
					<dim>27</dim>
				</port>
			</output>
		</layer>
		<layer id="63" name="Relu_26" type="ReLU" version="opset1">
			<rt_info>
				<attribute name="fused_names" version="0" value="Relu_26"/>
			</rt_info>
			<input>
				<port id="0">
					<dim>1</dim>
					<dim>32</dim>
					<dim>27</dim>
					<dim>27</dim>
				</port>
			</input>
			<output>
				<port id="1" precision="FP32" names="77">
					<dim>1</dim>
					<dim>32</dim>
					<dim>27</dim>
					<dim>27</dim>
				</port>
			</output>
		</layer>
		<layer id="64" name="0.7.expand1x1.weight128785" type="Const" version="opset1">
			<data offset="315072" size="16384" shape="128,32,1,1" element_type="f32"/>
			<rt_info>
				<attribute name="fused_names" version="0" value="0.7.expand1x1.weight"/>
			</rt_info>
			<output>
				<port id="0" precision="FP32" names="0.7.expand1x1.weight">
					<dim>128</dim>
					<dim>32</dim>
					<dim>1</dim>
					<dim>1</dim>
				</port>
			</output>
		</layer>
		<layer id="65" name="Conv_27/WithoutBiases" type="Convolution" version="opset1">
			<data auto_pad="explicit" strides="1,1" dilations="1,1" pads_begin="0,0" pads_end="0,0"/>
			<rt_info>
				<attribute name="fused_names" version="0" value="Concat_614, Conv_27, Conv_27/WithoutBiases, Reshape_615"/>
			</rt_info>
			<input>
				<port id="0">
					<dim>1</dim>
					<dim>32</dim>
					<dim>27</dim>
					<dim>27</dim>
				</port>
				<port id="1">
					<dim>128</dim>
					<dim>32</dim>
					<dim>1</dim>
					<dim>1</dim>
				</port>
			</input>
			<output>
				<port id="2" precision="FP32" names="78">
					<dim>1</dim>
					<dim>128</dim>
					<dim>27</dim>
					<dim>27</dim>
				</port>
			</output>
		</layer>
		<layer id="66" name="Conv_27/WithoutBiases/add_" type="Add" version="opset1">
			<data auto_broadcast="numpy"/>
			<input>
				<port id="0">
					<dim>1</dim>
					<dim>128</dim>
					<dim>27</dim>
					<dim>27</dim>
				</port>
				<port id="1">
					<dim>1</dim>
					<dim>128</dim>
					<dim>1</dim>
					<dim>1</dim>
				</port>
			</input>
			<output>
				<port id="2" precision="FP32">
					<dim>1</dim>
					<dim>128</dim>
					<dim>27</dim>
					<dim>27</dim>
				</port>
			</output>
		</layer>
		<layer id="67" name="Relu_28" type="ReLU" version="opset1">
			<rt_info>
				<attribute name="fused_names" version="0" value="Relu_28"/>
			</rt_info>
			<input>
				<port id="0">
					<dim>1</dim>
					<dim>128</dim>
					<dim>27</dim>
					<dim>27</dim>
				</port>
			</input>
			<output>
				<port id="1" precision="FP32" names="79">
					<dim>1</dim>
					<dim>128</dim>
					<dim>27</dim>
					<dim>27</dim>
				</port>
			</output>
		</layer>
		<layer id="68" name="280282800" type="Const" version="opset1">
			<data offset="101440" size="512" shape="1,128,1,1" element_type="f32"/>
			<output>
				<port id="0" precision="FP32">
					<dim>1</dim>
					<dim>128</dim>
					<dim>1</dim>
					<dim>1</dim>
				</port>
			</output>
		</layer>
		<layer id="69" name="0.7.expand3x3.weight131884" type="Const" version="opset1">
			<data offset="331456" size="147456" shape="128,32,3,3" element_type="f32"/>
			<rt_info>
				<attribute name="fused_names" version="0" value="0.7.expand3x3.weight"/>
			</rt_info>
			<output>
				<port id="0" precision="FP32" names="0.7.expand3x3.weight">
					<dim>128</dim>
					<dim>32</dim>
					<dim>3</dim>
					<dim>3</dim>
				</port>
			</output>
		</layer>
		<layer id="70" name="Conv_29/WithoutBiases" type="Convolution" version="opset1">
			<data auto_pad="explicit" strides="1,1" dilations="1,1" pads_begin="1,1" pads_end="1,1"/>
			<rt_info>
				<attribute name="fused_names" version="0" value="Concat_663, Conv_29, Conv_29/WithoutBiases, Reshape_664"/>
			</rt_info>
			<input>
				<port id="0">
					<dim>1</dim>
					<dim>32</dim>
					<dim>27</dim>
					<dim>27</dim>
				</port>
				<port id="1">
					<dim>128</dim>
					<dim>32</dim>
					<dim>3</dim>
					<dim>3</dim>
				</port>
			</input>
			<output>
				<port id="2" precision="FP32" names="80">
					<dim>1</dim>
					<dim>128</dim>
					<dim>27</dim>
					<dim>27</dim>
				</port>
			</output>
		</layer>
		<layer id="71" name="Conv_29/WithoutBiases/add_" type="Add" version="opset1">
			<data auto_broadcast="numpy"/>
			<input>
				<port id="0">
					<dim>1</dim>
					<dim>128</dim>
					<dim>27</dim>
					<dim>27</dim>
				</port>
				<port id="1">
					<dim>1</dim>
					<dim>128</dim>
					<dim>1</dim>
					<dim>1</dim>
				</port>
			</input>
			<output>
				<port id="2" precision="FP32">
					<dim>1</dim>
					<dim>128</dim>
					<dim>27</dim>
					<dim>27</dim>
				</port>
			</output>
		</layer>
		<layer id="72" name="Relu_30" type="ReLU" version="opset1">
			<rt_info>
				<attribute name="fused_names" version="0" value="Relu_30"/>
			</rt_info>
			<input>
				<port id="0">
					<dim>1</dim>
					<dim>128</dim>
					<dim>27</dim>
					<dim>27</dim>
				</port>
			</input>
			<output>
				<port id="1" precision="FP32" names="81">
					<dim>1</dim>
					<dim>128</dim>
					<dim>27</dim>
					<dim>27</dim>
				</port>
			</output>
		</layer>
		<layer id="73" name="Concat_31" type="Concat" version="opset1">
			<data axis="1"/>
			<rt_info>
				<attribute name="fused_names" version="0" value="Concat_31"/>
			</rt_info>
			<input>
				<port id="0">
					<dim>1</dim>
					<dim>128</dim>
					<dim>27</dim>
					<dim>27</dim>
				</port>
				<port id="1">
					<dim>1</dim>
					<dim>128</dim>
					<dim>27</dim>
					<dim>27</dim>
				</port>
			</input>
			<output>
				<port id="2" precision="FP32" names="82">
					<dim>1</dim>
					<dim>256</dim>
					<dim>27</dim>
					<dim>27</dim>
				</port>
			</output>
		</layer>
		<layer id="74" name="MaxPool_32" type="MaxPool" version="opset8">
			<data strides="2,2" kernel="3,3" pads_begin="0,0" pads_end="1,1" rounding_type="floor" auto_pad="explicit" dilations="1,1" axis="0" index_element_type="i64"/>
			<rt_info>
				<attribute name="fused_names" version="0" value="MaxPool_32"/>
			</rt_info>
			<input>
				<port id="0">
					<dim>1</dim>
					<dim>256</dim>
					<dim>27</dim>
					<dim>27</dim>
				</port>
			</input>
			<output>
				<port id="1" precision="FP32" names="83">
					<dim>1</dim>
					<dim>256</dim>
					<dim>13</dim>
					<dim>13</dim>
				</port>
				<port id="2" precision="FP32">
					<dim>1</dim>
					<dim>256</dim>
					<dim>13</dim>
					<dim>13</dim>
					<rt_info/>
				</port>
			</output>
		</layer>
		<layer id="76" name="mean_Concat_24/value474824" type="Const" version="opset1">
			<data offset="478912" size="16" shape="2" element_type="i64"/>
			<output>
				<port id="0" precision="I64">
					<dim>2</dim>
				</port>
			</output>
		</layer>
		<layer id="77" name="mean_Concat_24" type="ReduceMean" version="opset1">
			<data keep_dims="false"/>
			<input>
				<port id="0">
					<dim>1</dim>
					<dim>256</dim>
					<dim>27</dim>
					<dim>27</dim>
				</port>
				<port id="1">
					<dim>2</dim>
				</port>
			</input>
			<output>
				<port id="2" precision="FP32" names="mean_Concat_24,mean_Concat_24:0">
					<dim>1</dim>
					<dim>256</dim>
				</port>
			</output>
		</layer>
		<layer id="78" name="Result_mean_Concat_24" type="Result" version="opset1">
			<input>
				<port id="0">
					<dim>1</dim>
					<dim>256</dim>
				</port>
			</input>
		</layer>
		<layer id="79" name="mean_Concat_39/value524974" type="Const" version="opset1">
			<data offset="478912" size="16" shape="2" element_type="i64"/>
			<output>
				<port id="0" precision="I64">
					<dim>2</dim>
				</port>
			</output>
		</layer>
		<layer id="80" name="288290944" type="Const" version="opset1">
			<data offset="478928" size="768" shape="1,192,1,1" element_type="f32"/>
			<output>
				<port id="0" precision="FP32">
					<dim>1</dim>
					<dim>192</dim>
					<dim>1</dim>
					<dim>1</dim>
				</port>
			</output>
		</layer>
		<layer id="81" name="284286818" type="Const" version="opset1">
			<data offset="479696" size="192" shape="1,48,1,1" element_type="f32"/>
			<output>
				<port id="0" precision="FP32">
					<dim>1</dim>
					<dim>48</dim>
					<dim>1</dim>
					<dim>1</dim>
				</port>
			</output>
		</layer>
		<layer id="82" name="0.9.squeeze.weight136953" type="Const" version="opset1">
			<data offset="479888" size="49152" shape="48,256,1,1" element_type="f32"/>
			<rt_info>
				<attribute name="fused_names" version="0" value="0.9.squeeze.weight"/>
			</rt_info>
			<output>
				<port id="0" precision="FP32" names="0.9.squeeze.weight">
					<dim>48</dim>
					<dim>256</dim>
					<dim>1</dim>
					<dim>1</dim>
				</port>
			</output>
		</layer>
		<layer id="83" name="Conv_33/WithoutBiases" type="Convolution" version="opset1">
			<data auto_pad="explicit" strides="1,1" dilations="1,1" pads_begin="0,0" pads_end="0,0"/>
			<rt_info>
				<attribute name="fused_names" version="0" value="Concat_714, Conv_33, Conv_33/WithoutBiases, Reshape_715"/>
			</rt_info>
			<input>
				<port id="0">
					<dim>1</dim>
					<dim>256</dim>
					<dim>13</dim>
					<dim>13</dim>
				</port>
				<port id="1">
					<dim>48</dim>
					<dim>256</dim>
					<dim>1</dim>
					<dim>1</dim>
				</port>
			</input>
			<output>
				<port id="2" precision="FP32" names="84">
					<dim>1</dim>
					<dim>48</dim>
					<dim>13</dim>
					<dim>13</dim>
				</port>
			</output>
		</layer>
		<layer id="84" name="Conv_33/WithoutBiases/add_" type="Add" version="opset1">
			<data auto_broadcast="numpy"/>
			<input>
				<port id="0">
					<dim>1</dim>
					<dim>48</dim>
					<dim>13</dim>
					<dim>13</dim>
				</port>
				<port id="1">
					<dim>1</dim>
					<dim>48</dim>
					<dim>1</dim>
					<dim>1</dim>
				</port>
			</input>
			<output>
				<port id="2" precision="FP32">
					<dim>1</dim>
					<dim>48</dim>
					<dim>13</dim>
					<dim>13</dim>
				</port>
			</output>
		</layer>
		<layer id="85" name="Relu_34" type="ReLU" version="opset1">
			<rt_info>
				<attribute name="fused_names" version="0" value="Relu_34"/>
			</rt_info>
			<input>
				<port id="0">
					<dim>1</dim>
					<dim>48</dim>
					<dim>13</dim>
					<dim>13</dim>
				</port>
			</input>
			<output>
				<port id="1" precision="FP32" names="85">
					<dim>1</dim>
					<dim>48</dim>
					<dim>13</dim>
					<dim>13</dim>
				</port>
			</output>
		</layer>
		<layer id="86" name="0.9.expand1x1.weight139971" type="Const" version="opset1">
			<data offset="529040" size="36864" shape="192,48,1,1" element_type="f32"/>
			<rt_info>
				<attribute name="fused_names" version="0" value="0.9.expand1x1.weight"/>
			</rt_info>
			<output>
				<port id="0" precision="FP32" names="0.9.expand1x1.weight">
					<dim>192</dim>
					<dim>48</dim>
					<dim>1</dim>
					<dim>1</dim>
				</port>
			</output>
		</layer>
		<layer id="87" name="Conv_35/WithoutBiases" type="Convolution" version="opset1">
			<data auto_pad="explicit" strides="1,1" dilations="1,1" pads_begin="0,0" pads_end="0,0"/>
			<rt_info>
				<attribute name="fused_names" version="0" value="Concat_763, Conv_35, Conv_35/WithoutBiases, Reshape_764"/>
			</rt_info>
			<input>
				<port id="0">
					<dim>1</dim>
					<dim>48</dim>
					<dim>13</dim>
					<dim>13</dim>
				</port>
				<port id="1">
					<dim>192</dim>
					<dim>48</dim>
					<dim>1</dim>
					<dim>1</dim>
				</port>
			</input>
			<output>
				<port id="2" precision="FP32" names="86">
					<dim>1</dim>
					<dim>192</dim>
					<dim>13</dim>
					<dim>13</dim>
				</port>
			</output>
		</layer>
		<layer id="88" name="Conv_35/WithoutBiases/add_" type="Add" version="opset1">
			<data auto_broadcast="numpy"/>
			<input>
				<port id="0">
					<dim>1</dim>
					<dim>192</dim>
					<dim>13</dim>
					<dim>13</dim>
				</port>
				<port id="1">
					<dim>1</dim>
					<dim>192</dim>
					<dim>1</dim>
					<dim>1</dim>
				</port>
			</input>
			<output>
				<port id="2" precision="FP32">
					<dim>1</dim>
					<dim>192</dim>
					<dim>13</dim>
					<dim>13</dim>
				</port>
			</output>
		</layer>
		<layer id="89" name="Relu_36" type="ReLU" version="opset1">
			<rt_info>
				<attribute name="fused_names" version="0" value="Relu_36"/>
			</rt_info>
			<input>
				<port id="0">
					<dim>1</dim>
					<dim>192</dim>
					<dim>13</dim>
					<dim>13</dim>
				</port>
			</input>
			<output>
				<port id="1" precision="FP32" names="87">
					<dim>1</dim>
					<dim>192</dim>
					<dim>13</dim>
					<dim>13</dim>
				</port>
			</output>
		</layer>
		<layer id="90" name="292294908" type="Const" version="opset1">
			<data offset="478928" size="768" shape="1,192,1,1" element_type="f32"/>
			<output>
				<port id="0" precision="FP32">
					<dim>1</dim>
					<dim>192</dim>
					<dim>1</dim>
					<dim>1</dim>
				</port>
			</output>
		</layer>
		<layer id="91" name="0.9.expand3x3.weight142902" type="Const" version="opset1">
			<data offset="565904" size="331776" shape="192,48,3,3" element_type="f32"/>
			<rt_info>
				<attribute name="fused_names" version="0" value="0.9.expand3x3.weight"/>
			</rt_info>
			<output>
				<port id="0" precision="FP32" names="0.9.expand3x3.weight">
					<dim>192</dim>
					<dim>48</dim>
					<dim>3</dim>
					<dim>3</dim>
				</port>
			</output>
		</layer>
		<layer id="92" name="Conv_37/WithoutBiases" type="Convolution" version="opset1">
			<data auto_pad="explicit" strides="1,1" dilations="1,1" pads_begin="1,1" pads_end="1,1"/>
			<rt_info>
				<attribute name="fused_names" version="0" value="Concat_812, Conv_37, Conv_37/WithoutBiases, Reshape_813"/>
			</rt_info>
			<input>
				<port id="0">
					<dim>1</dim>
					<dim>48</dim>
					<dim>13</dim>
					<dim>13</dim>
				</port>
				<port id="1">
					<dim>192</dim>
					<dim>48</dim>
					<dim>3</dim>
					<dim>3</dim>
				</port>
			</input>
			<output>
				<port id="2" precision="FP32" names="88">
					<dim>1</dim>
					<dim>192</dim>
					<dim>13</dim>
					<dim>13</dim>
				</port>
			</output>
		</layer>
		<layer id="93" name="Conv_37/WithoutBiases/add_" type="Add" version="opset1">
			<data auto_broadcast="numpy"/>
			<input>
				<port id="0">
					<dim>1</dim>
					<dim>192</dim>
					<dim>13</dim>
					<dim>13</dim>
				</port>
				<port id="1">
					<dim>1</dim>
					<dim>192</dim>
					<dim>1</dim>
					<dim>1</dim>
				</port>
			</input>
			<output>
				<port id="2" precision="FP32">
					<dim>1</dim>
					<dim>192</dim>
					<dim>13</dim>
					<dim>13</dim>
				</port>
			</output>
		</layer>
		<layer id="94" name="Relu_38" type="ReLU" version="opset1">
			<rt_info>
				<attribute name="fused_names" version="0" value="Relu_38"/>
			</rt_info>
			<input>
				<port id="0">
					<dim>1</dim>
					<dim>192</dim>
					<dim>13</dim>
					<dim>13</dim>
				</port>
			</input>
			<output>
				<port id="1" precision="FP32" names="89">
					<dim>1</dim>
					<dim>192</dim>
					<dim>13</dim>
					<dim>13</dim>
				</port>
			</output>
		</layer>
		<layer id="95" name="Concat_39" type="Concat" version="opset1">
			<data axis="1"/>
			<rt_info>
				<attribute name="fused_names" version="0" value="Concat_39"/>
			</rt_info>
			<input>
				<port id="0">
					<dim>1</dim>
					<dim>192</dim>
					<dim>13</dim>
					<dim>13</dim>
				</port>
				<port id="1">
					<dim>1</dim>
					<dim>192</dim>
					<dim>13</dim>
					<dim>13</dim>
				</port>
			</input>
			<output>
				<port id="2" precision="FP32" names="90">
					<dim>1</dim>
					<dim>384</dim>
					<dim>13</dim>
					<dim>13</dim>
				</port>
			</output>
		</layer>
		<layer id="96" name="mean_Concat_39" type="ReduceMean" version="opset1">
			<data keep_dims="false"/>
			<input>
				<port id="0">
					<dim>1</dim>
					<dim>384</dim>
					<dim>13</dim>
					<dim>13</dim>
				</port>
				<port id="1">
					<dim>2</dim>
				</port>
			</input>
			<output>
				<port id="2" precision="FP32" names="mean_Concat_39,mean_Concat_39:0">
					<dim>1</dim>
					<dim>384</dim>
				</port>
			</output>
		</layer>
		<layer id="97" name="Result_mean_Concat_39" type="Result" version="opset1">
			<input>
				<port id="0">
					<dim>1</dim>
					<dim>384</dim>
				</port>
			</input>
		</layer>
		<layer id="98" name="mean_Concat_46/value549797" type="Const" version="opset1">
			<data offset="478912" size="16" shape="2" element_type="i64"/>
			<output>
				<port id="0" precision="I64">
					<dim>2</dim>
				</port>
			</output>
		</layer>
		<layer id="99" name="3003021010" type="Const" version="opset1">
			<data offset="478928" size="768" shape="1,192,1,1" element_type="f32"/>
			<output>
				<port id="0" precision="FP32">
					<dim>1</dim>
					<dim>192</dim>
					<dim>1</dim>
					<dim>1</dim>
				</port>
			</output>
		</layer>
		<layer id="100" name="296298926" type="Const" version="opset1">
			<data offset="479696" size="192" shape="1,48,1,1" element_type="f32"/>
			<output>
				<port id="0" precision="FP32">
					<dim>1</dim>
					<dim>48</dim>
					<dim>1</dim>
					<dim>1</dim>
				</port>
			</output>
		</layer>
		<layer id="101" name="0.10.squeeze.weight146857" type="Const" version="opset1">
			<data offset="897680" size="73728" shape="48,384,1,1" element_type="f32"/>
			<rt_info>
				<attribute name="fused_names" version="0" value="0.10.squeeze.weight"/>
			</rt_info>
			<output>
				<port id="0" precision="FP32" names="0.10.squeeze.weight">
					<dim>48</dim>
					<dim>384</dim>
					<dim>1</dim>
					<dim>1</dim>
				</port>
			</output>
		</layer>
		<layer id="102" name="Conv_40/WithoutBiases" type="Convolution" version="opset1">
			<data auto_pad="explicit" strides="1,1" dilations="1,1" pads_begin="0,0" pads_end="0,0"/>
			<rt_info>
				<attribute name="fused_names" version="0" value="Concat_862, Conv_40, Conv_40/WithoutBiases, Reshape_863"/>
			</rt_info>
			<input>
				<port id="0">
					<dim>1</dim>
					<dim>384</dim>
					<dim>13</dim>
					<dim>13</dim>
				</port>
				<port id="1">
					<dim>48</dim>
					<dim>384</dim>
					<dim>1</dim>
					<dim>1</dim>
				</port>
			</input>
			<output>
				<port id="2" precision="FP32" names="91">
					<dim>1</dim>
					<dim>48</dim>
					<dim>13</dim>
					<dim>13</dim>
				</port>
			</output>
		</layer>
		<layer id="103" name="Conv_40/WithoutBiases/add_" type="Add" version="opset1">
			<data auto_broadcast="numpy"/>
			<input>
				<port id="0">
					<dim>1</dim>
					<dim>48</dim>
					<dim>13</dim>
					<dim>13</dim>
				</port>
				<port id="1">
					<dim>1</dim>
					<dim>48</dim>
					<dim>1</dim>
					<dim>1</dim>
				</port>
			</input>
			<output>
				<port id="2" precision="FP32">
					<dim>1</dim>
					<dim>48</dim>
					<dim>13</dim>
					<dim>13</dim>
				</port>
			</output>
		</layer>
		<layer id="104" name="Relu_41" type="ReLU" version="opset1">
			<rt_info>
				<attribute name="fused_names" version="0" value="Relu_41"/>
			</rt_info>
			<input>
				<port id="0">
					<dim>1</dim>
					<dim>48</dim>
					<dim>13</dim>
					<dim>13</dim>
				</port>
			</input>
			<output>
				<port id="1" precision="FP32" names="92">
					<dim>1</dim>
					<dim>48</dim>
					<dim>13</dim>
					<dim>13</dim>
				</port>
			</output>
		</layer>
		<layer id="105" name="0.10.expand1x1.weight149851" type="Const" version="opset1">
			<data offset="971408" size="36864" shape="192,48,1,1" element_type="f32"/>
			<rt_info>
				<attribute name="fused_names" version="0" value="0.10.expand1x1.weight"/>
			</rt_info>
			<output>
				<port id="0" precision="FP32" names="0.10.expand1x1.weight">
					<dim>192</dim>
					<dim>48</dim>
					<dim>1</dim>
					<dim>1</dim>
				</port>
			</output>
		</layer>
		<layer id="106" name="Conv_42/WithoutBiases" type="Convolution" version="opset1">
			<data auto_pad="explicit" strides="1,1" dilations="1,1" pads_begin="0,0" pads_end="0,0"/>
			<rt_info>
				<attribute name="fused_names" version="0" value="Concat_911, Conv_42, Conv_42/WithoutBiases, Reshape_912"/>
			</rt_info>
			<input>
				<port id="0">
					<dim>1</dim>
					<dim>48</dim>
					<dim>13</dim>
					<dim>13</dim>
				</port>
				<port id="1">
					<dim>192</dim>
					<dim>48</dim>
					<dim>1</dim>
					<dim>1</dim>
				</port>
			</input>
			<output>
				<port id="2" precision="FP32" names="93">
					<dim>1</dim>
					<dim>192</dim>
					<dim>13</dim>
					<dim>13</dim>
				</port>
			</output>
		</layer>
		<layer id="107" name="Conv_42/WithoutBiases/add_" type="Add" version="opset1">
			<data auto_broadcast="numpy"/>
			<input>
				<port id="0">
					<dim>1</dim>
					<dim>192</dim>
					<dim>13</dim>
					<dim>13</dim>
				</port>
				<port id="1">
					<dim>1</dim>
					<dim>192</dim>
					<dim>1</dim>
					<dim>1</dim>
				</port>
			</input>
			<output>
				<port id="2" precision="FP32">
					<dim>1</dim>
					<dim>192</dim>
					<dim>13</dim>
					<dim>13</dim>
				</port>
			</output>
		</layer>
		<layer id="108" name="Relu_43" type="ReLU" version="opset1">
			<rt_info>
				<attribute name="fused_names" version="0" value="Relu_43"/>
			</rt_info>
			<input>
				<port id="0">
					<dim>1</dim>
					<dim>192</dim>
					<dim>13</dim>
					<dim>13</dim>
				</port>
			</input>
			<output>
				<port id="1" precision="FP32" names="94">
					<dim>1</dim>
					<dim>192</dim>
					<dim>13</dim>
					<dim>13</dim>
				</port>
			</output>
		</layer>
		<layer id="109" name="304306962" type="Const" version="opset1">
			<data offset="478928" size="768" shape="1,192,1,1" element_type="f32"/>
			<output>
				<port id="0" precision="FP32">
					<dim>1</dim>
					<dim>192</dim>
					<dim>1</dim>
					<dim>1</dim>
				</port>
			</output>
		</layer>
		<layer id="110" name="0.10.expand3x3.weight152788" type="Const" version="opset1">
			<data offset="1008272" size="331776" shape="192,48,3,3" element_type="f32"/>
			<rt_info>
				<attribute name="fused_names" version="0" value="0.10.expand3x3.weight"/>
			</rt_info>
			<output>
				<port id="0" precision="FP32" names="0.10.expand3x3.weight">
					<dim>192</dim>
					<dim>48</dim>
					<dim>3</dim>
					<dim>3</dim>
				</port>
			</output>
		</layer>
		<layer id="111" name="Conv_44/WithoutBiases" type="Convolution" version="opset1">
			<data auto_pad="explicit" strides="1,1" dilations="1,1" pads_begin="1,1" pads_end="1,1"/>
			<rt_info>
				<attribute name="fused_names" version="0" value="Concat_960, Conv_44, Conv_44/WithoutBiases, Reshape_961"/>
			</rt_info>
			<input>
				<port id="0">
					<dim>1</dim>
					<dim>48</dim>
					<dim>13</dim>
					<dim>13</dim>
				</port>
				<port id="1">
					<dim>192</dim>
					<dim>48</dim>
					<dim>3</dim>
					<dim>3</dim>
				</port>
			</input>
			<output>
				<port id="2" precision="FP32" names="95">
					<dim>1</dim>
					<dim>192</dim>
					<dim>13</dim>
					<dim>13</dim>
				</port>
			</output>
		</layer>
		<layer id="112" name="Conv_44/WithoutBiases/add_" type="Add" version="opset1">
			<data auto_broadcast="numpy"/>
			<input>
				<port id="0">
					<dim>1</dim>
					<dim>192</dim>
					<dim>13</dim>
					<dim>13</dim>
				</port>
				<port id="1">
					<dim>1</dim>
					<dim>192</dim>
					<dim>1</dim>
					<dim>1</dim>
				</port>
			</input>
			<output>
				<port id="2" precision="FP32">
					<dim>1</dim>
					<dim>192</dim>
					<dim>13</dim>
					<dim>13</dim>
				</port>
			</output>
		</layer>
		<layer id="113" name="Relu_45" type="ReLU" version="opset1">
			<rt_info>
				<attribute name="fused_names" version="0" value="Relu_45"/>
			</rt_info>
			<input>
				<port id="0">
					<dim>1</dim>
					<dim>192</dim>
					<dim>13</dim>
					<dim>13</dim>
				</port>
			</input>
			<output>
				<port id="1" precision="FP32" names="96">
					<dim>1</dim>
					<dim>192</dim>
					<dim>13</dim>
					<dim>13</dim>
				</port>
			</output>
		</layer>
		<layer id="114" name="Concat_46" type="Concat" version="opset1">
			<data axis="1"/>
			<rt_info>
				<attribute name="fused_names" version="0" value="Concat_46"/>
			</rt_info>
			<input>
				<port id="0">
					<dim>1</dim>
					<dim>192</dim>
					<dim>13</dim>
					<dim>13</dim>
				</port>
				<port id="1">
					<dim>1</dim>
					<dim>192</dim>
					<dim>13</dim>
					<dim>13</dim>
				</port>
			</input>
			<output>
				<port id="2" precision="FP32" names="97">
					<dim>1</dim>
					<dim>384</dim>
					<dim>13</dim>
					<dim>13</dim>
				</port>
			</output>
		</layer>
		<layer id="115" name="mean_Concat_46" type="ReduceMean" version="opset1">
			<data keep_dims="false"/>
			<input>
				<port id="0">
					<dim>1</dim>
					<dim>384</dim>
					<dim>13</dim>
					<dim>13</dim>
				</port>
				<port id="1">
					<dim>2</dim>
				</port>
			</input>
			<output>
				<port id="2" precision="FP32" names="mean_Concat_46,mean_Concat_46:0">
					<dim>1</dim>
					<dim>384</dim>
				</port>
			</output>
		</layer>
		<layer id="116" name="Result_mean_Concat_46" type="Result" version="opset1">
			<input>
				<port id="0">
					<dim>1</dim>
					<dim>384</dim>
				</port>
			</input>
		</layer>
		<layer id="117" name="mean_Concat_53/value5741025" type="Const" version="opset1">
			<data offset="478912" size="16" shape="2" element_type="i64"/>
			<output>
				<port id="0" precision="I64">
					<dim>2</dim>
				</port>
			</output>
		</layer>
		<layer id="118" name="312314938" type="Const" version="opset1">
			<data offset="1340048" size="1024" shape="1,256,1,1" element_type="f32"/>
			<output>
				<port id="0" precision="FP32">
					<dim>1</dim>
					<dim>256</dim>
					<dim>1</dim>
					<dim>1</dim>
				</port>
			</output>
		</layer>
		<layer id="119" name="3083101022" type="Const" version="opset1">
			<data offset="0" size="256" shape="1,64,1,1" element_type="f32"/>
			<output>
				<port id="0" precision="FP32">
					<dim>1</dim>
					<dim>64</dim>
					<dim>1</dim>
					<dim>1</dim>
				</port>
			</output>
		</layer>
		<layer id="120" name="0.11.squeeze.weight1561001" type="Const" version="opset1">
			<data offset="1341072" size="98304" shape="64,384,1,1" element_type="f32"/>
			<rt_info>
				<attribute name="fused_names" version="0" value="0.11.squeeze.weight"/>
			</rt_info>
			<output>
				<port id="0" precision="FP32" names="0.11.squeeze.weight">
					<dim>64</dim>
					<dim>384</dim>
					<dim>1</dim>
					<dim>1</dim>
				</port>
			</output>
		</layer>
		<layer id="121" name="Conv_47/WithoutBiases" type="Convolution" version="opset1">
			<data auto_pad="explicit" strides="1,1" dilations="1,1" pads_begin="0,0" pads_end="0,0"/>
			<rt_info>
				<attribute name="fused_names" version="0" value="Concat_1010, Conv_47, Conv_47/WithoutBiases, Reshape_1011"/>
			</rt_info>
			<input>
				<port id="0">
					<dim>1</dim>
					<dim>384</dim>
					<dim>13</dim>
					<dim>13</dim>
				</port>
				<port id="1">
					<dim>64</dim>
					<dim>384</dim>
					<dim>1</dim>
					<dim>1</dim>
				</port>
			</input>
			<output>
				<port id="2" precision="FP32" names="98">
					<dim>1</dim>
					<dim>64</dim>
					<dim>13</dim>
					<dim>13</dim>
				</port>
			</output>
		</layer>
		<layer id="122" name="Conv_47/WithoutBiases/add_" type="Add" version="opset1">
			<data auto_broadcast="numpy"/>
			<input>
				<port id="0">
					<dim>1</dim>
					<dim>64</dim>
					<dim>13</dim>
					<dim>13</dim>
				</port>
				<port id="1">
					<dim>1</dim>
					<dim>64</dim>
					<dim>1</dim>
					<dim>1</dim>
				</port>
			</input>
			<output>
				<port id="2" precision="FP32">
					<dim>1</dim>
					<dim>64</dim>
					<dim>13</dim>
					<dim>13</dim>
				</port>
			</output>
		</layer>
		<layer id="123" name="Relu_48" type="ReLU" version="opset1">
			<rt_info>
				<attribute name="fused_names" version="0" value="Relu_48"/>
			</rt_info>
			<input>
				<port id="0">
					<dim>1</dim>
					<dim>64</dim>
					<dim>13</dim>
					<dim>13</dim>
				</port>
			</input>
			<output>
				<port id="1" precision="FP32" names="99">
					<dim>1</dim>
					<dim>64</dim>
					<dim>13</dim>
					<dim>13</dim>
				</port>
			</output>
		</layer>
		<layer id="124" name="0.11.expand1x1.weight159875" type="Const" version="opset1">
			<data offset="1439376" size="65536" shape="256,64,1,1" element_type="f32"/>
			<rt_info>
				<attribute name="fused_names" version="0" value="0.11.expand1x1.weight"/>
			</rt_info>
			<output>
				<port id="0" precision="FP32" names="0.11.expand1x1.weight">
					<dim>256</dim>
					<dim>64</dim>
					<dim>1</dim>
					<dim>1</dim>
				</port>
			</output>
		</layer>
		<layer id="125" name="Conv_49/WithoutBiases" type="Convolution" version="opset1">
			<data auto_pad="explicit" strides="1,1" dilations="1,1" pads_begin="0,0" pads_end="0,0"/>
			<rt_info>
				<attribute name="fused_names" version="0" value="Concat_1059, Conv_49, Conv_49/WithoutBiases, Reshape_1060"/>
			</rt_info>
			<input>
				<port id="0">
					<dim>1</dim>
					<dim>64</dim>
					<dim>13</dim>
					<dim>13</dim>
				</port>
				<port id="1">
					<dim>256</dim>
					<dim>64</dim>
					<dim>1</dim>
					<dim>1</dim>
				</port>
			</input>
			<output>
				<port id="2" precision="FP32" names="100">
					<dim>1</dim>
					<dim>256</dim>
					<dim>13</dim>
					<dim>13</dim>
				</port>
			</output>
		</layer>
		<layer id="126" name="Conv_49/WithoutBiases/add_" type="Add" version="opset1">
			<data auto_broadcast="numpy"/>
			<input>
				<port id="0">
					<dim>1</dim>
					<dim>256</dim>
					<dim>13</dim>
					<dim>13</dim>
				</port>
				<port id="1">
					<dim>1</dim>
					<dim>256</dim>
					<dim>1</dim>
					<dim>1</dim>
				</port>
			</input>
			<output>
				<port id="2" precision="FP32">
					<dim>1</dim>
					<dim>256</dim>
					<dim>13</dim>
					<dim>13</dim>
				</port>
			</output>
		</layer>
		<layer id="127" name="Relu_50" type="ReLU" version="opset1">
			<rt_info>
				<attribute name="fused_names" version="0" value="Relu_50"/>
			</rt_info>
			<input>
				<port id="0">
					<dim>1</dim>
					<dim>256</dim>
					<dim>13</dim>
					<dim>13</dim>
				</port>
			</input>
			<output>
				<port id="1" precision="FP32" names="101">
					<dim>1</dim>
					<dim>256</dim>
					<dim>13</dim>
					<dim>13</dim>
				</port>
			</output>
		</layer>
		<layer id="128" name="3163181046" type="Const" version="opset1">
			<data offset="1340048" size="1024" shape="1,256,1,1" element_type="f32"/>
			<output>
				<port id="0" precision="FP32">
					<dim>1</dim>
					<dim>256</dim>
					<dim>1</dim>
					<dim>1</dim>
				</port>
			</output>
		</layer>
		<layer id="129" name="0.11.expand3x3.weight1621013" type="Const" version="opset1">
			<data offset="1504912" size="589824" shape="256,64,3,3" element_type="f32"/>
			<rt_info>
				<attribute name="fused_names" version="0" value="0.11.expand3x3.weight"/>
			</rt_info>
			<output>
				<port id="0" precision="FP32" names="0.11.expand3x3.weight">
					<dim>256</dim>
					<dim>64</dim>
					<dim>3</dim>
					<dim>3</dim>
				</port>
			</output>
		</layer>
		<layer id="130" name="Conv_51/WithoutBiases" type="Convolution" version="opset1">
			<data auto_pad="explicit" strides="1,1" dilations="1,1" pads_begin="1,1" pads_end="1,1"/>
			<rt_info>
				<attribute name="fused_names" version="0" value="Concat_1108, Conv_51, Conv_51/WithoutBiases, Reshape_1109"/>
			</rt_info>
			<input>
				<port id="0">
					<dim>1</dim>
					<dim>64</dim>
					<dim>13</dim>
					<dim>13</dim>
				</port>
				<port id="1">
					<dim>256</dim>
					<dim>64</dim>
					<dim>3</dim>
					<dim>3</dim>
				</port>
			</input>
			<output>
				<port id="2" precision="FP32" names="102">
					<dim>1</dim>
					<dim>256</dim>
					<dim>13</dim>
					<dim>13</dim>
				</port>
			</output>
		</layer>
		<layer id="131" name="Conv_51/WithoutBiases/add_" type="Add" version="opset1">
			<data auto_broadcast="numpy"/>
			<input>
				<port id="0">
					<dim>1</dim>
					<dim>256</dim>
					<dim>13</dim>
					<dim>13</dim>
				</port>
				<port id="1">
					<dim>1</dim>
					<dim>256</dim>
					<dim>1</dim>
					<dim>1</dim>
				</port>
			</input>
			<output>
				<port id="2" precision="FP32">
					<dim>1</dim>
					<dim>256</dim>
					<dim>13</dim>
					<dim>13</dim>
				</port>
			</output>
		</layer>
		<layer id="132" name="Relu_52" type="ReLU" version="opset1">
			<rt_info>
				<attribute name="fused_names" version="0" value="Relu_52"/>
			</rt_info>
			<input>
				<port id="0">
					<dim>1</dim>
					<dim>256</dim>
					<dim>13</dim>
					<dim>13</dim>
				</port>
			</input>
			<output>
				<port id="1" precision="FP32" names="103">
					<dim>1</dim>
					<dim>256</dim>
					<dim>13</dim>
					<dim>13</dim>
				</port>
			</output>
		</layer>
		<layer id="133" name="Concat_53" type="Concat" version="opset1">
			<data axis="1"/>
			<rt_info>
				<attribute name="fused_names" version="0" value="Concat_53"/>
			</rt_info>
			<input>
				<port id="0">
					<dim>1</dim>
					<dim>256</dim>
					<dim>13</dim>
					<dim>13</dim>
				</port>
				<port id="1">
					<dim>1</dim>
					<dim>256</dim>
					<dim>13</dim>
					<dim>13</dim>
				</port>
			</input>
			<output>
				<port id="2" precision="FP32" names="104">
					<dim>1</dim>
					<dim>512</dim>
					<dim>13</dim>
					<dim>13</dim>
				</port>
			</output>
		</layer>
		<layer id="134" name="mean_Concat_53" type="ReduceMean" version="opset1">
			<data keep_dims="false"/>
			<input>
				<port id="0">
					<dim>1</dim>
					<dim>512</dim>
					<dim>13</dim>
					<dim>13</dim>
				</port>
				<port id="1">
					<dim>2</dim>
				</port>
			</input>
			<output>
				<port id="2" precision="FP32" names="mean_Concat_53,mean_Concat_53:0">
					<dim>1</dim>
					<dim>512</dim>
				</port>
			</output>
		</layer>
		<layer id="135" name="Result_mean_Concat_53" type="Result" version="opset1">
			<input>
				<port id="0">
					<dim>1</dim>
					<dim>512</dim>
				</port>
			</input>
		</layer>
		<layer id="136" name="mean_Concat_9/value4241004" type="Const" version="opset1">
			<data offset="478912" size="16" shape="2" element_type="i64"/>
			<output>
				<port id="0" precision="I64">
					<dim>2</dim>
				</port>
			</output>
		</layer>
		<layer id="137" name="mean_Concat_9" type="ReduceMean" version="opset1">
			<data keep_dims="false"/>
			<input>
				<port id="0">
					<dim>1</dim>
					<dim>128</dim>
					<dim>55</dim>
					<dim>55</dim>
				</port>
				<port id="1">
					<dim>2</dim>
				</port>
			</input>
			<output>
				<port id="2" precision="FP32" names="mean_Concat_9,mean_Concat_9:0">
					<dim>1</dim>
					<dim>128</dim>
				</port>
			</output>
		</layer>
		<layer id="138" name="Result_mean_Concat_9" type="Result" version="opset1">
			<input>
				<port id="0">
					<dim>1</dim>
					<dim>128</dim>
				</port>
			</input>
		</layer>
		<layer id="139" name="mean_Conv_0/WithoutBiases/add_/value384980" type="Const" version="opset1">
			<data offset="478912" size="16" shape="2" element_type="i64"/>
			<output>
				<port id="0" precision="I64">
					<dim>2</dim>
				</port>
			</output>
		</layer>
		<layer id="140" name="mean_Conv_0/WithoutBiases/add_" type="ReduceMean" version="opset1">
			<data keep_dims="false"/>
			<input>
				<port id="0">
					<dim>1</dim>
					<dim>64</dim>
					<dim>111</dim>
					<dim>111</dim>
				</port>
				<port id="1">
					<dim>2</dim>
				</port>
			</input>
			<output>
				<port id="2" precision="FP32" names="mean_Conv_0/WithoutBiases/add_,mean_Conv_0/WithoutBiases/add_:0">
					<dim>1</dim>
					<dim>64</dim>
				</port>
			</output>
		</layer>
		<layer id="141" name="Result_mean_Conv_0/WithoutBiases/add_" type="Result" version="opset1">
			<input>
				<port id="0">
					<dim>1</dim>
					<dim>64</dim>
				</port>
			</input>
		</layer>
		<layer id="142" name="mean_Conv_10/WithoutBiases/add_/value419917" type="Const" version="opset1">
			<data offset="478912" size="16" shape="2" element_type="i64"/>
			<output>
				<port id="0" precision="I64">
					<dim>2</dim>
				</port>
			</output>
		</layer>
		<layer id="143" name="mean_Conv_10/WithoutBiases/add_" type="ReduceMean" version="opset1">
			<data keep_dims="false"/>
			<input>
				<port id="0">
					<dim>1</dim>
					<dim>16</dim>
					<dim>55</dim>
					<dim>55</dim>
				</port>
				<port id="1">
					<dim>2</dim>
				</port>
			</input>
			<output>
				<port id="2" precision="FP32" names="mean_Conv_10/WithoutBiases/add_,mean_Conv_10/WithoutBiases/add_:0">
					<dim>1</dim>
					<dim>16</dim>
				</port>
			</output>
		</layer>
		<layer id="144" name="Result_mean_Conv_10/WithoutBiases/add_" type="Result" version="opset1">
			<input>
				<port id="0">
					<dim>1</dim>
					<dim>16</dim>
				</port>
			</input>
		</layer>
		<layer id="145" name="mean_Conv_12/WithoutBiases/add_/value429809" type="Const" version="opset1">
			<data offset="478912" size="16" shape="2" element_type="i64"/>
			<output>
				<port id="0" precision="I64">
					<dim>2</dim>
				</port>
			</output>
		</layer>
		<layer id="146" name="mean_Conv_12/WithoutBiases/add_" type="ReduceMean" version="opset1">
			<data keep_dims="false"/>
			<input>
				<port id="0">
					<dim>1</dim>
					<dim>64</dim>
					<dim>55</dim>
					<dim>55</dim>
				</port>
				<port id="1">
					<dim>2</dim>
				</port>
			</input>
			<output>
				<port id="2" precision="FP32" names="mean_Conv_12/WithoutBiases/add_,mean_Conv_12/WithoutBiases/add_:0">
					<dim>1</dim>
					<dim>64</dim>
				</port>
			</output>
		</layer>
		<layer id="147" name="Result_mean_Conv_12/WithoutBiases/add_" type="Result" version="opset1">
			<input>
				<port id="0">
					<dim>1</dim>
					<dim>64</dim>
				</port>
			</input>
		</layer>
		<layer id="148" name="mean_Conv_14/WithoutBiases/add_/value4391007" type="Const" version="opset1">
			<data offset="478912" size="16" shape="2" element_type="i64"/>
			<output>
				<port id="0" precision="I64">
					<dim>2</dim>
				</port>
			</output>
		</layer>
		<layer id="149" name="mean_Conv_14/WithoutBiases/add_" type="ReduceMean" version="opset1">
			<data keep_dims="false"/>
			<input>
				<port id="0">
					<dim>1</dim>
					<dim>64</dim>
					<dim>55</dim>
					<dim>55</dim>
				</port>
				<port id="1">
					<dim>2</dim>
				</port>
			</input>
			<output>
				<port id="2" precision="FP32" names="mean_Conv_14/WithoutBiases/add_,mean_Conv_14/WithoutBiases/add_:0">
					<dim>1</dim>
					<dim>64</dim>
				</port>
			</output>
		</layer>
		<layer id="150" name="Result_mean_Conv_14/WithoutBiases/add_" type="Result" version="opset1">
			<input>
				<port id="0">
					<dim>1</dim>
					<dim>64</dim>
				</port>
			</input>
		</layer>
		<layer id="151" name="mean_Conv_18/WithoutBiases/add_/value444860" type="Const" version="opset1">
			<data offset="478912" size="16" shape="2" element_type="i64"/>
			<output>
				<port id="0" precision="I64">
					<dim>2</dim>
				</port>
			</output>
		</layer>
		<layer id="152" name="mean_Conv_18/WithoutBiases/add_" type="ReduceMean" version="opset1">
			<data keep_dims="false"/>
			<input>
				<port id="0">
					<dim>1</dim>
					<dim>32</dim>
					<dim>27</dim>
					<dim>27</dim>
				</port>
				<port id="1">
					<dim>2</dim>
				</port>
			</input>
			<output>
				<port id="2" precision="FP32" names="mean_Conv_18/WithoutBiases/add_,mean_Conv_18/WithoutBiases/add_:0">
					<dim>1</dim>
					<dim>32</dim>
				</port>
			</output>
		</layer>
		<layer id="153" name="Result_mean_Conv_18/WithoutBiases/add_" type="Result" version="opset1">
			<input>
				<port id="0">
					<dim>1</dim>
					<dim>32</dim>
				</port>
			</input>
		</layer>
		<layer id="154" name="mean_Conv_20/WithoutBiases/add_/value4541031" type="Const" version="opset1">
			<data offset="478912" size="16" shape="2" element_type="i64"/>
			<output>
				<port id="0" precision="I64">
					<dim>2</dim>
				</port>
			</output>
		</layer>
		<layer id="155" name="mean_Conv_20/WithoutBiases/add_" type="ReduceMean" version="opset1">
			<data keep_dims="false"/>
			<input>
				<port id="0">
					<dim>1</dim>
					<dim>128</dim>
					<dim>27</dim>
					<dim>27</dim>
				</port>
				<port id="1">
					<dim>2</dim>
				</port>
			</input>
			<output>
				<port id="2" precision="FP32" names="mean_Conv_20/WithoutBiases/add_,mean_Conv_20/WithoutBiases/add_:0">
					<dim>1</dim>
					<dim>128</dim>
				</port>
			</output>
		</layer>
		<layer id="156" name="Result_mean_Conv_20/WithoutBiases/add_" type="Result" version="opset1">
			<input>
				<port id="0">
					<dim>1</dim>
					<dim>128</dim>
				</port>
			</input>
		</layer>
		<layer id="157" name="mean_Conv_22/WithoutBiases/add_/value464866" type="Const" version="opset1">
			<data offset="478912" size="16" shape="2" element_type="i64"/>
			<output>
				<port id="0" precision="I64">
					<dim>2</dim>
				</port>
			</output>
		</layer>
		<layer id="158" name="mean_Conv_22/WithoutBiases/add_" type="ReduceMean" version="opset1">
			<data keep_dims="false"/>
			<input>
				<port id="0">
					<dim>1</dim>
					<dim>128</dim>
					<dim>27</dim>
					<dim>27</dim>
				</port>
				<port id="1">
					<dim>2</dim>
				</port>
			</input>
			<output>
				<port id="2" precision="FP32" names="mean_Conv_22/WithoutBiases/add_,mean_Conv_22/WithoutBiases/add_:0">
					<dim>1</dim>
					<dim>128</dim>
				</port>
			</output>
		</layer>
		<layer id="159" name="Result_mean_Conv_22/WithoutBiases/add_" type="Result" version="opset1">
			<input>
				<port id="0">
					<dim>1</dim>
					<dim>128</dim>
				</port>
			</input>
		</layer>
		<layer id="160" name="mean_Conv_25/WithoutBiases/add_/value4691028" type="Const" version="opset1">
			<data offset="478912" size="16" shape="2" element_type="i64"/>
			<output>
				<port id="0" precision="I64">
					<dim>2</dim>
				</port>
			</output>
		</layer>
		<layer id="161" name="mean_Conv_25/WithoutBiases/add_" type="ReduceMean" version="opset1">
			<data keep_dims="false"/>
			<input>
				<port id="0">
					<dim>1</dim>
					<dim>32</dim>
					<dim>27</dim>
					<dim>27</dim>
				</port>
				<port id="1">
					<dim>2</dim>
				</port>
			</input>
			<output>
				<port id="2" precision="FP32" names="mean_Conv_25/WithoutBiases/add_,mean_Conv_25/WithoutBiases/add_:0">
					<dim>1</dim>
					<dim>32</dim>
				</port>
			</output>
		</layer>
		<layer id="162" name="Result_mean_Conv_25/WithoutBiases/add_" type="Result" version="opset1">
			<input>
				<port id="0">
					<dim>1</dim>
					<dim>32</dim>
				</port>
			</input>
		</layer>
		<layer id="163" name="mean_Conv_27/WithoutBiases/add_/value479905" type="Const" version="opset1">
			<data offset="478912" size="16" shape="2" element_type="i64"/>
			<output>
				<port id="0" precision="I64">
					<dim>2</dim>
				</port>
			</output>
		</layer>
		<layer id="164" name="mean_Conv_27/WithoutBiases/add_" type="ReduceMean" version="opset1">
			<data keep_dims="false"/>
			<input>
				<port id="0">
					<dim>1</dim>
					<dim>128</dim>
					<dim>27</dim>
					<dim>27</dim>
				</port>
				<port id="1">
					<dim>2</dim>
				</port>
			</input>
			<output>
				<port id="2" precision="FP32" names="mean_Conv_27/WithoutBiases/add_,mean_Conv_27/WithoutBiases/add_:0">
					<dim>1</dim>
					<dim>128</dim>
				</port>
			</output>
		</layer>
		<layer id="165" name="Result_mean_Conv_27/WithoutBiases/add_" type="Result" version="opset1">
			<input>
				<port id="0">
					<dim>1</dim>
					<dim>128</dim>
				</port>
			</input>
		</layer>
		<layer id="166" name="mean_Conv_29/WithoutBiases/add_/value489863" type="Const" version="opset1">
			<data offset="478912" size="16" shape="2" element_type="i64"/>
			<output>
				<port id="0" precision="I64">
					<dim>2</dim>
				</port>
			</output>
		</layer>
		<layer id="167" name="mean_Conv_29/WithoutBiases/add_" type="ReduceMean" version="opset1">
			<data keep_dims="false"/>
			<input>
				<port id="0">
					<dim>1</dim>
					<dim>128</dim>
					<dim>27</dim>
					<dim>27</dim>
				</port>
				<port id="1">
					<dim>2</dim>
				</port>
			</input>
			<output>
				<port id="2" precision="FP32" names="mean_Conv_29/WithoutBiases/add_,mean_Conv_29/WithoutBiases/add_:0">
					<dim>1</dim>
					<dim>128</dim>
				</port>
			</output>
		</layer>
		<layer id="168" name="Result_mean_Conv_29/WithoutBiases/add_" type="Result" version="opset1">
			<input>
				<port id="0">
					<dim>1</dim>
					<dim>128</dim>
				</port>
			</input>
		</layer>
		<layer id="169" name="mean_Conv_3/WithoutBiases/add_/value394821" type="Const" version="opset1">
			<data offset="478912" size="16" shape="2" element_type="i64"/>
			<output>
				<port id="0" precision="I64">
					<dim>2</dim>
				</port>
			</output>
		</layer>
		<layer id="170" name="mean_Conv_3/WithoutBiases/add_" type="ReduceMean" version="opset1">
			<data keep_dims="false"/>
			<input>
				<port id="0">
					<dim>1</dim>
					<dim>16</dim>
					<dim>55</dim>
					<dim>55</dim>
				</port>
				<port id="1">
					<dim>2</dim>
				</port>
			</input>
			<output>
				<port id="2" precision="FP32" names="mean_Conv_3/WithoutBiases/add_,mean_Conv_3/WithoutBiases/add_:0">
					<dim>1</dim>
					<dim>16</dim>
				</port>
			</output>
		</layer>
		<layer id="171" name="Result_mean_Conv_3/WithoutBiases/add_" type="Result" version="opset1">
			<input>
				<port id="0">
					<dim>1</dim>
					<dim>16</dim>
				</port>
			</input>
		</layer>
		<layer id="172" name="mean_Conv_33/WithoutBiases/add_/value494998" type="Const" version="opset1">
			<data offset="478912" size="16" shape="2" element_type="i64"/>
			<output>
				<port id="0" precision="I64">
					<dim>2</dim>
				</port>
			</output>
		</layer>
		<layer id="173" name="mean_Conv_33/WithoutBiases/add_" type="ReduceMean" version="opset1">
			<data keep_dims="false"/>
			<input>
				<port id="0">
					<dim>1</dim>
					<dim>48</dim>
					<dim>13</dim>
					<dim>13</dim>
				</port>
				<port id="1">
					<dim>2</dim>
				</port>
			</input>
			<output>
				<port id="2" precision="FP32" names="mean_Conv_33/WithoutBiases/add_,mean_Conv_33/WithoutBiases/add_:0">
					<dim>1</dim>
					<dim>48</dim>
				</port>
			</output>
		</layer>
		<layer id="174" name="Result_mean_Conv_33/WithoutBiases/add_" type="Result" version="opset1">
			<input>
				<port id="0">
					<dim>1</dim>
					<dim>48</dim>
				</port>
			</input>
		</layer>
		<layer id="175" name="mean_Conv_35/WithoutBiases/add_/value504833" type="Const" version="opset1">
			<data offset="478912" size="16" shape="2" element_type="i64"/>
			<output>
				<port id="0" precision="I64">
					<dim>2</dim>
				</port>
			</output>
		</layer>
		<layer id="176" name="mean_Conv_35/WithoutBiases/add_" type="ReduceMean" version="opset1">
			<data keep_dims="false"/>
			<input>
				<port id="0">
					<dim>1</dim>
					<dim>192</dim>
					<dim>13</dim>
					<dim>13</dim>
				</port>
				<port id="1">
					<dim>2</dim>
				</port>
			</input>
			<output>
				<port id="2" precision="FP32" names="mean_Conv_35/WithoutBiases/add_,mean_Conv_35/WithoutBiases/add_:0">
					<dim>1</dim>
					<dim>192</dim>
				</port>
			</output>
		</layer>
		<layer id="177" name="Result_mean_Conv_35/WithoutBiases/add_" type="Result" version="opset1">
			<input>
				<port id="0">
					<dim>1</dim>
					<dim>192</dim>
				</port>
			</input>
		</layer>
		<layer id="178" name="mean_Conv_37/WithoutBiases/add_/value514869" type="Const" version="opset1">
			<data offset="478912" size="16" shape="2" element_type="i64"/>
			<output>
				<port id="0" precision="I64">
					<dim>2</dim>
				</port>
			</output>
		</layer>
		<layer id="179" name="mean_Conv_37/WithoutBiases/add_" type="ReduceMean" version="opset1">
			<data keep_dims="false"/>
			<input>
				<port id="0">
					<dim>1</dim>
					<dim>192</dim>
					<dim>13</dim>
					<dim>13</dim>
				</port>
				<port id="1">
					<dim>2</dim>
				</port>
			</input>
			<output>
				<port id="2" precision="FP32" names="mean_Conv_37/WithoutBiases/add_,mean_Conv_37/WithoutBiases/add_:0">
					<dim>1</dim>
					<dim>192</dim>
				</port>
			</output>
		</layer>
		<layer id="180" name="Result_mean_Conv_37/WithoutBiases/add_" type="Result" version="opset1">
			<input>
				<port id="0">
					<dim>1</dim>
					<dim>192</dim>
				</port>
			</input>
		</layer>
		<layer id="181" name="mean_Conv_40/WithoutBiases/add_/value5191043" type="Const" version="opset1">
			<data offset="478912" size="16" shape="2" element_type="i64"/>
			<output>
				<port id="0" precision="I64">
					<dim>2</dim>
				</port>
			</output>
		</layer>
		<layer id="182" name="mean_Conv_40/WithoutBiases/add_" type="ReduceMean" version="opset1">
			<data keep_dims="false"/>
			<input>
				<port id="0">
					<dim>1</dim>
					<dim>48</dim>
					<dim>13</dim>
					<dim>13</dim>
				</port>
				<port id="1">
					<dim>2</dim>
				</port>
			</input>
			<output>
				<port id="2" precision="FP32" names="mean_Conv_40/WithoutBiases/add_,mean_Conv_40/WithoutBiases/add_:0">
					<dim>1</dim>
					<dim>48</dim>
				</port>
			</output>
		</layer>
		<layer id="183" name="Result_mean_Conv_40/WithoutBiases/add_" type="Result" version="opset1">
			<input>
				<port id="0">
					<dim>1</dim>
					<dim>48</dim>
				</port>
			</input>
		</layer>
		<layer id="184" name="mean_Conv_42/WithoutBiases/add_/value529806" type="Const" version="opset1">
			<data offset="478912" size="16" shape="2" element_type="i64"/>
			<output>
				<port id="0" precision="I64">
					<dim>2</dim>
				</port>
			</output>
		</layer>
		<layer id="185" name="mean_Conv_42/WithoutBiases/add_" type="ReduceMean" version="opset1">
			<data keep_dims="false"/>
			<input>
				<port id="0">
					<dim>1</dim>
					<dim>192</dim>
					<dim>13</dim>
					<dim>13</dim>
				</port>
				<port id="1">
					<dim>2</dim>
				</port>
			</input>
			<output>
				<port id="2" precision="FP32" names="mean_Conv_42/WithoutBiases/add_,mean_Conv_42/WithoutBiases/add_:0">
					<dim>1</dim>
					<dim>192</dim>
				</port>
			</output>
		</layer>
		<layer id="186" name="Result_mean_Conv_42/WithoutBiases/add_" type="Result" version="opset1">
			<input>
				<port id="0">
					<dim>1</dim>
					<dim>192</dim>
				</port>
			</input>
		</layer>
		<layer id="187" name="mean_Conv_44/WithoutBiases/add_/value539941" type="Const" version="opset1">
			<data offset="478912" size="16" shape="2" element_type="i64"/>
			<output>
				<port id="0" precision="I64">
					<dim>2</dim>
				</port>
			</output>
		</layer>
		<layer id="188" name="mean_Conv_44/WithoutBiases/add_" type="ReduceMean" version="opset1">
			<data keep_dims="false"/>
			<input>
				<port id="0">
					<dim>1</dim>
					<dim>192</dim>
					<dim>13</dim>
					<dim>13</dim>
				</port>
				<port id="1">
					<dim>2</dim>
				</port>
			</input>
			<output>
				<port id="2" precision="FP32" names="mean_Conv_44/WithoutBiases/add_,mean_Conv_44/WithoutBiases/add_:0">
					<dim>1</dim>
					<dim>192</dim>
				</port>
			</output>
		</layer>
		<layer id="189" name="Result_mean_Conv_44/WithoutBiases/add_" type="Result" version="opset1">
			<input>
				<port id="0">
					<dim>1</dim>
					<dim>192</dim>
				</port>
			</input>
		</layer>
		<layer id="190" name="mean_Conv_47/WithoutBiases/add_/value544899" type="Const" version="opset1">
			<data offset="478912" size="16" shape="2" element_type="i64"/>
			<output>
				<port id="0" precision="I64">
					<dim>2</dim>
				</port>
			</output>
		</layer>
		<layer id="191" name="mean_Conv_47/WithoutBiases/add_" type="ReduceMean" version="opset1">
			<data keep_dims="false"/>
			<input>
				<port id="0">
					<dim>1</dim>
					<dim>64</dim>
					<dim>13</dim>
					<dim>13</dim>
				</port>
				<port id="1">
					<dim>2</dim>
				</port>
			</input>
			<output>
				<port id="2" precision="FP32" names="mean_Conv_47/WithoutBiases/add_,mean_Conv_47/WithoutBiases/add_:0">
					<dim>1</dim>
					<dim>64</dim>
				</port>
			</output>
		</layer>
		<layer id="192" name="Result_mean_Conv_47/WithoutBiases/add_" type="Result" version="opset1">
			<input>
				<port id="0">
					<dim>1</dim>
					<dim>64</dim>
				</port>
			</input>
		</layer>
		<layer id="193" name="mean_Conv_49/WithoutBiases/add_/value5541016" type="Const" version="opset1">
			<data offset="478912" size="16" shape="2" element_type="i64"/>
			<output>
				<port id="0" precision="I64">
					<dim>2</dim>
				</port>
			</output>
		</layer>
		<layer id="194" name="mean_Conv_49/WithoutBiases/add_" type="ReduceMean" version="opset1">
			<data keep_dims="false"/>
			<input>
				<port id="0">
					<dim>1</dim>
					<dim>256</dim>
					<dim>13</dim>
					<dim>13</dim>
				</port>
				<port id="1">
					<dim>2</dim>
				</port>
			</input>
			<output>
				<port id="2" precision="FP32" names="mean_Conv_49/WithoutBiases/add_,mean_Conv_49/WithoutBiases/add_:0">
					<dim>1</dim>
					<dim>256</dim>
				</port>
			</output>
		</layer>
		<layer id="195" name="Result_mean_Conv_49/WithoutBiases/add_" type="Result" version="opset1">
			<input>
				<port id="0">
					<dim>1</dim>
					<dim>256</dim>
				</port>
			</input>
		</layer>
		<layer id="196" name="mean_Conv_5/WithoutBiases/add_/value404977" type="Const" version="opset1">
			<data offset="478912" size="16" shape="2" element_type="i64"/>
			<output>
				<port id="0" precision="I64">
					<dim>2</dim>
				</port>
			</output>
		</layer>
		<layer id="197" name="mean_Conv_5/WithoutBiases/add_" type="ReduceMean" version="opset1">
			<data keep_dims="false"/>
			<input>
				<port id="0">
					<dim>1</dim>
					<dim>64</dim>
					<dim>55</dim>
					<dim>55</dim>
				</port>
				<port id="1">
					<dim>2</dim>
				</port>
			</input>
			<output>
				<port id="2" precision="FP32" names="mean_Conv_5/WithoutBiases/add_,mean_Conv_5/WithoutBiases/add_:0">
					<dim>1</dim>
					<dim>64</dim>
				</port>
			</output>
		</layer>
		<layer id="198" name="Result_mean_Conv_5/WithoutBiases/add_" type="Result" version="opset1">
			<input>
				<port id="0">
					<dim>1</dim>
					<dim>64</dim>
				</port>
			</input>
		</layer>
		<layer id="199" name="mean_Conv_51/WithoutBiases/add_/value564983" type="Const" version="opset1">
			<data offset="478912" size="16" shape="2" element_type="i64"/>
			<output>
				<port id="0" precision="I64">
					<dim>2</dim>
				</port>
			</output>
		</layer>
		<layer id="200" name="mean_Conv_51/WithoutBiases/add_" type="ReduceMean" version="opset1">
			<data keep_dims="false"/>
			<input>
				<port id="0">
					<dim>1</dim>
					<dim>256</dim>
					<dim>13</dim>
					<dim>13</dim>
				</port>
				<port id="1">
					<dim>2</dim>
				</port>
			</input>
			<output>
				<port id="2" precision="FP32" names="mean_Conv_51/WithoutBiases/add_,mean_Conv_51/WithoutBiases/add_:0">
					<dim>1</dim>
					<dim>256</dim>
				</port>
			</output>
		</layer>
		<layer id="201" name="Result_mean_Conv_51/WithoutBiases/add_" type="Result" version="opset1">
			<input>
				<port id="0">
					<dim>1</dim>
					<dim>256</dim>
				</port>
			</input>
		</layer>
		<layer id="202" name="mean_Conv_54/WithoutBiases/add_/value569872" type="Const" version="opset1">
			<data offset="478912" size="16" shape="2" element_type="i64"/>
			<output>
				<port id="0" precision="I64">
					<dim>2</dim>
				</port>
			</output>
		</layer>
		<layer id="203" name="320322923" type="Const" version="opset1">
			<data offset="0" size="256" shape="1,64,1,1" element_type="f32"/>
			<output>
				<port id="0" precision="FP32">
					<dim>1</dim>
					<dim>64</dim>
					<dim>1</dim>
					<dim>1</dim>
				</port>
			</output>
		</layer>
		<layer id="204" name="0.12.squeeze.weight166776" type="Const" version="opset1">
			<data offset="2094736" size="131072" shape="64,512,1,1" element_type="f32"/>
			<rt_info>
				<attribute name="fused_names" version="0" value="0.12.squeeze.weight"/>
			</rt_info>
			<output>
				<port id="0" precision="FP32" names="0.12.squeeze.weight">
					<dim>64</dim>
					<dim>512</dim>
					<dim>1</dim>
					<dim>1</dim>
				</port>
			</output>
		</layer>
		<layer id="205" name="Conv_54/WithoutBiases" type="Convolution" version="opset1">
			<data auto_pad="explicit" strides="1,1" dilations="1,1" pads_begin="0,0" pads_end="0,0"/>
			<rt_info>
				<attribute name="fused_names" version="0" value="Concat_1158, Conv_54, Conv_54/WithoutBiases, Reshape_1159"/>
			</rt_info>
			<input>
				<port id="0">
					<dim>1</dim>
					<dim>512</dim>
					<dim>13</dim>
					<dim>13</dim>
				</port>
				<port id="1">
					<dim>64</dim>
					<dim>512</dim>
					<dim>1</dim>
					<dim>1</dim>
				</port>
			</input>
			<output>
				<port id="2" precision="FP32" names="105">
					<dim>1</dim>
					<dim>64</dim>
					<dim>13</dim>
					<dim>13</dim>
				</port>
			</output>
		</layer>
		<layer id="206" name="Conv_54/WithoutBiases/add_" type="Add" version="opset1">
			<data auto_broadcast="numpy"/>
			<input>
				<port id="0">
					<dim>1</dim>
					<dim>64</dim>
					<dim>13</dim>
					<dim>13</dim>
				</port>
				<port id="1">
					<dim>1</dim>
					<dim>64</dim>
					<dim>1</dim>
					<dim>1</dim>
				</port>
			</input>
			<output>
				<port id="2" precision="FP32">
					<dim>1</dim>
					<dim>64</dim>
					<dim>13</dim>
					<dim>13</dim>
				</port>
			</output>
		</layer>
		<layer id="207" name="mean_Conv_54/WithoutBiases/add_" type="ReduceMean" version="opset1">
			<data keep_dims="false"/>
			<input>
				<port id="0">
					<dim>1</dim>
					<dim>64</dim>
					<dim>13</dim>
					<dim>13</dim>
				</port>
				<port id="1">
					<dim>2</dim>
				</port>
			</input>
			<output>
				<port id="2" precision="FP32" names="mean_Conv_54/WithoutBiases/add_,mean_Conv_54/WithoutBiases/add_:0">
					<dim>1</dim>
					<dim>64</dim>
				</port>
			</output>
		</layer>
		<layer id="208" name="Result_mean_Conv_54/WithoutBiases/add_" type="Result" version="opset1">
			<input>
				<port id="0">
					<dim>1</dim>
					<dim>64</dim>
				</port>
			</input>
		</layer>
		<layer id="209" name="mean_Conv_56/WithoutBiases/add_/value579854" type="Const" version="opset1">
			<data offset="478912" size="16" shape="2" element_type="i64"/>
			<output>
				<port id="0" precision="I64">
					<dim>2</dim>
				</port>
			</output>
		</layer>
		<layer id="210" name="324326929" type="Const" version="opset1">
			<data offset="1340048" size="1024" shape="1,256,1,1" element_type="f32"/>
			<output>
				<port id="0" precision="FP32">
					<dim>1</dim>
					<dim>256</dim>
					<dim>1</dim>
					<dim>1</dim>
				</port>
			</output>
		</layer>
		<layer id="211" name="Relu_55" type="ReLU" version="opset1">
			<rt_info>
				<attribute name="fused_names" version="0" value="Relu_55"/>
			</rt_info>
			<input>
				<port id="0">
					<dim>1</dim>
					<dim>64</dim>
					<dim>13</dim>
					<dim>13</dim>
				</port>
			</input>
			<output>
				<port id="1" precision="FP32" names="106">
					<dim>1</dim>
					<dim>64</dim>
					<dim>13</dim>
					<dim>13</dim>
				</port>
			</output>
		</layer>
		<layer id="212" name="0.12.expand1x1.weight169920" type="Const" version="opset1">
			<data offset="2225808" size="65536" shape="256,64,1,1" element_type="f32"/>
			<rt_info>
				<attribute name="fused_names" version="0" value="0.12.expand1x1.weight"/>
			</rt_info>
			<output>
				<port id="0" precision="FP32" names="0.12.expand1x1.weight">
					<dim>256</dim>
					<dim>64</dim>
					<dim>1</dim>
					<dim>1</dim>
				</port>
			</output>
		</layer>
		<layer id="213" name="Conv_56/WithoutBiases" type="Convolution" version="opset1">
			<data auto_pad="explicit" strides="1,1" dilations="1,1" pads_begin="0,0" pads_end="0,0"/>
			<rt_info>
				<attribute name="fused_names" version="0" value="Concat_1207, Conv_56, Conv_56/WithoutBiases, Reshape_1208"/>
			</rt_info>
			<input>
				<port id="0">
					<dim>1</dim>
					<dim>64</dim>
					<dim>13</dim>
					<dim>13</dim>
				</port>
				<port id="1">
					<dim>256</dim>
					<dim>64</dim>
					<dim>1</dim>
					<dim>1</dim>
				</port>
			</input>
			<output>
				<port id="2" precision="FP32" names="107">
					<dim>1</dim>
					<dim>256</dim>
					<dim>13</dim>
					<dim>13</dim>
				</port>
			</output>
		</layer>
		<layer id="214" name="Conv_56/WithoutBiases/add_" type="Add" version="opset1">
			<data auto_broadcast="numpy"/>
			<input>
				<port id="0">
					<dim>1</dim>
					<dim>256</dim>
					<dim>13</dim>
					<dim>13</dim>
				</port>
				<port id="1">
					<dim>1</dim>
					<dim>256</dim>
					<dim>1</dim>
					<dim>1</dim>
				</port>
			</input>
			<output>
				<port id="2" precision="FP32">
					<dim>1</dim>
					<dim>256</dim>
					<dim>13</dim>
					<dim>13</dim>
				</port>
			</output>
		</layer>
		<layer id="215" name="mean_Conv_56/WithoutBiases/add_" type="ReduceMean" version="opset1">
			<data keep_dims="false"/>
			<input>
				<port id="0">
					<dim>1</dim>
					<dim>256</dim>
					<dim>13</dim>
					<dim>13</dim>
				</port>
				<port id="1">
					<dim>2</dim>
				</port>
			</input>
			<output>
				<port id="2" precision="FP32" names="mean_Conv_56/WithoutBiases/add_,mean_Conv_56/WithoutBiases/add_:0">
					<dim>1</dim>
					<dim>256</dim>
				</port>
			</output>
		</layer>
		<layer id="216" name="Result_mean_Conv_56/WithoutBiases/add_" type="Result" version="opset1">
			<input>
				<port id="0">
					<dim>1</dim>
					<dim>256</dim>
				</port>
			</input>
		</layer>
		<layer id="217" name="mean_Conv_58/WithoutBiases/add_/value5891019" type="Const" version="opset1">
			<data offset="478912" size="16" shape="2" element_type="i64"/>
			<output>
				<port id="0" precision="I64">
					<dim>2</dim>
				</port>
			</output>
		</layer>
		<layer id="218" name="3283301034" type="Const" version="opset1">
			<data offset="1340048" size="1024" shape="1,256,1,1" element_type="f32"/>
			<output>
				<port id="0" precision="FP32">
					<dim>1</dim>
					<dim>256</dim>
					<dim>1</dim>
					<dim>1</dim>
				</port>
			</output>
		</layer>
		<layer id="219" name="0.12.expand3x3.weight172992" type="Const" version="opset1">
			<data offset="2291344" size="589824" shape="256,64,3,3" element_type="f32"/>
			<rt_info>
				<attribute name="fused_names" version="0" value="0.12.expand3x3.weight"/>
			</rt_info>
			<output>
				<port id="0" precision="FP32" names="0.12.expand3x3.weight">
					<dim>256</dim>
					<dim>64</dim>
					<dim>3</dim>
					<dim>3</dim>
				</port>
			</output>
		</layer>
		<layer id="220" name="Conv_58/WithoutBiases" type="Convolution" version="opset1">
			<data auto_pad="explicit" strides="1,1" dilations="1,1" pads_begin="1,1" pads_end="1,1"/>
			<rt_info>
				<attribute name="fused_names" version="0" value="Concat_1256, Conv_58, Conv_58/WithoutBiases, Reshape_1257"/>
			</rt_info>
			<input>
				<port id="0">
					<dim>1</dim>
					<dim>64</dim>
					<dim>13</dim>
					<dim>13</dim>
				</port>
				<port id="1">
					<dim>256</dim>
					<dim>64</dim>
					<dim>3</dim>
					<dim>3</dim>
				</port>
			</input>
			<output>
				<port id="2" precision="FP32" names="109">
					<dim>1</dim>
					<dim>256</dim>
					<dim>13</dim>
					<dim>13</dim>
				</port>
			</output>
		</layer>
		<layer id="221" name="Conv_58/WithoutBiases/add_" type="Add" version="opset1">
			<data auto_broadcast="numpy"/>
			<input>
				<port id="0">
					<dim>1</dim>
					<dim>256</dim>
					<dim>13</dim>
					<dim>13</dim>
				</port>
				<port id="1">
					<dim>1</dim>
					<dim>256</dim>
					<dim>1</dim>
					<dim>1</dim>
				</port>
			</input>
			<output>
				<port id="2" precision="FP32">
					<dim>1</dim>
					<dim>256</dim>
					<dim>13</dim>
					<dim>13</dim>
				</port>
			</output>
		</layer>
		<layer id="222" name="mean_Conv_58/WithoutBiases/add_" type="ReduceMean" version="opset1">
			<data keep_dims="false"/>
			<input>
				<port id="0">
					<dim>1</dim>
					<dim>256</dim>
					<dim>13</dim>
					<dim>13</dim>
				</port>
				<port id="1">
					<dim>2</dim>
				</port>
			</input>
			<output>
				<port id="2" precision="FP32" names="mean_Conv_58/WithoutBiases/add_,mean_Conv_58/WithoutBiases/add_:0">
					<dim>1</dim>
					<dim>256</dim>
				</port>
			</output>
		</layer>
		<layer id="223" name="Result_mean_Conv_58/WithoutBiases/add_" type="Result" version="opset1">
			<input>
				<port id="0">
					<dim>1</dim>
					<dim>256</dim>
				</port>
			</input>
		</layer>
		<layer id="224" name="mean_Conv_7/WithoutBiases/add_/value414839" type="Const" version="opset1">
			<data offset="478912" size="16" shape="2" element_type="i64"/>
			<output>
				<port id="0" precision="I64">
					<dim>2</dim>
				</port>
			</output>
		</layer>
		<layer id="225" name="mean_Conv_7/WithoutBiases/add_" type="ReduceMean" version="opset1">
			<data keep_dims="false"/>
			<input>
				<port id="0">
					<dim>1</dim>
					<dim>64</dim>
					<dim>55</dim>
					<dim>55</dim>
				</port>
				<port id="1">
					<dim>2</dim>
				</port>
			</input>
			<output>
				<port id="2" precision="FP32" names="mean_Conv_7/WithoutBiases/add_,mean_Conv_7/WithoutBiases/add_:0">
					<dim>1</dim>
					<dim>64</dim>
				</port>
			</output>
		</layer>
		<layer id="226" name="Result_mean_Conv_7/WithoutBiases/add_" type="Result" version="opset1">
			<input>
				<port id="0">
					<dim>1</dim>
					<dim>64</dim>
				</port>
			</input>
		</layer>
		<layer id="227" name="mean_MaxPool_17.0/value449893" type="Const" version="opset1">
			<data offset="478912" size="16" shape="2" element_type="i64"/>
			<output>
				<port id="0" precision="I64">
					<dim>2</dim>
				</port>
			</output>
		</layer>
		<layer id="228" name="mean_MaxPool_17.0" type="ReduceMean" version="opset1">
			<data keep_dims="false"/>
			<input>
				<port id="0">
					<dim>1</dim>
					<dim>128</dim>
					<dim>27</dim>
					<dim>27</dim>
				</port>
				<port id="1">
					<dim>2</dim>
				</port>
			</input>
			<output>
				<port id="2" precision="FP32" names="mean_MaxPool_17.0,mean_MaxPool_17.0:0">
					<dim>1</dim>
					<dim>128</dim>
				</port>
			</output>
		</layer>
		<layer id="229" name="Result_mean_MaxPool_17.0" type="Result" version="opset1">
			<input>
				<port id="0">
					<dim>1</dim>
					<dim>128</dim>
				</port>
			</input>
		</layer>
		<layer id="230" name="mean_MaxPool_2.0/value399779" type="Const" version="opset1">
			<data offset="478912" size="16" shape="2" element_type="i64"/>
			<output>
				<port id="0" precision="I64">
					<dim>2</dim>
				</port>
			</output>
		</layer>
		<layer id="231" name="mean_MaxPool_2.0" type="ReduceMean" version="opset1">
			<data keep_dims="false"/>
			<input>
				<port id="0">
					<dim>1</dim>
					<dim>64</dim>
					<dim>55</dim>
					<dim>55</dim>
				</port>
				<port id="1">
					<dim>2</dim>
				</port>
			</input>
			<output>
				<port id="2" precision="FP32" names="mean_MaxPool_2.0,mean_MaxPool_2.0:0">
					<dim>1</dim>
					<dim>64</dim>
				</port>
			</output>
		</layer>
		<layer id="232" name="Result_mean_MaxPool_2.0" type="Result" version="opset1">
			<input>
				<port id="0">
					<dim>1</dim>
					<dim>64</dim>
				</port>
			</input>
		</layer>
		<layer id="233" name="mean_MaxPool_32.0/value499890" type="Const" version="opset1">
			<data offset="478912" size="16" shape="2" element_type="i64"/>
			<output>
				<port id="0" precision="I64">
					<dim>2</dim>
				</port>
			</output>
		</layer>
		<layer id="234" name="mean_MaxPool_32.0" type="ReduceMean" version="opset1">
			<data keep_dims="false"/>
			<input>
				<port id="0">
					<dim>1</dim>
					<dim>256</dim>
					<dim>13</dim>
					<dim>13</dim>
				</port>
				<port id="1">
					<dim>2</dim>
				</port>
			</input>
			<output>
				<port id="2" precision="FP32" names="mean_MaxPool_32.0,mean_MaxPool_32.0:0">
					<dim>1</dim>
					<dim>256</dim>
				</port>
			</output>
		</layer>
		<layer id="235" name="Result_mean_MaxPool_32.0" type="Result" version="opset1">
			<input>
				<port id="0">
					<dim>1</dim>
					<dim>256</dim>
				</port>
			</input>
		</layer>
		<layer id="236" name="mean_Relu_11/value434989" type="Const" version="opset1">
			<data offset="478912" size="16" shape="2" element_type="i64"/>
			<output>
				<port id="0" precision="I64">
					<dim>2</dim>
				</port>
			</output>
		</layer>
		<layer id="237" name="mean_Relu_11" type="ReduceMean" version="opset1">
			<data keep_dims="false"/>
			<input>
				<port id="0">
					<dim>1</dim>
					<dim>16</dim>
					<dim>55</dim>
					<dim>55</dim>
				</port>
				<port id="1">
					<dim>2</dim>
				</port>
			</input>
			<output>
				<port id="2" precision="FP32" names="mean_Relu_11,mean_Relu_11:0">
					<dim>1</dim>
					<dim>16</dim>
				</port>
			</output>
		</layer>
		<layer id="238" name="Result_mean_Relu_11" type="Result" version="opset1">
			<input>
				<port id="0">
					<dim>1</dim>
					<dim>16</dim>
				</port>
			</input>
		</layer>
		<layer id="239" name="mean_Relu_19/value459830" type="Const" version="opset1">
			<data offset="478912" size="16" shape="2" element_type="i64"/>
			<output>
				<port id="0" precision="I64">
					<dim>2</dim>
				</port>
			</output>
		</layer>
		<layer id="240" name="mean_Relu_19" type="ReduceMean" version="opset1">
			<data keep_dims="false"/>
			<input>
				<port id="0">
					<dim>1</dim>
					<dim>32</dim>
					<dim>27</dim>
					<dim>27</dim>
				</port>
				<port id="1">
					<dim>2</dim>
				</port>
			</input>
			<output>
				<port id="2" precision="FP32" names="mean_Relu_19,mean_Relu_19:0">
					<dim>1</dim>
					<dim>32</dim>
				</port>
			</output>
		</layer>
		<layer id="241" name="Result_mean_Relu_19" type="Result" version="opset1">
			<input>
				<port id="0">
					<dim>1</dim>
					<dim>32</dim>
				</port>
			</input>
		</layer>
		<layer id="242" name="mean_Relu_26/value484845" type="Const" version="opset1">
			<data offset="478912" size="16" shape="2" element_type="i64"/>
			<output>
				<port id="0" precision="I64">
					<dim>2</dim>
				</port>
			</output>
		</layer>
		<layer id="243" name="mean_Relu_26" type="ReduceMean" version="opset1">
			<data keep_dims="false"/>
			<input>
				<port id="0">
					<dim>1</dim>
					<dim>32</dim>
					<dim>27</dim>
					<dim>27</dim>
				</port>
				<port id="1">
					<dim>2</dim>
				</port>
			</input>
			<output>
				<port id="2" precision="FP32" names="mean_Relu_26,mean_Relu_26:0">
					<dim>1</dim>
					<dim>32</dim>
				</port>
			</output>
		</layer>
		<layer id="244" name="Result_mean_Relu_26" type="Result" version="opset1">
			<input>
				<port id="0">
					<dim>1</dim>
					<dim>32</dim>
				</port>
			</input>
		</layer>
		<layer id="245" name="mean_Relu_34/value509803" type="Const" version="opset1">
			<data offset="478912" size="16" shape="2" element_type="i64"/>
			<output>
				<port id="0" precision="I64">
					<dim>2</dim>
				</port>
			</output>
		</layer>
		<layer id="246" name="mean_Relu_34" type="ReduceMean" version="opset1">
			<data keep_dims="false"/>
			<input>
				<port id="0">
					<dim>1</dim>
					<dim>48</dim>
					<dim>13</dim>
					<dim>13</dim>
				</port>
				<port id="1">
					<dim>2</dim>
				</port>
			</input>
			<output>
				<port id="2" precision="FP32" names="mean_Relu_34,mean_Relu_34:0">
					<dim>1</dim>
					<dim>48</dim>
				</port>
			</output>
		</layer>
		<layer id="247" name="Result_mean_Relu_34" type="Result" version="opset1">
			<input>
				<port id="0">
					<dim>1</dim>
					<dim>48</dim>
				</port>
			</input>
		</layer>
		<layer id="248" name="mean_Relu_41/value534947" type="Const" version="opset1">
			<data offset="478912" size="16" shape="2" element_type="i64"/>
			<output>
				<port id="0" precision="I64">
					<dim>2</dim>
				</port>
			</output>
		</layer>
		<layer id="249" name="mean_Relu_41" type="ReduceMean" version="opset1">
			<data keep_dims="false"/>
			<input>
				<port id="0">
					<dim>1</dim>
					<dim>48</dim>
					<dim>13</dim>
					<dim>13</dim>
				</port>
				<port id="1">
					<dim>2</dim>
				</port>
			</input>
			<output>
				<port id="2" precision="FP32" names="mean_Relu_41,mean_Relu_41:0">
					<dim>1</dim>
					<dim>48</dim>
				</port>
			</output>
		</layer>
		<layer id="250" name="Result_mean_Relu_41" type="Result" version="opset1">
			<input>
				<port id="0">
					<dim>1</dim>
					<dim>48</dim>
				</port>
			</input>
		</layer>
		<layer id="251" name="mean_Relu_48/value559995" type="Const" version="opset1">
			<data offset="478912" size="16" shape="2" element_type="i64"/>
			<output>
				<port id="0" precision="I64">
					<dim>2</dim>
				</port>
			</output>
		</layer>
		<layer id="252" name="mean_Relu_48" type="ReduceMean" version="opset1">
			<data keep_dims="false"/>
			<input>
				<port id="0">
					<dim>1</dim>
					<dim>64</dim>
					<dim>13</dim>
					<dim>13</dim>
				</port>
				<port id="1">
					<dim>2</dim>
				</port>
			</input>
			<output>
				<port id="2" precision="FP32" names="mean_Relu_48,mean_Relu_48:0">
					<dim>1</dim>
					<dim>64</dim>
				</port>
			</output>
		</layer>
		<layer id="253" name="Result_mean_Relu_48" type="Result" version="opset1">
			<input>
				<port id="0">
					<dim>1</dim>
					<dim>64</dim>
				</port>
			</input>
		</layer>
		<layer id="254" name="mean_Relu_4/value4091049" type="Const" version="opset1">
			<data offset="478912" size="16" shape="2" element_type="i64"/>
			<output>
				<port id="0" precision="I64">
					<dim>2</dim>
				</port>
			</output>
		</layer>
		<layer id="255" name="mean_Relu_4" type="ReduceMean" version="opset1">
			<data keep_dims="false"/>
			<input>
				<port id="0">
					<dim>1</dim>
					<dim>16</dim>
					<dim>55</dim>
					<dim>55</dim>
				</port>
				<port id="1">
					<dim>2</dim>
				</port>
			</input>
			<output>
				<port id="2" precision="FP32" names="mean_Relu_4,mean_Relu_4:0">
					<dim>1</dim>
					<dim>16</dim>
				</port>
			</output>
		</layer>
		<layer id="256" name="Result_mean_Relu_4" type="Result" version="opset1">
			<input>
				<port id="0">
					<dim>1</dim>
					<dim>16</dim>
				</port>
			</input>
		</layer>
		<layer id="257" name="mean_Relu_55/value584842" type="Const" version="opset1">
			<data offset="478912" size="16" shape="2" element_type="i64"/>
			<output>
				<port id="0" precision="I64">
					<dim>2</dim>
				</port>
			</output>
		</layer>
		<layer id="258" name="mean_Relu_55" type="ReduceMean" version="opset1">
			<data keep_dims="false"/>
			<input>
				<port id="0">
					<dim>1</dim>
					<dim>64</dim>
					<dim>13</dim>
					<dim>13</dim>
				</port>
				<port id="1">
					<dim>2</dim>
				</port>
			</input>
			<output>
				<port id="2" precision="FP32" names="mean_Relu_55,mean_Relu_55:0">
					<dim>1</dim>
					<dim>64</dim>
				</port>
			</output>
		</layer>
		<layer id="259" name="Result_mean_Relu_55" type="Result" version="opset1">
			<input>
				<port id="0">
					<dim>1</dim>
					<dim>64</dim>
				</port>
			</input>
		</layer>
		<layer id="260" name="mean_input/value389887" type="Const" version="opset1">
			<data offset="478912" size="16" shape="2" element_type="i64"/>
			<output>
				<port id="0" precision="I64">
					<dim>2</dim>
				</port>
			</output>
		</layer>
		<layer id="261" name="mean_input" type="ReduceMean" version="opset1">
			<data keep_dims="false"/>
			<input>
				<port id="0">
					<dim>1</dim>
					<dim>3</dim>
					<dim>224</dim>
					<dim>224</dim>
				</port>
				<port id="1">
					<dim>2</dim>
				</port>
			</input>
			<output>
				<port id="2" precision="FP32" names="mean_input,mean_input:0">
					<dim>1</dim>
					<dim>3</dim>
				</port>
			</output>
		</layer>
		<layer id="262" name="Result_mean_input" type="Result" version="opset1">
			<input>
				<port id="0">
					<dim>1</dim>
					<dim>3</dim>
				</port>
			</input>
		</layer>
		<layer id="263" name="Relu_57" type="ReLU" version="opset1">
			<rt_info>
				<attribute name="fused_names" version="0" value="Relu_57"/>
			</rt_info>
			<input>
				<port id="0">
					<dim>1</dim>
					<dim>256</dim>
					<dim>13</dim>
					<dim>13</dim>
				</port>
			</input>
			<output>
				<port id="1" precision="FP32" names="108">
					<dim>1</dim>
					<dim>256</dim>
					<dim>13</dim>
					<dim>13</dim>
				</port>
			</output>
		</layer>
		<layer id="264" name="Relu_59" type="ReLU" version="opset1">
			<rt_info>
				<attribute name="fused_names" version="0" value="Relu_59"/>
			</rt_info>
			<input>
				<port id="0">
					<dim>1</dim>
					<dim>256</dim>
					<dim>13</dim>
					<dim>13</dim>
				</port>
			</input>
			<output>
				<port id="1" precision="FP32" names="110">
					<dim>1</dim>
					<dim>256</dim>
					<dim>13</dim>
					<dim>13</dim>
				</port>
			</output>
		</layer>
		<layer id="265" name="Concat_60" type="Concat" version="opset1">
			<data axis="1"/>
			<rt_info>
				<attribute name="fused_names" version="0" value="Concat_60"/>
			</rt_info>
			<input>
				<port id="0">
					<dim>1</dim>
					<dim>256</dim>
					<dim>13</dim>
					<dim>13</dim>
				</port>
				<port id="1">
					<dim>1</dim>
					<dim>256</dim>
					<dim>13</dim>
					<dim>13</dim>
				</port>
			</input>
			<output>
				<port id="2" precision="FP32" names="output">
					<dim>1</dim>
					<dim>512</dim>
					<dim>13</dim>
					<dim>13</dim>
				</port>
			</output>
		</layer>
		<layer id="266" name="output/sink_port_0" type="Result" version="opset1">
			<rt_info>
				<attribute name="fused_names" version="0" value="output/sink_port_0"/>
			</rt_info>
			<input>
				<port id="0">
					<dim>1</dim>
					<dim>512</dim>
					<dim>13</dim>
					<dim>13</dim>
				</port>
			</input>
		</layer>
	</layers>
	<edges>
		<edge from-layer="1" from-port="0" to-layer="3" to-port="0"/>
		<edge from-layer="2" from-port="0" to-layer="3" to-port="1"/>
		<edge from-layer="3" from-port="2" to-layer="4" to-port="0"/>
		<edge from-layer="0" from-port="0" to-layer="4" to-port="1"/>
		<edge from-layer="4" from-port="2" to-layer="5" to-port="0"/>
		<edge from-layer="5" from-port="1" to-layer="6" to-port="0"/>
		<edge from-layer="6" from-port="1" to-layer="13" to-port="0"/>
		<edge from-layer="12" from-port="0" to-layer="13" to-port="1"/>
		<edge from-layer="13" from-port="2" to-layer="14" to-port="0"/>
		<edge from-layer="11" from-port="0" to-layer="14" to-port="1"/>
		<edge from-layer="14" from-port="2" to-layer="15" to-port="0"/>
		<edge from-layer="15" from-port="1" to-layer="17" to-port="0"/>
		<edge from-layer="16" from-port="0" to-layer="17" to-port="1"/>
		<edge from-layer="17" from-port="2" to-layer="18" to-port="0"/>
		<edge from-layer="10" from-port="0" to-layer="18" to-port="1"/>
		<edge from-layer="18" from-port="2" to-layer="19" to-port="0"/>
		<edge from-layer="15" from-port="1" to-layer="22" to-port="0"/>
		<edge from-layer="21" from-port="0" to-layer="22" to-port="1"/>
		<edge from-layer="22" from-port="2" to-layer="23" to-port="0"/>
		<edge from-layer="20" from-port="0" to-layer="23" to-port="1"/>
		<edge from-layer="23" from-port="2" to-layer="24" to-port="0"/>
		<edge from-layer="19" from-port="1" to-layer="25" to-port="0"/>
		<edge from-layer="24" from-port="1" to-layer="25" to-port="1"/>
		<edge from-layer="25" from-port="2" to-layer="27" to-port="0"/>
		<edge from-layer="26" from-port="0" to-layer="27" to-port="1"/>
		<edge from-layer="27" from-port="2" to-layer="28" to-port="0"/>
		<edge from-layer="9" from-port="0" to-layer="28" to-port="1"/>
		<edge from-layer="28" from-port="2" to-layer="29" to-port="0"/>
		<edge from-layer="29" from-port="1" to-layer="31" to-port="0"/>
		<edge from-layer="30" from-port="0" to-layer="31" to-port="1"/>
		<edge from-layer="31" from-port="2" to-layer="32" to-port="0"/>
		<edge from-layer="8" from-port="0" to-layer="32" to-port="1"/>
		<edge from-layer="32" from-port="2" to-layer="33" to-port="0"/>
		<edge from-layer="29" from-port="1" to-layer="36" to-port="0"/>
		<edge from-layer="35" from-port="0" to-layer="36" to-port="1"/>
		<edge from-layer="36" from-port="2" to-layer="37" to-port="0"/>
		<edge from-layer="34" from-port="0" to-layer="37" to-port="1"/>
		<edge from-layer="37" from-port="2" to-layer="38" to-port="0"/>
		<edge from-layer="33" from-port="1" to-layer="39" to-port="0"/>
		<edge from-layer="38" from-port="1" to-layer="39" to-port="1"/>
		<edge from-layer="39" from-port="2" to-layer="40" to-port="0"/>
		<edge from-layer="40" from-port="1" to-layer="47" to-port="0"/>
		<edge from-layer="46" from-port="0" to-layer="47" to-port="1"/>
		<edge from-layer="47" from-port="2" to-layer="48" to-port="0"/>
		<edge from-layer="45" from-port="0" to-layer="48" to-port="1"/>
		<edge from-layer="48" from-port="2" to-layer="49" to-port="0"/>
		<edge from-layer="49" from-port="1" to-layer="51" to-port="0"/>
		<edge from-layer="50" from-port="0" to-layer="51" to-port="1"/>
		<edge from-layer="51" from-port="2" to-layer="52" to-port="0"/>
		<edge from-layer="44" from-port="0" to-layer="52" to-port="1"/>
		<edge from-layer="52" from-port="2" to-layer="53" to-port="0"/>
		<edge from-layer="49" from-port="1" to-layer="56" to-port="0"/>
		<edge from-layer="55" from-port="0" to-layer="56" to-port="1"/>
		<edge from-layer="56" from-port="2" to-layer="57" to-port="0"/>
		<edge from-layer="54" from-port="0" to-layer="57" to-port="1"/>
		<edge from-layer="57" from-port="2" to-layer="58" to-port="0"/>
		<edge from-layer="53" from-port="1" to-layer="59" to-port="0"/>
		<edge from-layer="58" from-port="1" to-layer="59" to-port="1"/>
		<edge from-layer="59" from-port="2" to-layer="61" to-port="0"/>
		<edge from-layer="60" from-port="0" to-layer="61" to-port="1"/>
		<edge from-layer="61" from-port="2" to-layer="62" to-port="0"/>
		<edge from-layer="43" from-port="0" to-layer="62" to-port="1"/>
		<edge from-layer="62" from-port="2" to-layer="63" to-port="0"/>
		<edge from-layer="63" from-port="1" to-layer="65" to-port="0"/>
		<edge from-layer="64" from-port="0" to-layer="65" to-port="1"/>
		<edge from-layer="65" from-port="2" to-layer="66" to-port="0"/>
		<edge from-layer="42" from-port="0" to-layer="66" to-port="1"/>
		<edge from-layer="66" from-port="2" to-layer="67" to-port="0"/>
		<edge from-layer="63" from-port="1" to-layer="70" to-port="0"/>
		<edge from-layer="69" from-port="0" to-layer="70" to-port="1"/>
		<edge from-layer="70" from-port="2" to-layer="71" to-port="0"/>
		<edge from-layer="68" from-port="0" to-layer="71" to-port="1"/>
		<edge from-layer="71" from-port="2" to-layer="72" to-port="0"/>
		<edge from-layer="67" from-port="1" to-layer="73" to-port="0"/>
		<edge from-layer="72" from-port="1" to-layer="73" to-port="1"/>
		<edge from-layer="73" from-port="2" to-layer="74" to-port="0"/>
		<edge from-layer="59" from-port="2" to-layer="77" to-port="0"/>
		<edge from-layer="76" from-port="0" to-layer="77" to-port="1"/>
		<edge from-layer="77" from-port="2" to-layer="78" to-port="0"/>
		<edge from-layer="74" from-port="1" to-layer="83" to-port="0"/>
		<edge from-layer="82" from-port="0" to-layer="83" to-port="1"/>
		<edge from-layer="83" from-port="2" to-layer="84" to-port="0"/>
		<edge from-layer="81" from-port="0" to-layer="84" to-port="1"/>
		<edge from-layer="84" from-port="2" to-layer="85" to-port="0"/>
		<edge from-layer="85" from-port="1" to-layer="87" to-port="0"/>
		<edge from-layer="86" from-port="0" to-layer="87" to-port="1"/>
		<edge from-layer="87" from-port="2" to-layer="88" to-port="0"/>
		<edge from-layer="80" from-port="0" to-layer="88" to-port="1"/>
		<edge from-layer="88" from-port="2" to-layer="89" to-port="0"/>
		<edge from-layer="85" from-port="1" to-layer="92" to-port="0"/>
		<edge from-layer="91" from-port="0" to-layer="92" to-port="1"/>
		<edge from-layer="92" from-port="2" to-layer="93" to-port="0"/>
		<edge from-layer="90" from-port="0" to-layer="93" to-port="1"/>
		<edge from-layer="93" from-port="2" to-layer="94" to-port="0"/>
		<edge from-layer="89" from-port="1" to-layer="95" to-port="0"/>
		<edge from-layer="94" from-port="1" to-layer="95" to-port="1"/>
		<edge from-layer="95" from-port="2" to-layer="96" to-port="0"/>
		<edge from-layer="79" from-port="0" to-layer="96" to-port="1"/>
		<edge from-layer="96" from-port="2" to-layer="97" to-port="0"/>
		<edge from-layer="95" from-port="2" to-layer="102" to-port="0"/>
		<edge from-layer="101" from-port="0" to-layer="102" to-port="1"/>
		<edge from-layer="102" from-port="2" to-layer="103" to-port="0"/>
		<edge from-layer="100" from-port="0" to-layer="103" to-port="1"/>
		<edge from-layer="103" from-port="2" to-layer="104" to-port="0"/>
		<edge from-layer="104" from-port="1" to-layer="106" to-port="0"/>
		<edge from-layer="105" from-port="0" to-layer="106" to-port="1"/>
		<edge from-layer="106" from-port="2" to-layer="107" to-port="0"/>
		<edge from-layer="99" from-port="0" to-layer="107" to-port="1"/>
		<edge from-layer="107" from-port="2" to-layer="108" to-port="0"/>
		<edge from-layer="104" from-port="1" to-layer="111" to-port="0"/>
		<edge from-layer="110" from-port="0" to-layer="111" to-port="1"/>
		<edge from-layer="111" from-port="2" to-layer="112" to-port="0"/>
		<edge from-layer="109" from-port="0" to-layer="112" to-port="1"/>
		<edge from-layer="112" from-port="2" to-layer="113" to-port="0"/>
		<edge from-layer="108" from-port="1" to-layer="114" to-port="0"/>
		<edge from-layer="113" from-port="1" to-layer="114" to-port="1"/>
		<edge from-layer="114" from-port="2" to-layer="115" to-port="0"/>
		<edge from-layer="98" from-port="0" to-layer="115" to-port="1"/>
		<edge from-layer="115" from-port="2" to-layer="116" to-port="0"/>
		<edge from-layer="114" from-port="2" to-layer="121" to-port="0"/>
		<edge from-layer="120" from-port="0" to-layer="121" to-port="1"/>
		<edge from-layer="121" from-port="2" to-layer="122" to-port="0"/>
		<edge from-layer="119" from-port="0" to-layer="122" to-port="1"/>
		<edge from-layer="122" from-port="2" to-layer="123" to-port="0"/>
		<edge from-layer="123" from-port="1" to-layer="125" to-port="0"/>
		<edge from-layer="124" from-port="0" to-layer="125" to-port="1"/>
		<edge from-layer="125" from-port="2" to-layer="126" to-port="0"/>
		<edge from-layer="118" from-port="0" to-layer="126" to-port="1"/>
		<edge from-layer="126" from-port="2" to-layer="127" to-port="0"/>
		<edge from-layer="123" from-port="1" to-layer="130" to-port="0"/>
		<edge from-layer="129" from-port="0" to-layer="130" to-port="1"/>
		<edge from-layer="130" from-port="2" to-layer="131" to-port="0"/>
		<edge from-layer="128" from-port="0" to-layer="131" to-port="1"/>
		<edge from-layer="131" from-port="2" to-layer="132" to-port="0"/>
		<edge from-layer="127" from-port="1" to-layer="133" to-port="0"/>
		<edge from-layer="132" from-port="1" to-layer="133" to-port="1"/>
		<edge from-layer="133" from-port="2" to-layer="134" to-port="0"/>
		<edge from-layer="117" from-port="0" to-layer="134" to-port="1"/>
		<edge from-layer="134" from-port="2" to-layer="135" to-port="0"/>
		<edge from-layer="25" from-port="2" to-layer="137" to-port="0"/>
		<edge from-layer="136" from-port="0" to-layer="137" to-port="1"/>
		<edge from-layer="137" from-port="2" to-layer="138" to-port="0"/>
		<edge from-layer="4" from-port="2" to-layer="140" to-port="0"/>
		<edge from-layer="139" from-port="0" to-layer="140" to-port="1"/>
		<edge from-layer="140" from-port="2" to-layer="141" to-port="0"/>
		<edge from-layer="28" from-port="2" to-layer="143" to-port="0"/>
		<edge from-layer="142" from-port="0" to-layer="143" to-port="1"/>
		<edge from-layer="143" from-port="2" to-layer="144" to-port="0"/>
		<edge from-layer="32" from-port="2" to-layer="146" to-port="0"/>
		<edge from-layer="145" from-port="0" to-layer="146" to-port="1"/>
		<edge from-layer="146" from-port="2" to-layer="147" to-port="0"/>
		<edge from-layer="37" from-port="2" to-layer="149" to-port="0"/>
		<edge from-layer="148" from-port="0" to-layer="149" to-port="1"/>
		<edge from-layer="149" from-port="2" to-layer="150" to-port="0"/>
		<edge from-layer="48" from-port="2" to-layer="152" to-port="0"/>
		<edge from-layer="151" from-port="0" to-layer="152" to-port="1"/>
		<edge from-layer="152" from-port="2" to-layer="153" to-port="0"/>
		<edge from-layer="52" from-port="2" to-layer="155" to-port="0"/>
		<edge from-layer="154" from-port="0" to-layer="155" to-port="1"/>
		<edge from-layer="155" from-port="2" to-layer="156" to-port="0"/>
		<edge from-layer="57" from-port="2" to-layer="158" to-port="0"/>
		<edge from-layer="157" from-port="0" to-layer="158" to-port="1"/>
		<edge from-layer="158" from-port="2" to-layer="159" to-port="0"/>
		<edge from-layer="62" from-port="2" to-layer="161" to-port="0"/>
		<edge from-layer="160" from-port="0" to-layer="161" to-port="1"/>
		<edge from-layer="161" from-port="2" to-layer="162" to-port="0"/>
		<edge from-layer="66" from-port="2" to-layer="164" to-port="0"/>
		<edge from-layer="163" from-port="0" to-layer="164" to-port="1"/>
		<edge from-layer="164" from-port="2" to-layer="165" to-port="0"/>
		<edge from-layer="71" from-port="2" to-layer="167" to-port="0"/>
		<edge from-layer="166" from-port="0" to-layer="167" to-port="1"/>
		<edge from-layer="167" from-port="2" to-layer="168" to-port="0"/>
		<edge from-layer="14" from-port="2" to-layer="170" to-port="0"/>
		<edge from-layer="169" from-port="0" to-layer="170" to-port="1"/>
		<edge from-layer="170" from-port="2" to-layer="171" to-port="0"/>
		<edge from-layer="84" from-port="2" to-layer="173" to-port="0"/>
		<edge from-layer="172" from-port="0" to-layer="173" to-port="1"/>
		<edge from-layer="173" from-port="2" to-layer="174" to-port="0"/>
		<edge from-layer="88" from-port="2" to-layer="176" to-port="0"/>
		<edge from-layer="175" from-port="0" to-layer="176" to-port="1"/>
		<edge from-layer="176" from-port="2" to-layer="177" to-port="0"/>
		<edge from-layer="93" from-port="2" to-layer="179" to-port="0"/>
		<edge from-layer="178" from-port="0" to-layer="179" to-port="1"/>
		<edge from-layer="179" from-port="2" to-layer="180" to-port="0"/>
		<edge from-layer="103" from-port="2" to-layer="182" to-port="0"/>
		<edge from-layer="181" from-port="0" to-layer="182" to-port="1"/>
		<edge from-layer="182" from-port="2" to-layer="183" to-port="0"/>
		<edge from-layer="107" from-port="2" to-layer="185" to-port="0"/>
		<edge from-layer="184" from-port="0" to-layer="185" to-port="1"/>
		<edge from-layer="185" from-port="2" to-layer="186" to-port="0"/>
		<edge from-layer="112" from-port="2" to-layer="188" to-port="0"/>
		<edge from-layer="187" from-port="0" to-layer="188" to-port="1"/>
		<edge from-layer="188" from-port="2" to-layer="189" to-port="0"/>
		<edge from-layer="122" from-port="2" to-layer="191" to-port="0"/>
		<edge from-layer="190" from-port="0" to-layer="191" to-port="1"/>
		<edge from-layer="191" from-port="2" to-layer="192" to-port="0"/>
		<edge from-layer="126" from-port="2" to-layer="194" to-port="0"/>
		<edge from-layer="193" from-port="0" to-layer="194" to-port="1"/>
		<edge from-layer="194" from-port="2" to-layer="195" to-port="0"/>
		<edge from-layer="18" from-port="2" to-layer="197" to-port="0"/>
		<edge from-layer="196" from-port="0" to-layer="197" to-port="1"/>
		<edge from-layer="197" from-port="2" to-layer="198" to-port="0"/>
		<edge from-layer="131" from-port="2" to-layer="200" to-port="0"/>
		<edge from-layer="199" from-port="0" to-layer="200" to-port="1"/>
		<edge from-layer="200" from-port="2" to-layer="201" to-port="0"/>
		<edge from-layer="133" from-port="2" to-layer="205" to-port="0"/>
		<edge from-layer="204" from-port="0" to-layer="205" to-port="1"/>
		<edge from-layer="205" from-port="2" to-layer="206" to-port="0"/>
		<edge from-layer="203" from-port="0" to-layer="206" to-port="1"/>
		<edge from-layer="206" from-port="2" to-layer="207" to-port="0"/>
		<edge from-layer="202" from-port="0" to-layer="207" to-port="1"/>
		<edge from-layer="207" from-port="2" to-layer="208" to-port="0"/>
		<edge from-layer="206" from-port="2" to-layer="211" to-port="0"/>
		<edge from-layer="211" from-port="1" to-layer="213" to-port="0"/>
		<edge from-layer="212" from-port="0" to-layer="213" to-port="1"/>
		<edge from-layer="213" from-port="2" to-layer="214" to-port="0"/>
		<edge from-layer="210" from-port="0" to-layer="214" to-port="1"/>
		<edge from-layer="214" from-port="2" to-layer="215" to-port="0"/>
		<edge from-layer="209" from-port="0" to-layer="215" to-port="1"/>
		<edge from-layer="215" from-port="2" to-layer="216" to-port="0"/>
		<edge from-layer="211" from-port="1" to-layer="220" to-port="0"/>
		<edge from-layer="219" from-port="0" to-layer="220" to-port="1"/>
		<edge from-layer="220" from-port="2" to-layer="221" to-port="0"/>
		<edge from-layer="218" from-port="0" to-layer="221" to-port="1"/>
		<edge from-layer="221" from-port="2" to-layer="222" to-port="0"/>
		<edge from-layer="217" from-port="0" to-layer="222" to-port="1"/>
		<edge from-layer="222" from-port="2" to-layer="223" to-port="0"/>
		<edge from-layer="23" from-port="2" to-layer="225" to-port="0"/>
		<edge from-layer="224" from-port="0" to-layer="225" to-port="1"/>
		<edge from-layer="225" from-port="2" to-layer="226" to-port="0"/>
		<edge from-layer="40" from-port="1" to-layer="228" to-port="0"/>
		<edge from-layer="227" from-port="0" to-layer="228" to-port="1"/>
		<edge from-layer="228" from-port="2" to-layer="229" to-port="0"/>
		<edge from-layer="6" from-port="1" to-layer="231" to-port="0"/>
		<edge from-layer="230" from-port="0" to-layer="231" to-port="1"/>
		<edge from-layer="231" from-port="2" to-layer="232" to-port="0"/>
		<edge from-layer="74" from-port="1" to-layer="234" to-port="0"/>
		<edge from-layer="233" from-port="0" to-layer="234" to-port="1"/>
		<edge from-layer="234" from-port="2" to-layer="235" to-port="0"/>
		<edge from-layer="29" from-port="1" to-layer="237" to-port="0"/>
		<edge from-layer="236" from-port="0" to-layer="237" to-port="1"/>
		<edge from-layer="237" from-port="2" to-layer="238" to-port="0"/>
		<edge from-layer="49" from-port="1" to-layer="240" to-port="0"/>
		<edge from-layer="239" from-port="0" to-layer="240" to-port="1"/>
		<edge from-layer="240" from-port="2" to-layer="241" to-port="0"/>
		<edge from-layer="63" from-port="1" to-layer="243" to-port="0"/>
		<edge from-layer="242" from-port="0" to-layer="243" to-port="1"/>
		<edge from-layer="243" from-port="2" to-layer="244" to-port="0"/>
		<edge from-layer="85" from-port="1" to-layer="246" to-port="0"/>
		<edge from-layer="245" from-port="0" to-layer="246" to-port="1"/>
		<edge from-layer="246" from-port="2" to-layer="247" to-port="0"/>
		<edge from-layer="104" from-port="1" to-layer="249" to-port="0"/>
		<edge from-layer="248" from-port="0" to-layer="249" to-port="1"/>
		<edge from-layer="249" from-port="2" to-layer="250" to-port="0"/>
		<edge from-layer="123" from-port="1" to-layer="252" to-port="0"/>
		<edge from-layer="251" from-port="0" to-layer="252" to-port="1"/>
		<edge from-layer="252" from-port="2" to-layer="253" to-port="0"/>
		<edge from-layer="15" from-port="1" to-layer="255" to-port="0"/>
		<edge from-layer="254" from-port="0" to-layer="255" to-port="1"/>
		<edge from-layer="255" from-port="2" to-layer="256" to-port="0"/>
		<edge from-layer="211" from-port="1" to-layer="258" to-port="0"/>
		<edge from-layer="257" from-port="0" to-layer="258" to-port="1"/>
		<edge from-layer="258" from-port="2" to-layer="259" to-port="0"/>
		<edge from-layer="1" from-port="0" to-layer="261" to-port="0"/>
		<edge from-layer="260" from-port="0" to-layer="261" to-port="1"/>
		<edge from-layer="261" from-port="2" to-layer="262" to-port="0"/>
		<edge from-layer="214" from-port="2" to-layer="263" to-port="0"/>
		<edge from-layer="221" from-port="2" to-layer="264" to-port="0"/>
		<edge from-layer="263" from-port="1" to-layer="265" to-port="0"/>
		<edge from-layer="264" from-port="1" to-layer="265" to-port="1"/>
		<edge from-layer="265" from-port="2" to-layer="266" to-port="0"/>
	</edges>
	<meta_data>
		<MO_version value="custom_master_ab8c2f6fd8ac9088a90f1009f8842498c7bda197"/>
		<Runtime_version value="custom_master_ab8c2f6fd8ac9088a90f1009f8842498c7bda197"/>
		<legacy_path value="True"/>
		<cli_parameters>
			<caffe_parser_path value="DIR"/>
			<compress_fp16 value="False"/>
			<data_type value="FP32"/>
			<disable_nhwc_to_nchw value="False"/>
			<disable_omitting_optional value="False"/>
			<disable_resnet_optimization value="False"/>
			<disable_weights_compression value="False"/>
			<enable_concat_optimization value="False"/>
			<enable_flattening_nested_params value="False"/>
			<enable_ssd_gluoncv value="False"/>
			<extensions value="DIR"/>
			<framework value="onnx"/>
			<freeze_placeholder_with_value value="{}"/>
			<input_model value="DIR/squeezenet1_1_example.onnx"/>
			<input_model_is_text value="False"/>
			<k value="DIR/CustomLayersMapping.xml"/>
			<layout value="()"/>
			<layout_values value="{}"/>
			<legacy_mxnet_model value="False"/>
			<log_level value="ERROR"/>
			<mean_scale_values value="{}"/>
			<mean_values value="()"/>
			<model_name value="squeezenet1_1_example"/>
			<output_dir value="DIR"/>
			<placeholder_data_types value="{}"/>
			<progress value="False"/>
			<remove_memory value="False"/>
			<remove_output_softmax value="False"/>
			<reverse_input_channels value="False"/>
			<save_params_from_nd value="False"/>
			<scale_values value="()"/>
			<silent value="False"/>
			<source_layout value="()"/>
			<static_shape value="False"/>
			<stream_output value="False"/>
			<target_layout value="()"/>
			<transform value=""/>
			<use_legacy_frontend value="False"/>
			<use_new_frontend value="False"/>
			<unset unset_cli_parameters="batch, counts, disable_fusing, finegrain_fusing, input, input_checkpoint, input_meta_graph, input_proto, input_shape, input_symbol, mean_file, mean_file_offsets, nd_prefix_name, output, placeholder_shapes, pretrained_model_name, saved_model_dir, saved_model_tags, scale, tensorboard_logdir, tensorflow_custom_layer_libraries, tensorflow_custom_operations_config_update, tensorflow_object_detection_api_pipeline_config, tensorflow_use_custom_operations_config, transformations_config"/>
		</cli_parameters>
	</meta_data>
	<quantization_parameters>
		<config/>
		<version value="{}"/>
		<cli_params value="{}"/>
	</quantization_parameters>
</net>
